dqn-exp/savedir/student/checkpoint2000--model.pth (torch_old, 20763 bytes, 6 tensors)

linears.0.weight f4 [64, 6]
000000 d8 37 d1 bd 43 3b 16 be e0 cd 0d 3d 0d b8 8a bd
       -0.102157295 -0.14671044 0.034620166 -0.06773386
000010 2c 04 c0 3e 26 6c 35 3e 99 f5 a0 39 62 9a 40 be
       0.37503183 0.17717037 0.00030700563 -0.18808892
000020 46 e4 11 3c 8c 4a 38 3b a6 25 55 bc 16 d4 90 3f
       0.008904522 0.0028120605 -0.013009464 1.1314723
000030 86 9c 0e be bf 77 d6 bd 03 23 52 3e d8 c9 e6 bc
       -0.13926896 -0.104720585 0.20521168 -0.028172418
000040 64 a8 80 3e d8 f4 13 3e 95 01 0d 3e 2a d1 31 3e
       0.25128472 0.14448869 0.13770135 0.17364946
000050 3a 9e 0f bd 0c b9 3c 3d 7d ea 4f be 70 ed 7c be
       -0.035063006 0.046074912 -0.20304294 -0.2469995
000060 a3 fa 37 3e a9 30 4c 3d 40 09 97 3a e9 d7 34 3d
       0.17966704 0.049851093 0.0011523142 0.04415122
000070 4e b7 1d bf 2f fa 46 be e4 c7 0f 3c 8c 82 44 3e
       -0.61607826 -0.19431375 0.008775685 0.19190425
000080 fd 9b ff bb e3 be 7a bc 29 f9 83 bc 65 f8 3f bf
       -0.0078005777 -0.0153043 -0.01611002 -0.74988395
000090 e9 8a 17 bd 77 ad 31 be 28 53 81 3c 6f 83 da 3c
       -0.03699771 -0.17351328 0.015786722 0.026674
0000a0 14 3e 65 bc 1c 93 39 3f 2a de 64 be a4 eb 3c be
       -0.013991851 0.72490096 -0.22350374 -0.18449265
0000b0 9a 08 55 3d 3d ec ba ba 8b f0 23 3f 37 47 8f 3e
       0.052010156 -0.0014261078 0.64038914 0.2798402
0000c0 d1 0c 8a 3d 07 3b 0a be 72 d5 eb bc ab 32 31 3d
       0.06740726 -0.1349908 -0.028788302 0.04326121
0000d0 b1 27 43 be 56 2d 7b 3e a8 9b 9b bd 5e ac 03 3e
       -0.1905811 0.24529013 -0.075980484 0.12858722
0000e0 9f d5 3a 3e 67 ed f1 bd ce 51 41 3e 11 86 2b be
       0.18245552 -0.11812859 0.18878862 -0.16750361
0000f0 08 5f be bb 25 39 e8 bd 40 ee ce 3b 27 86 62 3d
       -0.0058096685 -0.113390245 0.0063150227 0.05530372
000100 6d 4f 18 3d 8a a4 14 3f 58 9b bb 3d 86 be b8 bb
       0.03718512 0.58063567 0.09160489 -0.0056379465
000110 e1 62 52 be 05 d0 d1 3d 23 00 bd be 0f 11 90 3e
       -0.20545532 0.10244755 -0.36914167 0.28138015
000120 bf 5d 3e bd 98 7e b8 3d 2c 68 9c bb 26 d4 20 3d
       -0.046476122 0.09008521 -0.0047731604 0.03926482
000130 65 70 9c ba 3e 1d f1 be e8 ad f5 bd ee 77 8c bd
       -0.0011935352 -0.47092623 -0.119960606 -0.06858812
000140 63 ac ca be cf 5e 0d 3d 0d a7 b1 be 99 97 80 3e
       -0.39584646 0.034514245 -0.34697762 0.2511566
000150 4c 99 2f 3e b1 2e 61 bc 7f b7 74 be 90 a8 29 bc
       0.17148322 -0.013744042 -0.23898123 -0.01035513
000160 f7 f3 87 be 1c 66 88 be e7 24 36 3e cb 62 6a 3e
       -0.26553318 -0.26640403 0.17787515 0.22889249
000170 e2 3a 21 be 67 27 c7 bd 6d fb 13 bd e9 5f 73 be
       -0.15745118 -0.09724312 -0.03612845 -0.23767056
000180 21 7e 17 3e 15 3c e2 3b 38 43 0f 3d 11 2d 95 3b
       0.14794208 0.006904135 0.034976214 0.0045524915
000190 4d 19 24 bf 5d 6b 4a 3c 52 63 6a 3e 95 13 40 3c
       -0.64101106 0.012354699 0.2288945 0.011723419
0001a0 5f a9 73 3c 00 5a 88 bc b5 9f 53 bf c9 3d b1 bc
       0.014871924 -0.016644478 -0.8266557 -0.021635907
0001b0 ee 2c 4d 3e c3 46 0a bc 94 b9 ee 3b 06 b6 53 bb
       0.2003667 -0.0084397225 0.007285306 -0.003230454
0001c0 0c 04 7a bf fb 1e f9 3b 83 0e e9 bd 3e 2f 0b 3e
       -0.97662425 0.00760257 -0.11379721 0.1359224
0001d0 ed f8 1c bb b4 58 19 bd 49 32 73 3e 04 69 1d be
       -0.0023952082 -0.03743811 0.23749651 -0.15372092
0001e0 98 88 74 bc 91 47 3a 3e b7 dc 4e 3c fe ee ac be
       -0.014925145 0.18191363 0.012625865 -0.33776087
0001f0 70 fe ed 3d 90 33 54 3d ac 3e bc bd d0 9f 8a 3d
       0.11620796 0.051806986 -0.09191641 0.06768763
000200 6f 7c d4 3c e4 a0 18 be 40 eb 37 bd e8 11 1e be
       0.02593824 -0.14905125 -0.044902086 -0.15436518
000210 e2 06 1e be b3 c4 c3 3b e7 ad 0a 3b d9 fe 87 bb
       -0.15432313 0.005974376 0.0021160783 -0.0041502533
000220 8c 4d 84 3f bc 57 41 bc 68 4c 5f bb 31 21 fd 3d
       1.0336165 -0.011800703 -0.0034072641 0.123598464
000230 c2 11 dd ba a4 2a 12 3b 2b a8 1e 3c 93 c3 60 bf
       -0.0016866254 0.0022303248 0.009683649 -0.8779842
000240 ad 69 98 bd 1f b7 39 3e 40 4c 22 3d 07 a6 57 3d
       -0.07442031 0.18136261 0.0396235 0.05264857
000250 8d 0a c6 3d 48 ff d0 be 37 58 dd bd 84 bc 9b 3d
       0.09669981 -0.40819764 -0.10807841 0.07604316
000260 66 e0 8a bc 55 fa 89 3c bd 77 df 3e 18 2b 50 be
       -0.016952705 0.016843 0.4364604 -0.20328939
000270 2d 17 fb bd b5 59 0d 3e 91 c8 98 3d 1f ac 7f 3d
       -0.1226028 0.13803752 0.0746013 0.062420007
000280 22 d4 4c 3e 96 76 41 be b6 0b 56 be 49 91 b1 bb
       0.20002797 -0.18892893 -0.20902905 -0.0054189307
000290 b6 26 93 b9 50 03 5c 3b a5 70 81 3f 63 ff a9 3c
       -0.00028066867 0.003357131 1.0112501 0.02075166
0002a0 d1 81 7f 3b 5f 77 c9 bd 71 2c d4 3d dd 23 2c be
       0.0038987289 -0.09837221 0.10360039 -0.16810556
0002b0 e8 b0 a7 bc 79 dd 35 3d dc 3d 3e 3d 84 1a c7 bd
       -0.020470098 0.044400666 0.046445712 -0.09721854
0002c0 95 28 d3 3a 46 f5 df 3c 78 80 98 bd 7a f1 57 be
       0.0016110117 0.027338635 -0.074463785 -0.2108821
0002d0 21 2f 9f bb 67 5c 1f 3e ac ff fc 3a 77 75 1d bb
       -0.004857913 0.15562592 0.001930227 -0.0024026313
0002e0 23 d2 e4 bb df 65 3f bf b8 13 a4 3d d6 e3 ae 3c
       -0.006983058 -0.7476482 0.080115736 0.021348875
0002f0 42 09 65 bd 0f b8 5d bc f8 0a 48 3d 2c 2f 94 3d
       -0.055917032 -0.0135326525 0.048838586 0.0723556
000300 42 98 95 3c 89 25 84 bd 1d fa ef bd 7d 49 15 bd
       0.018261079 -0.06452472 -0.11717627 -0.036447037
000310 9b 52 1e bd 1d fd 03 3e 9f f3 5b 3e 93 73 ea bd
       -0.038652997 0.12889524 0.21479653 -0.11447825
000320 60 f3 e8 bd 70 e8 68 3e f8 05 3e be 09 0d a3 3e
       -0.11374545 0.22744918 -0.18556964 0.31845883
000330 3a a3 08 bd c5 0b 95 3c 0b 32 78 3c fd 37 87 bc
       -0.03335879 0.018194089 0.01514865 -0.01650619
000340 5c d6 23 3f 62 d3 ff 3e e8 31 27 3d 21 f7 01 3d
       0.6399896 0.4996596 0.04081908 0.03172982
000350 6d ad b7 3e 89 5f 49 3e 2f 3d 6f 3d 8f a6 3c 3e
       0.358745 0.1966535 0.05840796 0.18422912
000360 2d 41 3a 3d 5f a6 f9 3d 6d 10 c5 3c 80 b9 b3 bc
       0.045472313 0.12189936 0.024055684 -0.02193904
000370 3d 15 d0 bd 19 d6 c3 be 77 2d d2 bb 10 c3 8a bd
       -0.10160301 -0.3824928 -0.0064141112 -0.067754865
000380 a9 82 e7 3d 62 88 0e be a6 01 03 be 36 ab fd bc
       0.11304218 -0.13919213 -0.12793598 -0.030965429
000390 92 65 12 3d 9a e9 89 3d 20 12 3a be 92 fb a7 3d
       0.035741396 0.06734009 -0.18170977 0.0820228
0003a0 30 8b 9b bd aa 5f 07 3e c3 f7 30 3c b1 8c ce 3d
       -0.07594907 0.13220087 0.0108012585 0.100854285
0003b0 fa ff 4a bb b3 15 a9 bd 3b f1 67 3e 6e 45 8b be
       -0.0030975328 -0.08256092 0.22650616 -0.27201408
0003c0 9a d0 1d 3e e4 ac e4 3c 18 18 67 3d b6 c4 69 bd
       0.15411606 0.027914472 0.056419462 -0.057072364
0003d0 cd a3 f4 be ea d8 8d bc 9a 89 b8 bd e5 53 f6 bb
       -0.4778122 -0.017315347 -0.090106204 -0.007517325
0003e0 4e 04 6d 3e 1c 21 1a bb eb d5 9d 3e 46 61 69 bc
       0.23146173 -0.002351827 0.3082727 -0.014244383
0003f0 79 84 88 bd 02 f2 ef 3d 83 46 54 3d aa 5b 9f bd
       -0.06665892 0.11716081 0.051825058 -0.077811554

linears.0.bias f4 [64]
000000 72 e3 52 bf 25 56 0e 3e b5 71 18 3f 43 32 ae be
       -0.82378304 0.13900049 0.59548503 -0.34022722
000010 33 67 e6 3e 4f 16 ea be 47 f0 e9 be 22 7a 47 bf
       0.4500061 -0.45720145 -0.4569113 -0.77920735
000020 71 7f 36 3e 8b b6 fa be 13 50 22 bf 71 ed 2d 3f
       0.17822053 -0.48967394 -0.63403434 0.6794043
000030 d6 21 fe be 77 af f2 be 6e 0e de be 0f a3 9b be
       -0.4963519 -0.47399494 -0.43370384 -0.3039784
000040 0e ce 0b bf 71 40 b1 be 4b 76 2c 3e 57 72 dd 3e
       -0.5461129 -0.34619477 0.16842 0.43251297
000050 d8 0b 22 bf 06 4e ee 3e 3f b4 36 bb 22 45 c6 3d
       -0.6329932 0.46543902 -0.002787843 0.09681155
000060 57 54 31 3f 3f 2d 03 bf d9 1a 2a bf e0 6d 26 3e
       0.6926932 -0.51240915 -0.66447216 0.16252851
000070 4d c5 03 bf 52 2d 0e be 35 5c 83 be a7 8a 0c 3f
       -0.5147293 -0.13884476 -0.25656286 0.54899067
000080 aa 0f ec 3e 52 f4 27 bf 1c c9 19 bd 43 fa e7 be
       0.461057 -0.6560718 -0.03754531 -0.45308122
000090 1d ac 21 bf e7 b1 0a 3f 4a a9 70 be b0 48 e3 3e
       -0.6315325 0.5417771 -0.23502079 0.44391394
0000a0 44 7b 25 bf e3 38 0e 3d 20 d1 6f be be 75 83 be
       -0.64641213 0.03472222 -0.23419619 -0.25675768
0000b0 86 a9 88 be 33 9b 88 bd e6 71 15 bf 7a 58 2e bf
       -0.26691836 -0.06670227 -0.5837692 -0.68103755
0000c0 38 19 83 3b bf f2 67 bf 22 81 49 be c6 ce d4 3e
       0.004000809 -0.90604776 -0.19678167 0.41564006
0000d0 02 5f 08 bf d8 5f 30 bf ea ee 0e 3f ab e2 63 be
       -0.5326997 -0.68896246 0.55833304 -0.22254436
0000e0 ad c2 01 be ed a3 7d 3e 1e 0c 39 bf 88 8b 29 bf
       -0.12671919 0.24769564 -0.72284114 -0.6622853
0000f0 fd 91 c8 bb 60 04 e4 3e 38 54 03 bf 58 6b 0a 3f
       -0.006120919 0.44534588 -0.5130038 0.54070044

linears.1.weight f4 [64, 64]
000000 f4 e5 ce 3c 7e 80 fc bd 67 c6 f8 3d c5 4b 01 be
       0.025256135 -0.123291954 0.12147217 -0.1262656
000010 32 9b 2c 3d 31 63 b6 3e a9 32 a3 3d 68 0c 2a bd
       0.042140193 0.35622552 0.07968647 -0.041515738
000020 ae 25 0c be 9c 9b ee bd 27 88 81 3e 14 1e 48 bd
       -0.13686249 -0.11650774 0.25299188 -0.04885681
000030 cd 1d 92 3e e7 5c 92 3e 48 b4 86 3d e3 85 a8 bd
       0.2853836 0.28586504 0.06577355 -0.08228662
000040 9a 98 88 3e ac 3c c7 3b 89 61 2a 3e 46 51 a8 bd
       0.26678926 0.0060802307 0.16638769 -0.08218627
000050 b8 7f f5 bc 43 23 0a be c2 a6 27 3e 04 19 98 3e
       -0.029968128 -0.13490014 0.16372207 0.29706585
000060 c7 93 00 3e d2 1d d0 3d 41 36 72 be 73 7d 40 3e
       0.12556373 0.10161938 -0.23653509 0.18797855
000070 59 65 89 bd ac 77 23 bd 58 94 ea 3e fd bf 1a bd
       -0.06708784 -0.03990905 0.45816302 -0.03778075
000080 bd 17 87 3e c5 6c a0 bd f9 60 f4 3d 7b 9f 11 3e
       0.26385298 -0.07833246 0.119325586 0.14220993
000090 b5 cb 65 3e e2 10 a2 3c 7f 53 ad bd 34 72 dc 3d
       0.2244099 0.019783441 -0.08463191 0.1076397
0000a0 99 5a b6 3d 58 7e ce 3c 2a 46 e9 3d db c2 51 3e
       0.08903999 0.02520673 0.11390336 0.20484488
0000b0 7e b2 a8 be de ba 4f be 74 b7 b3 3d fb 10 86 3e
       -0.3294868 -0.20286128 0.08775225 0.2618483
0000c0 78 06 3c 3e f7 20 05 bc 11 9e 1e be e9 6b 0c be
       0.18361843 -0.008125535 -0.15489985 -0.1371304
0000d0 56 f3 23 be b8 d6 67 3e ba b4 06 3e c9 12 a5 bd
       -0.16010794 0.22640502 0.13154879 -0.080602236
0000e0 7e 42 87 bd 98 53 09 be 1f 5a 2f 3e 09 3f d7 bd
       -0.06604479 -0.13410795 0.17124222 -0.1051007
0000f0 b3 3e 94 3c 0a 89 de 3d 3a ce 84 3e e1 eb 27 3e
       0.018096304 0.10865982 0.25938588 0.16398574
000100 d8 16 c8 be c0 13 1b bf b5 55 9b 3d b8 16 0d 3e
       -0.39079928 -0.6057701 0.07584707 0.13778198
000110 6c 92 12 bd 26 58 49 bd 2c 45 d8 be 75 90 5c be
       -0.03578417 -0.04915633 -0.42240274 -0.21539481
000120 8a c9 71 bd d3 b6 69 bb ec 15 99 be 86 83 1c 3c
       -0.059030093 -0.003566195 -0.29899538 0.009552842
000130 d7 13 12 3e 1b c1 74 3d 31 b3 89 3d e6 a7 73 3e
       0.14265381 0.059754472 0.06723631 0.23794517
000140 eb 25 a7 be 79 5f 60 be d5 e0 18 be 18 c0 0d 3e
       -0.32646117 -0.2191142 -0.14929517 0.13842809
000150 43 57 3a 3d 00 a1 44 3d 73 e5 ad be 11 51 29 3e
       0.045493376 0.048005104 -0.33964118 0.1653483
000160 6a 29 4b bd 00 d6 17 be ed a1 be be 2e 6e 23 be
       -0.049600042 -0.14827728 -0.37232915 -0.15959999
000170 74 ee 3b 3b 38 6c cd 3e ce b6 00 be 98 cb 53 bd
       0.0028676065 0.40121627 -0.12569734 -0.051707834
000180 02 f8 74 3c 88 b3 c8 be 80 a2 a3 bc 70 07 05 3e
       0.014951708 -0.3919947 -0.019974947 0.12991118
000190 8f de 6a be 06 e7 49 3d da 0b 95 bc 9e c7 49 3e
       -0.22936462 0.049292587 -0.018194128 0.19705054
0001a0 37 b0 26 be df e7 8e 3d 15 a9 2f 3e ac e1 d7 be
       -0.16278158 0.0697782 0.17154343 -0.4216436
0001b0 1f 94 ae 3c 83 17 93 3e 13 fc 8f bd 0c 31 28 be
       0.021310864 0.28728876 -0.07030501 -0.1642496
0001c0 7c 3f 45 3e 68 b4 1d be 4f a1 54 3b a6 e9 cf 3d
       0.19262499 -0.15400851 0.003244478 0.10151987
0001d0 06 76 22 be 76 9e 8c be fc 35 35 bd 24 c7 e9 3d
       -0.15865335 -0.27464646 -0.044240937 0.11414936
0001e0 13 df 11 3e 44 94 bc bd 24 cf 2a be 89 02 f2 3c
       0.14245252 -0.09207967 -0.1668058 0.029542224
0001f0 70 4a ca 3d 52 65 c0 3c aa e2 a5 3d e3 5d 87 3d
       0.09877479 0.023485813 0.08099873 0.06609704
000200 b4 96 a8 3d e1 a7 88 bd 05 13 f8 bd 48 78 1d bd
       0.08231869 -0.06672645 -0.12113003 -0.038444787
000210 e2 de e0 bd 84 99 2d be ea 9c 7c bd 66 2c aa 3d
       -0.109800115 -0.16953093 -0.061673082 0.083092496
000220 fe c0 c2 bc 48 7b 93 3d c4 3b eb bd 8d 60 6f bd
       -0.023773666 0.072012484 -0.11486009 -0.058441687
000230 69 ff 14 be 08 bf 20 be e6 8e 00 3e 7b 07 3d 3c
       -0.14550556 -0.15697873 0.12554511 0.011537428
000240 c3 2a 4f be 2c a7 32 be 79 ba 34 bd d2 49 15 3d
       -0.20231156 -0.17446584 -0.044123147 0.036447354
000250 f4 3a 01 3d a4 25 03 be c4 d0 91 bd 2c 31 df 3c
       0.031550363 -0.12807328 -0.07119897 0.027245127
000260 56 82 e8 bd 78 7e 89 be 0b 61 34 3e c8 0e 9b bd
       -0.113529846 -0.268543 0.17615144 -0.07571179
000270 0b cb e8 bd 07 b2 9a bb f6 1b a0 bd ba 05 f9 bd
       -0.113668524 -0.0047209295 -0.07817833 -0.121592954
000280 54 85 98 be 54 64 0f 3e 75 43 ff bd 2a 81 59 bd
       -0.2978922 0.14003116 -0.12464038 -0.053101696
000290 15 9c 19 bd 2c 34 c0 bd d1 c8 99 3c 4a ee fd bd
       -0.037502367 -0.09384951 0.018772515 -0.12398966
0002a0 aa 82 04 3d 93 b0 d3 bd 3a e9 db bd c0 f5 a3 be
       0.032351173 -0.10336413 -0.10737844 -0.3202343
0002b0 2d b7 11 3e 2f ba e7 3d 07 fb c9 bd dd d4 04 bd
       0.14230032 0.113148086 -0.09862333 -0.032429565
0002c0 3e 78 e0 bd 32 6a 2d bc c7 5a a7 bd 80 76 26 be
       -0.109604344 -0.010584401 -0.08171611 -0.16256142
0002d0 fa c3 39 bc 4d 07 31 bd 86 ce 52 be 02 c6 e6 bd
       -0.011338228 -0.043219853 -0.20586595 -0.11268236
0002e0 47 7e 2e 3d f4 b8 41 bd fa 04 cc bd 95 61 03 bc
       0.042600896 -0.047295526 -0.09961887 -0.008018871
0002f0 5f 0c 4d 3d d8 30 83 3b 3d 05 02 be 35 1e 0f 3d
       0.050060626 0.0040036254 -0.12697311 0.034940917
000300 ff 44 36 bd 74 4d 96 bd 1a 3b d8 3c e9 5a 2e be
       -0.044499394 -0.07338992 0.02639537 -0.17026867
000310 6c 49 09 bd 82 63 d6 3e 1a cf 6a 3e d8 6d 93 3c
       -0.033517286 0.41872793 0.22930565 0.017996714
000320 f1 0e 33 be 7e 7c 96 3d 62 ce 2c 3e bb e6 71 3d
       -0.17486168 0.07347964 0.16875604 0.059057932
000330 1f 83 3b 3e 87 eb 81 3e 50 ec 13 bd 5b f1 1c 3c
       0.18311737 0.25375006 -0.036114037 0.009579028
000340 e0 bf 45 3e d3 40 53 3e 51 78 dd 3d 26 d0 c4 3b
       0.19311476 0.20630197 0.10813964 0.0060062585
000350 3a 9f b4 bc 34 b2 26 be 04 b9 4b 3e 18 55 ab 3d
       -0.022048581 -0.16278917 0.19894797 0.0836584
000360 09 c6 2b 3e b7 96 e0 3d 38 0c 6e be 6a f6 04 3e
       0.16774763 0.109662466 -0.23246849 0.12984625
000370 74 a2 d5 3d bd f4 05 be 47 36 06 3f 73 93 ac bd
       0.10431376 -0.13081641 0.5242657 -0.08426561
000380 86 2d d4 3d 79 06 23 bd 89 5a 1f 3e bb 21 57 bd
       0.103602454 -0.039801095 0.1556188 -0.052522402
000390 1a c7 35 3d 1e e2 09 be 8a fd 2a bc 5f 1d 45 3e
       0.04437933 -0.13465163 -0.010436425 0.19249485
0003a0 2a 39 37 3e e3 2e 7a 3d 42 6e bc bc 0e c4 57 3e
       0.178929 0.06107987 -0.023001794 0.21070883
0003b0 da e3 f2 be a8 fe 19 be 52 aa 1e 3e 67 6a 58 3e
       -0.47439462 -0.1503855 0.1549466 0.2113434
0003c0 2c 8d 93 3e 65 b7 50 be a2 3e 7c bd 0f 9e 12 bd
       0.28818643 -0.2038246 -0.06158317 -0.035795268
0003d0 1e 8f f7 bd b7 98 a8 3d bb bd dd 3d 7c c9 eb bd
       -0.12087844 0.08232253 0.10827204 -0.115130395
0003e0 13 cd 48 bd bf b6 1b 3d 20 98 4b 3e ac eb 85 bd
       -0.0490237 0.038016077 0.1988225 -0.065390915
0003f0 5f 1a c1 3d 96 fe 9c 3d 2c fc 05 3e b7 ab 50 3d
       0.09428858 0.07665746 0.13084477 0.05094501

linears.1.bias f4 [64]
000000 19 2b e9 3e 95 01 83 be e0 56 bd 3e 24 0d ed 3e
       0.45540693 -0.25587144 0.36980343 0.46299088
000010 1c fa b0 3e 46 7d a0 bd e2 94 b8 3c d8 8f 88 3e
       0.34565818 -0.07836394 0.02253193 0.26672244
000020 41 6d 08 3f a3 2b e0 3e 45 3c 6c 3e 58 1a a8 3d
       0.5329171 0.43783292 0.23069866 0.0820815
000030 cb 53 39 be 3e e0 0f bf 0a e4 25 3c 51 6a e6 3e
       -0.1809837 -0.5620154 0.0101251695 0.45002988
000040 0e 29 04 3d 8d 3c 76 3e fa 36 a2 be b1 7d f8 3e
       0.032265715 0.24046536 -0.3168257 0.48533395
000050 db 3b 09 bd bc 38 82 3e 07 80 d8 3e a4 cf 8a 3e
       -0.03350435 0.2543391 0.42285177 0.27111542
000060 9d 38 b8 be 0e a1 9a 3e 69 2b 12 3f 6e ee f7 3e
       -0.35980693 0.30201 0.5709749 0.48424095
000070 91 55 fb 3e 72 90 7b 3e db 28 c2 be dd e0 dc 3e
       0.4908872 0.2456682 -0.37921795 0.43140307
000080 c8 ab 1a bf f5 db 18 3f fa 9e 14 3d e9 0f 08 be
       -0.6041837 0.5971063 0.036284424 -0.13287319
000090 97 6e 0c 3f 95 17 dc 3e fc 7f 6c be 7b 34 27 bf
       0.54856247 0.42986742 -0.23095697 -0.65314454
0000a0 a7 6f c9 3d f5 a1 1e bf d6 2e ea 3c ec 7c a7 3d
       0.09835749 -0.61965877 0.028586786 0.08178124
0000b0 2b 64 0f 3f 70 e9 f6 3e 8b 22 72 3e 83 cb 10 3e
       0.5601222 0.48224974 0.2364599 0.14140134
0000c0 43 4a 10 3c 63 ce e7 3e d5 82 da 3e 3f c6 3e be
       0.008806768 0.45274648 0.42677942 -0.18630312
0000d0 22 9f 4b 3f 7e 54 f1 3d 79 90 a0 bd 6a 78 10 3f
       0.7953969 0.11783694 -0.07840056 0.5643374
0000e0 01 0c 1a 3e e7 62 ad 3e 4b 39 2b 3e 22 06 4d 3d
       0.15043642 0.3386452 0.16721074 0.050054677
0000f0 af 51 02 3f be 53 08 3f 3d e3 f3 be fc 9f 64 be
       0.5090589 0.5325278 -0.47634307 -0.22326654

linears.2.weight f4 [5, 64]
000000 5e 7d 9d 3d 43 4c 30 3d 49 e5 08 bd af 52 4a bb
       0.076899275 0.04304148 -0.03342179 -0.0030872037
000010 51 80 0a bc dc a7 84 bd a0 83 ee 3d a7 ea ed bc
       -0.008453445 -0.06477329 0.11646199 -0.029042555
000020 56 76 05 be cf 68 89 3c fb af ed 3d 9c 5b 9b bd
       -0.13033423 0.01677361 0.11605831 -0.075858325
000030 a4 60 09 bd c0 4b 06 bc b6 8b 68 bc b9 ad 04 be
       -0.03353943 -0.008196771 -0.014193466 -0.12956895
000040 e6 86 f6 3d de 4a 3a bc 10 c1 58 bd 18 78 ba bd
       0.120374486 -0.011370389 -0.052918494 -0.09104937
000050 b8 a2 3c bd 84 99 25 be 8c b3 1e be 43 25 c8 bb
       -0.04605362 -0.16171843 -0.15498179 -0.0061079576
000060 a8 4e 22 bd cf 51 08 be 0f 5b d6 bd 1c 17 17 bd
       -0.039625794 -0.13312458 -0.10466587 -0.036887273
000070 8f 9f 23 be de 7a 37 bb 5e 52 2b be 37 d9 46 bd
       -0.15978836 -0.0027996819 -0.1673064 -0.048546996
000080 4c 8d 8e 3d 3f 99 80 be e8 6f 8a bd 0f b9 72 3c
       0.06960544 -0.25116917 -0.06759626 0.014814629
000090 58 b6 4d be 1e 90 3e be d8 38 c0 3b 46 45 b3 3d
       -0.2008909 -0.18609664 0.0058661513 0.08753447
0000a0 ba c4 e5 3c 1c 64 c0 bd c5 73 97 bc ea 48 88 3c
       0.028047908 -0.09394094 -0.01848782 0.01663633
0000b0 1f 88 d6 bc 7e f9 a8 bd 06 74 a6 bd c5 2a 08 bd
       -0.026187954 -0.08250712 -0.081275985 -0.033243913
0000c0 3e b4 a3 bd 0d 3d 12 3c be 21 2c be 85 65 83 bc
       -0.07993363 0.008925688 -0.16809747 -0.01603962
0000d0 7f 58 73 be 99 58 c4 3d 90 a7 43 bd 63 c5 80 bd
       -0.23764227 0.09587211 -0.047767222 -0.062876485
0000e0 5a 14 96 3d 88 3f 91 bd fe 72 98 3c ef 64 0c bd
       0.073281005 -0.07092196 0.01860952 -0.034275945
0000f0 a5 1b b3 bd 65 c6 15 be 80 11 db 3d 78 4b 40 3d
       -0.08745507 -0.14626463 0.10696697 0.046946973
000100 b6 e8 9a bd a0 1e e7 36 be ff 46 bd 75 ea 18 be
       -0.07563917 6.8879017e-06 -0.04858374 -0.14933188
000110 56 c4 7e bb 96 9f a0 3d 85 0b dc bd bc 3f 69 3d
       -0.003887435 0.078429386 -0.10744385 0.056945547
000120 b5 d3 0e be 3e d8 40 bd d4 02 55 3d 60 46 88 bd
       -0.13947947 -0.047081225 0.05200465 -0.06654048
000130 d2 30 42 3a cb 5d 17 bd fb 98 a4 bc ee 67 e9 bd
       0.00074077875 -0.036954682 -0.020092478 -0.11396776
000140 d3 ac 67 bd 8f 14 39 bd 63 fc b7 3c e9 a5 32 be
       -0.056561302 -0.04518562 0.022459215 -0.17446102
000150 38 68 82 3c ba 1c d6 bd 9b 75 bf bd 8b 5c 28 3c
       0.015918836 -0.10454698 -0.09348603 0.01027597
000160 62 3c f5 3d 8a 91 10 be c1 7c 81 be a4 76 e3 bd
       0.11974408 -0.14118019 -0.25290492 -0.11106613
000170 fe 50 f1 bd fb 7e e9 bc 3f 32 46 be db 4c bf bd
       -0.11783026 -0.028502932 -0.19355105 -0.09340831
000180 7d 75 2d bd 4e 7b 90 be 92 70 22 3d 7f 30 98 3d
       -0.042348374 -0.28219074 0.039658137 0.07431125
000190 40 22 91 bd 13 35 64 be 2a c0 0d 3d ae 88 f3 bc
       -0.07086611 -0.22285871 0.03460709 -0.02972826
0001a0 21 45 34 3c 73 81 c8 bb 6d b4 d8 3c 72 62 02 bd
       0.01100281 -0.006118947 0.026453221 -0.031832166
0001b0 bd ba 07 be 1b 65 bc bd 3a 75 0e 3d 30 0f b4 bb
       -0.13254829 -0.09198972 0.034779765 -0.0054949746
0001c0 1e e3 3c bd fb d7 c9 bd e5 bb 4f bd c7 09 e3 bd
       -0.046115033 -0.09855648 -0.0507163 -0.11085849
0001d0 31 2f 5f be 65 e7 a4 bd 5e a3 84 3d 73 db 1c be
       -0.21795346 -0.080519475 0.06476472 -0.15318088
0001e0 ee e9 d0 3d e9 f5 c9 bc 25 f1 d9 3c 3c 1c b0 bc
       0.102008685 -0.024653392 0.026604244 -0.021497838
0001f0 bf ff bf bd 58 d7 9f bd f7 01 e6 3b 3b c8 fc 3c
       -0.093749516 -0.078047454 0.007019277 0.030857196
000200 ab e2 ae 3c cf 9c 6f ba ce 95 29 be bb 74 08 bd
       0.021348318 -0.0009140493 -0.16561052 -0.033314448
000210 07 07 b3 bc b7 f9 82 3d 93 ba cb 3c 01 bd f5 3c
       -0.021853937 0.063952856 0.024869239 0.02999735
000220 a1 58 05 be a4 1c 2e bd eb ac ab bd c4 f3 57 3d
       -0.1302209 -0.042507783 -0.08382591 0.052722707
000230 89 0a 2e 3d 87 c3 93 bd e5 cf 8b b9 58 1b 02 be
       0.042490516 -0.07215028 -0.0002666704 -0.12705743
000240 48 d1 9a 3c ac 4d e0 3d fa b7 2c 3e 01 0b b9 bd
       0.018898621 0.10952315 0.16867056 -0.09035302
000250 93 6e 2b 3a 88 32 f3 bd f8 ff 2f bd ca 6a 4e 3d
       0.0006539609 -0.118748724 -0.04296872 0.05039481
000260 eb 1e 89 be 9d 48 1c bd ec 15 55 be 1b 0f 1a be
       -0.267814 -0.038155187 -0.20809144 -0.15044825
000270 d3 7e ec bd 2f 4c ad bb c8 5c 88 bd fe 66 26 be
       -0.11547627 -0.005288623 -0.066583216 -0.16250226
000280 1e 0a b2 bb 72 36 fd bd eb d2 ba 3b 13 cd 64 bc
       -0.005433335 -0.123639 0.005701413 -0.013964909
000290 93 3c 44 be 96 75 05 be 1c c3 27 3d 0c ff 88 3d
       -0.19163732 -0.13033137 0.040957555 0.06689271
0002a0 56 28 08 3c d1 60 87 bc 0a 6c 80 3d b3 9e 40 bd
       0.008310398 -0.016525658 0.06270607 -0.047026347
0002b0 62 2f a6 bd fa aa ad bd 3a ba 86 3b 31 0c f8 bc
       -0.08114506 -0.08479877 0.0041115554 -0.03027925
0002c0 d9 d7 58 3d b2 61 98 3c 3c 0b 9e bd af df d9 3c
       0.052940223 0.018601272 -0.077169865 0.026595918
0002d0 03 fc 50 be 95 e0 d3 bb fd fb 0e be 80 11 17 be
       -0.20408635 -0.0064659812 -0.13963313 -0.1475277
0002e0 c9 8e 57 bd ad de d1 bd 2c ac b3 bc 22 14 3e bc
       -0.052626405 -0.1024755 -0.021932684 -0.01160148
0002f0 2d e0 5b be b3 57 2d be d5 1a 78 bd 5d e7 e2 3c
       -0.21472235 -0.16927986 -0.060572464 0.027698213
000300 2b a3 0f bd 80 8d d7 3d 0b 69 1d be 77 2c 1e 3d
       -0.03506772 0.10525036 -0.15372102 0.038616624
000310 42 af 8d bd e4 43 a6 bd b7 bc 8d bc 43 9c 47 3d
       -0.069181934 -0.08118418 -0.0173019 0.048733007
000320 36 f1 0c be 0a 38 67 3d 49 ac ab 3d 94 5e f5 3a
       -0.1376389 0.056449927 0.0838247 0.0018720203
000330 56 aa 11 3d 06 21 26 3d 7a 60 ab ba 0c 90 f9 bd
       0.035562836 0.040558837 -0.0013075017 -0.12185678
000340 68 bb 9b bc 77 ca d6 3d 75 e2 05 3d 60 61 91 bd
       -0.01901026 0.10487836 0.03268667 -0.07098651
000350 2e 7a 7a b9 55 62 38 bb af 24 d1 bd 6e 3b d6 bc
       -0.00023887373 -0.0028134782 -0.10212075 -0.026151385
000360 36 09 01 be 07 f7 29 bd ee 00 a1 bd cb e7 0e be
       -0.1260117 -0.04149535 -0.078615054 -0.1395561
000370 55 8b cd bd e3 4a 76 bc c6 8d c8 bd 93 f4 50 be
       -0.10036341 -0.015032503 -0.09792666 -0.20405798
000380 e9 c9 e7 bc fc a8 70 be 1a 16 69 bd 97 77 9e bc
       -0.02829452 -0.23501962 -0.056905843 -0.019344134
000390 97 f3 7d be 1b e0 5a bd ef f1 c4 bc a7 37 8f bd
       -0.24799953 -0.05343638 -0.024041144 -0.06993037
0003a0 51 fd c1 3c 3d 6b f3 bb ea d1 02 3d e2 2a b8 3c
       0.023680361 -0.0074285553 0.03193847 0.022481386
0003b0 48 8c 0f be 65 73 97 bd de 7b 25 3d e1 77 87 3c
       -0.14018357 -0.07395057 0.040401332 0.016536655
0003c0 f8 1f db 3d 8f ee 4f 3d 44 5f fb bd 21 c2 80 3c
       0.10699457 0.050764617 -0.1227403 0.015717568
0003d0 bd b8 7d be bc 6b 84 bd c8 21 bc 3d 1c 0b e1 bd
       -0.24777503 -0.06465861 0.09186131 -0.10988447
0003e0 6f 6f b6 3d f8 ef da bd a3 1f 8b bd c0 70 8f 3c
       0.08907973 -0.10690302 -0.067931436 0.017509818
0003f0 7a 0a 2e be 05 c7 e9 bd c5 dd 4a bb 8d 10 04 bd
       -0.16996184 -0.11414913 -0.003095494 -0.032242347

linears.2.bias f4 [5]
000000 b5 f7 bc be ef bf 27 bf 0e 90 de be 1a a2 13 bf
       -0.36907735 -0.6552724 -0.4346928 -0.5766922
000010 cd 55 e7 be
       -0.45182648
