dqn-exp/savedir/student/checkpoint1000--model.pth (torch_old, 20763 bytes, 6 tensors)

linears.0.weight f4 [64, 6]
-0.0865559 -0.06972641 -0.036867604 -0.04086768 0.45718 0.08383636 0.013350755 -0.20160878
-0.03246742 0.007782613 -0.027433919 1.0733769 -0.112233885 -0.18189433 0.20934598 -0.041849583
0.27284673 0.10500905 0.053663135 0.1745213 -0.062159974 0.10970096 -0.0132443495 -0.45313513
0.120779775 -0.009004515 -0.03254888 0.13219899 -0.5844261 -0.13429545 -0.02187686 0.1683506
-0.030324385 -0.059561867 0.094650514 -0.6829446 -0.0006604445 -0.1763559 -0.050188433 -0.00282243
-0.05670676 0.71563834 -0.2105375 -0.16049129 0.037558433 0.022502419 0.6056622 0.45033553
0.005269769 -0.09171862 -0.0032527284 -0.09382377 -0.0680341 0.3594724 -0.117606476 -0.024098918
0.30519477 -0.20668873 0.22214669 -0.20201404 0.016763791 -0.16668311 0.012055913 0.009261731
-0.022094265 0.5894273 0.1215867 0.013698271 -0.20571709 0.15198551 -0.36127976 0.23871566
0.04221887 0.015717132 0.065398306 -0.03579287 -0.031993255 -0.37224212 -0.038238186 -0.0046817698
-0.50071794 0.0471243 -0.33307168 0.18339355 0.068006374 0.18693489 -0.28863096 -0.24673164
-0.16288514 -0.07322874 0.10852277 0.13310958 -0.17236316 -0.2118577 -0.42309135 -0.44912037
0.15135962 -0.014141894 0.078614 0.013413022 -0.5908692 -0.026139176 0.17732406 0.01597302
0.028664744 0.01880789 -0.7556778 -0.03107108 0.16151556 0.0024536531 0.012924617 0.0067006354
-0.80393326 -0.03205091 -0.13597901 0.10697481 -0.04461807 0.013685452 0.23476678 -0.19778551
-0.098712094 0.3092272 0.18627754 0.010875011 0.09019772 0.05322162 -0.12841861 0.04411223
0.0014828122 -0.14668033 -0.03859071 -0.20818597 -0.15014659 0.0010845741 -0.008992128 -0.00730169
0.9125718 0.04849928 -0.005098205 0.09816282 0.0069444943 0.0052435654 0.065565705 -0.671401
-0.016398357 0.1931946 0.04794772 0.101779595 0.103094555 -0.412647 -0.15768549 0.11943099
-0.031169817 0.006644535 0.3485126 -0.26561537 -0.06943455 0.108194835 0.048758212 0.09481331
0.25270423 -0.24243696 -0.13377921 -0.004374569 -0.015173889 -0.00044191425 0.7755818 0.03770908
0.0038987289 -0.09837221 0.10360039 -0.16810556 -0.020470098 0.044400666 -0.037206274 -0.15318254
0.004831351 -0.028218547 0.051613595 0.27098116 0.029739175 0.093460105 0.024826663 0.08242787
-0.049781505 -0.49267423 0.15461154 0.09679708 -0.014395672 0.026212877 0.07177694 0.093248986
0.13469118 0.11840619 -0.27643135 -0.31743294 -0.17804725 -0.14505172 0.21479653 -0.11447825
-0.11374545 0.22744918 -0.18556964 0.31845883 -0.01502551 0.0011268482 0.025358958 -0.034550555
0.62661743 0.49780452 -0.029822497 0.0034563967 0.40251452 0.102609955 0.3142848 0.06938878
0.17289811 0.1877077 -0.02980093 0.0010314794 -0.28740028 -0.3605795 -0.020809863 -0.14816962
0.122209966 -0.17901051 -0.156928 -0.06110263 0.12332417 -0.0068680397 -0.097599655 0.0074371127
-0.4120773 0.094722815 0.012264146 0.08624982 0.052587457 0.17288116 0.15380993 -0.53378534
0.13684915 0.008514223 0.03755796 -0.039033793 -0.4751519 -0.044764362 -0.0394492 -0.009611187
0.22222702 -0.08328107 0.11052577 0.072509415 0.07554889 0.06744232 -0.11173399 -0.07330905
00000000: 3844 b1bd b8cc 8ebd 7c02 17bd de64 27bd
00000010: 7f13 ea3e 66b2 ab3d 20bd 5a3c 8872 4ebe
00000020: 8ffc 04bd 4a05 ff3b 19bd e0bc 6a64 893f
00000030: e1da e5bd 8242 3abe cb5e 563e 786a 2bbd
00000040: 91b2 8b3e fc0e d73d e0cd 5b3d b6b5 323e
00000050: 759b 7ebd e6aa e03d d4fe 58bc 5401 e8be
00000060: 635b f73d ac87 13bc f951 05bd 2c5f 073e
00000070: f39c 15bf bf84 09be 1a37 b3bc 1a64 2c3e
00000080: d86a f8bc 25f7 73bd 21d8 c13d 75d5 2ebf
00000090: ae21 2dba a496 34be 6392 4dbd 85f8 38bb
000000a0: 5945 68bd 1334 373f 2497 57be d457 24be
000000b0: dfd6 193d fe56 b83c ae0c 1b3f 6192 e63e
000000c0: 07ae ac3b f9d6 bbbd ba2b 55bb ad26 c0bd
000000d0: 7655 8bbd c40c b83e aadb f0bd 186b c5bc
000000e0: 7d42 9c3e 36a6 53be 6c7a 633e c5dc 4ebe
000000f0: 3854 893c faae 2abe 2a86 453c 84be 173c
00000100: 08ff b4bc b5e4 163f 7302 f93d b66e 603c
00000110: 80a7 52be 17a2 1b3e a9f9 b8be e171 743e
00000120: b2ed 2c3d 37c1 803c 8cef 853d 8b9b 12bd
00000130: 5c0b 03bd 8596 bebe a59f 1cbd 8869 99bb
00000140: 0d2f 00bf 6905 413d 5f88 aabe 85cb 3b3e
00000150: ed46 8b3d dc6b 3f3e 70c7 93be 38a7 7cbe
00000160: 5dcb 26be f3f8 95bd 3041 de3d e14d 083e
00000170: f87f 30be 3af1 58be 6e9f d8be 1bf3 e5be
00000180: 04fe 1a3e 67b3 67bc 6000 a13d 4bc2 5b3c
00000190: 3443 17bf d321 d6bc 7094 353e dad9 823c
000001a0: 53d2 ea3c 0113 9a3c 1a74 41bf c788 febc
000001b0: 5664 253e 78cd 203b c6c1 533c 0191 db3b
000001c0: 92ce 4dbf d147 03bd 153e 0bbe 9c15 db3d
000001d0: 70c1 36bd f238 603c b466 703e 4988 4abe
000001e0: 9129 cabd 0753 9e3e 8abf 3e3e 1a2d 323c
000001f0: 95b9 b83d eafe 593d 2b80 03be 07af 343d
00000200: ec5a c23a 5e33 16be 4b11 1ebd b42e 55be
00000210: 07c0 19be 4528 8e3a b853 13bc 0443 efbb
00000220: 4e9e 693f 2ea7 463d d80e a7bb 9709 c93d
00000230: a48e e33b 37d2 ab3b 5047 863d f0e0 2bbf
00000240: d955 86bc ced4 453e d464 443d d271 d03d
00000250: 3d23 d33d 7846 d3be 4e78 21be 3c98 f43d
00000260: d857 ffbc 66ba d93b 3e70 b23e bdfe 87be
00000270: b433 8ebd 4195 dd3d b1b6 473d 7b2d c23d
00000280: 7362 813e 6541 78be 6bfd 08be 8b58 8fbb
00000290: e79b 78bc bab0 e7b9 878c 463f d674 1a3d
000002a0: d181 7f3b 5f77 c9bd 712c d43d dd23 2cbe
000002b0: e8b0 a7bc 79dd 353d 9b65 18bd e2db 1cbe
000002c0: 4f50 9e3b 952a e7bc c768 533d 0bbe 8a3e
000002d0: 929f f33c 0368 bf3d 4961 cb3c f1cf a83d
000002e0: b1e7 4bbd cc3f fcbe 7d52 1e3e 8c3d c63d
000002f0: d3db 6bbc 63bc d63c caff 923d 53f9 be3d
00000300: 7cec 093e f27e f23d 6988 8dbe 9286 a2be
00000310: 0552 36be 7088 14be 9ff3 5b3e 9373 eabd
00000320: 60f3 e8bd 70e8 683e f805 3ebe 090d a33e
00000330: 8f2d 76bc c0b2 933a 97bd cf3c e284 0dbd
00000340: 006a 203f 3ce0 fe3e 4f4e f4bc b784 623b
00000350: 6216 ce3e 2b25 d23d f0e9 a03e b41b 8e3d
00000360: 340c 313e 7336 403e 1421 f4bc b532 873a
00000370: 2126 93be e09d b8be 7279 aabc c7b9 17be
00000380: 3849 fa3d 884e 37be bcb1 20be c046 7abd
00000390: 6291 fc3d 4b0d e1bb 54e2 c7bd 06b3 f33b
000003a0: ccfb d2be 09fe c13d 8eef 483c bfa3 b03d
000003b0: f265 573d c207 313e 5a80 1d3e 28a6 08bf
000003c0: 2f22 0c3e 3d7f 0b3c 60d6 193d e6e1 1fbd
000003d0: 1c47 f3be d65a 37bd 7c95 21bd 3d78 1dbc
000003e0: 7b8f 633e 448f aabd 565b e23d d17f 943d
000003f0: 60b9 9a3d 331f 8a3d cad4 e4bd 0e23 96bd

linears.0.bias f4 [64]
-0.7213569 0.18116526 0.5388726 -0.046793118 0.39329 -0.39613917 -0.24210802 -0.59496
0.35576004 -0.33140582 -0.45482767 0.6076887 -0.3597842 -0.3465802 -0.28557754 0.10820789
-0.43392435 -0.30065244 0.108976915 0.43177265 -0.5418611 0.4846439 0.021567058 0.08884044
0.6182243 -0.39192516 -0.6036262 0.1357368 -0.5147293 0.18814406 -0.22936253 0.53621894
0.14508544 -0.6560718 -0.020155055 -0.3626 -0.40524966 0.51341665 0.054249838 0.41284117
-0.538167 0.030624134 0.19573893 -0.006376236 0.022238012 0.28545982 -0.46126428 -0.5661375
0.010072656 -0.76847917 -0.12583734 0.4702891 -0.4813445 -0.6102922 0.54353726 -0.13496044
-0.12671919 0.3849083 -0.67773485 -0.58223766 0.0011345432 0.39262804 -0.39174947 0.53864974
00000000: d9aa 38bf 6383 393e 8ef3 093f 24aa 3fbd
00000010: 4f5d c93e c1d2 cabe 2aeb 77be 4c4f 18bf
00000020: 2e26 b63e 06ae a9be 2cdf e8be 7d91 1b3f
00000030: a235 b8be f672 b1be 3837 92be 199c dd3d
00000040: 552b debe 1eef 99be 4a2f df3d 4e11 dd3e
00000050: 69b7 0abf 3f23 f83e 66ad b03c faf1 b53d
00000060: f343 1e3f 6aaa c8be 3f87 1abf 96fe 0a3e
00000070: 4dc5 03bf d6a8 403e 03de 6abe a545 093f
00000080: 4791 143e 52f4 27bf 371c a5bc b5a6 b9be
00000090: e27c cfbe 466f 033f 1435 5e3d eb5f d33e
000000a0: 50c5 09bf 77df fa3c c96f 483e bfef d0bb
000000b0: 7e2c b63c ca27 923e d52a ecbe 63ee 10bf
000000c0: c807 253c 0dbb 44bf 81db 00be bcc9 f03e
000000d0: c972 f6be 1c3c 1cbf 4225 0b3f 1233 0abe
000000e0: adc2 01be b312 c53e 0880 2dbf 870d 15bf
000000f0: f4b4 943a 8b06 c93e 6393 c8be f3e4 093f

linears.1.weight f4 [64, 64]
0.084797904 -0.058632232 0.17954874 -0.06466302 0.06777385 0.30891088 0.061048165 -0.020729078
-0.019597748 -0.10392128 0.18177441 -0.004131513 0.14035356 0.02125168 0.0019890824 0.025770793
0.18515757 -0.023440627 0.21139961 0.024236172 -0.039376784 -0.04962411 0.15369648 0.2078
0.16995282 0.034888923 -0.06517233 0.16151352 -0.06708784 0.017519444 0.26231664 0.03785938
0.20507976 -0.07833246 0.14563523 0.15882659 0.11863085 0.09626233 -0.118792616 0.114899166
0.026058497 -0.040766582 0.10054708 0.08860573 -0.017759414 -0.034839023 0.05295724 0.20214449
0.19668655 0.095867574 -0.16738401 -0.0542809 -0.20586093 0.17466189 0.1721122 -0.10572049
-0.06604479 -0.05072302 0.22611943 -0.070000894 0.040075943 0.17654061 0.16399302 0.21942009
-0.25963622 -0.3175937 -0.028006144 0.13079832 -0.11138582 -0.18917786 -0.29881334 -0.15969877
-0.10790456 0.07351228 -0.23542315 -0.028635472 0.17622611 0.08651758 0.054854136 0.08514629
-0.28850845 -0.24414845 -0.13174662 0.051015038 0.24804801 -0.06062267 -0.33653277 -0.06147148
-0.12945734 -0.18267517 -0.3920499 -0.11391131 -0.0067658704 0.091644414 -0.14124478 -0.13039283
-0.067068435 -0.28456283 -0.026673151 0.09851792 -0.11563379 -0.085442826 -0.012974704 0.074478395
-0.20614369 -0.005560172 0.043680184 -0.06743668 0.024012892 0.071743496 -0.12500091 -0.09112657
-0.01361706 -0.10055667 -0.021100424 -0.00876625 0.13747072 -0.3224126 -0.068647504 0.059683792
0.04014525 -0.12305734 -0.2911974 -0.09361494 -0.11711989 0.021071555 0.021464206 0.0065992856
0.12690146 -0.09357248 -0.17432436 -0.0042597633 -0.14161742 -0.13792093 -0.033137202 0.09750251
0.028690955 0.153509 -0.09365942 -0.011192501 -0.100618586 -0.16576052 0.054679364 -0.13456084
-0.15338525 -0.06876627 -0.10419223 0.059417434 0.003334091 -0.21202369 -0.04251592 0.09315607
-0.15000747 -0.17706993 0.19417557 -0.03469165 -0.062035345 -0.038466785 -0.09309748 -0.23214227
-0.28749713 0.16812792 -0.15206502 -0.004991672 -0.014149087 -0.011981229 -0.04854615 -0.123663515
0.07224674 -0.09892489 -0.14444447 -0.14025699 0.16755942 0.11507783 -0.0055525703 -0.00064510317
-0.14646329 0.044413723 -0.016872007 -0.20745537 -0.025323834 -0.045987304 -0.2430244 -0.08051563
0.04916514 -0.12906489 -0.08461573 -0.0461967 0.042066842 0.03872134 -0.16437916 -0.004011148
0.020599121 -0.0017153595 0.09665641 -0.16312473 0.008362621 0.3407407 0.20918474 0.046878934
-0.055808786 0.09581462 0.13414602 0.11969274 0.056579165 0.030291185 -0.055143792 0.12654659
0.11007118 0.20384029 0.17663355 0.13476737 -0.037023436 -0.054219488 0.20229222 0.038068574
0.22741108 0.07018754 -0.06001922 0.08644017 0.10431376 -0.024817314 0.33520117 -0.008465775
0.065523215 -0.039801095 0.18347244 -0.05612947 -0.01901337 -0.049283646 -0.03569017 0.21313491
0.14662653 -0.018613957 -0.015811436 0.08633743 -0.15498988 0.0010112611 0.11176524 0.13177024
0.3010851 -0.07232236 -0.109556645 0.06810137 -0.16239549 0.030665297 0.1707111 -0.1395272
-0.0490237 0.123573355 0.2583321 -0.049219776 0.10300786 0.1493757 0.08799599 0.11409157
00000000: 86aa ad3d 5a28 70bd a0db 373e 0c6e 84bd
00000010: 04cd 8a3d 9129 9e3e a40d 7a3d 07d0 a9bc
00000020: 758b a0bc aed4 d4bd 1223 3a3e a561 87bb
00000030: d8b8 0f3e 0118 ae3c 445b 023b 451d d33c
00000040: f299 3d3e 8f06 c0bc 2479 583e f08a c63c
00000050: 8d49 21bd a742 4bbd 9c62 1d3e 86c9 543e
00000060: 1d08 2e3e b0e7 0e3d 1279 85bd cd63 253e
00000070: 5965 89bd f084 8f3c 5e4e 863e 7012 1b3d
00000080: 6e00 523e c56c a0bd 6721 153e 70a3 223e
00000090: bbf4 f23d 2f25 c53d 8b49 f3bd 4150 eb3d
000000a0: a178 d53c dcfa 26bd a1eb cd3d ec76 b53d
000000b0: 317c 91bc 5db3 0ebd b1e9 583d f7fe 4e3e
000000c0: 3368 493e 3856 c43d b766 2bbe a655 5ebd
000000d0: 35cd 52be 91da 323e 2e3e 303e fc83 d8bd
000000e0: 7e42 87bd f1c2 4fbd da8b 673e a15c 8fbd
000000f0: ac26 243d 10c7 343e c9ed 273e a9af 603e
00000100: 0aef 84be a49b a2be 246d e5bc ffef 053e
00000110: 401e e4bd d7b7 41be 10fe 98be 1388 23be
00000120: 11fd dcbd 9b8d 963d c412 71be f094 eabc
00000130: 9e74 343e 2130 b13d bbae 603d 2e61 ae3d
00000140: 61b7 93be 0d02 7abe 96e8 06be 25f5 503d
00000150: 4c00 7e3e 7a4f 78bd 064e acbe 85c9 7bbd
00000160: 7790 04be 330f 3bbe c4ba c8be 554a e9bd
00000170: 3cb4 ddbb 11b0 bb3d 79a2 10be b385 05be
00000180: 2d5b 89bd 38b2 91be a781 dabc c3c3 c93d
00000190: 69d1 ecbd a6fc aebd da93 54bc 2188 983d
000001a0: 5517 53be 1a32 b6bb fee9 323d 3e1c 8abd
000001b0: afb6 c43c 41ee 923d 3d00 00be 91a0 babd
000001c0: 171a 5fbc a8f0 cdbd ccda acbc 51a0 0fbc
000001d0: 20c5 0c3e 4413 a5be 1097 8cbd fe76 743d
000001e0: 586f 243d 7d05 fcbd d317 95be 31b9 bfbd
000001f0: 8edc efbd 419e ac3c b4d5 af3c d23e d83b
00000200: 75f2 013e eea2 bfbd 1682 32be 7c95 8bbb
00000210: 2804 11be 253b 0dbe e0ba 07bd 65af c73d
00000220: 4b09 eb3c 7731 1d3e 83d0 bfbd c060 37bc
00000230: 1e11 cebd 20bd 29be 78f7 5f3d 51ca 09be
00000240: 0611 1dbe 55d5 8cbd bc62 d5bd b25f 733d
00000250: c480 5a3b bd1c 59be 2c25 2ebd 9cc8 be3d
00000260: 8f9b 19be d251 35be f6d5 463e d518 0ebd
00000270: c618 7ebd 598f 1dbd e4a9 bebd b4b6 6dbe
00000280: d332 93be ba29 2c3e efb6 1bbe 2e91 a3bb
00000290: 92d1 67bc eb4c 44bc 54d8 46bd 4c43 fdbd
000002a0: 19f6 933d 2299 cabd 40e9 13be 879f 0fbe
000002b0: b294 2b3e edad eb3d 56f2 b5bb 241c 29ba
000002c0: 79fa 15be 2aeb 353d 2a37 8abc 2e6f 54be
000002d0: ee73 cfbc 2f5d 3cbd 63db 78be 61e5 a4bd
000002e0: 6361 493d 9629 04be 034b adbd c038 3dbd
000002f0: 484e 2c3d 459a 1e3d 0353 28be f36f 83bb
00000300: 7dbf a83c ead5 e0ba ccf3 c53d 2b0a 27be
00000310: 6003 093c 9175 ae3e 8634 563e 2004 403d
00000320: c197 64bd 753a c43d 935d 093e 7821 f53d
00000330: 8ebf 673d 3825 f83c 75de 61bd 6e95 013e
00000340: 006d e13d 82bb 503e 6ddf 343e 7500 0a3e
00000350: e3a5 17bd 4115 5ebd b125 4f3e cbed 1b3d
00000360: 73de 683e 7cbe 8f3d b7d6 75bd 8b07 b13d
00000370: 74a2 d53d ae4d cbbc 7d9f ab3e 09b4 0abc
00000380: 0931 863d 7906 23bd 33e0 3b3e 04e8 65bd
00000390: edc1 9bbc a6dd 49bd db2f 12bd 0a40 5a3e
000003a0: 4425 163e 4c7c 98bc fc86 81bc aed1 b03d
000003b0: abb5 1ebe 4b8c 843a 2de5 e43d c7ee 063e
000003c0: d427 9a3e bf1d 94bd 3c5f e0bd bb78 8b3d
000003d0: 014b 26be ca35 fb3c e4ce 2e3e 38e0 0ebe
000003e0: 13cd 48bd 0714 fd3d 1b44 843e ad9a 49bd
000003f0: c9f5 d23d f2f5 183e 3e37 b43d d7a8 e93d

linears.1.bias f4 [64]
0.3346444 -0.19896162 0.24877134 0.36162385 0.33481574 -0.094947085 0.017628156 0.23279715
0.3872394 0.37766325 0.2192995 0.21302713 -0.15825264 -0.4049258 0.0042913016 0.2246256
0.009416117 0.18552835 -0.23237553 0.33081284 -0.029878091 0.17717396 0.30613294 0.24094234
-0.22943166 0.18646857 0.38933384 0.35255748 0.34431213 0.21700327 -0.26883087 0.26108694
-0.42466214 0.41163445 0.010230703 -0.12278193 0.37515026 0.3067483 -0.18693782 -0.48386654
0.115739234 -0.45101714 0.03295031 0.058147203 0.4226649 0.32239676 0.1911396 0.117568254
0.022022901 0.36132038 0.27803105 -0.06298638 0.59886986 0.07768518 0.009570187 0.39761275
0.1094306 0.26372257 0.10885995 0.025879204 0.3633992 0.3879602 -0.37910953 -0.122497864
00000000: 8356 ab3e 98bc 4bbe eabd 7e3e c326 b93e
00000010: f86c ab3e 9e73 c2bd ec68 903c 6062 6e3e
00000020: 3e44 c63e 145d c13e 0c90 603e c923 5a3e
00000030: fb0c 22be 6f52 cfbe 0c9e 8c3b 4104 663e
00000040: 0f46 1a3c 25fb 3d3e daf3 6dbe 4d60 a93e
00000050: e6c2 f4bc 176d 353e 75bd 9c3e 97b9 763e
00000060: 22f0 6abe 9ef1 3e3e c456 c73e 6a82 b43e
00000070: ae49 b03e 1b36 5e3e 33a4 89be 30ad 853e
00000080: 516d d9be c0c1 d23e ae9e 273c 1875 fbbd
00000090: b213 c03e 1d0e 9d3e a16c 3fbe 5bbd f7be
000000a0: b108 ed3d b8eb e6be e7f6 063d c32b 6e3d
000000b0: 8967 d83e 3011 a53e 19ba 433e a0c7 f03d
000000c0: 5f69 b43c fcfe b83e 165a 8e3e 01ff 80bd
000000d0: 894f 193f 6819 9f3d 46cc 1c3c e693 cb3e
000000e0: 271d e03d a506 873e f7f1 de3d a000 d43c
000000f0: 760f ba3e b8a2 c63e a51a c2be 29e0 fabd

linears.2.weight f4 [5, 64]
0.076899275 0.04304148 -0.021796636 -0.0030872037 -0.022098932 -0.06477329 0.11646199 -0.029042555
-0.106732816 0.01677361 0.11605831 -0.075858325 -0.03353943 -0.008196771 -0.059236646 -0.117164046
0.120374486 -0.011370389 -0.052918494 -0.04654558 -0.011870303 -0.15300524 -0.16595778 -0.0061079576
-0.027026772 -0.13496509 -0.06179596 -0.011579263 -0.1454622 -0.028899362 -0.15750603 -0.02772267
0.06960544 -0.2181878 -0.06759626 0.014814629 -0.16986462 -0.17168568 0.0058661513 0.08753447
0.019132549 -0.09394094 -0.01848782 0.044231053 0.00065145723 -0.023455359 -0.081275985 -0.03990476
-0.07993363 0.008925688 -0.16061614 -0.01603962 -0.20537394 0.09587211 -0.07326917 -0.032421835
0.073281005 -0.077333786 0.01860952 -0.034275945 -0.063607976 -0.1287309 0.07551627 0.046946973
-0.07563917 -0.0980528 -0.03499782 -0.14933188 0.0078567825 0.078429386 -0.10744385 0.056945547
-0.11542195 -0.047081225 0.05200465 -0.0959318 0.00074077875 -0.045925528 -0.07039919 -0.10159044
-0.056561302 -0.04518562 0.0091804415 -0.17367423 0.005239926 -0.09520892 -0.08256402 -0.018174026
0.11978687 -0.14783339 -0.22526388 -0.095753014 -0.10053497 -0.0070693363 -0.18079172 -0.07229004
-0.08823708 -0.24947077 0.039658137 0.07431125 -0.030777361 -0.21656892 0.03460709 -0.09601934
-0.02116481 -0.111548856 0.026453221 -0.0024848622 -0.100123264 -0.013822646 0.035056505 0.018467687
-0.046115033 -0.09855648 -0.02751085 -0.11085849 -0.18632473 -0.080519475 0.09112677 -0.13115878
0.102008685 -0.014383327 0.028087197 -0.021497838 -0.065078005 -0.050972167 -0.012018703 -0.0006240297
0.021348318 0.011955589 -0.1747461 -0.033314448 -0.0034380518 0.063952856 0.024869239 0.02999735
-0.10923061 -0.042507783 -0.08382591 0.052722707 0.07026656 -0.054754317 -0.03729182 -0.122552566
0.018898621 0.10952315 0.16867056 -0.04404415 -0.005763658 -0.10705803 -0.021797802 0.05039481
-0.24041483 -0.018027509 -0.17360358 -0.13188684 -0.10007049 -0.01384108 -0.047845595 -0.15162724
0.072910085 -0.077877946 0.005701413 -0.013964909 -0.16027279 -0.1051069 0.040957555 0.06689271
-0.007760108 -0.048255056 0.06270607 -0.008463807 -0.05398283 -0.012649113 0.0041115554 0.05039557
0.052940223 0.018601272 -0.065271124 -0.0436004 -0.17249613 -0.0064659812 -0.2261032 -0.12736192
-0.052626405 -0.11970099 -0.021932684 -0.01160148 -0.20036079 -0.14395516 -0.1311211 -0.03073524
-0.03506772 0.10525036 -0.16234496 0.038616624 -0.08657795 -0.08118418 -0.0173019 0.048733007
-0.11447078 0.056449927 0.0838247 -0.011885935 0.06727565 0.0358753 -0.021813644 -0.117528975
-0.01901026 0.10487836 0.12977605 -0.024065727 -0.01590623 0.014556589 -0.099128395 -0.026417024
-0.08864374 -0.029938586 -0.022982001 -0.15274456 -0.080374196 -0.0025590104 -0.09478705 -0.19907217
0.017734436 -0.2023131 -0.056905843 -0.019344134 -0.21994829 -0.029380765 -0.024041144 0.09297977
0.004851213 -0.020131528 0.07004174 -0.015692204 -0.12977591 0.045335498 0.040401332 -0.010494302
0.10699457 0.050764617 -0.11207775 0.07390795 -0.21897401 -0.06465861 0.082346335 -0.08874445
0.08907973 -0.12160261 -0.067931436 0.017509818 -0.15500821 -0.09403759 0.0672435 -0.032242347
00000000: 5e7d 9d3d 434c 303d dc8e b2bc af52 4abb
00000010: d208 b5bc dca7 84bd a083 ee3d a7ea edbc
00000020: bc96 dabd cf68 893c fbaf ed3d 9c5b 9bbd
00000030: a460 09bd c04b 06bc 20a2 72bd b4f3 efbd
00000040: e686 f63d de4a 3abc 10c1 58bd 94a6 3ebd
00000050: a97b 42bc 68ad 1cbe d6f0 29be 4325 c8bb
00000060: 4067 ddbc 4a34 0abe c31d 7dbd f3b6 3dbc
00000070: 0bf4 14be 5bbe ecbc 4349 21be a71a e3bc
00000080: 4c8d 8e3d 9f6c 5fbe e86f 8abd 0fb9 723c
00000090: fef0 2dbe 5fce 2fbe d838 c03b 4645 b33d
000000a0: ddbb 9c3c 1c64 c0bd c573 97bc 9f2b 353d
000000b0: 8ec6 2a3a 7425 c0bc 0674 a6bd 2c73 23bd
000000c0: 3eb4 a3bd 0d3d 123c 8f78 24be 8565 83bc
000000d0: 8c4d 52be 9958 c43d 260e 96bd c2cc 04bd
000000e0: 5a14 963d 2d61 9ebd fe72 983c ef64 0cbd
000000f0: e644 82bd 08d2 03be 46a8 9a3d 784b 403d
00000100: b6e8 9abd e8cf c8bd e059 0fbd 75ea 18be
00000110: bcb9 003c 969f a03d 850b dcbd bc3f 693d
00000120: 5862 ecbd 3ed8 40bd d402 553d e477 c4bd
00000130: d230 423a 681c 3cbd 732d 90bd a60e d0bd
00000140: d3ac 67bd 8f14 39bd 9069 163c a8d7 31be
00000150: afb3 ab3b e5fc c2bd 5317 a9bd b2e1 94bc
00000160: d252 f53d a361 17be 93ab 66be 281a c4bd
00000170: 47e5 cdbd e4a5 e7bb 7721 39be cd0c 94bd
00000180: a4b5 b4bd 4475 7fbe 9270 223d 7f30 983d
00000190: ce20 fcbc 3ec4 5dbe 2ac0 0d3d caa5 c4bd
000001a0: d361 adbc ba73 e4bd 6db4 d83c 12d9 22bb
000001b0: 6d0d cdbd 6178 62bc 6997 0f3d 8c49 973c
000001c0: 1ee3 3cbd fbd7 c9bd 6f5e e1bc c709 e3bd
000001d0: e9cb 3ebe 65e7 a4bd aca0 ba3d 7d4e 06be
000001e0: eee9 d03d 0ca8 6bbc 1f17 e63c 3c1c b0bc
000001f0: 9e47 85bd 31c8 50bd 18ea 44bc ed95 23ba
00000200: abe2 ae3c 60e1 433c a4f0 32be bb74 08bd
00000210: f050 61bb b7f9 823d 93ba cb3c 01bd f53c
00000220: 4cb4 dfbd a41c 2ebd ebac abbd c4f3 573d
00000230: eae7 8f3d 1046 60bd 4fbf 18bd d7fc fabd
00000240: 48d1 9a3c ac4d e03d fab7 2c3e a367 34bd
00000250: 11dd bcbb 3e41 dbbd 4e91 b2bc ca6a 4e3d
00000260: 4e2f 76be 6dae 93bc 23c5 31be 580d 07be
00000270: c2f1 ccbd b2c5 62bc bef9 43bd 2c44 1bbe
00000280: e251 953d 797e 9fbd ebd2 ba3b 13cd 64bc
00000290: 8d1e 24be 4942 d7bd 1cc3 273d 0cff 883d
000002a0: 8148 febb 18a7 45bd 0a6c 803d c8ab 0abc
000002b0: 1a1d 5dbd 3a3e 4fbc 3aba 863b 966b 4e3d
000002c0: d9d7 583d b261 983c deac 85bd 5596 32bd
000002d0: d3a2 30be 95e0 d3bb 9987 67be 2a6b 02be
000002e0: c98e 57bd cb25 f5bd 2cac b3bc 2214 3ebc
000002f0: 612b 4dbe fb68 13be 9c44 06be 78c8 fbbc
00000300: 2ba3 0fbd 808d d73d c23d 26be 772c 1e3d
00000310: c84f b1bd e443 a6bd b7bc 8dbc 439c 473d
00000320: a86f eabd 0a38 673d 49ac ab3d 3abd 42bc
00000330: d1c7 893d fbf1 123d 87b2 b2bc 08b3 f0bd
00000340: 68bb 9bbc 77ca d63d 03e4 043e 7d25 c5bc
00000350: c84d 82bc c27e 6e3c d403 cbbd 8468 d8bc
00000360: d98a b5bd c441 f5bc c044 bcbc 1269 1cbe
00000370: 3a9b a4bd 12b5 27bb b61f c2bd 93d9 4bbe
00000380: cf47 913c 2a2b 4fbe 1a16 69bd 9777 9ebc
00000390: 203a 61be eeaf f0bc eff1 c4bc 2d6c be3d
000003a0: edf6 9e3b e0ea a4bc 0b72 8f3d f08c 80bc
000003b0: fae3 04be b7b1 393d de7b 253d 4bf0 2bbc
000003c0: f81f db3d 8fee 4f3d 0589 e5bd 0d5d 973d
000003d0: b93a 60be bc6b 84bd 32a5 a83d a6bf b5bd
000003e0: 6f6f b63d ca0a f9bd a31f 8bbd c070 8f3c
000003f0: 79ba 1ebe c896 c0bd f6b6 893d 8d10 04bd

linears.2.bias f4 [5]
-0.21959785 -0.50912786 -0.29895222 -0.40487874 -0.30618644
00000000: 42de 60be 3456 02bf 4410 99be 444c cfbe
00000010: 78c4 9cbe
