dqn-exp/savedir/student-test/checkpoint550--model.pth (torch_old, 20763 bytes, 6 tensors)

linears.0.weight f4 [64, 6]
00000000: fb0b 3b3d ec5d 613e 1109 05bf 11d9 c83d
00000010: d18b afbe f5f0 a23d 1cc0 563c 4354 2abe
00000020: 1616 4f3d c40c 06bb 38b3 1c3c 13ff 053f
00000030: 1e80 f13e 803d 9d3e 4cba b33d dc92 11bd
00000040: 950b 11be c9ef 8a3c c8a7 a73e 049f 2dbe
00000050: ac41 45be 22aa 683c 6577 3bbe e2d2 ec3b
00000060: 41c5 d83d e851 173e 6c8a 51be 19a8 16be
00000070: 19e2 7abe 26dc 81be e46a aa3e 52ed 2ebe
00000080: be99 f6bd 93ce a53e e2e2 323e d160 293b
00000090: 1bb1 423d 4365 44bc c0a7 f63e fb20 69bd
000000a0: 69e2 633e 8f24 3abd 0c9d 8cbe deaf 123d
000000b0: fb53 823e 251e 823d e17d f13d bc5d eab9
000000c0: 31da 66bd daa0 19bd 69bf b6bd e87b aa3e
000000d0: aeaa e33e 9a91 9f3e 8e84 7fbe e4de f03d
000000e0: b4cb dbbd ed75 15be 905f a6bc e591 b63c
000000f0: 10da 9ebd b6e1 95bb 7e37 5abe 8891 16be
00000100: 9710 dd3e c0fc 90bc 190b fdbd c2cf 823e
00000110: d630 ea3e d5d7 963d eb11 8abd 8f47 95bd
00000120: f71f 333c bba4 59bd 87b0 2f3d a19a 02be
00000130: f2a1 bd3d 7509 f23e fcbe b83d 26ad 1c3e
00000140: cc9a 98bc 97b2 a53c d48a d4bc 47bd 06bf
00000150: c1ee 4b3e c376 233e dadc ab3d ab59 b8bd
00000160: 7289 a0be e07f c5be 36c9 02be f225 debd
00000170: dfd4 3f3c 0522 62bd e609 a03e 1a3c 733e
00000180: 8764 1a3e 2395 053c 955f 42be 402c 353d
00000190: cfcf 13bf 916b 153e 2c84 813e 2b88 6c3e
000001a0: 481f f6bd a220 0b3e 45b9 00bf 0ec9 98be
000001b0: 49e6 d73d 82cb 98ba 5661 8f3d a44f 8b3d
000001c0: c2c6 e53e c57f 2ebe 62b7 853d 6f65 a53d
000001d0: 168d 6b3c 06be 34bd bb11 0cbf a204 adbe
000001e0: 60b3 1b3e 99c5 94be 6b4a bb3d 0af5 0c3e
000001f0: 5fb4 6bbe 8815 b33e e6a4 9b3a e355 9d3e
00000200: 8ac8 263c eedd be3d 3b85 7f3d b49b f0be
00000210: c026 17be 4a45 e2bd 0793 2cbe 3e1d 46be
00000220: d15e 223e 0d03 593e ee3d 133d 8d38 0fbd
00000230: ec27 283e 8954 52bc f653 193e 2286 ce3e
00000240: aa6a b23d d25a 8e3d c543 2e3e 76d1 883e
00000250: 2775 103d e660 e33d 19d4 0abe 7f73 e33b
00000260: d9da 05be eef7 09be 47c0 073f 2b5c 45be
00000270: 6cb4 cfbd 5956 40bc 08d8 47be 967c 083a
00000280: b0f9 b73e 252d c5bb de1c 4ebe ea4a 2d3d
00000290: f07c 1cbe 2c4d 493d 6d24 b2bd e48c 3cbe
000002a0: 63a1 f13d a535 91bd 74f6 c83c 2b04 143d
000002b0: 36a6 3ebf 4ef9 743e e08d 91bc 41e7 5f3e
000002c0: 8506 de3e 368e 94bd 5997 863e 967c c9be
000002d0: 1a70 703c 12b4 39bd 7762 30bc c651 e03c
000002e0: b45a 9cbd b605 3f3f f27b e0bd 208b 183d
000002f0: aded 733e 58f4 8abe f4b9 153e ed68 dabe
00000300: c2d1 123d 6fcd 1d3d 21e8 2f3b 3f56 12bd
00000310: 0c32 cd3c 5869 19be 026e 34be 6730 553d
00000320: c448 d7bd 08ba 4d3e aa86 dc3d 0f8b 23be
00000330: 8780 733e 0f9c 813c 4a6d 5f3d 3718 c4bd
00000340: f5a4 b4be bbf8 62be 69ce 2fbe 084e f8bb
00000350: 8ac4 303c 65c2 71bd ecaa 313e 0147 70be
00000360: 0d10 073e 55d7 663e facb e7bd e84d 613c
00000370: 981d 813e 9fd5 88bc 9427 5d3c c805 c53b
00000380: e427 953d 8256 6a3e 61ac 743e 01b3 0d3e
00000390: 352d 49be edde 1f3e 6ce4 2bbe 038d 8fbd
000003a0: 33af 973e ac4b 1cbd 8cdd a2be bda4 02bf
000003b0: 1c9b 50be f8a8 88bc f533 76be 8f87 5ebd
000003c0: a32d 89bc 5c2f 933d de86 07bb ebf9 e23c
000003d0: 8afe 94bd d338 34bf daf1 213e cdb3 f0bd
000003e0: e98f f5bb 154a e0bd feab 23bd b718 5abc
000003f0: 4148 8a3d aac1 7ebe 0757 b93d 71a5 00be
0.045665722 0.22008485 -0.5196696 0.09807027 -0.3428636 0.07956115 0.013107326 -0.16633706
0.050558172 -0.0020454386 0.009564213 0.5234234 0.47168058 0.30710983 0.08775768 -0.035540447
-0.14164574 0.016960042 0.32745194 -0.16955191 -0.19263333 0.014200719 -0.18307264 0.0072272876
0.10584498 0.14777339 -0.2046296 -0.14712562 -0.24500312 -0.25363272 0.33284676 -0.17082718
-0.12041043 0.32384166 0.17469361 0.002584506 0.047532182 -0.011987033 0.48174858 -0.05691622
0.22254337 -0.04544502 -0.27463567 0.03581225 0.25454697 0.06353406 0.117915876 -0.00044701796
-0.056360427 -0.037506916 -0.08923227 0.33297658 0.44466156 0.31165773 -0.2495291 0.11761263
-0.10732213 -0.14595766 -0.02030924 0.022286365 -0.07756436 -0.004574026 -0.21310231 -0.14703953
0.4317672 -0.017698646 -0.12355632 0.25549132 0.45740384 0.073653854 -0.06741699 -0.07289039
0.010932914 -0.053135615 0.04289296 -0.12754299 0.09259404 0.4727284 0.090208024 0.15300426
-0.0186285 0.02022676 -0.025945105 -0.52632564 0.19915296 0.15963273 0.083917335 -0.09001478
-0.31354862 -0.38574123 -0.12772068 -0.10847081 0.011708467 -0.055208225 0.31257552 0.23753396
0.1507741 0.008153233 -0.18981774 0.044231653 -0.57738966 0.14591815 0.25296152 0.23098819
-0.12017685 0.13586667 -0.502827 -0.29840893 0.1054197 -0.001165733 0.07000987 0.068022996
0.44878203 -0.17040928 0.06529118 0.080759875 0.014376899 -0.044126533 -0.54714555 -0.33792597
0.15205145 -0.29057005 0.091450535 0.1376535 -0.23018025 0.34977365 0.0011874705 0.3072959
0.010179648 0.093196735 0.062382918 -0.46993792 -0.14760876 -0.11048372 -0.16852961 -0.19347093
0.15856482 0.2119257 0.035947733 -0.03496604 0.16421479 -0.012837538 0.14973435 0.4033671
0.08711751 0.06950916 0.1701804 0.26722306 0.035267975 0.11102466 -0.13557471 0.0069412584
-0.13071765 -0.13473484 0.53027767 -0.1927344 -0.101418346 -0.011739337 -0.19516003 0.0005206553
0.35932684 -0.0060173445 -0.201282 0.04230777 -0.15282035 0.049145862 -0.08698354 -0.1841312
0.1179836 -0.0709031 0.02453158 0.036136787 -0.7447237 0.23923227 -0.017767847 0.2186556
0.4336435 -0.07253687 0.26287344 -0.39352864 0.014675165 -0.045337744 -0.010765663 0.027382743
-0.07634488 0.7461809 -0.10961141 0.037242055 0.23821135 -0.27139544 0.14621717 -0.42658177
0.035844572 0.038525995 0.002684124 -0.035726782 0.025048278 -0.14981592 -0.1762009 0.052048113
-0.10511926 0.20090497 0.10767873 -0.15971015 0.23779498 0.015821485 0.054547586 -0.09574931
-0.35282102 -0.22165196 -0.17168583 -0.0075776614 0.010789046 -0.05902328 0.17350358 -0.23464586
0.13189717 0.2254308 -0.11318202 0.013751484 0.2521789 -0.016703425 0.013498206 0.006012652
0.07282999 0.22884563 0.23893882 0.13837816 -0.19646151 0.15612383 -0.16786355 -0.07009318
0.29625854 -0.038158104 -0.31809652 -0.5103262 -0.2037167 -0.016682133 -0.24043258 -0.054328497
-0.016745394 0.071867675 -0.0020679752 0.02770706 -0.07275112 -0.70399207 0.15814915 -0.11753044
-0.007493962 -0.1095163 -0.039958946 -0.013311557 0.067520626 -0.24878564 0.09049802 -0.12563111

linears.0.bias f4 [64]
00000000: b8c3 05be edc5 43bb e178 bfbe 0819 5cbe
00000010: 3711 373e c421 26bf e013 12be fff9 77be
00000020: 5ade b73e 7c20 f03e 7884 4abe c09c a7be
00000030: 6bed c1be 0eb7 36be e45d cf3e f2ce 04bf
00000040: e376 a03e 3cd9 07bf 08e2 ee3e 0c40 193e
00000050: 6bbd e73e 415e 933e cc22 f63e 3216 823e
00000060: f194 d33e ecde e93d 3a63 b3be 67f1 1bbd
00000070: 9794 973d ad65 b4be 85b0 cfbc 22dc f4ba
00000080: 2bae 2d3b cc5a d53e 4a3d 663d 369e 053e
00000090: a63b c03c f51a 5ebe a0b4 8e3e 6bbb c5be
000000a0: 3aa1 9bbd b766 d0be f540 e53e aefe 0cbf
000000b0: d40a e6bd 82de a6be ee54 093f 8417 d53e
000000c0: c55e 38be f20b 8e3d 546a 64be 7fdf 993e
000000d0: 233f 953c 739c b53e 67e1 bc3e d4cf 8bbe
000000e0: 04f8 95be c1ef 98bd dcc8 a93e bbb3 93be
000000f0: 635b b03d b620 01bd cfbe cc3e 4604 c2be
-0.13062942 -0.0029872612 -0.3739691 -0.21493924 0.1787766 -0.6489527 -0.14265394 -0.2421646
0.35911828 0.46899784 -0.19777095 -0.32736778 -0.37876448 -0.17843267 0.4050132 -0.51878273
0.31340703 -0.5306585 0.46656823 0.14965838 0.45261702 0.28782848 0.48073423 0.2540756
0.4132457 0.11419472 -0.3503664 -0.038072016 0.07401388 -0.35233822 -0.025352726 -0.0018681327
0.0026501517 0.41670835 0.056210794 0.13048634 0.023465943 -0.21689971 0.2787218 -0.3861955
-0.07599111 -0.40703365 0.4477612 -0.5507611 -0.11232534 -0.32591635 0.5364522 0.41619503
-0.18004902 0.06935872 -0.22306186 0.30053326 0.018218582 0.35470924 0.36890718 -0.27306998
-0.29290783 -0.074676044 0.33161056 -0.2884806 0.08611181 -0.031525336 0.39989325 -0.37893885

linears.1.weight f4 [64, 64]
00000000: 576b 2fbd cf50 8cbc c64b 993c 6b62 b33c
00000010: f394 04be 1c61 3a3e 849b c83d 2e9a 383d
00000020: 666a d4bd 99fb 91bc 34c0 fa3d 17d0 aebd
00000030: 14ff 34bd 0f80 833d 6075 0cbe 5cb6 9d3d
00000040: 6592 f83d 9037 373c 6a7d cbbd 3a77 58bd
00000050: 1a78 9b3d e194 b0bd 941f c1bd f157 b23d
00000060: 4776 c33d 01d7 8ebc cc30 683d 6b1a 653c
00000070: 8805 b3bd 86b1 3cbd 7e50 84bd ec84 4fbd
00000080: 09ee 413e 1bae 35bd 1787 033e 3c42 d23d
00000090: 95e8 153d 521b 32bd a5fb 2abd 6a67 a7bc
000000a0: ba7a 03bd cbda 15bd 887a 3ebd 792b 073e
000000b0: 0596 eebd e5eb 14bc 9681 22be f856 07bd
000000c0: 4d0d 9c3d 609a 5b3e 96ce 053d bf4b 7cbd
000000d0: e3ce 883a 43e8 1abe 66e5 31bd cf4d 20be
000000e0: 3820 7b3b 7cc0 76bc 41a7 063e b366 1c3e
000000f0: 95a6 313e 13ac 05bd a425 94bd b64c b23d
00000100: 226b a6bd fd86 a83d 4950 4cbd 763f debc
00000110: 72a6 39be 18a2 ff3d 7c4c 9bbc db90 833c
00000120: a899 9ebd baaf 493d 9b74 bdbd e593 b63d
00000130: 96f7 563d ac7e 083e bfbf 723d a92b ba3d
00000140: bfb4 2dbc 8f85 023e de11 82be de4c cdbc
00000150: 2d46 8dbc 0c9c fe3d 49a3 b1bd 61ca 553d
00000160: 8629 663d 3bde 85bd f9c5 793e 53eb 08be
00000170: adc0 40bd f3e7 93bd e372 4abe e986 163e
00000180: 7f5a 333e 279b d53c edd5 cebc bcfe ccbd
00000190: 9d2e 12be 0c68 513d a6e2 8c3d c305 75bc
000001a0: 8af9 3abe dd60 703a e538 2abe 7cff ba3d
000001b0: 827e fe3d 3328 533d 2ebd 93bd ce01 5c3d
000001c0: 3968 0d3b bc32 37bd 89c7 2ebb fad4 3cbe
000001d0: 5596 42be 5829 65bd 62a3 60bc 3c1c ac3d
000001e0: 9aeb 76be 14e9 56bd 5109 143c 1272 443e
000001f0: 8e1a 91bd 3b94 7b3c 700b 1b3e 6358 7c3e
00000200: 3947 d23d dd91 63bc b47a fd3d a7a4 c8bd
00000210: 2588 f9bd f11c 733e bc24 de3c c7ae 8d3c
00000220: 606a 903b 5eac 363d 8cb0 2fbd 2cf9 503d
00000230: 8617 cdbd e264 173e 21f0 20be 2723 d9bc
00000240: 7c5c 3cbd f5f9 3bbd 8001 2cbe 502a aebd
00000250: cdcb 3a3d 3998 513e 2657 c7bc c247 5c3d
00000260: 8d81 4bbe 0bf7 debd 51a3 053e c09b e9bd
00000270: 8e68 c4bd 14fd 08be 8c7f bcbd 1a98 a43d
00000280: 8cd1 2f3e 2a55 d83c 2090 0dbd aecb 7c3d
00000290: e533 3dbd 52cf 0c3e cd45 1fbe fca0 703e
000002a0: b523 65bd eee5 a53b d958 03bd 5196 e83d
000002b0: 49ea 493e a7f2 fe3d caf1 97bd b9a0 963a
000002c0: 2306 4b3e 0c2c efbc 2496 04bd e442 95bd
000002d0: 9013 05be c724 1ebc ba3c 4d3d 7c2f 1f3d
000002e0: 8389 59be f6cb efbd 5bbd 153d 4297 f23b
000002f0: c908 a73d 15e0 18bd 3ce0 e5bc af6c 843d
00000300: dd21 943d c4f3 acbd 80e9 323e 37d0 fbbb
00000310: 6916 a73d 593b 753e 11fe a93d a09e bdbc
00000320: e6e0 89bd 37c8 b13a d7b3 1bbe 7ee8 843b
00000330: c709 f0bc 09c7 7d3e 5dfb cfbd 5842 eabc
00000340: 326c 393e 9bea 1bbd fce8 1dbe d233 67bd
00000350: 1012 c53d 1b31 443e f020 9dbd 44c8 cc3c
00000360: e9bc d7bd 054e a4bc eca9 b83d 5811 67bd
00000370: 2134 efbc a8a9 193e 7e26 1d3d 8f86 14bd
00000380: ebc6 723e 5907 fbbd 859b 83bd 9989 fbbc
00000390: 7e85 a53c 34d1 343e f22a f63d 9c58 09bd
000003a0: 3615 d9bd 37d4 493e f9df a1bd 2d89 f8bd
000003b0: 48a7 33be 8556 283d 13ee 63be 2b13 42bd
000003c0: 0479 ad3d b94a e8bc 2364 2bbd 3896 5ebd
000003d0: fb75 3bbe 8034 e3bd 3b7d be3d 7a58 9cbd
000003e0: e4d9 02bd 608b 94bd 4590 7fbd 4bd4 093e
000003f0: 4795 ab3d bf28 183c ca2e 063e 06fa 073e
-0.042826977 -0.017128376 0.01871289 0.021897515 -0.12947445 0.18201107 0.09795287 0.045068912
-0.103718564 -0.017820166 0.12243691 -0.08535784 -0.044188574 0.064209096 -0.1371665 0.07700798
0.121372975 0.011182681 -0.0993603 -0.05284808 0.07591267 -0.086221464 -0.09429851 0.0870818
0.09544044 -0.017436506 0.05668716 0.013983349 -0.087412894 -0.046067737 -0.06460665 -0.050663874
0.1893846 -0.044355493 0.12844501 0.102665395 0.03659876 -0.043483086 -0.041743893 -0.020435054
-0.032099463 -0.03658561 -0.046503574 0.13200177 -0.11649708 -0.009089445 -0.15869746 -0.033041924
0.076197244 0.21445608 0.03266772 -0.061595675 0.0010437634 -0.15127663 -0.043431662 -0.15654682
0.0038318764 -0.01506054 0.1314974 0.15273552 0.17348702 -0.032634806 -0.07233742 0.08706038
-0.08125903 0.08228872 -0.049881253 -0.02712987 -0.181299 0.12482089 -0.018957369 0.016060283
-0.07744151 0.04923985 -0.09250756 0.089149274 0.05248221 0.13329571 0.059264895 0.09090359
-0.010602175 0.12746261 -0.25404257 -0.025061067 -0.017245376 0.12432107 -0.08673722 0.052194957
0.056191944 -0.06536528 0.24391927 -0.13371019 -0.04705875 -0.07221975 -0.19770388 0.14699902
0.1751499 0.026074959 -0.025248492 -0.10009524 -0.14275594 0.051124617 0.06879167 -0.014954987
-0.18259254 0.0009169707 -0.16623266 0.09130761 0.12426473 0.05155201 -0.072138175 0.05371266
0.0021577014 -0.04472612 -0.0026669225 -0.18440619 -0.1900266 -0.05594763 -0.0137108285 0.08403823
-0.24113312 -0.052468374 0.009035424 0.1918414 -0.07085143 0.015355165 0.15141082 0.24643092
0.10267491 -0.013889757 0.123769194 -0.0979703 -0.12184171 0.23741509 0.027117126 0.017295254
0.004407212 0.044597976 -0.042892978 0.05101888 -0.10014252 0.14784577 -0.15716602 -0.02650602
-0.045986637 -0.045892674 -0.16797447 -0.08504164 0.045604516 0.20468225 -0.024333548 0.05377937
-0.19873638 -0.108869635 0.13050582 -0.1140666 -0.09590255 -0.13377792 -0.09204015 0.080368236
0.1716978 0.026407797 -0.034561276 0.06171768 -0.04619207 0.13750961 -0.1555397 0.2349891
-0.055942256 0.00506281 -0.032067154 0.113567956 0.19718279 0.12448626 -0.074191645 0.0011491991
0.1982656 -0.029195808 -0.032369748 -0.07288149 -0.12995744 -0.009652323 0.05010674 0.038863644
-0.21243863 -0.11708824 0.036557537 0.0074032852 0.081559725 -0.037323076 -0.028061025 0.06466042
0.072330214 -0.08444932 0.17471886 -0.0076847333 0.08158571 0.2394842 0.083004124 -0.023146927
-0.06732349 0.0013563697 -0.15205322 0.0040560355 -0.029301537 0.24782957 -0.101553656 -0.028596088
0.1810768 -0.038065534 -0.15420908 -0.056445904 0.09622586 0.19159357 -0.07672298 0.024997838
-0.10534079 -0.020056734 0.09016785 -0.056413025 -0.029199662 0.15006125 0.038366787 -0.036261138
0.23708694 -0.12257261 -0.06426147 -0.03070526 0.020205256 0.1765793 0.1201991 -0.03353177
-0.10599749 0.1970986 -0.079040475 -0.12135539 -0.17544281 0.041098136 -0.22258787 -0.04738156
0.084703475 -0.028355943 -0.041843545 -0.05434248 -0.18306725 -0.11093998 0.093012296 -0.07634063
-0.031946078 -0.07253146 -0.062393446 0.1345989 0.08378082 0.009287058 0.13103786 0.1327897

linears.1.bias f4 [64]
00000000: 787e 603e 72dc ed3e ae4f a53e 582f 963e
00000010: 5ed0 93bd ae1e b23e bce0 0dbe 84e4 023e
00000020: 0f5e 73be 06d3 d43e e780 853d 8952 d0bc
00000030: 3e28 fb3e 8395 a53e 6c26 973e b158 603e
00000040: c061 493e 2170 3f3d a080 95be 33ea c33e
00000050: c245 8c3e 3d7f a43e f990 ae3e ecb5 613e
00000060: aedf abbd f735 1b3d 4d7c 813e 1d30 4ebe
00000070: 7706 0d3e 5928 1c3d 8128 80be 2835 7f3e
00000080: 886c ac3e 8f18 d93e 05f3 a1bd 647f 48be
00000090: 8162 5bbd 2950 c43d a20d c23e c049 533d
000000a0: ea69 193d 0367 5d3e 790c 4fbe a4cd e13d
000000b0: 7aaf 703e 4ce7 553e b00c 9fbe 5c15 ca3e
000000c0: e85a 813e a3c4 ed3e 0f97 923d 3047 b03e
000000d0: 1a37 62be f55c 0cbe 6911 803c d8a9 493e
000000e0: edbf 52be bbfe 8a3e 53c7 2dbe 6535 7f3e
000000f0: 3199 df3e 8a4a a23c fabe a93e a639 b23e
0.21923244 0.4645725 0.32287353 0.29332995 -0.07217477 0.34789032 -0.1385526 0.12782484
-0.2376635 0.41567248 0.06518727 -0.02542998 0.4905414 0.3234063 0.295215 0.21908833
0.19666195 0.046737794 -0.29199696 0.38264617 0.2739697 0.32128325 0.3409498 0.22042054
-0.08392273 0.03789326 0.25290146 -0.20135541 0.13771997 0.038124416 -0.25030902 0.24922621
0.33676553 0.4240155 -0.079076804 -0.19579846 -0.053560738 0.09585602 0.37901026 0.051584005
0.037454523 0.21621327 -0.20219602 0.11025551 0.23504439 0.20889014 -0.31064367 0.3946942
0.25264668 0.46439084 0.071577184 0.34429312 -0.22091332 -0.13707335 0.015633302 0.19693696
-0.20581026 0.2714747 -0.16970567 0.24922712 0.43671563 0.019810934 0.33153516 0.34809607

linears.2.weight f4 [5, 64]
00000000: e68e fbbd 4818 3ebe 82c0 d7bd 1fb6 19be
00000010: 984a 86bd d239 f1bd ef75 a9bd 386c bdbc
00000020: 3edb 55be dd72 40bd e0e4 7d3d 6575 00bd
00000030: 571a 1cbe 2c4e 95bd b51a 7cbc d449 16be
00000040: 0552 04be 34a2 5d3d 6ba9 7dbe 201c f6bd
00000050: 319f 70be a4b2 7dbd b876 6dbd a303 53bd
00000060: 142f 4c3d 9d21 38bd 708c 39be f869 22be
00000070: e5d3 a5bd d4c0 963c 7b7d f0bd a7e2 4ebd
00000080: 6eb1 013c eba1 0abd b920 c0bd db2e 37be
00000090: c890 3dbe fd84 4e3e fb25 1fbe 654c fe3c
000000a0: d9b9 aabc c995 9ebd 2fd8 42bd 7a57 e03d
000000b0: 832e 2abe 0575 c63d 1915 64bd 2666 28be
000000c0: c328 a9bd 52cb eabd 86d2 803d 8202 dfbd
000000d0: 5b28 84be 7672 103d e098 273b 281b 613d
000000e0: d0a7 cdbd 2175 e1bd d349 94bd fafc 993c
000000f0: 5963 2ebe 9117 12bb 982b 0fbe 18e3 4f3e
00000100: 7d96 f1bc e96e 31be bc01 22be c1f2 f3bd
00000110: ef15 e4bc 76c5 19be 565d c43c 202f 95bc
00000120: 93ee 07bd caf1 1dbe e47a 773d 3688 0d3d
00000130: 0990 1dbe 395e 063e f960 7fbc b30e bfbe
00000140: 10cb 9abd d30a 78bd 013c f7bd 2b6d 08be
00000150: 8f33 fabd 1cc4 0bbe 098c 1cbe ec59 0ebd
00000160: 9d65 a53d 5732 b3bb b9f8 57bd 99e0 9d3c
00000170: 2f78 29be 5910 633c 555c e937 3817 74bd
00000180: 03f7 713d 04b3 27be 3ab0 e93c 11bf ebbd
00000190: 3f07 88be 4416 213e b51e 7abd 5add 96bd
000001a0: 6320 92bc c278 923d 7509 123d 13d1 dbbd
000001b0: 87d7 3abe f1a1 883d 7d13 b2bd c9f8 eebd
000001c0: 3f84 26bd 2412 11be 73ba 49bd 61b9 16be
000001d0: 9ca5 7fbd 2449 543d b475 2c3d 8b20 dcbd
000001e0: ce41 a3bd 83fd debc ab3b b0bc 8004 2fbd
000001f0: c863 e5bd 1734 f93c 8a03 dfbd 9d16 97bb
00000200: 8606 91bd 3851 5cbe 559d 843c c017 f1bd
00000210: 9d74 31bd 8422 52be b7d9 4abe 0997 a2bd
00000220: edbb 95be 66a0 6bbd 3455 83bd acd0 753d
00000230: c63d 4cbe 4fae 443e 4ce4 20bb 0cad 563e
00000240: 72fc 82be 80e4 293e ae00 a4be 3e0c c03b
00000250: c438 6bbe 8387 35bd 15d2 b0bd 26c0 003d
00000260: b750 efbd 1abd 33be 9109 a2be e733 4dbe
00000270: 3638 8a3c 7d9b 553d 5a50 a8bd 4207 69bd
00000280: 2c21 0bbd 2704 2cbe 454a 32be d511 aebd
00000290: 98ed aebe b593 4f3d cbdd 67be 308a 833e
000002a0: f009 b4bd 6176 26be da65 cfbc 9b51 213e
000002b0: 9dd1 9ebd e2e5 ae3e 4c71 0ebe 6bfc a13c
000002c0: e00f 15be cf30 31be 5754 57be 423d f6bd
000002d0: e498 80be 1b12 71bd 5ac6 66be e7dc 89bd
000002e0: eea8 c4bd a09e db3b e12a 5cbd e038 30bd
000002f0: 3727 fdbd a519 89bd 8c96 4dbe 88de 7a3e
00000300: 68ef 32be b984 83bd 8747 6dbe 919f 23bd
00000310: b775 36bd 4a22 aabd fbb4 13bd 1cb8 74bb
00000320: f8e4 5e3d 72cc 52be f899 a4bd 418a 213d
00000330: 48bd d7bd 1ab7 a2bd a61c 0fbe e28c 1bbe
00000340: 952a a6be 18e2 b0bc 24ed 7a3c 5325 cbbd
00000350: 293b 43bd 4790 81be 0d52 e5bd abff 85bd
00000360: 3efd b73d a571 a4bd 3601 28be 6584 053d
00000370: db87 29be d24b ffbd 7a98 9bbd 3f83 b1bd
00000380: 676d 5e3c 70c5 60be 9e54 67bd a8b2 2a3e
00000390: 062b 703b b43e 8b3e 27f1 3dbe e965 cabd
000003a0: e953 b83c fa97 8bbe cd70 90be 4466 643d
000003b0: 5177 83bd 65cf 143e bd9d 20bd acce 61be
000003c0: c744 b13d 5319 39bc 554d 72bd 4e30 a7bd
000003d0: da7a 973c 3466 2a3e 867b dabd 832f 07be
000003e0: c3d2 da3d 054c 2dbe 924c fa3c a125 893b
000003f0: 1ee2 54be eb06 a3bd cb30 debc 7a07 bc3d
-0.12283115 -0.1856395 -0.10534765 -0.1501088 -0.065571964 -0.117786065 -0.08274447 -0.023122892
-0.20884416 -0.046984542 0.06198585 -0.031361956 -0.15244423 -0.07290301 -0.015387227 -0.146766
-0.12921913 0.054109767 -0.24771659 -0.12017083 -0.23498227 -0.061937943 -0.057974547 -0.05151714
0.049849585 -0.04495393 -0.18119979 -0.15860736 -0.08097056 0.018402494 -0.117426835 -0.05050912
0.007915838 -0.033845823 -0.09381241 -0.17888968 -0.18512261 0.20167919 -0.15541832 0.031042287
-0.020840572 -0.07743413 -0.04756945 0.10954185 -0.16619305 0.096902885 -0.055684183 -0.16445217
-0.08259728 -0.114645615 0.06290154 -0.1088915 -0.2581204 0.03526541 0.0025573298 0.05495754
-0.10041773 -0.11008669 -0.07240643 0.018797386 -0.17030086 -0.0022291879 -0.13981473 0.20301473
-0.029490704 -0.17327465 -0.15820974 -0.11911536 -0.02784249 -0.15016732 0.023970287 -0.018210948
-0.033186506 -0.15424266 0.060419932 0.03455373 -0.15386976 0.1312188 -0.015587085 -0.37315902
-0.07558262 -0.060557198 -0.12071992 -0.13322894 -0.12216865 -0.13649029 -0.15287794 -0.034753725
0.08076022 -0.0054686475 -0.052727435 0.019272136 -0.16549753 0.013858878 2.781876e-05 -0.059592456
0.05907346 -0.16376883 0.028526414 -0.115110524 -0.26568028 0.1573115 -0.06106444 -0.07366438
-0.017837709 0.07151939 0.03565355 -0.10733237 -0.1824628 0.06671513 -0.08695123 -0.11668546
-0.040653463 -0.14167076 -0.049250077 -0.14719154 -0.062413797 0.051827565 0.042104438 -0.107483946
-0.079715356 -0.027220493 -0.021512827 -0.0427289 -0.112006724 0.030420346 -0.10889347 -0.00461085
-0.07081322 -0.21515357 0.016188303 -0.11772108 -0.0433241 -0.20520979 -0.19809614 -0.07938964
-0.29244938 -0.057526015 -0.064127356 0.060013458 -0.1994544 0.19207118 -0.0024550138 0.2096445
-0.25583225 0.16591072 -0.3203177 0.0058608344 -0.22970873 -0.044318687 -0.0863382 0.031433247
-0.11685317 -0.17552605 -0.31647924 -0.2003933 0.016872507 0.05215024 -0.08218451 -0.056891687
-0.033967182 -0.16798459 -0.17411144 -0.08499495 -0.34165645 0.050677974 -0.22643201 0.25691366
-0.08790958 -0.16256095 -0.025317121 0.15753786 -0.07754824 0.34159762 -0.13910407 0.019773683
-0.14556837 -0.17303775 -0.21028267 -0.12023403 -0.25116646 -0.058855157 -0.22536603 -0.06731587
-0.09602533 0.006702259 -0.05375183 -0.04302299 -0.12360995 -0.066943444 -0.2007696 0.24498951
-0.17474139 -0.06421799 -0.23171817 -0.039947096 -0.044545855 -0.08307321 -0.03606127 -0.0037341183
0.05441758 -0.20585802 -0.0803718 0.03943849 -0.105341494 -0.0794508 -0.13975772 -0.15190461
-0.32454363 -0.021592185 0.015315328 -0.099192284 -0.04766384 -0.25305387 -0.111972906 -0.065429054
0.08983849 -0.080294885 -0.16406712 0.032596964 -0.16555731 -0.124656335 -0.07597442 -0.08667611
0.013575888 -0.21950316 -0.05647718 0.16669714 0.0036646738 0.27196276 -0.18549024 -0.09882719
0.022500949 -0.27264386 -0.2821106 0.05576159 -0.06419242 0.1453224 -0.03921293 -0.22051495
0.08655696 -0.011297542 -0.05915578 -0.0816351 0.018491197 0.1664055 -0.106680915 -0.13201718
0.10684731 -0.1692353 0.03055409 0.004185394 -0.20789382 -0.07960304 -0.027122876 0.091811135

linears.2.bias f4 [5]
00000000: 99e2 51be 8fc4 8fbe 265a bebe 655a bfbe
00000010: e37d d0be
-0.20496596 -0.2807965 -0.37178153 -0.37373653 -0.40721044
