dqn-exp/savedir/student-test/checkpoint50--model.pth (torch_old, 20763 bytes, 6 tensors)

linears.0.weight f4 [64, 6]
0	0x3d068442	0.032840975
1	0x3d8095ac	0.06278548
2	0xbea64a29	-0.32478455
3	0x3dc99733	0.09843292
4	0xbe7ad97d	-0.24497028
5	0x3d6e96cc	0.05824928
6	0x3e0006d5	0.12502606
7	0xbec34e3a	-0.3814562
8	0x3d9af823	0.075668596
9	0xbe48c5b4	-0.19606668
10	0xbd9d8864	-0.0769203
11	0x3eeaf32d	0.45888653
12	0x3f237000	0.63842773
13	0x3ed94883	0.42438135
14	0x3e6791ac	0.22614163
15	0xbd84d2bc	-0.06485507
16	0xbe5514bc	-0.20808691
17	0x3e27c3a0	0.16383219
18	0x3f051aa8	0.519938
19	0xbbf287b2	-0.00740143
20	0xbe392951	-0.18082167
21	0xbde040d9	-0.10949869
22	0xbca987c7	-0.020694626
23	0xbcb9352c	-0.022608362
24	0x3bc60b19	0.0060438034
25	0x3ed87080	0.4227333
26	0xbe87a9e1	-0.26496795
27	0xbbe11ee3	-0.006870137
28	0xbe8fdd18	-0.2809837
29	0xbeb551b8	-0.3541391
30	0x3f02196e	0.5082005
31	0xbe96fc5b	-0.29489407
32	0xbe915bea	-0.28390437
33	0x3e2ed8de	0.17074916
34	0x3e2c307c	0.1681537
35	0xbd0c625d	-0.034273494
36	0x3e640ff5	0.22271712
37	0x3d2fff7a	0.04296825
38	0x3e610ff2	0.21978739
39	0xbe3f127b	-0.18659393
40	0x3d8e1819	0.0693819
41	0x3d225591	0.039632384
42	0xbe9109f6	-0.28327912
43	0x3d9a88d9	0.07545633
44	0x3e816971	0.25275758
45	0xbd1be59b	-0.038060766
46	0x3e3db2b9	0.18525209
47	0x3d5889cf	0.0528658
48	0x3e9d7285	0.30751434
49	0xbe749ceb	-0.23887984
50	0xbde2d9a0	-0.11076665
51	0x3e9bb427	0.30410883
52	0x3ee664d9	0.44998816
53	0x3ea67921	0.3251429
54	0xbec8b9d6	-0.39204282
55	0x3eb879db	0.36030468
56	0xbe1a479e	-0.15066382
57	0xbe0cf6a9	-0.13765968
58	0xbd4d4cb6	-0.050121985
59	0x3b737ef2	0.0037154523
60	0xbc4ed175	-0.012623181
61	0x3e895972	0.26826054
62	0xbeaa73d6	-0.332915
63	0xbd5e928f	-0.054338988
64	0x3eb8e0d2	0.36109024
65	0xbe29f2f8	-0.16596591
66	0xbe208915	-0.15677293
67	0x3e27bae8	0.16379893
68	0x3f17a7e5	0.5924056
69	0x3e71be2e	0.23607704
70	0xbe8f087a	-0.27936155
71	0x3cac88e2	0.021061365
72	0x3e4b8547	0.1987506
73	0x3e454a95	0.19266732
74	0x3d07a061	0.033111934
75	0xbea1e4be	-0.3161983
76	0x3d0bbbb5	0.03411456
77	0x3f0e56df	0.55601305
78	0x3ccaeada	0.02477019
79	0x3eacaad2	0.33724076
80	0x3dd6a88d	0.10481367
81	0x3ea249bd	0.31696883
82	0xbe558bdc	-0.20854133
83	0xbeebbf39	-0.4604433
84	0x3e6d83be	0.23194787
85	0x3d40fa06	0.04711344
86	0x3d396fa3	0.04527248
87	0x3e0d3cb4	0.13792688
88	0xbe245064	-0.16046292
89	0xbf1fad8d	-0.6237419
90	0x3e036f88	0.12835515
91	0xbd3a6076	-0.04550215
92	0x3e06a75d	0.13149782
93	0xbe82a2d5	-0.25514856
94	0x3e170ab0	0.1475017
95	0x3eb468ef	0.35236308
96	0x3e46ef34	0.19427186
97	0x3e57dc61	0.21080162
98	0xbe5797b5	-0.21053965
99	0x3d279fda	0.04092393
100	0xbf14984e	-0.580449
101	0x3de2a61d	0.1106684
102	0x3d256c99	0.04038677
103	0x3e8ef9b1	0.27924874
104	0x3d75fe4d	0.060056973
105	0x3ed469f3	0.41487083
106	0xbf046899	-0.51722103
107	0xbed084d3	-0.40726337
108	0x3e8dcbf8	0.27694678
109	0xbe9098d2	-0.28241593
110	0x3d9fee66	0.07809143
111	0x3d997166	0.07492332
112	0x3ed1e736	0.40996712
113	0xbe22e21f	-0.15906571
114	0x3e11a2d3	0.14222269
115	0x3e5666f1	0.20937707
116	0xbe5009d1	-0.20316245
117	0x3e78f1a5	0.2431093
118	0xbebe58eb	-0.37177214
119	0xbed6f001	-0.41979983
120	0xbd0a9353	-0.033831906
121	0xbedbdad7	-0.429404
122	0x3e855492	0.26041085
123	0x3e005beb	0.12535064
124	0xbdfb1ee8	-0.12261754
125	0x3ed933b6	0.42422265
126	0x3d0d4c87	0.03449681
127	0x3ed91cc1	0.4240475
128	0x3e0c31c0	0.13690853
129	0x3e97b08a	0.29626876
130	0x3c711ba7	0.0147160655
131	0xbf050f1c	-0.5197618
132	0xbe1fced4	-0.15606242
133	0xbd8461ec	-0.064639896
134	0xbe06986e	-0.13144085
135	0xbe65a66a	-0.22426763
136	0x3d9fd609	0.07804496
137	0x3e267f9d	0.16259618
138	0xbda105a4	-0.07862404
139	0x3e5816df	0.21102475
140	0x3e6b77c7	0.2299491
141	0xbe47626a	-0.19471136
142	0x3e2a782f	0.16647409
143	0x3ed10833	0.40826568
144	0x3db0ed51	0.086390145
145	0x3e4a28d8	0.19742143
146	0x3e2f65f3	0.17128734
147	0x3ed02a40	0.40657234
148	0x3d670c78	0.056408376
149	0x3cd066ea	0.025439698
150	0xbd7c6fdd	-0.06163012
151	0xbe161c87	-0.1465932
152	0xbe46368c	-0.19356745
153	0xbe6425ed	-0.22280093
154	0x3ef0373b	0.46917138
155	0xbe5cc997	-0.21561275
156	0xbe2fd7e2	-0.17172197
157	0xbea3ed1e	-0.32016844
158	0xbeba897f	-0.36433026
159	0xbe99f31b	-0.30068287
160	0x3ebcd615	0.36882082
161	0x3da4c5b1	0.08045519
162	0xbe9a9660	-0.30192852
163	0x3d89e92d	0.06733928
164	0xbe51a36a	-0.20472494
165	0x3e2009af	0.15628694
166	0x3dc9df7a	0.09857078
167	0xbeb43ca9	-0.3520253
168	0x3dd6ef49	0.10494859
169	0xbd94792e	-0.07249676
170	0x3e0ac8ee	0.13553211
171	0xbd9de847	-0.07710319
172	0xbefd0333	-0.49416503
173	0x3f1a65a3	0.60311335
174	0xbe9e6aa5	-0.30940738
175	0x3d822c88	0.0635615
176	0x3ea78b07	0.32723257
177	0xbc1f8f95	-0.0097388225
178	0x3e0fd30c	0.14045352
179	0xbea8c51b	-0.3296288
180	0x3d807aa9	0.062733956
181	0xbe73467b	-0.23757355
182	0xbdc8248b	-0.09772595
183	0x3e0efdab	0.13963954
184	0xbe71469c	-0.23562092
185	0x3f0dce86	0.55393255
186	0xbeb39d38	-0.35080886
187	0xbd7f0705	-0.062262554
188	0x3eac6179	0.33668116
189	0xbea69fc4	-0.32543766
190	0x3e5236ba	0.20528689
191	0xbed59939	-0.41718462
192	0x3e8f9dd1	0.28050092
193	0xbe18f097	-0.14935528
194	0x3cea87f7	0.028629286
195	0xbedcb50f	-0.43106887
196	0xbd0f4230	-0.03497523
197	0x3d295551	0.04134113
198	0xbe932f9c	-0.2874726
199	0x3e11acfe	0.14226148
200	0xbe2c4ac9	-0.16825403
201	0x3eb91304	0.3614732
202	0x3d78a5b2	0.060704894
203	0xbe9efd82	-0.31052786
204	0x3df51883	0.11967566
205	0x3d106b88	0.0352588
206	0x3e8ad270	0.27113676
207	0xbe79a312	-0.24378613
208	0xbedce47c	-0.4314307
209	0xbd903c52	-0.07042755
210	0xbea0e0dd	-0.31421557
211	0xbbc68451	-0.006058254
212	0xbc346775	-0.011010994
213	0xbc572151	-0.013130502
214	0x3e808efe	0.25109094
215	0xbeda7153	-0.42664585
216	0x3e8e5b68	0.27804112
217	0x3e99ce78	0.30040336
218	0xbe24834d	-0.16065712
219	0x3e824f22	0.25451
220	0x3e4ca4c3	0.19984727
221	0xbe551ed3	-0.2081254
222	0x3e217456	0.15767035
223	0x3e6d735a	0.23188534
224	0x3e43b06d	0.1911027
225	0x3ee028cb	0.43781123
226	0x3e5aad23	0.21355109
227	0x3db5aa57	0.0887038
228	0xbe8e84b2	-0.27835613
229	0x3e7ac6e3	0.24489932
230	0xbe7165d4	-0.23574
231	0xbca8e516	-0.02061705
232	0x3ea2292a	0.3167203
233	0xbe709692	-0.23494938
234	0xbeb474cd	-0.35245362
235	0xbec2e9ae	-0.38068908
236	0xbe9c2fc8	-0.30505204
237	0xbd442f71	-0.047896806
238	0xbea506d3	-0.3223177
239	0x3da5184e	0.080612764
240	0x3b82016d	0.003967455
241	0x3dcc8f21	0.09988237
242	0xbddc61ec	-0.107608646
243	0x3e8c40c6	0.27393168
244	0xbe48fc37	-0.19627462
245	0xbf13a465	-0.5767272
246	0x3e22f630	0.15914226
247	0xbe1df980	-0.15427208
248	0x3d4f63c8	0.05063227
249	0xbe2bc1ab	-0.16773097
250	0xbd793a78	-0.060846776
251	0xbd3cfeb0	-0.046141326
252	0xbd93ed48	-0.07222992
253	0xbeb8870c	-0.36040533
254	0x3e4796bf	0.19491099
255	0xbeb68de3	-0.35655126

linears.0.bias f4 [64]
0	0xbe9b6be9	-0.30355766
1	0x3aa96780	0.0012924522
2	0xbe083e9f	-0.13305138
3	0xbde1e65b	-0.11030265
4	0x3e7629cf	0.24039386
5	0xbedcfe51	-0.43162778
6	0xbd0a79e2	-0.033807643
7	0xbdd096ed	-0.10185037
8	0x3e83d989	0.25751904
9	0x3ee286ab	0.44243369
10	0xbe12de6f	-0.14342664
11	0xbdbfb4b6	-0.0936064
12	0xbe884f14	-0.26622832
13	0xbd86f0b1	-0.06588877
14	0x3ea8c5aa	0.32963306
15	0xbe877546	-0.2645666
16	0x3d5d2c56	0.05399736
17	0xbe80c8f7	-0.25153324
18	0x3ed8fab0	0.4237876
19	0x3e24ec5f	0.16105793
20	0x3ed64cca	0.4185546
21	0x3e8095b6	0.2511422
22	0x3ef30f9c	0.47472847
23	0x3e8dd8e0	0.27704525
24	0x3ed6ec13	0.41976985
25	0x3d146b26	0.036234997
26	0xbe2b86de	-0.16750666
27	0x3cb0a64a	0.021563668
28	0x3dbcce74	0.09219065
29	0xbeab5ed6	-0.33470792
30	0xbd941faa	-0.07232602
31	0x3e35c4b6	0.1775082
32	0x3e814548	0.2524817
33	0x3ecd2eaf	0.4007468
34	0x3e2d279e	0.16909644
35	0x3dfb27dc	0.12263462
36	0x3de25faf	0.110534064
37	0x3dc2d1aa	0.095126465
38	0x3e7cccab	0.2468745
39	0xbebac87e	-0.36481088
40	0xbde2c2b6	-0.110722944
41	0xbeb3a925	-0.35089985
42	0x3edd0e68	0.43175054
43	0xbeabfb12	-0.3358999
44	0x3e06952f	0.13142847
45	0xbe6fedd0	-0.23430562
46	0x3efc5dec	0.49290407
47	0x3ec363dd	0.38162127
48	0x3d9eab5f	0.0774753
49	0x3dde973b	0.10868689
50	0x3db890c4	0.09011987
51	0x3e8e910e	0.27845043
52	0x3da3d50e	0.07999621
53	0x3eb6e72d	0.35723248
54	0x3eb5f8e5	0.35541454
55	0xbc0e2740	-0.00867635
56	0xbb5a5f60	-0.0033321008
57	0xbdc8bc7e	-0.09801577
58	0x3e7ee510	0.24892068
59	0xbe26204e	-0.16223261
60	0xbddbf143	-0.107393764
61	0xbb567a11	-0.0032726566
62	0x3ee71afc	0.45137775
63	0xbe4935b5	-0.19649394

linears.1.weight f4 [64, 64]
0	0xbdcb5232	-0.09927787
1	0xbd9c6c99	-0.07637901
2	0xbd778ed6	-0.060438953
3	0xbd3c28c9	-0.045937333
4	0xbe201c3b	-0.15635769
5	0x3e630cf5	0.22172911
6	0x3d7592b8	0.059954375
7	0xbbee740b	-0.007277017
8	0xbe200a24	-0.15628868
9	0xbd84fd19	-0.06493587
10	0x3c6b8635	0.014375259
11	0xbdd93722	-0.10606219
12	0xbdb8b257	-0.090183906
13	0x3c7d98c5	0.015478318
14	0xbe2276b0	-0.15865588
15	0x3dd5d662	0.10441281
16	0x3dc65668	0.096844494
17	0x3d7e0a26	0.062021397
18	0xbdec9fc6	-0.11553912
19	0xbcbb7973	-0.02288506
20	0x3d1c2747	0.038123395
21	0xbe02d74f	-0.12777446
22	0xbdf8c400	-0.12146759
23	0x3da6022e	0.081058845
24	0x3cc90161	0.02453679
25	0xbd8f4a36	-0.069965765
26	0xbb869a7a	-0.0041077705
27	0xbd2b5693	-0.04183061
28	0xbe2c4785	-0.16824158
29	0xbdf3e79d	-0.11909411
30	0xbdbab34a	-0.09116228
31	0xbbd21e6b	-0.0064123175
32	0x3e2890c9	0.16461481
33	0xbdd6925c	-0.104771346
34	0x3d0fd2e4	0.03511323
35	0x3cdf8550	0.027285248
36	0xbcfb97dc	-0.03071206
37	0xbd49f837	-0.04930898
38	0xbde3bc5a	-0.111199096
39	0xbd8f529e	-0.0699818
40	0xbd39a5de	-0.0453242
41	0xbd2fe4c7	-0.04294279
42	0xbda9938b	-0.08280095
43	0x3e3d0d19	0.18462028
44	0x3d4f5a41	0.050623182
45	0x3c486b3c	0.012232598
46	0xbe2081b7	-0.15674482
47	0xbe0399ed	-0.12851687
48	0x3d533e73	0.051573228
49	0x3dd1fe49	0.10253579
50	0x3df6342d	0.120216705
51	0xbdfc353e	-0.12314843
52	0xbd0434db	-0.03227697
53	0xbe16125b	-0.1465544
54	0xbdf8bd66	-0.121455
55	0xbd908fb0	-0.07058656
56	0x3c029e07	0.007972247
57	0xbb023490	-0.0019867755
58	0x3d9e0270	0.07715309
59	0x3e235f1b	0.15954249
60	0x3cfb999d	0.030712897
61	0xbdd293d7	-0.102821045
62	0xbd6b018f	-0.057374533
63	0x3dad00b9	0.084474035
64	0xbdfe32da	-0.12412043
65	0x3c1e9fa0	0.009681612
66	0xbddcff2a	-0.10790856
67	0xbd9d08ac	-0.0766767
68	0xbe2caa71	-0.16861893
69	0x3dd05366	0.10172157
70	0xbd8e539a	-0.069495395
71	0xbbc84467	-0.00611167
72	0xbd1a755b	-0.037709575
73	0x3d04e8ae	0.032448463
74	0xbc8beb6f	-0.017080037
75	0x3d84afb0	0.06478822
76	0x3d2f2666	0.04276123
77	0x3d8664ac	0.065621704
78	0x3ca698d4	0.020336546
79	0x3da75bef	0.08171832
80	0xbc9a234a	-0.018815655
81	0x3e10cb9d	0.14140172
82	0xbe504d61	-0.20342018
83	0xbd354b58	-0.044261307
84	0x3bd3c733	0.0064629554
85	0x3db830a8	0.089936554
86	0xbd9b681f	-0.07588219
87	0x3d59cab0	0.053171813
88	0x3dcca7cb	0.099929415
89	0xbc98381d	-0.018581444
90	0x3e492429	0.196427
91	0xbdf6f237	-0.120579176
92	0xbd631359	-0.055438373
93	0xbde53cf6	-0.11193268
94	0xbe56ca09	-0.20975508
95	0x3e1f71ee	0.15570804
96	0x3e23bd83	0.15990262
97	0x3d0d0cf1	0.03443617
98	0xbd2acac4	-0.04169728
99	0xbdd4b65e	-0.10386346
100	0xbe1d30e8	-0.15350688
101	0x3cd1c02c	0.02560433
102	0x3d9a4fd4	0.07534757
103	0xbc75937a	-0.014988774
104	0xbe5ed5eb	-0.2176129
105	0xbd01ed92	-0.031720705
106	0xbe1ae797	-0.15127407
107	0x3e31020a	0.17285934
108	0x3e007912	0.12546185
109	0x3d378dd7	0.044813003
110	0x3908e1e4	0.00013054122
111	0x3d0fdb30	0.035121143
112	0xbce744dd	-0.028231079
113	0xbd9abfdf	-0.07556128
114	0x3d3798af	0.044823345
115	0xbdb9f145	-0.09079222
116	0xbe2d9bb0	-0.16953921
117	0xbc737151	-0.01485856
118	0x3aab0374	0.0013047294
119	0x3de91e00	0.11382675
120	0xbe59577f	-0.21224783
121	0xbd83c717	-0.06434458
122	0x3d048639	0.032354567
123	0x3e20627e	0.15662572
124	0xbdab1bc3	-0.083549045
125	0x3ca8b8c5	0.020595917
126	0x3e33c670	0.17556167
127	0x3e5804ce	0.21095583
128	0x3d5cadd2	0.053876705
129	0x3caea54e	0.021319058
130	0x3d89ae14	0.06722656
131	0xbe2e97bf	-0.17050074
132	0xbde146b5	-0.109998144
133	0x3e6dec2d	0.23234625
134	0x3cefba89	0.029263752
135	0xbc352b61	-0.011057706
136	0x39fe6fc9	0.00048529942
137	0xbbff9b28	-0.0078004785
138	0xbdb15ae9	-0.08659918
139	0x3db2e0a6	0.087342545
140	0xbe050f07	-0.12994014
141	0x3dd80258	0.10547322
142	0xbd199e87	-0.0375047
143	0xbc24b5d1	-0.010053114
144	0xbd4d2f59	-0.050093982
145	0xbc1511e4	-0.009098504
146	0xbe1d7f13	-0.15380506
147	0xbd79cee2	-0.060988314
148	0x3ddc13c4	0.107459575
149	0x3e406032	0.18786696
150	0xbd4ff832	-0.050773807
151	0x3d8a7ba7	0.06761866
152	0xbe06ea64	-0.1317535
153	0xbe0045ba	-0.12526599
154	0x3dbfd954	0.09367624
155	0xbe0c1553	-0.1368001
156	0xbe2ab346	-0.1666995
157	0xbe1daba6	-0.1539751
158	0xbdf91c46	-0.12163596
159	0x3ddff9be	0.109363064
160	0x3e2c59b1	0.1683109
161	0x3d14515d	0.036210407
162	0xbda02d4c	-0.0782114
163	0x3ce36442	0.027757768
164	0xbd993889	-0.07481486
165	0x3e13ab63	0.14420848
166	0xbde0c85f	-0.10975718
167	0x3e3ae73c	0.18252271
168	0xbdaa0082	-0.08300878
169	0xbc004e73	-0.007831204
170	0xbd73caea	-0.059519686
171	0x3e267300	0.16254807
172	0x3e674f72	0.225889
173	0x3e21d668	0.15804446
174	0xbd0eed4b	-0.03489427
175	0xbc3e7773	-0.011625159
176	0x3e36187e	0.1778278
177	0xbdae5e22	-0.08514048
178	0x3d1ec525	0.03876223
179	0xbdba57fe	-0.090988144
180	0xbe003cfb	-0.12523262
181	0x3c864e59	0.016394781
182	0x3ce05516	0.027384322
183	0x3df7d1c1	0.12100554
184	0xbe4f8361	-0.20264961
185	0xbdf50a7a	-0.11964889
186	0x3d3f906c	0.04676859
187	0xbb3608b3	-0.0027776181
188	0xbcd8ac61	-0.026449384
189	0xbd52b5bd	-0.05144285
190	0x3d67557e	0.056478016
191	0x3d3fb4d0	0.046803296
192	0x3d08151a	0.03322325
193	0xbddeddb2	-0.10882129
194	0x3dc6f92a	0.09715493
195	0xbd7be7a3	-0.061500203
196	0x3d561b8d	0.05227237
197	0x3e6dbd91	0.23216845
198	0x3d009d97	0.03140029
199	0xbd9dc9b7	-0.0770449
200	0xbd9bad59	-0.07601423
201	0xbd238932	-0.03992576
202	0xbe1ada9a	-0.15122452
203	0xbbe925cd	-0.007115102
204	0xbd90d265	-0.070713796
205	0x3e4a6a1d	0.19767042
206	0xbe13f2da	-0.1444811
207	0xbc9961c7	-0.018723382
208	0x3e28d0b4	0.16485864
209	0x3b2b0a21	0.0026098567
210	0xbe0fc5f4	-0.14040357
211	0xbcc8bb04	-0.024503238
212	0x3d4d0059	0.05004916
213	0x3e07613b	0.13220684
214	0xbda93ca7	-0.08263522
215	0x3cb67336	0.022271734
216	0xbe064d6f	-0.13115476
217	0xbd2e0722	-0.04248727
218	0x3cf09e56	0.029372375
219	0xbdc58bf2	-0.09645833
220	0xbdbd19da	-0.092334464
221	0x3da3d0ec	0.07998833
222	0x3d1129e4	0.03544034
223	0xbdd93da2	-0.10607459
224	0x3e4c8604	0.19972998
225	0xbe247fb5	-0.16064341
226	0xbe0050b8	-0.12530792
227	0xbdc11b0b	-0.09428986
228	0xbc9a860d	-0.018862749
229	0x3e1eb745	0.154996
230	0x3d806e59	0.06271047
231	0xbccdf040	-0.025138974
232	0xbdebcade	-0.11513303
233	0x3e3f1c80	0.18663216
234	0xbdc03074	-0.09384242
235	0xbd2c75ff	-0.042104717
236	0xbd8b13fd	-0.06790922
237	0x3d9490d9	0.0725419
238	0xbe5153a0	-0.20442057
239	0xbd54cd12	-0.051953383
240	0x3d672ea6	0.05644097
241	0xbdc2ff93	-0.09521403
242	0x3c061b0c	0.008185159
243	0xbda214e4	-0.07914141
244	0xbe443f24	-0.19164711
245	0xbdf2195d	-0.11821244
246	0x3cc8ace4	0.024496503
247	0xbc62aa75	-0.013834585
248	0xbc4990f4	-0.012302626
249	0xbca821c2	-0.02052391
250	0xbdb73d02	-0.08947183
251	0x3de4d0e1	0.11172653
252	0x3b55f3bc	0.0032646498
253	0xbcc38e2f	-0.02387151
254	0x3d7897f3	0.060691785
255	0x3ddb028b	0.106938444

linears.1.bias f4 [64]
0	0x3dec8398	0.11548537
1	0x3e8bc2d3	0.27297077
2	0x3e28526e	0.16437694
3	0x3d30363a	0.043020464
4	0xbdea3708	-0.11436278
5	0x3e582c38	0.21110618
6	0xbe0a41d7	-0.13501678
7	0x3d99f5de	0.075175986
8	0xbe214ac1	-0.15751173
9	0x3dc7c3fc	0.09754178
10	0xbd27c38e	-0.04095798
11	0x3d2598d4	0.04042895
12	0x3e9b6c1a	0.30355912
13	0x3e28aae4	0.1647144
14	0x3de14468	0.109993756
15	0x3e007188	0.12543309
16	0x3d1f0f61	0.038833026
17	0xbcf2e604	-0.029650696
18	0xbe499a37	-0.19687735
19	0x3e814d80	0.2525444
20	0x3de8f803	0.113754295
21	0x3e36d711	0.17855479
22	0x3d79bab4	0.06096907
23	0x3e098838	0.1343087
24	0xbdcc0424	-0.09961727
25	0x3b66fcfc	0.0035246005
26	0x3d733d67	0.05938473
27	0xbe1377cf	-0.14401172
28	0x3d84fc51	0.06493438
29	0x3cb636f1	0.022242995
30	0xbe6e9f10	-0.23302865
31	0x3e23e733	0.16006164
32	0x3e60eadc	0.21964592
33	0x3e6a8056	0.22900519
34	0xbdcbaadf	-0.099447004
35	0xbe321647	-0.1739131
36	0x3c082d62	0.008311601
37	0xbbc86fd2	-0.0061168456
38	0x3e1a7794	0.15084678
39	0x3deeb9b7	0.11656516
40	0x3d91bb80	0.07115841
41	0x3db320f6	0.08746521
42	0xbe221a96	-0.15830454
43	0x3e0d180a	0.13778701
44	0x3dc90675	0.09815685
45	0x3ddb8d1b	0.10720273
46	0xbe51f424	-0.20503289
47	0x3e698f9c	0.22808689
48	0x3dca3042	0.09872486
49	0x3e85b798	0.26116633
50	0x3dcc76a7	0.09983569
51	0x3d9869bb	0.074420415
52	0xbe0a7fa8	-0.1352526
53	0xbdecc4cd	-0.11560974
54	0x3b4603e3	0.003021472
55	0x3e1217f2	0.14266947
56	0xbdbc1444	-0.09183553
57	0x3ddfbec9	0.10925061
58	0xbe3c9846	-0.18417463
59	0x3e145857	0.14486824
60	0x3dded065	0.10879592
61	0xbd299e3c	-0.04141067
62	0x3e302f70	0.17205596
63	0x3e583fc6	0.21118078

linears.2.weight f4 [5, 64]
0	0xbe2cdd6a	-0.16881338
1	0xbe3811e7	-0.17975579
2	0xbdcf7392	-0.10129465
3	0xbe148e76	-0.1450747
4	0xbde1a969	-0.110186405
5	0xbde6d05e	-0.11270212
6	0xbd382de7	-0.04496565
7	0xbde0e1ea	-0.1098059
8	0x3dba9773	0.09110918
9	0xbd553277	-0.05205008
10	0x3d7de4e0	0.06198585
11	0xbd007565	-0.031361956
12	0xbe15b2f7	-0.14619051
13	0xbc24988c	-0.010046136
14	0xbd80dee0	-0.0629251
15	0x3deadd6f	0.11468016
16	0xbc9773e2	-0.018487874
17	0x3d880c7d	0.06643007
18	0xbdaeeac2	-0.0854087
19	0xbdf5931a	-0.11990948
20	0xbe66bcc9	-0.22532953
21	0xbd39b6e2	-0.045340426
22	0xbd664779	-0.056220505
23	0xbdc55673	-0.096356295
24	0x3d92e39a	0.07172318
25	0xbcfae7c5	-0.030628094
26	0xbe1b6740	-0.15176105
27	0x3d3312ec	0.043719217
28	0xbd9437b5	-0.07237188
29	0x3c890857	0.01672761
30	0xbda89080	-0.08230686
31	0xbd8f44a1	-0.06995512
32	0x3c395e5c	0.011314001
33	0xbcd68595	-0.026186744
34	0x3d5b00ba	0.05346749
35	0xbd94eb22	-0.072714105
36	0xbd22cdfb	-0.03974722
37	0x3e3be23b	0.18348019
38	0xbe1a5543	-0.15071587
39	0x3db877f6	0.09007256
40	0xbd92b1a0	-0.071627855
41	0x3e52fc6f	0.20604108
42	0xbd8bec6f	-0.068322055
43	0x3de05d45	0.1095529
44	0xbe279280	-0.16364479
45	0x3dd5b81c	0.10435507
46	0xbd90f527	-0.07078009
47	0xbe299eb7	-0.16564451
48	0x3e0fc563	0.14040141
49	0xbde98ea6	-0.11404161
50	0x3d80d11a	0.06289883
51	0xbdcea99e	-0.10090946
52	0xbc3238d6	-0.010877809
53	0xba18b6f3	-0.00058256014
54	0x3b2798e0	0.0025573298
55	0x3d38ac34	0.0450861
56	0xbdaa34ce	-0.08310853
57	0xbe1da6ae	-0.15395615
58	0xbd845a82	-0.064625755
59	0x3c9b4c93	0.018957412
60	0xbe235491	-0.15950228
61	0x3bbef9ef	0.0058281342
62	0xbe10be26	-0.14135036
63	0x3e44e099	0.19226302
64	0xbd4fcf68	-0.050734907
65	0xbe25c0e2	-0.1618686
66	0xbe25013b	-0.1611375
67	0xbde9c13f	-0.11413812
68	0xbd56f302	-0.052477844
69	0xbe180cd1	-0.14848639
70	0x3d2503e3	0.04028691
71	0xbc3209d8	-0.010866605
72	0x3d7b3242	0.061327226
73	0xbe2c35c3	-0.16817383
74	0x3d777ae4	0.060419932
75	0x3d0d8836	0.03455373
76	0xbe131ffb	-0.14367668
77	0xbd19c1fe	-0.03753852
78	0xbd58d7ff	-0.052940365
79	0xbdfca46f	-0.12336051
80	0xbc875a80	-0.016522646
81	0xbdaeace5	-0.08529071
82	0x3c86543f	0.016397594
83	0xbe0e585b	-0.13900892
84	0xbdcd4d25	-0.1002448
85	0xbe0921ab	-0.1339175
86	0xbe2a7d48	-0.16649354
87	0xbd937bba	-0.07201333
88	0x3d5b1654	0.05348809
89	0x3c7f4e95	0.0155827
90	0x3c213ad3	0.009840685
91	0x3d085faa	0.033294357
92	0xbe3086c7	-0.17238913
93	0x3c20bfd3	0.009811359
94	0x3cfde62d	0.030993545
95	0xbda84b04	-0.08217433
96	0x3d4c9c6c	0.049953863
97	0xbe33dcfd	-0.17564769
98	0x3d465ab0	0.04842633
99	0x3cdd5d17	0.027021928
100	0x3d725722	0.059165128
101	0x3dbd79d8	0.092517555
102	0xbd3f61b4	-0.046724036
103	0x3d594323	0.053042542
104	0xbd927daf	-0.071528785
105	0x3e3bab2c	0.18327016
106	0xbd282eb5	-0.04106017
107	0xbde753f0	-0.11295307
108	0xbe36bd96	-0.17845759
109	0x3d5db74d	0.054129887
110	0xbddff4b2	-0.10935344
111	0xbde61934	-0.11235276
112	0x3d1aeccb	0.03782348
113	0xbe0d0e23	-0.13774924
114	0xbd49c745	-0.049262304
115	0xbe173cbc	-0.14769262
116	0x3a279317	0.00063924625
117	0xba9a8509	-0.0011788915
118	0x3d2c75b4	0.042104438
119	0xbe1f5251	-0.15558745
120	0x3cdb39e7	0.026761008
121	0xbd31fcec	-0.043454096
122	0x3c7f4048	0.015579291
123	0xbd34111d	-0.043961633
124	0xbdc3c371	-0.09558762
125	0xbc4fe670	-0.012689218
126	0xbdcc70fd	-0.09982488
127	0xbd540223	-0.05175985
128	0xbdb7f9f9	-0.089832254
129	0xbe587928	-0.21139967
130	0x3cdcf262	0.026971046
131	0xbdfd2a53	-0.12361588
132	0xbd88f77b	-0.06687828
133	0xbe5b152b	-0.21394794
134	0xbddccfd2	-0.10781826
135	0xbe3fb0bf	-0.18719767
136	0x3d69e0f0	0.057099283
137	0xbd697e85	-0.057005424
138	0xbd835534	-0.064127356
139	0x3d75d0ac	0.060013458
140	0xbe4a592f	-0.19760583
141	0x3e4f0b08	0.20219052
142	0xbccbd1f5	-0.024880389
143	0x3eb58736	0.3545472
144	0xbe88c4f0	-0.2671275
145	0x3e2be601	0.16786958
146	0xbe3b19c0	-0.18271542
147	0x3c69bc37	0.014266065
148	0xbe66a9dc	-0.22525734
149	0xbd24ac5e	-0.040203445
150	0xbdb3f699	-0.08787269
151	0x3d23f1fb	0.040025692
152	0xbc318618	-0.010835193
153	0xbc833b73	-0.016019559
154	0xbe886ce8	-0.2664559
155	0x3cd6b7fd	0.02621078
156	0x3cda797d	0.026669258
157	0x3c975abd	0.018475885
158	0xbe05293e	-0.13004014
159	0xbd8957d7	-0.06706207
160	0xbd1036b6	-0.035208426
161	0xbe310660	-0.17287588
162	0xbd12ee20	-0.035871625
163	0xbda0585f	-0.078293554
164	0xbdd1078f	-0.1020652
165	0x3d0cb976	0.034356557
166	0xbe659d1e	-0.22423217
167	0x3dfc645a	0.12323828
168	0xbe1728b6	-0.14761624
169	0x3e95b25c	0.2923764
170	0xbd2d2cdc	-0.04227911
171	0x3e1ef3b4	0.15522653
172	0xbd9f8c45	-0.07790426
173	0x3eae5753	0.34050998
174	0xbe180cbe	-0.14848611
175	0x3cccf663	0.02501983
176	0xbd2b25e6	-0.04178419
177	0xbe3903fd	-0.18067928
178	0xbe57563e	-0.21028993
179	0xbdf4aac5	-0.11946634
180	0x3d8659b8	0.06560081
181	0xbe3ca00a	-0.18420425
182	0xbe66c65a	-0.22536603
183	0xbdb96eb7	-0.0905432
184	0xbe14ea6f	-0.14542554
185	0xbc79797d	-0.015226719
186	0x3c50c234	0.012741614
187	0xbd2ff0f5	-0.042954404
188	0xbdfadf5b	-0.12249633
189	0x3de4c80e	0.1117097
190	0xbe540b20	-0.20707369
191	0x3e817b68	0.25289464
192	0xbe306c19	-0.17228736
193	0xbd656669	-0.05600587
194	0xbe7b17c7	-0.24520789
195	0xbd530f30	-0.051528156
196	0xbdbccd00	-0.09218788
197	0xbd74339b	-0.059619527
198	0xbc7743f0	-0.015091881
199	0xbc947340	-0.018121362
200	0xbd232dd6	-0.039838634
201	0xbe7217bc	-0.23641866
202	0xbda499f8	-0.0803718
203	0x3d218a41	0.03943849
204	0xbdd56a13	-0.10420623
205	0xbda2b71a	-0.0794508
206	0xbe385256	-0.18000159
207	0x3dc22315	0.094793476
208	0xbd550164	-0.05200328
209	0xbcb0e218	-0.021592185
210	0x3c0e0ced	0.008670074
211	0xbdd10efd	-0.10207937
212	0xbc89fdde	-0.016844686
213	0xbe6334be	-0.22188088
214	0xbe111a55	-0.14170201
215	0xbd965e32	-0.07342185
216	0x3d500867	0.050789263
217	0x3dbd7301	0.09250451
218	0x3d4d2c48	0.050091058
219	0x3d754e5d	0.059889186
220	0xbe3b8c3b	-0.18315212
221	0xbdfb4b7b	-0.12270256
222	0xbd071d1b	-0.03298674
223	0xbd77bc93	-0.060482573
224	0x3c5e6d67	0.013575888
225	0xbe688091	-0.22705294
226	0x3dd31488	0.103066504
227	0x3df0bb72	0.11754502
228	0x3b702b06	0.0036646738
229	0x3eb17ad4	0.34664023
230	0xbe25483d	-0.16140838
231	0x3dd2f39a	0.103003696
232	0xbd429273	-0.047502946
233	0x3da75e46	0.08172278
234	0xbe871e8c	-0.26390493
235	0x3d646644	0.05576159
236	0xbdb51b39	-0.08843083
237	0x3e5fabe4	0.21842915
238	0xbd26ee66	-0.0407547
239	0xbe697c33	-0.22801284
240	0x3e952e8c	0.29137075
241	0xbcbc2140	-0.022965074
242	0xbd724d55	-0.05915578
243	0xbdc728bb	-0.097245656
244	0xbc93a5f4	-0.018023469
245	0x3d04e999	0.03244934
246	0xbdda7b86	-0.106680915
247	0xbe35dd5b	-0.17760222
248	0x3c638125	0.013885771
249	0xbe296e2b	-0.16545932
250	0xbe2c1ae4	-0.16807133
251	0x3b8925a1	0.004185394
252	0xbe5b2aa1	-0.2140298
253	0xbd29c758	-0.041449875
254	0xbc4ebf38	-0.012618832
255	0x3e2ee41d	0.17079206

linears.2.bias f4 [5]
0	0xbab44eba	-0.0013756373
1	0xbd9d32a8	-0.076756775
2	0xbe7ea56d	-0.24867792
3	0xbe417024	-0.18890435
4	0xbdd880d0	-0.10571444
