dqn-exp/savedir/student-test/checkpoint0--model.pth (torch_old, 20763 bytes, 6 tensors)

linears.0.weight f4 [64, 6]
0	0xbecb1d7a	-0.39670926
1	0xbe04ef46	-0.129819
2	0x3eb34328	0.35012174
3	0x3e80fa5c	0.2519101
4	0xbe8e70f0	-0.2782054
5	0xbea3b372	-0.31972843
6	0xbdfc482c	-0.12318453
7	0x3e3d72ec	0.1850087
8	0x3e76064c	0.2402584
9	0xbd5755f8	-0.05257222
10	0x3cea9ad0	0.028638273
11	0x3e0a3924	0.1349836
12	0x3dcff6d0	0.101544976
13	0xbe54e39e	-0.20789954
14	0xbeb844f4	-0.35990107
15	0x3d5ae710	0.053443015
16	0x3ec56344	0.38552296
17	0x3e93e4dc	0.28885543
18	0xbe1780ce	-0.14795229
19	0x3dbc4778	0.09193319
20	0xbe97af28	-0.2962582
21	0xbdc25a78	-0.09489912
22	0x3e697ce4	0.22801548
23	0x3df11260	0.11771083
24	0x3ea4df42	0.32201582
25	0xbe42b5a7	-0.19014607
26	0xbe316a7e	-0.1732578
27	0x3e90cd1a	0.2828148
28	0xbed09cd3	-0.40744647
29	0x3d11e320	0.035616994
30	0xbe70b510	-0.2350657
31	0x3dbed0f8	0.093172014
32	0x3eaebf92	0.34130532
33	0xbec7fa50	-0.3905816
34	0x3e96c732	0.2944885
35	0x3e9c768e	0.305592
36	0x3e0ffcc4	0.14061266
37	0xbe3a1ce9	-0.18175091
38	0x3ea2f286	0.31825656
39	0x3e36de98	0.1785835
40	0xbe151818	-0.14559972
41	0x3de7bdb0	0.11315477
42	0x3d0790d8	0.03309712
43	0xbe981ab6	-0.2970788
44	0x3e68a144	0.22717768
45	0xbe3df20c	-0.18549365
46	0xbe8fa00a	-0.28051788
47	0xbe471cb6	-0.19444546
48	0x3e8ce5be	0.2751903
49	0x3e9ec6f2	0.31011158
50	0x3e365258	0.17804849
51	0x3ecf4afe	0.40486902
52	0xbd303478	-0.043018788
53	0x3d508880	0.050911427
54	0x3ec0659c	0.37577522
55	0x3e182e48	0.14861405
56	0x3eabe318	0.33571696
57	0xbd122cd0	-0.035687268
58	0xbea0a026	-0.31372184
59	0x3d7f3b60	0.062312484
60	0xbe6e4a0b	-0.23270433
61	0x3e93a54a	0.28837043
62	0xbe61822d	-0.22022314
63	0xbea379ec	-0.31928957
64	0x3e9c612a	0.3054288
65	0xbdd48978	-0.103777826
66	0xbe31cabc	-0.17362493
67	0x3e023b9c	0.12718052
68	0xbe80880a	-0.2510379
69	0xbe973654	-0.29533637
70	0x3e119a74	0.14219075
71	0x3e9e976c	0.309749
72	0xbd874304	-0.06604579
73	0xbd8b8b68	-0.06813699
74	0xbeb3b185	-0.35096374
75	0x3e89200a	0.26782256
76	0xbe1a87cc	-0.15090865
77	0xbeb75b44	-0.35811818
78	0x3ec1faac	0.3788656
79	0x3e920902	0.28522497
80	0xbe48bf06	-0.1960412
81	0xbe9f2252	-0.31080872
82	0xbe7fce34	-0.24981004
83	0x3ddbde68	0.1073578
84	0x3e623238	0.2208947
85	0x3e90b826	0.28265494
86	0xbcde5a60	-0.027142704
87	0x3d6854d0	0.05672151
88	0xbdc2f0a0	-0.09518552
89	0xbe0c7282	-0.13715556
90	0x3e3e8834	0.18606645
91	0x3ec29cb4	0.3801018
92	0x3dd0d490	0.10196793
93	0x3d66e050	0.056366265
94	0xbe8f7566	-0.28019255
95	0xbecdd04e	-0.40197986
96	0x3ebdc70c	0.37065923
97	0xbce38900	-0.027775288
98	0x3c2b3b80	0.010451198
99	0x3e473164	0.19452435
100	0xbc897200	-0.016777992
101	0xbeb1c794	-0.3472258
102	0x3eace020	0.33764744
103	0xbe4741fd	-0.19458766
104	0x3d51bf78	0.05120799
105	0x3da11248	0.07864815
106	0xbd944e34	-0.072414786
107	0xbe77880c	-0.24172992
108	0xbe535d96	-0.20641169
109	0xbeb84ca7	-0.3599598
110	0x3cf06510	0.029345065
111	0xbe1dd53e	-0.15413377
112	0xbea8cdee	-0.32969612
113	0xbe9b74bc	-0.303625
114	0xbebb6b6a	-0.36605388
115	0x3d954848	0.07289177
116	0x3e88369e	0.2660417
117	0xbec810a2	-0.3907519
118	0xbe3143bf	-0.17311
119	0x3e2d98b0	0.16952777
120	0x3e0d8e58	0.13823831
121	0x3dd15d18	0.10222834
122	0x3e1c937c	0.15290636
123	0x3e9b514c	0.30335462
124	0x3e984798	0.29742122
125	0xbe55ce11	-0.2087939
126	0x3ec40f5c	0.38292968
127	0x3ea8a028	0.3293469
128	0x3e19f1f8	0.1503371
129	0xbe692a85	-0.22770126
130	0xbd7ab3f0	-0.061206758
131	0x3ec4d086	0.3844034
132	0xbebe144f	-0.3712487
133	0x3e3e53f8	0.18586719
134	0xbdd19778	-0.102339685
135	0x3dc03448	0.09384972
136	0x3e36db74	0.17857152
137	0x3c3b8520	0.011445314
138	0x3e8144a0	0.2524767
139	0xbde485bc	-0.1115832
140	0x3caf6240	0.021409154
141	0xbdfbd388	-0.12296206
142	0xbe466e12	-0.19377926
143	0xbd4ffea8	-0.05077997
144	0x3ebc76e8	0.36809468
145	0xbe5f7e88	-0.21825612
146	0x3e60fc6c	0.21971291
147	0x3ea5f2ba	0.32411748
148	0xbec26ec2	-0.37975127
149	0xbec2f548	-0.3807776
150	0xbe2619ee	-0.16220829
151	0x3e9739b8	0.29536223
152	0xbeac156e	-0.336101
153	0xbe011aa2	-0.12607816
154	0x3df439d0	0.11925089
155	0x3dcc28a8	0.09968692
156	0x3d886d50	0.06661475
157	0xbe444373	-0.19166355
158	0xbcd43ce0	-0.025907934
159	0xbe8dcd52	-0.2769571
160	0x3eb1b9ec	0.3471216
161	0xbeb25915	-0.3483359
162	0xbea8cd0f	-0.32968947
163	0x3e106bc0	0.14103603
164	0x3eaf51fc	0.34242237
165	0x3e4e0114	0.20117599
166	0x3ec23170	0.37928343
167	0x3eba410e	0.36377758
168	0x3d96b6c0	0.073590755
169	0xbe3d56f0	-0.18490195
170	0x3e9d27d0	0.30694437
171	0x3e72c464	0.2370773
172	0x3e0e4b14	0.13895828
173	0xbe2cdd12	-0.16881207
174	0x3e3a0ed4	0.18169719
175	0x3e4b0e20	0.19829607
176	0xbecb3edd	-0.39696398
177	0xbccbdf80	-0.024886847
178	0x3e884b7c	0.2662009
179	0x3d2863e8	0.041110903
180	0x3d75d8c8	0.06002119
181	0xbe3c33df	-0.18379162
182	0xbdaece28	-0.08535415
183	0x3dcddac8	0.10051495
184	0xbe69ac8f	-0.22819732
185	0xbe1bbf7e	-0.15209767
186	0x3ecc0a84	0.39851773
187	0x3e6cb734	0.23116761
188	0xbe5ca3ae	-0.21546814
189	0x3df883e0	0.12134528
190	0x3e2b836c	0.16749352
191	0x3ccef940	0.025265336
192	0xbe6d10cd	-0.2315094
193	0x3e615994	0.22006828
194	0xbecddb00	-0.40206146
195	0x3e781c24	0.24229485
196	0xbe295c9f	-0.16539238
197	0xbec98010	-0.39355516
198	0xbe77d365	-0.24201734
199	0x3d3b6848	0.045753747
200	0x3ec49d0a	0.3840106
201	0x3e41b190	0.18915391
202	0xbe03e3dc	-0.1287989
203	0xbe14a240	-0.14515018
204	0xbe44e453	-0.19227724
205	0xbe495ef1	-0.19665124
206	0xbd0016e0	-0.031271815
207	0x3de41130	0.11136091
208	0x3db1cd84	0.08681777
209	0x3ecadeba	0.39623052
210	0x3e0bcc20	0.13652086
211	0x3dd1e328	0.10248405
212	0x3ecab2b0	0.39589453
213	0xbe80a4c9	-0.2512572
214	0xbe1ddc2e	-0.15416023
215	0x3e9292ac	0.28627527
216	0xbe11d7c4	-0.14242464
217	0x3c8cdd50	0.017195374
218	0x3e264eb4	0.1624096
219	0xbe6c5d61	-0.23082496
220	0xbe8db772	-0.2767902
221	0x3e993bd0	0.29928446
222	0x3e76f9bc	0.24118704
223	0x3ea9b422	0.33145243
224	0x3ea5746c	0.32315385
225	0x3cf7df40	0.030257821
226	0x3d918c50	0.071068406
227	0x3d8e5eb8	0.0695166
228	0x3eb3b53a	0.35099202
229	0xbe81130b	-0.2520984
230	0xbeb28425	-0.34866443
231	0xbd08a740	-0.033362627
232	0x3e50095c	0.2031607
233	0x3dd2a610	0.1028558
234	0xbdaf5960	-0.08561969
235	0x3e868184	0.26270688
236	0xbd782c68	-0.060589224
237	0x3eca5c9e	0.39523786
238	0x3ebf8062	0.37402636
239	0xbe5cdaff	-0.21567915
240	0x3e4ea204	0.20178992
241	0xbebb2009	-0.36547878
242	0x3ed0cd0e	0.40781444
243	0x3dd315b8	0.10306877
244	0x3e4e2a64	0.20133358
245	0x3e68f4d8	0.2274965
246	0x3e87a306	0.26491565
247	0x3ec75634	0.38932955
248	0x3dc6a8c8	0.09700161
249	0x3cddf520	0.027094424
250	0x3eb440de	0.3520574
251	0x3de3b238	0.11117977
252	0xbdb20ac8	-0.086934626
253	0xbd9864ec	-0.07441124
254	0x3e727fcc	0.23681563
255	0xbec2f2bf	-0.38075826

linears.0.bias f4 [64]
0	0x3ec43c18	0.38327098
1	0x3e50d6a0	0.20394373
2	0x3e6c5970	0.23080993
3	0x3ecd8694	0.40141737
4	0x3d7e1178	0.06202838
5	0x3e067c58	0.13133371
6	0x3d591010	0.052993834
7	0x3a437a00	0.0007456839
8	0xbeb9eae0	-0.36312008
9	0x3c882df0	0.016623467
10	0xbc1e3da0	-0.009658247
11	0xbda80b3c	-0.08205268
12	0x3c46b600	0.012128353
13	0xbd5d77c8	-0.05406931
14	0xbdc5458c	-0.09632406
15	0x3e72a1b8	0.23694503
16	0xbec2d969	-0.38056496
17	0x3ecc00fe	0.39844507
18	0x3eba9396	0.36440724
19	0x3e16ff14	0.14745742
20	0x3ba190c0	0.0049305856
21	0xbdd7d6e0	-0.10539031
22	0xbaf08b00	-0.0018351972
23	0xbdf188a0	-0.11793637
24	0x3e8d5978	0.27607322
25	0xbda49114	-0.08035484
26	0x3ecaaeca	0.39586478
27	0x3eafba38	0.3432176
28	0x3e083e38	0.13304985
29	0x3e5d65cc	0.21620864
30	0x3ddbdb18	0.10735148
31	0xbe2cdd33	-0.16881256
32	0x3e6f6fa0	0.23382425
33	0x3d2dda18	0.04244432
34	0xbe879670	-0.26481962
35	0x3eaed56c	0.34147203
36	0x3eb7df4e	0.35912555
37	0x3ecf157a	0.40446073
38	0xbea1bf91	-0.31591466
39	0x3ebed99c	0.37275398
40	0xbeb2e516	-0.34940404
41	0x3e223c6c	0.15843362
42	0x3cfeb620	0.031092703
43	0x3e8d4554	0.27591956
44	0xbdcc3530	-0.09971082
45	0xbeb14d2e	-0.34629196
46	0x3c756200	0.014976978
47	0xbe995d8d	-0.29954186
48	0x3d9a871c	0.07545301
49	0xbdb18600	-0.086681366
50	0x3d2a88b0	0.04163426
51	0x3e53f090	0.20697236
52	0xbe902306	-0.2815172
53	0xbe17413e	-0.14770982
54	0xbdd804f4	-0.1054782
55	0xbe911f0c	-0.28344
56	0x3cca5270	0.024697512
57	0xbea03948	-0.31293702
58	0x3d2e8e70	0.042616308
59	0xbbc607c0	-0.0060434043
60	0x3e475604	0.19466406
61	0x3d62fef8	0.05541894
62	0x3db22228	0.08697921
63	0xbecfdbef	-0.40597484

linears.1.weight f4 [64, 64]
0	0x3ce42f18	0.027854487
1	0x3beec820	0.0072870404
2	0xbddad436	-0.10685007
3	0xbd1192dc	-0.035540447
4	0xbcb52b78	-0.022115454
5	0xbc30e0b0	-0.010795757
6	0xbd46f8bc	-0.048577055
7	0xbc8b5638	-0.017008886
8	0xbdac49b2	-0.08412494
9	0x3d2ca7f0	0.042152345
10	0x39388c00	0.00017599761
11	0x3dd1dc6c	0.1024712
12	0x3df693c0	0.120399
13	0x3c33a060	0.010963529
14	0xbd5d7cf0	-0.054074228
15	0x3d2ab284	0.041674152
16	0x3d89582e	0.06706272
17	0x3dc2d9be	0.09514187
18	0x3da6d02c	0.081451744
19	0xbd819596	-0.063273594
20	0x3dc50ce4	0.09621599
21	0x3c9bc840	0.019016385
22	0xbd9598a8	-0.073045075
23	0xbd4bac44	-0.049724832
24	0x3df6d59a	0.1205246
25	0xbc9af4b0	-0.018915504
26	0x3dbbfc9c	0.09179041
27	0x3c030710	0.007997289
28	0x3de628e2	0.112382665
29	0x3d9f582e	0.07780491
30	0x3daee66a	0.08540042
31	0x3decff20	0.11572099
32	0x3d187034	0.03721638
33	0xbdbf5204	-0.09341815
34	0xbafe4e00	-0.0019401908
35	0xbdf5dfa0	-0.12005544
36	0x3dc21042	0.09475757
37	0x3d878088	0.06616312
38	0x3c8109f0	0.015751809
39	0x3ddc5ea8	0.10760242
40	0x3c354530	0.011063859
41	0xbd18a2f4	-0.03726478
42	0xbdbad5e4	-0.09122828
43	0xbd8888dc	-0.06666729
44	0xbc5021b0	-0.012703344
45	0xbd999174	-0.07498446
46	0xbdbf4f44	-0.093412906
47	0xbda695e8	-0.08134061
48	0x3df64010	0.12023938
49	0x3d7cde18	0.061735243
50	0xba263b00	-0.0006341189
51	0x3d0ee05c	0.034881935
52	0x3d3272dc	0.04356657
53	0x3da79ba0	0.0818398
54	0xbdb1ad12	-0.08675589
55	0x3dbfdc96	0.09368245
56	0xbd387578	-0.045033902
57	0xbb0fc600	-0.0021938086
58	0xbd8edcce	-0.06975709
59	0xbdbe9c56	-0.093071625
60	0x3d2a6a60	0.041605353
61	0xbd9e271a	-0.07722302
62	0xbd33b828	-0.043876797
63	0x3d7f554c	0.062337205
64	0x3de0192e	0.10942303
65	0xbdcd31fe	-0.10019301
66	0xbdc03c58	-0.0938651
67	0xbda07d1e	-0.07836364
68	0x3dbb5882	0.09147741
69	0x3dc5cc32	0.09658088
70	0xba40e600	-0.00073584914
71	0xbd98d982	-0.07463361
72	0xbcb88808	-0.022525802
73	0xbd330854	-0.043709114
74	0x3d79a920	0.060952306
75	0xbd2e3af4	-0.04253669
76	0xbd836640	-0.06415987
77	0xbd699b88	-0.05703309
78	0xbd5d77ac	-0.054069206
79	0x3c48dae0	0.012259215
80	0x3c428f40	0.011874974
81	0x3dfbfa16	0.123035595
82	0x3d90a7e6	0.07063274
83	0x3dc3c262	0.0955856
84	0x3de769b2	0.11299457
85	0xbcc1f7c0	-0.023677707
86	0xbc537dd0	-0.012908414
87	0xbc3a2ea0	-0.011363655
88	0xbce443e8	-0.027864411
89	0x3d685ec0	0.056730986
90	0xbb9514e0	-0.0045496076
91	0xbd83c954	-0.06434885
92	0x3c75a960	0.014993995
93	0x3d8dc578	0.0692243
94	0xbdb5d268	-0.088780224
95	0x3d456a6c	0.048197195
96	0xbcc7b950	-0.024380356
97	0xbd8c16c2	-0.06840278
98	0xbd55b31c	-0.052172765
99	0x3da06222	0.07831217
100	0x3dbecb08	0.09316069
101	0x3da78c78	0.08181089
102	0x3cc8a2b0	0.024491638
103	0xbdd3b0b6	-0.10336439
104	0x3dc97b70	0.09837997
105	0x3db1a0fe	0.08673285
106	0x3d5dda68	0.054163367
107	0xbd19761c	-0.037466154
108	0xbdb3991c	-0.08769438
109	0xbd8d3674	-0.06895152
110	0x3dc3a050	0.095520616
111	0x3c3eb860	0.011640638
112	0xbdea3f74	-0.11437884
113	0x3d7b7334	0.061389163
114	0xbdeacefc	-0.114652604
115	0xbca54448	-0.02017416
116	0x3c82f628	0.015986517
117	0xbdc3d610	-0.095623136
118	0x3d2edd34	0.042691424
119	0x3903a000	0.00012552738
120	0xbdccf378	-0.100073755
121	0x3c159f30	0.009132192
122	0xbda366c8	-0.07978588
123	0x3d0ae9a8	0.03391424
124	0xbd6962d4	-0.056979015
125	0x3d1eb1d4	0.03874381
126	0xbcb1a0e0	-0.021683156
127	0xbdde9e10	-0.10869992
128	0x3df55e40	0.119808674
129	0xbcac4a10	-0.02103141
130	0x3cce1cf8	0.025160298
131	0x3d071a10	0.03298384
132	0x3da09136	0.07840197
133	0x3c399200	0.011326313
134	0xbd93ccfc	-0.07216832
135	0xbdb1deb8	-0.08685058
136	0x3b8522c0	0.0040629804
137	0x3d08772c	0.033316776
138	0xbbc46080	-0.005992949
139	0xbdedc744	-0.116102725
140	0xbdcecc92	-0.100976124
141	0x3b8d0460	0.0043035
142	0x3d945da6	0.072444245
143	0x3df40390	0.11914742
144	0x3db5cb56	0.08876674
145	0x3d0b3b1c	0.033991918
146	0xbc63e950	-0.0139106065
147	0x3dcb960c	0.099407285
148	0xbd065de0	-0.03280437
149	0xbd1fc208	-0.039003402
150	0xbdd0d4fe	-0.10196875
151	0x3d8a489a	0.06752129
152	0x3c5e9460	0.01358518
153	0x3d7642c0	0.06012225
154	0x3cb326b8	0.021869048
155	0x3c2f8d80	0.010714889
156	0xbdf019da	-0.11723681
157	0x3d8fa02e	0.07012974
158	0xbdf9718a	-0.12179859
159	0x3de2b6b8	0.11070007
160	0x3da7563e	0.08170746
161	0x3ddb2bb0	0.10701692
162	0xbd89c024	-0.06726101
163	0x3d5b481c	0.053535566
164	0xbdd18ce8	-0.10231954
165	0x3d6fb330	0.058520496
166	0x3d857eac	0.06518301
167	0xbdefa3a2	-0.11701132
168	0xbd4948a0	-0.049141526
169	0xbd6ceb3c	-0.057841524
170	0x3cb0ced8	0.021583006
171	0x3d98dd46	0.074640796
172	0x3d9746c2	0.07386543
173	0xbdf89ea4	-0.12139633
174	0xbdf99abc	-0.12187716
175	0xbd6c6630	-0.05771464
176	0x3defef04	0.117155105
177	0xbde5c92a	-0.112200096
178	0xbcc847f0	-0.024448365
179	0x3dc6a70c	0.096998304
180	0x3d7672ec	0.06016819
181	0xbdb9a3bc	-0.09064433
182	0x3dbce5aa	0.092234924
183	0xbdf7e25e	-0.12103723
184	0x3d4f6e94	0.050642565
185	0x3d160c38	0.036632746
186	0xbd7eabbc	-0.062175497
187	0x3cfa1528	0.030527666
188	0x3d44a8cc	0.04801254
189	0x3dbd35d0	0.092387795
190	0x3d5b8e6c	0.05360262
191	0x3cadb488	0.021204248
192	0xbdf40736	-0.11915438
193	0x3cde4f98	0.027137563
194	0xbd119a28	-0.035547405
195	0x3d5709d0	0.052499592
196	0xbd136df0	-0.035993516
197	0x3d0cff8c	0.034423396
198	0xbddbdf0c	-0.10735902
199	0x3c85bb38	0.016324624
200	0x3d73417c	0.059388623
201	0xbd131200	-0.035905838
202	0xbb8d7ce0	-0.004317865
203	0xbdf18f6c	-0.11794934
204	0xbc47dfb0	-0.012199327
205	0x3d9ff6da	0.07810755
206	0xbd0b82c4	-0.034060255
207	0x3df30c02	0.11867525
208	0xbddea62e	-0.1087154
209	0x3cba7ee0	0.022765577
210	0x3dc3c606	0.09559254
211	0xbcf15568	-0.02945967
212	0xbcc85898	-0.024456307
213	0xbdc6ebd8	-0.097129524
214	0xbdda552e	-0.10660778
215	0x3d0556d8	0.032553524
216	0x3df8468a	0.12122829
217	0x3da3c3f0	0.079963565
218	0xbd4770e8	-0.04869166
219	0x3dad4b5e	0.08461641
220	0x3d256f4c	0.040389344
221	0xbd1fb258	-0.03898844
222	0xbb9a67a0	-0.00471206
223	0xbd4f62a0	-0.050631166
224	0x3d79c614	0.060979918
225	0x3b8fcfa0	0.0043887645
226	0xbd0b5694	-0.034018114
227	0xbc361a60	-0.011114687
228	0xbc1e5ca0	-0.009665638
229	0xbbca7640	-0.0061786473
230	0xbd118af8	-0.03553292
231	0x3dd85200	0.10562515
232	0x3d8fd67e	0.07023333
233	0x3d18e7d4	0.037330464
234	0xbdb3f6ce	-0.08787309
235	0xbdaff5fa	-0.08591838
236	0xbdbb4272	-0.09143533
237	0xbc805b10	-0.015668422
238	0xbd46f90c	-0.048577353
239	0x3df91180	0.12161541
240	0x3db8246a	0.089913204
241	0xbdd24f9e	-0.10269092
242	0xbd5b3d8c	-0.053525493
243	0xbd457be8	-0.04821387
244	0xbcee5e20	-0.029097617
245	0x3d88bae0	0.066762686
246	0xbd8d588c	-0.069016546
247	0x3d7c9a90	0.06167084
248	0xbdba6c02	-0.09102632
249	0x3d1d10ec	0.038346216
250	0xbca480b0	-0.020080894
251	0xbde9c720	-0.11414933
252	0xbdfe703e	-0.12423752
253	0xbd601714	-0.05470951
254	0x3d4ae288	0.049532443
255	0x3d3d4db4	0.04621668

linears.1.bias f4 [64]
0	0x3dbc21ee	0.09186159
1	0xbd5d2a7c	-0.053995594
2	0x3d9cddac	0.07659468
3	0x3dc22e62	0.09481503
4	0xbd8cdc1e	-0.068779215
5	0xbda45ff8	-0.08026117
6	0xbbadf6c0	-0.005308956
7	0x3dd60b88	0.10451418
8	0xbdb54184	-0.08850387
9	0xbd3bfef4	-0.04589744
10	0x3df89f76	0.1213979
11	0x3b3d5080	0.0028887093
12	0x3dabf256	0.08395831
13	0xbd9e0840	-0.07716417
14	0xbd52a904	-0.051430717
15	0x3d499da0	0.04922259
16	0xbdbf135e	-0.09329866
17	0xbd424140	-0.04742551
18	0x3d20c158	0.039246887
19	0xbcba8950	-0.022770554
20	0x3d876f8c	0.06613073
21	0xbdb03db6	-0.086055204
22	0x3d0bec28	0.034160763
23	0x3d9e48b2	0.07728709
24	0x3d08b2c0	0.033373594
25	0xbd3941e8	-0.04522887
26	0x3dd46622	0.10371043
27	0xbca909f8	-0.020634636
28	0xbb9ed500	-0.004847169
29	0xbd876c0e	-0.06612407
30	0x3dff1362	0.12454869
31	0x3c0adf10	0.008476034
32	0xbde04ab4	-0.109517485
33	0xbd42e340	-0.047580004
34	0xbb39e400	-0.0028364658
35	0x3d5bd168	0.053666502
36	0xbd80dfda	-0.06292696
37	0x3d8c5104	0.0685139
38	0x3de1d19e	0.110263094
39	0x3dc0530c	0.0939084
40	0xbd900e80	-0.07034016
41	0xbd6e902c	-0.05824296
42	0x3da57de0	0.080806494
43	0x3daa6b54	0.083212525
44	0x3dd690ce	0.10476838
45	0x3d274778	0.040839642
46	0x3d684898	0.056709856
47	0x3cb09238	0.021554098
48	0xbc86e6f0	-0.016467541
49	0xbcec7200	-0.028862953
50	0xbc940098	-0.01806669
51	0xbd270864	-0.040779486
52	0x3c732030	0.014839217
53	0x3d8ff5c8	0.07029301
54	0xbdfcb44e	-0.12339078
55	0xbdc3dba6	-0.09563379
56	0x3c830f30	0.015998453
57	0xbd9234ac	-0.071389526
58	0x3dd81afa	0.1055202
59	0x3c846bb8	0.016164646
60	0x3d7d2974	0.06180711
61	0x3d99ed70	0.07515991
62	0x3dd51dd8	0.10406083
63	0xbc9fe760	-0.019519508

linears.2.weight f4 [5, 64]
0	0x3def5fce	0.11688195
1	0x3b406f00	0.0029363036
2	0x3d102db8	0.03519985
3	0xbd8f4182	-0.069949165
4	0xbdad1498	-0.084511936
5	0x3c882918	0.016621158
6	0xbdfd9f1e	-0.12383865
7	0x3c3b8db0	0.011447355
8	0x3df9c7ac	0.121962875
9	0xbdb9034c	-0.09033832
10	0xbc62fcc0	-0.013854206
11	0x3deb664a	0.114941195
12	0x3de263e2	0.110542074
13	0xbd09aeb8	-0.03361389
14	0x3c0752c0	0.008259475
15	0x3de765f2	0.112987414
16	0xbde91066	-0.11380081
17	0x3d6c8ba0	0.057750344
18	0x3d9fbd5e	0.07799791
19	0x3d7eedf8	0.062238663
20	0xbd615540	-0.05501294
21	0x3d8a3b5c	0.06749603
22	0xbccb3ab8	-0.024808273
23	0xbd8f7802	-0.070053115
24	0x3de72d58	0.112879455
25	0xbc575420	-0.013142616
26	0x3de417f2	0.1113738
27	0xbcdf0378	-0.027223334
28	0xbd6bdf8c	-0.057586238
29	0xbd307d08	-0.04308799
30	0x3d2ba160	0.041901946
31	0x3d35f17c	0.04441975
32	0x3dcb16cc	0.099164575
33	0x3c8e3458	0.017358944
34	0x3dbffbfa	0.093742326
35	0x3d8e2e0a	0.06942375
36	0x3da4db3c	0.08049628
37	0xbdb3788c	-0.08763227
38	0x3cc3a6d8	0.023883268
39	0x3d302d04	0.04301168
40	0xbcc07628	-0.023493841
41	0xbcbb3330	-0.022851557
42	0xbcf859b0	-0.030316204
43	0x3d80145a	0.06253882
44	0xbdc0afb0	-0.0940851
45	0xbdbfc6ca	-0.09364088
46	0xbd88bf6e	-0.06677137
47	0xbdb44932	-0.088030234
48	0x3c6db0b0	0.014507458
49	0xb9810800	-0.00024610758
50	0x3cc54e68	0.024085239
51	0x3d1b4df4	0.03791614
52	0xbc38cc30	-0.011279151
53	0x3d8276d4	0.06370321
54	0xbd8f278c	-0.06989965
55	0xbd9b529c	-0.07584116
56	0xbd50bd1c	-0.0509616
57	0xbd9389a0	-0.07203984
58	0x3dbc39d6	0.09190719
59	0xbdfb767e	-0.1227846
60	0x3d8df95c	0.06932327
61	0xbbd32380	-0.006443441
62	0xbd51fabc	-0.05126451
63	0xbda609d2	-0.08107342
64	0xbd41b608	-0.04729274
65	0x3dd85f9c	0.10565111
66	0x3daeac72	0.08528985
67	0xbdcca92a	-0.09993203
68	0x3da4d69e	0.080487475
69	0xbd49ff1c	-0.049315557
70	0x3dfdf0ba	0.123994306
71	0xbdb34832	-0.087540045
72	0x3d9d761c	0.07688543
73	0x3d4a01d8	0.049318165
74	0x3de2556a	0.11051448
75	0x3d910912	0.07081808
76	0xbc0649d0	-0.008196309
77	0xbcb145d8	-0.02163975
78	0xbdb84aa8	-0.089986145
79	0x3d317d3c	0.043332323
80	0x3c7606f0	0.0150163025
81	0x3d3b7ecc	0.04577522
82	0xbd9c46be	-0.076306805
83	0x3d88ea58	0.066853225
84	0xbd3096c8	-0.043112546
85	0x3df71b78	0.12065786
86	0x3dbc8af8	0.09206194
87	0xbde9dae4	-0.11418703
88	0xbdd6e48c	-0.104928106
89	0x3d37bef0	0.044859827
90	0xbda9ccf0	-0.08291042
91	0xbcbad358	-0.022805855
92	0xbd9bcc14	-0.07607284
93	0xbd339a38	-0.043848246
94	0x3d6a3a10	0.05718428
95	0xbdcba304	-0.09943202
96	0xbdc82602	-0.097728744
97	0x3de60476	0.112313196
98	0x3d85db40	0.06535959
99	0x3c2c1330	0.0105026215
100	0xbddd019a	-0.10791321
101	0x3d6461c8	0.055757314
102	0x3d951a4a	0.07280405
103	0x3c85a5f0	0.016314477
104	0x3d810722	0.063001886
105	0xbce77820	-0.028255522
106	0xbce922a8	-0.028458908
107	0xbdc17f56	-0.094481155
108	0xbde434c4	-0.11142877
109	0x3b7e8840	0.0038838536
110	0x3df53d82	0.11974622
111	0x3c8061c0	0.01567161
112	0xbdf4ef2e	-0.119596824
113	0x3d2bc9c8	0.04194048
114	0xbdb629d0	-0.08894694
115	0xbdfe8124	-0.12426975
116	0xbd013094	-0.03154047
117	0xbdb4f182	-0.088351265
118	0x3cdf66e8	0.02727075
119	0x3d35dd44	0.04440047
120	0x3c27d410	0.010243431
121	0xbd3b8cf0	-0.045788705
122	0x3b5e3840	0.003390804
123	0x3c0b4340	0.00849992
124	0xbcc5eec8	-0.024161711
125	0x3d8f052e	0.0698341
126	0x3d32cdc8	0.04365328
127	0x3d14ed44	0.036359087
128	0x3ddb5bb4	0.1071085
129	0xbcaab7e0	-0.020839632
130	0x3d434fdc	0.04768358
131	0x3c778af0	0.015108809
132	0xbc833678	-0.016017184
133	0x3c869960	0.016430557
134	0xbdf57352	-0.11984886
135	0x3d90224e	0.07037793
136	0xbd87472a	-0.0660537
137	0x3b25d940	0.0025306493
138	0xbd0bebe0	-0.034160495
139	0xbdc227bc	-0.09480235
140	0x3d50789c	0.050896272
141	0x3bc1ff20	0.005920306
142	0xbdcf44c2	-0.101205364
143	0xbdfe628a	-0.124211386
144	0x3db5920e	0.08865748
145	0x3df4a3dc	0.11945316
146	0x3d26a6ac	0.040686294
147	0xbdac072a	-0.08399804
148	0xbc62e950	-0.013849571
149	0x3df730ba	0.12069841
150	0x3c0ceec0	0.008601844
151	0x3c0d4c00	0.008624077
152	0xbdad8456	-0.08472507
153	0xbd00ddf4	-0.03146167
154	0x3d01a8a8	0.031654984
155	0x3cbd6060	0.023117244
156	0xbc026ba0	-0.00796023
157	0x3d5e9b5c	0.05434738
158	0xbba12b40	-0.004918486
159	0x3dcd80cc	0.10034332
160	0xbdc92042	-0.09820606
161	0xbd1cdaa4	-0.03829445
162	0x3dda98a8	0.10673648
163	0xbceb9af8	-0.028760418
164	0xbdf1ed04	-0.11812785
165	0x3da9cc40	0.08290911
166	0xbd9c94a6	-0.0764554
167	0xbdc4b362	-0.09604527
168	0xbcadefc8	-0.0212325
169	0x3db4c16c	0.08825955
170	0xbddecfca	-0.10879476
171	0xbdbf6802	-0.0934601
172	0xbd979b60	-0.07402682
173	0xbd2239c0	-0.039605856
174	0x3dfdc388	0.1239081
175	0x3ba78980	0.005112827
176	0x3dc73e2c	0.09728655
177	0x3c056510	0.008141771
178	0xbcfd3b38	-0.030912027
179	0x3d8a7b72	0.067618266
180	0xbdf87e1c	-0.121334285
181	0xbdd90c6e	-0.10598074
182	0xbd915ba6	-0.07097559
183	0xbda02e14	-0.07821289
184	0xbd0b0c80	-0.033947468
185	0x3d75dd70	0.060025632
186	0x3d463050	0.04838592
187	0x3dec540e	0.1153947
188	0x3d81b256	0.06332843
189	0xbd3a7cb4	-0.045529082
190	0xbcdee0c0	-0.027206779
191	0x3d81efe2	0.06344582
192	0xbdc0de6c	-0.094174236
193	0x3ddf2976	0.1089658
194	0x3cf4e9a0	0.029896557
195	0x3d154570	0.036443174
196	0xbccb77e0	-0.024837434
197	0xbda9b306	-0.08286099
198	0xbdd3205a	-0.10308905
199	0x3db541d0	0.08850443
200	0xbde3c522	-0.111215845
201	0xbc9ffe18	-0.019530341
202	0x3d30e938	0.043191165
203	0x3de1739e	0.1100838
204	0x3ccf49b8	0.025303707
205	0x3de0dc10	0.109794736
206	0xbdf72a32	-0.12068595
207	0x3d8431e2	0.06454827
208	0x3d5b58bc	0.05355142
209	0x3d85e470	0.065377116
210	0xbd88f83e	-0.066879734
211	0xbdeaf7bc	-0.11473033
212	0x3d64f4c8	0.055897504
213	0xbdc6abc4	-0.097007304
214	0x3d150990	0.036386073
215	0xbdde0a06	-0.108417556
216	0x3dfe512e	0.124178275
217	0xbd184c1c	-0.03718196
218	0x3cfcb238	0.0308467
219	0x3db42372	0.08795823
220	0xbd6b5744	-0.05745627
221	0xbcfe5170	-0.031044692
222	0x3dfac32a	0.12244256
223	0x3de89588	0.11356646
224	0x3b37fe80	0.0028075278
225	0x3d76303c	0.060104594
226	0x3b252880	0.0025201142
227	0xbc3291c0	-0.010899007
228	0x3de69926	0.112596795
229	0x3c879420	0.016550124
230	0xbd745b80	-0.059657574
231	0x3d6bd368	0.05757466
232	0xbc220850	-0.009889677
233	0x3d82aa68	0.06380159
234	0xbdc80fe4	-0.09768656
235	0x3dfa72d2	0.122289315
236	0xbde86d2e	-0.113489494
237	0xbc9cae20	-0.019125998
238	0xbd9eec18	-0.07759875
239	0xbd1f4894	-0.038887575
240	0x3d44b7bc	0.048026785
241	0x3d437260	0.0477165
242	0xbd8c3a34	-0.06847039
243	0xbd3cc904	-0.04609014
244	0xbdac70b2	-0.084199324
245	0x3d27eb1c	0.040995702
246	0x3d4132a8	0.04716745
247	0x3da17ed0	0.07885516
248	0xbd789844	-0.060692087
249	0xbda775c0	-0.08176756
250	0xbd8e1f68	-0.06939584
251	0xbb4a82c0	-0.0030900687
252	0xbdc29e94	-0.095029026
253	0x3d8c364e	0.06846295
254	0xbdc5d5ca	-0.09659918
255	0xbd9cde58	-0.07659596

linears.2.bias f4 [5]
0	0xb9d01600	-0.00039689243
1	0xbdebad46	-0.11507659
2	0xbb663340	-0.0035125762
3	0xbd6e1f78	-0.05813548
4	0x3d88576c	0.066572994
