dqn-exp/savedir/student-test/checkpoint600--model.pth (torch_old, 20763 bytes, 6 tensors)

linears.0.weight f4 [64, 6]
0	0x3d3927f0	0.045204103
1	0x3e5405a1	0.20705272
2	0xbf04cc7b	-0.5187451
3	0x3d9f69e5	0.0778387
4	0xbea5aa44	-0.32356465
5	0x3d800c07	0.06252294
6	0x3c7603ac	0.015015524
7	0xbe20c636	-0.15700611
8	0x3cafa0cb	0.021438977
9	0xbc107b06	-0.008818394
10	0x3d124458	0.03570971
11	0x3f080630	0.5313444
12	0x3eea8a84	0.45808804
13	0x3e9a391d	0.301217
14	0x3e1d5b2c	0.1536681
15	0xbcac1f5e	-0.02101105
16	0xbe10c334	-0.14136964
17	0x3b848cee	0.0040451204
18	0x3e951d42	0.29123884
19	0xbe3b1675	-0.18270285
20	0xbe5dcb81	-0.21659662
21	0xbc85d264	-0.016335674
22	0xbe4727b1	-0.19448735
23	0x3cc6a558	0.024248764
24	0x3dd1a530	0.10236585
25	0x3e19091c	0.14944881
26	0xbe5e538a	-0.21711555
27	0xbe112e3d	-0.14177795
28	0xbe66fa2c	-0.2255637
29	0xbe7c6268	-0.24646914
30	0x3e8f8617	0.2803199
31	0xbe310d9e	-0.17290351
32	0xbe2a8aff	-0.16654585
33	0x3ea3cfc5	0.31994453
34	0x3e39410e	0.18091223
35	0x3c9e7197	0.019341273
36	0x3ce6d636	0.028178316
37	0xbb9c253e	-0.004765182
38	0x3ef2a346	0.47390193
39	0xbd2a0952	-0.041512795
40	0x3e6aa22e	0.22913429
41	0xbd3fa7eb	-0.046791
42	0xbe855692	-0.2604261
43	0x3d2a1f3e	0.0415337
44	0x3e77b61c	0.24190563
45	0x3cbcffd7	0.023071213
46	0x3e093494	0.13398963
47	0x3cad7d9c	0.02117806
48	0xbd9f471a	-0.077772334
49	0xbd1c151d	-0.038106073
50	0xbda659e7	-0.08122616
51	0x3e9ed344	0.31020558
52	0x3ed8a6c9	0.42314747
53	0x3ea13293	0.31483898
54	0xbe736f59	-0.23772945
55	0x3dfad47c	0.122475594
56	0xbdcf63a6	-0.10126428
57	0xbe1345f4	-0.14382154
58	0xbc827f40	-0.015929818
59	0x3cd7c390	0.026338369
60	0xbda916b7	-0.08256286
61	0x3b9ff986	0.0048820404
62	0xbe2204dc	-0.15822166
63	0xbdf5f78c	-0.120101064
64	0x3eefc7b6	0.46832055
65	0xbcb2f87d	-0.021847004
66	0xbde50786	-0.111830756
67	0x3e68d04b	0.22735707
68	0x3edacd39	0.42734697
69	0x3da3dfd4	0.08001676
70	0xbd96b3c1	-0.07358504
71	0xbd7a3ee6	-0.06109514
72	0x3c88df64	0.016708083
73	0xbd0f57ca	-0.03499583
74	0x3ceeae35	0.029135803
75	0xbe2d1738	-0.16903389
76	0x3dde1dbb	0.108455144
77	0x3efa2aba	0.48860723
78	0x3d81f148	0.06344849
79	0x3e30c529	0.1726271
80	0xbc519d8e	-0.012793912
81	0x3ccb1823	0.024791783
82	0xbc3d29fc	-0.011545654
83	0xbf09945a	-0.5374199
84	0x3e4c22c4	0.19935137
85	0x3e2a1187	0.16608249
86	0x3d91f1fc	0.07126233
87	0xbdb45db5	-0.08806936
88	0xbe9a22aa	-0.30104572
89	0xbec0d84e	-0.37665027
90	0xbe355e26	-0.17711696
91	0xbe03f0c4	-0.12884814
92	0x3d2b504b	0.04182462
93	0xbd499822	-0.04921735
94	0x3e94bd6c	0.29050767
95	0x3e80a26d	0.2512392
96	0x3e1f1913	0.15536909
97	0x3b8d676c	0.0043153074
98	0xbe36613b	-0.17810528
99	0x3d106c75	0.035259683
100	0xbf0d0ba9	-0.55095917
101	0x3e1c62f8	0.15272129
102	0x3e6c500f	0.23077415
103	0x3e538d54	0.20659381
104	0xbe00d358	-0.12580621
105	0x3dbe7f6e	0.09301649
106	0xbf026862	-0.50940526
107	0xbea4ae44	-0.32164204
108	0x3d9c275d	0.076246955
109	0x3c67da46	0.014151162
110	0x3d6c653e	0.05771374
111	0x3d654ddc	0.055982456
112	0x3ee8486c	0.45367754
113	0xbe2616eb	-0.1621968
114	0x3d8a0541	0.06739283
115	0x3dbf7c53	0.09349885
116	0x3c7db30f	0.015484585
117	0xbcfac116	-0.030609649
118	0xbf0faaa7	-0.5611977
119	0xbea10064	-0.3144561
120	0x3e19410d	0.14966221
121	0xbe905116	-0.28186864
122	0x3dabf9c1	0.08397246
123	0x3e0f4ba8	0.13993704
124	0xbe604dcf	-0.21904682
125	0x3eb4ef6a	0.35338908
126	0xbc1e7589	-0.009671577
127	0x3e9a9753	0.30193576
128	0x3c04e590	0.008111373
129	0x3dc6a4e1	0.09699417
130	0x3d77674e	0.060401253
131	0xbeeb57eb	-0.45965514
132	0xbe13ea09	-0.14444746
133	0xbdc9ca7b	-0.09853073
134	0xbe262501	-0.16225053
135	0xbe41ee4c	-0.1893856
136	0x3e27a690	0.16372132
137	0x3e63a1f7	0.22229753
138	0x3ce02a6c	0.027363978
139	0xbd189385	-0.03725006
140	0x3e0e5c54	0.13902408
141	0xbc29eadf	-0.010370939
142	0x3e28b49a	0.16475144
143	0x3ed04c1a	0.4068306
144	0x3d9e5aa4	0.07732132
145	0x3d97e6a6	0.074170396
146	0x3e1fd17c	0.15607256
147	0x3e83c272	0.25734288
148	0x3d2e7720	0.042594075
149	0x3decef2c	0.11569056
150	0xbe14ea0a	-0.14542404
151	0x3c58c9f5	0.013231744
152	0xbdfb0df2	-0.12258519
153	0xbe171828	-0.14755309
154	0x3f063bbe	0.5243491
155	0xbe359bf1	-0.17735268
156	0xbdd1149d	-0.1020901
157	0xbc44ac06	-0.012003904
158	0xbe508a26	-0.203652
159	0x3d3c517b	0.045976143
160	0x3ebc60b7	0.36792538
161	0x3b2c15f7	0.002625821
162	0xbe1b700b	-0.1517946
163	0x3cacda4d	0.021100188
164	0xbe0f9c80	-0.14024544
165	0x3ddd0e8b	0.107937895
166	0xbdb5f5ae	-0.0888475
167	0xbe5988c3	-0.21243577
168	0x3dde45fb	0.108531915
169	0xbd859133	-0.06521835
170	0xba173cbe	-0.0005769244
171	0x3d2621e3	0.04055966
172	0xbf4250ae	-0.7590436
173	0x3e42151f	0.1895337
174	0xbd02232f	-0.031771835
175	0x3e4ce030	0.20007396
176	0x3ed0235b	0.40651974
177	0xbd603dc7	-0.054746415
178	0x3e8c8ab8	0.27449584
179	0xbed3e7aa	-0.41387683
180	0x3d115d5e	0.035489433
181	0xbcf24409	-0.029573457
182	0xbce016d3	-0.027354633
183	0xbaf4431e	-0.0018635725
184	0xbce7b757	-0.028285665
185	0x3f439240	0.76395035
186	0xbdbc6005	-0.09198002
187	0x3d40ebba	0.047099806
188	0x3e670b16	0.22562823
189	0xbe5c077f	-0.21487235
190	0x3e16b89d	0.14718862
191	0xbed671cc	-0.41883695
192	0xbaebd522	-0.0017992596
193	0x3d544fd5	0.051833946
194	0xbb9c6580	-0.004772842
195	0xbd0c2708	-0.03421691
196	0x3cf2619f	0.029587565
197	0xbe112710	-0.14175057
198	0xbe279f48	-0.16369355
199	0x3d71fe19	0.059080217
200	0xbdcd296f	-0.100176685
201	0x3e434a90	0.19071412
202	0x3dfbbf4a	0.12292345
203	0xbe2252ec	-0.15851945
204	0x3e49c543	0.19704156
205	0x3d5c36fd	0.05376338
206	0x3d215c8c	0.0393949
207	0xbda3bc5c	-0.07994911
208	0xbe9fcdf1	-0.31211808
209	0xbe5af247	-0.21381484
210	0xbe1731f8	-0.14765155
211	0xbcffcb32	-0.03122482
212	0x3cdc9dba	0.026930679
213	0xbd097460	-0.03355825
214	0x3e35bc4e	0.17747614
215	0xbe7f1f4a	-0.2491428
216	0x3d8b97ad	0.06816039
217	0x3e525d54	0.20543414
218	0xbe013dff	-0.12621306
219	0x3ca3a220	0.019974768
220	0x3e8dbc3f	0.27682683
221	0x3b1bde33	0.0023783564
222	0xba49d0ec	-0.0007698673
223	0x3cb860c1	0.022507073
224	0x3d60d37e	0.054889195
225	0x3e6e0f73	0.23248081
226	0x3e827cac	0.25485742
227	0x3e0c4fdf	0.13702343
228	0xbe454266	-0.1926361
229	0x3e1d011d	0.15332456
230	0xbe3530d7	-0.17694412
231	0xbdaa0ec1	-0.08303595
232	0x3e9be271	0.304462
233	0xbcbce373	-0.023057675
234	0xbe9f6835	-0.3113419
235	0xbf05c92a	-0.52260077
236	0xbe48f147	-0.1962329
237	0xbce0a51c	-0.02742248
238	0xbe80b6da	-0.25139505
239	0xbd0d6d5e	-0.03452813
240	0xbce842da	-0.02835219
241	0x3db78224	0.08960369
242	0x3ce03b32	0.027371977
243	0x3c688f67	0.014194346
244	0xbda77aec	-0.08177742
245	0xbf3892bb	-0.7209889
246	0x3e21f1da	0.15814915
247	0xbdf0b3cd	-0.11753044
248	0xbbf58fe9	-0.007493962
249	0xbde04a15	-0.1095163
250	0xbd23abfe	-0.039958946
251	0xbc5a18b7	-0.013311557
252	0x3d6f7a3f	0.058466192
253	0xbe6b66d7	-0.22988449
254	0x3d8d840f	0.06909954
255	0xbdeb35a4	-0.114848405

linears.0.bias f4 [64]
0	0xbe0d6842	-0.13809302
1	0xb8cee5a0	-9.8656164e-05
2	0xbebf006e	-0.37305015
3	0xbe698afa	-0.22806922
4	0x3e1c971f	0.15292023
5	0xbf2b8ad6	-0.6700872
6	0xbe16cef2	-0.14727381
7	0xbe865ae8	-0.2624123
8	0x3ebbae23	0.36656293
9	0x3eec79a7	0.46186563
10	0xbe554fe1	-0.20831253
11	0xbeb3bbc6	-0.35104197
12	0xbec0163a	-0.37516958
13	0xbe3cf306	-0.18452081
14	0x3eccf4fe	0.40030664
15	0xbf0a0b61	-0.5392361
16	0x3ea150d5	0.31506982
17	0xbf0a82bd	-0.5410574
18	0x3eefa6e5	0.46807018
19	0x3e0ca30a	0.1373407
20	0x3ee38a3d	0.44441405
21	0x3e8fe681	0.28105548
22	0x3ef3a8cf	0.47589728
23	0x3e809de1	0.25120452
24	0x3ed0d840	0.40789986
25	0x3e0450f6	0.12921509
26	0xbeaf61ea	-0.3425439
27	0xbd00d501	-0.031453136
28	0x3d7d455e	0.06183373
29	0xbeb91a8c	-0.36153066
30	0xbd0374c2	-0.03209377
31	0xbd07ac92	-0.03312356
32	0xbca08e79	-0.019599186
33	0x3ed20577	0.41019794
34	0x3cc4912e	0.023995008
35	0x3ddfae27	0.10921889
36	0x3c9c0335	0.019044498
37	0xbe6f848f	-0.23390411
38	0x3e85f0e6	0.26160353
39	0xbebee830	-0.3728652
40	0xbd88229c	-0.06647226
41	0xbed066b7	-0.40703365
42	0x3ee544eb	0.44779143
43	0xbf10ae8a	-0.56516325
44	0xbe050351	-0.12989546
45	0xbeac9c2e	-0.33712906
46	0x3f086cbe	0.5329093
47	0x3ed30495	0.41214433
48	0xbe469dd7	-0.19396149
49	0x3d8b9f33	0.06817474
50	0xbe6abe29	-0.22924103
51	0x3e95b1ff	0.29237363
52	0x3ca2a50e	0.019854095
53	0x3eb57d88	0.35447335
54	0x3eb89870	0.360538
55	0xbe90f6d5	-0.28313318
56	0xbe9d763d	-0.3075427
57	0xbdab5c54	-0.083672196
58	0x3ea9aa32	0.3313766
59	0xbe9b743e	-0.30362123
60	0x3da76918	0.08174342
61	0xbd59140d	-0.052997638
62	0x3ec73eb2	0.3891502
63	0xbec956ad	-0.3932394

linears.1.weight f4 [64, 64]
0	0xbd26d93f	-0.040734526
1	0xbcb054ab	-0.021524748
2	0x3cc3bb7c	0.02389311
3	0x3cd713c5	0.026254544
4	0xbdf24b87	-0.11830812
5	0x3e33afb7	0.17547499
6	0x3daf33f5	0.08554832
7	0x3d04e43b	0.03244422
8	0xbdc6c74a	-0.0970598
9	0xbc0fa9bf	-0.008768498
10	0x3df0cf9e	0.1175835
11	0xbda67a3e	-0.081287846
12	0xbd496958	-0.04917273
13	0x3d7aa337	0.06119081
14	0xbe085028	-0.13311827
15	0x3d8ece00	0.06972885
16	0x3df0dfb5	0.11761419
17	0x3aaab960	0.0013025217
18	0xbdc2a8cd	-0.095048524
19	0xbd4ec88d	-0.05048423
20	0x3d85fc76	0.06542294
21	0xbdbe4be9	-0.092918225
22	0xbdaf2be0	-0.0855329
23	0x3d9bee9e	0.07613872
24	0x3dcc0a72	0.0996293
25	0xbc1297dd	-0.00894734
26	0x3d58d021	0.052932862
27	0x3cba3dd6	0.022734564
28	0xbd9c101a	-0.07620259
29	0xbcc4ba03	-0.024014479
30	0xbd6ec925	-0.058297295
31	0xbd7aaddd	-0.061200965
32	0x3e3b9844	0.18319803
33	0xbd2793f1	-0.040912572
34	0x3e076d00	0.13225174
35	0x3de251d8	0.11050767
36	0x3d3b022b	0.045656364
37	0xbd4e912b	-0.05043141
38	0xbd19a031	-0.037506286
39	0xbc62cf9c	-0.013843443
40	0xbcc1f89b	-0.023678115
41	0xbd292cb7	-0.04130241
42	0xbd298b14	-0.0413924
43	0x3e0a01c5	0.13477238
44	0xbdffc40c	-0.12488565
45	0xbc90d5da	-0.017680097
46	0xbe1dbda3	-0.15404372
47	0xbd15fdd0	-0.036619008
48	0x3d8fa0a4	0.07013062
49	0x3e64a121	0.22327091
50	0x3d2904b5	0.041264255
51	0xbd68b3b9	-0.056812022
52	0x3c0a4158	0.008438431
53	0xbe139eb4	-0.14416009
54	0xbd2c6f54	-0.04209836
55	0xbe247158	-0.16058862
56	0x3c2834e2	0.0102665145
57	0xbcdf8f84	-0.027290113
58	0x3e0a441b	0.13502543
59	0x3e169eea	0.14709058
60	0x3e3b202c	0.18273991
61	0xbcf34fc9	-0.02970113
62	0xbdb15200	-0.086582184
63	0x3da7641d	0.08173392
64	0xbd9a94e0	-0.07547927
65	0x3d95743e	0.07297562
66	0xbd58e808	-0.052955657
67	0xbd11de22	-0.035612233
68	0xbe356e01	-0.17717744
69	0x3dfb4e50	0.12270796
70	0xbc923ca3	-0.01785118
71	0xbbf0220c	-0.0073282775
72	0xbda23dd1	-0.07921947
73	0x3d1c3dc4	0.03814484
74	0xbddc9d33	-0.10772171
75	0x3dc99e69	0.098446675
76	0x3d3777f1	0.04479212
77	0x3e0a09b1	0.1348026
78	0x3d50e6a1	0.051001195
79	0x3db2db11	0.0873319
80	0xbc6bba76	-0.0143877175
81	0x3df7b702	0.12095453
82	0xbe82e55c	-0.25565612
83	0xbcf681c4	-0.030091174
84	0xbcc41903	-0.023937708
85	0x3df8db27	0.12151175
86	0xbdc1d3d5	-0.09464232
87	0x3d386665	0.045019526
88	0x3d3d96c7	0.04628637
89	0xbda4b9ae	-0.08043228
90	0x3e7aba8e	0.24485227
91	0xbe02216e	-0.12708065
92	0xbd2052ae	-0.03914135
93	0xbd9d1a2c	-0.076710075
94	0xbe44170c	-0.19149417
95	0x3e114da4	0.14189774
96	0x3e309c27	0.17247067
97	0x3c778dc0	0.015109479
98	0xbc8fc002	-0.017547611
99	0xbdc01aba	-0.09380098
100	0xbe0ba23d	-0.13636108
101	0x3d49172e	0.04909437
102	0x3d63e0e7	0.055634405
103	0xbb556c59	-0.00325658
104	0xbe316b24	-0.17326027
105	0x37cc2d80	2.4339883e-05
106	0xbe2bfbcf	-0.16795276
107	0x3dc16d5d	0.094446875
108	0x3df28b3e	0.118429646
109	0x3d3f4c47	0.046703603
110	0xbd97d45f	-0.074135534
111	0x3d4520f4	0.04812713
112	0x3abb3472	0.0014282598
113	0xbd6c858e	-0.057744555
114	0xbc81683f	-0.015796779
115	0xbe47fa61	-0.19529106
116	0xbe41880a	-0.18899551
117	0xbd6a6495	-0.05722483
118	0xbcd19af6	-0.025586586
119	0x3da48a34	0.08034173
120	0xbe755413	-0.23957853
121	0xbd738265	-0.059450526
122	0x3a3005ae	0.00067147135
123	0x3e4337af	0.1906421
124	0xbd9e9030	-0.07742345
125	0x3c0e4581	0.008683563
126	0x3e10bb68	0.1413399
127	0x3e7b3b84	0.24534422
128	0x3dd4e438	0.10395092
129	0xbcaee02b	-0.021347126
130	0x3de4e783	0.1117697
131	0xbda12dbc	-0.07870051
132	0xbdeaede7	-0.114711575
133	0x3e7131f0	0.23554206
134	0x3ce3d60a	0.027812023
135	0x3c5e29dd	0.013559786
136	0x3ba7c6fb	0.005120156
137	0x3d2312b5	0.039812762
138	0xbd590f44	-0.052993074
139	0x3d13311d	0.03593551
140	0xbdd08cdd	-0.101831175
141	0x3e1688b8	0.14700592
142	0xbe34b246	-0.17646131
143	0xbcfe19f9	-0.031018244
144	0xbd4ca89e	-0.049965493
145	0xbd5d8e50	-0.054090798
146	0xbe2bc719	-0.16775168
147	0xbdbbb2e1	-0.09164978
148	0x3d211f42	0.03933645
149	0x3e4cdacb	0.20005338
150	0xbcb59435	-0.022165397
151	0x3d39aa2b	0.0453283
152	0xbe5268e7	-0.2054783
153	0xbdcd8d26	-0.100366876
154	0x3e048993	0.12943105
155	0xbddb4db1	-0.10708178
156	0xbda1ba22	-0.0789683
157	0xbdf025da	-0.117259696
158	0xbda7c8be	-0.081925854
159	0x3d98b35e	0.074560866
160	0x3e2ae80b	0.1669008
161	0x3c4c1061	0.012455077
162	0xbcae0222	-0.021241251
163	0x3d8d847d	0.06910036
164	0xbd2a4679	-0.041571114
165	0x3e089212	0.13336971
166	0xbe2687c2	-0.16262725
167	0x3e6f26d5	0.23354657
168	0xbd3cb659	-0.046072338
169	0x3b2b3a8b	0.0026127424
170	0xbceca63d	-0.028887862
171	0x3df8c629	0.12147171
172	0x3e46d4a2	0.1941705
173	0x3df15f9c	0.11785814
174	0xbd93eedc	-0.07223293
175	0xbb8f5133	-0.0043736934
176	0x3e470524	0.19435555
177	0xbd108adf	-0.035288688
178	0xbd0e10f5	-0.03468414
179	0xbd985c72	-0.074395075
180	0xbe000954	-0.12503558
181	0xbb8d4aa3	-0.004311876
182	0x3d294c6e	0.041332655
183	0x3ce28ca8	0.02765496
184	0xbe5693ba	-0.2095479
185	0xbdfc4a47	-0.12318855
186	0x3cf41555	0.029795328
187	0x3b6ea926	0.0036416738
188	0x3dc25123	0.09488132
189	0xbd2bf8bd	-0.041985262
190	0xbd17eee4	-0.03709306
191	0x3d805804	0.06266788
192	0x3d9d16bf	0.07670354
193	0xbdceee97	-0.10104101
194	0x3e345937	0.17612158
195	0xbc015a50	-0.007895067
196	0x3db50b2b	0.08840021
197	0x3e71148f	0.23542999
198	0x3da0c091	0.07849229
199	0xbd1c495b	-0.038155895
200	0xbd836e98	-0.064175785
201	0x3aafff95	0.001342761
202	0xbe28219b	-0.1641907
203	0x3c003716	0.0078256335
204	0xbd2373bc	-0.039905295
205	0x3e7d0a46	0.2471095
206	0xbdd9a8cf	-0.10627901
207	0xbd0c45c5	-0.034246225
208	0x3e34a5d2	0.1764138
209	0xbd416be3	-0.04722203
210	0xbe1c4bbd	-0.15263267
211	0xbd97d377	-0.074133806
212	0x3dad1538	0.08451313
213	0x3e403428	0.18769896
214	0xbd97b7dc	-0.07408115
215	0x3c7cdac6	0.015433019
216	0xbde01b5b	-0.10942718
217	0xbc87fa87	-0.016598953
218	0x3db72a5e	0.08943628
219	0xbd460843	-0.048347723
220	0xbccda65c	-0.02510374
221	0x3e1e6a1f	0.1547017
222	0x3d3cbd77	0.046079125
223	0xbd36dddc	-0.044645175
224	0x3e6ecf88	0.23321354
225	0xbe05d6e8	-0.13070261
226	0xbd646e55	-0.055769283
227	0xbcaf36ef	-0.021388499
228	0x3cf133d0	0.029443651
229	0x3e307ce6	0.17235145
230	0x3de9186c	0.11381611
231	0xbc9589a4	-0.018254109
232	0xbdca0902	-0.09864999
233	0x3e4703ea	0.19435087
234	0xbd9ac04c	-0.07556209
235	0xbdfbfa87	-0.12303644
236	0xbe3b260c	-0.18276232
237	0x3d0a99f1	0.033838216
238	0xbe62d868	-0.22152865
239	0xbd621777	-0.05519816
240	0x3da81f65	0.08209113
241	0xbd19f709	-0.037589107
242	0xbd4ec096	-0.050476633
243	0xbd578f8b	-0.052627128
244	0xbe36b0c4	-0.17840868
245	0xbddd103b	-0.10794111
246	0x3dbca30c	0.09210786
247	0xbdb31d6e	-0.08745848
248	0xbcee9e89	-0.02912833
249	0xbdbd3b19	-0.092397876
250	0xbd7fdcd0	-0.062466443
251	0x3e06b416	0.13154635
252	0x3d82e1e4	0.063907415
253	0x3ba090e6	0.0049000857
254	0x3de6a067	0.11261063
255	0x3e057b3e	0.13035294

linears.1.bias f4 [64]
0	0x3e640cd5	0.2227052
1	0x3eefe848	0.46856904
2	0x3ea56a79	0.32307795
3	0x3e986eaf	0.29771945
4	0xbd8169db	-0.063190185
5	0x3eb3b3c7	0.35098097
6	0xbe0ed4ba	-0.13948336
7	0x3e050b8f	0.1299269
8	0xbe70d073	-0.23517017
9	0x3ed844c1	0.42239955
10	0x3d8af2c8	0.06784588
11	0xbcdb869b	-0.026797583
12	0x3efd9702	0.49529272
13	0x3ea7f6c4	0.32805455
14	0x3e93fb21	0.28902534
15	0x3e5fc9ec	0.21854371
16	0x3e4cc302	0.19996265
17	0x3d286d5d	0.041119922
18	0xbe95a4a9	-0.29227188
19	0x3ec3b537	0.38224193
20	0x3e8e5f20	0.2780695
21	0x3ea64e95	0.32481828
22	0x3eb25756	0.34832257
23	0x3e5e53da	0.21711674
24	0xbdb0d8c9	-0.086350985
25	0x3d24d8d6	0.040245853
26	0x3e8443e5	0.2583305
27	0xbe470af7	-0.19437777
28	0x3e260d5a	0.1621603
29	0x3d0f2803	0.034950268
30	0xbe7331d9	-0.23749484
31	0x3e7cedb4	0.24700052
32	0x3eac999a	0.3371094
33	0x3edb5b51	0.42843106
34	0xbd9fd0ae	-0.07803474
35	0xbe3edba2	-0.18638471
36	0xbd3d9e13	-0.04629333
37	0x3dc487a0	0.09596181
38	0x3ec4084c	0.3828758
39	0x3d4c7674	0.049917653
40	0x3d443f97	0.047912207
41	0x3e618fc1	0.22027494
42	0xbe51e909	-0.20499052
43	0x3df28517	0.11841791
44	0x3e71714d	0.23578377
45	0x3e54f791	0.20797564
46	0xbea03150	-0.31287622
47	0x3ecab67c	0.3959235
48	0x3e82a35f	0.25515267
49	0x3eeedb8c	0.46651876
50	0x3d992b26	0.07478933
51	0x3eb2d759	0.34929922
52	0xbe5d7d38	-0.21629798
53	0xbe0bf559	-0.13667811
54	0x3c826aa2	0.015919987
55	0x3e45ef4b	0.19329564
56	0xbe5394cc	-0.2066223
57	0x3e8a7b65	0.27047268
58	0xbe31f583	-0.17378812
59	0x3e803091	0.25037053
60	0x3ee1a73e	0.44072908
61	0x3cd04e5f	0.025427995
62	0x3eaaf113	0.3338705
63	0x3eb3c8c3	0.35114107

linears.2.weight f4 [5, 64]
0	0xbdeeabec	-0.11653885
1	0xbe3cee96	-0.18450388
2	0xbdd42d34	-0.10360184
3	0xbe18f646	-0.14937696
4	0xbd718418	-0.058963865
5	0xbded48f3	-0.115861796
6	0xbda975ef	-0.08274447
7	0xbcbd6c38	-0.023122892
8	0xbe55db3e	-0.20884416
9	0xbd3421b9	-0.043977473
10	0x3d7de4e0	0.06198585
11	0xbd007565	-0.031361956
12	0xbe1b1dc4	-0.15148073
13	0xbd954e2c	-0.07290301
14	0xbc090f1f	-0.008365422
15	0xbe1649d4	-0.146766
16	0xbe008c3c	-0.12553495
17	0x3d5da234	0.054109767
18	0xbe7da96b	-0.24771659
19	0xbdf031b3	-0.117282294
20	0xbe703ec6	-0.23461446
21	0xbd7a6f32	-0.0611412
22	0xbd5f287d	-0.054481972
23	0xbd3c9da9	-0.046048794
24	0x3d4c2f14	0.049849585
25	0xbd38219d	-0.04495393
26	0xbe37ec5b	-0.17961256
27	0xbe2269f8	-0.15860736
28	0xbda1e4ed	-0.07904992
29	0x3c96c0d4	0.018402494
30	0xbdf07d7b	-0.117426835
31	0xbd4255a5	-0.04744496
32	0x3c01b16e	0.007915838
33	0xbd044b7f	-0.03229856
34	0xbdc020b9	-0.09381241
35	0xbe372edb	-0.17888968
36	0xbe3d90c8	-0.18512261
37	0x3e4e84fd	0.20167919
38	0xbe1f112b	-0.15533893
39	0x3cfe4c65	0.031042287
40	0xbc850737	-0.016238792
41	0xbda85ba6	-0.082206056
42	0xbd12f308	-0.035876304
43	0x3de0577a	0.10954185
44	0xbe28211a	-0.16418877
45	0x3dc67505	0.096902885
46	0xbd555d55	-0.05209096
47	0xbe275602	-0.16341403
48	0xbda1e161	-0.07904316
49	0xbde70996	-0.11281125
50	0x3d80d286	0.06290154
51	0xbddb675d	-0.10713074
52	0xbe84285b	-0.2581204
53	0x3d012d5a	0.03153739
54	0x3b2798e0	0.0025573298
55	0x3d7e5a4b	0.06209783
56	0xbdcda7d0	-0.10041773
57	0xbdd585e0	-0.10425925
58	0xbd4a6615	-0.04941376
59	0x3c99fcfa	0.018797386
60	0xbe2db314	-0.16962844
61	0xbb121791	-0.0022291879
62	0xbe0e6f5e	-0.1390967
63	0x3e4fe318	0.20301473
64	0xbcca5ec2	-0.024703387
65	0xbe30292d	-0.17203207
66	0xbe20442c	-0.15651006
67	0xbdf0c621	-0.1175654
68	0xbcbf43b5	-0.023347715
69	0xbe1711be	-0.14752862
70	0x3cc45d56	0.023970287
71	0xbc952f20	-0.018210948
72	0xbd07ee93	-0.033186506
73	0xbe1abe39	-0.15111627
74	0x3d777ae4	0.060419932
75	0x3d0d8836	0.03455373
76	0xbe1c6226	-0.15271816
77	0x3e065e39	0.1312188
78	0xbc19ba08	-0.009382732
79	0xbebf0eb3	-0.37315902
80	0xbd951777	-0.07279866
81	0xbd780ad3	-0.060557198
82	0xbdf73c01	-0.12071992
83	0xbe055756	-0.13021597
84	0xbdf93d0a	-0.121698454
85	0xbe0a2f44	-0.13494593
86	0xbe18fc4a	-0.1493999
87	0xbcf8cf9a	-0.03037243
88	0x3da5659d	0.08076022
89	0xbbb33257	-0.0054686475
90	0xbd56a48e	-0.052403025
91	0x3c9de099	0.019272136
92	0xbe26c8c7	-0.16287528
93	0x3c631059	0.013858878
94	0x37e95c55	2.781876e-05
95	0xbd5ee9dc	-0.054422244
96	0x3d71f703	0.05907346
97	0xbe24e9e0	-0.16104841
98	0x3ce9b03a	0.028526414
99	0xbdebbf11	-0.115110524
100	0xbe88073f	-0.26568028
101	0x3e211644	0.1573115
102	0xbd76bea9	-0.06024042
103	0xbd96dd5a	-0.07366438
104	0xbc223f93	-0.009902853
105	0x3d8b6caf	0.06807839
106	0x3d372dbc	0.04472135
107	0xbddbd113	-0.10733237
108	0xbe38d6ca	-0.18050686
109	0x3d88a1f1	0.06671513
110	0xbda8a134	-0.08233872
111	0xbdebcf90	-0.11514199
112	0xbd2c2964	-0.04203166
113	0xbe0f1deb	-0.13976257
114	0xbd49ba73	-0.049250077
115	0xbe14423d	-0.14478393
116	0xbd7fa59c	-0.062413797
117	0x3d73beb5	0.059508044
118	0x3d2c75b4	0.042104438
119	0xbdcc734f	-0.09982931
120	0xbda341ce	-0.079715356
121	0xbcc30d97	-0.023810191
122	0xbbecd7b7	-0.0072278637
123	0xbd2f0480	-0.0427289
124	0xbde3ac33	-0.11116829
125	0x3cf93417	0.030420346
126	0xbddc2830	-0.10749853
127	0xbb97169d	-0.00461085
128	0xbd857d15	-0.06517998
129	0xbe5a023e	-0.21289918
130	0x3c8e81b1	0.017395826
131	0xbdeb48a4	-0.114884645
132	0xbd0cad7c	-0.034345135
133	0xbe4f7359	-0.20258845
134	0xbe4ad9b7	-0.19809614
135	0xbda29709	-0.07938964
136	0xbe95bbed	-0.29244938
137	0xbd5e695f	-0.05429971
138	0xbd835534	-0.064127356
139	0x3d75d0ac	0.060013458
140	0xbe4a48b2	-0.19754294
141	0x3e44ae4f	0.19207118
142	0x3b8065a3	0.003918366
143	0x3e56ad0c	0.2096445
144	0xbe828e1a	-0.2549904
145	0x3e29e480	0.16591072
146	0xbea400ae	-0.3203177
147	0x3bfb33b3	0.007666075
148	0xbe6914c0	-0.22761822
149	0xbd3540fd	-0.04425143
150	0xbda98df6	-0.0827903
151	0x3cd197b4	0.025585033
152	0xbdef50b7	-0.11685317
153	0xbe33bd1a	-0.17552605
154	0xbe9ffd97	-0.3124816
155	0xbe4d33e7	-0.2003933
156	0x3c9cf91e	0.019161757
157	0x3d559b7d	0.05215024
158	0xbda8505a	-0.08218451
159	0xbd55251a	-0.052037336
160	0xbd0b212c	-0.033967182
161	0xbe29479f	-0.16531228
162	0xbe324a45	-0.17411144
163	0xbdae11d5	-0.08499495
164	0xbeaeed98	-0.34165645
165	0x3d4f93b5	0.050677974
166	0xbe64d8e8	-0.22348368
167	0x3e838a30	0.25691366
168	0xbd9cc190	-0.076541066
169	0xbe3fac68	-0.18718112
170	0xbcd9ada1	-0.02657205
171	0x3e21519b	0.15753786
172	0xbd99ae53	-0.07503953
173	0x3eaee5e2	0.34159762
174	0xbe08dcef	-0.1336553
175	0x3caeb24b	0.021325251
176	0xbe0e07e4	-0.13870198
177	0xbe2e10c4	-0.16998583
178	0xbe575457	-0.21028267
179	0xbdf170c5	-0.11789087
180	0xbe8098e4	-0.25116646
181	0xbd4d0e3d	-0.050062407
182	0xbe66c65a	-0.22536603
183	0xbd74d7cd	-0.059776116
184	0xbdc4a8ee	-0.09602533
185	0x3bd34116	0.006446968
186	0xbcf83f81	-0.030303719
187	0xbd3038e0	-0.04302299
188	0xbdf927a9	-0.12165768
189	0xbd870586	-0.065928504
190	0xbe4aac5f	-0.19792317
191	0x3e7ade88	0.24498951
192	0xbe2c386c	-0.16818398
193	0xbd814059	-0.063111015
194	0xbe6a306f	-0.22870038
195	0xbd1cc4fa	-0.03827379
196	0xbd1d9d23	-0.038479935
197	0xbda847ed	-0.08216844
198	0xbd13b4fb	-0.03606127
199	0xbb74b81c	-0.0037341183
200	0x3d5ee4f8	0.05441758
201	0xbe4ecdfb	-0.20195763
202	0xbda499f8	-0.0803718
203	0x3d218a41	0.03943849
204	0xbdd4fdd5	-0.10399977
205	0xbda2b71a	-0.0794508
206	0xbe06046e	-0.13087627
207	0xbe1b8ce2	-0.15190461
208	0xbea6fa8d	-0.3261303
209	0xbcb0e218	-0.021592185
210	0x3c7aed24	0.015315328
211	0xbdc5c9d1	-0.09657634
212	0xbd4224f1	-0.04739851
213	0xbe811f03	-0.25218973
214	0xbddd7b10	-0.10814488
215	0xbd8996b9	-0.06718201
216	0x3db7fd3e	0.08983849
217	0xbda471a5	-0.080294885
218	0xbe2bcd89	-0.16777624
219	0x3d058465	0.032596964
220	0xbe2663c2	-0.16248992
221	0xbdff4bd2	-0.124656335
222	0xbd9b987a	-0.07597442
223	0xbda9f280	-0.08298206
224	0x3c5e6d67	0.013575888
225	0xbe5d955c	-0.21639007
226	0xbd67549e	-0.05647718
227	0x3e2ab2a8	0.16669714
228	0x3b702b06	0.0036646738
229	0x3e8b3eb4	0.27196276
230	0xbe3c644a	-0.18397632
231	0xbdca65e9	-0.09882719
232	0x3d00c2ad	0.031435657
233	0xbe8eeb74	-0.2791401
234	0xbe821c38	-0.25412154
235	0x3d646644	0.05576159
236	0xbd812613	-0.0630609
237	0x3e14cf65	0.1453224
238	0xbd0ad1e3	-0.03389157
239	0xbe5fa2ba	-0.21839419
240	0x3da20615	0.07911316
241	0xbc21a628	-0.009866275
242	0xbd724d55	-0.05915578
243	0xbda34ddd	-0.079738356
244	0x3c977ada	0.018491197
245	0x3e1955ad	0.14974089
246	0xbdda7b86	-0.106680915
247	0xbdfce890	-0.12349045
248	0x3ddad2c3	0.10684731
249	0xbe26fd2d	-0.16307516
250	0x3d2fee79	0.042952035
251	0x3b8925a1	0.004185394
252	0xbe536989	-0.20645727
253	0xbda306eb	-0.07960304
254	0xbcd3a679	-0.025836216
255	0x3dbc077a	0.091811135

linears.2.bias f4 [5]
0	0xbe5cac4f	-0.21550106
1	0xbe94d442	-0.2906819
2	0xbec3cf0f	-0.3824391
3	0xbec4cbff	-0.38436887
4	0xbed5a602	-0.41728216
