dqn-exp/savedir/student-test/checkpoint500--model.pth (torch_old, 20763 bytes, 6 tensors)

linears.0.weight f4 [64, 6]
0.036529217 0.24722822 -0.53101295 0.11015111 -0.35093096 0.07364235 0.014269693 -0.17072578
0.044660024 -0.018174225 0.008988184 0.52760226 0.494225 0.34099072 0.09593619 -0.0117103355
-0.13685976 0.055695496 0.3626922 -0.1872402 -0.195124 0.0027364306 -0.16278982 0.044221833
0.08582972 0.16584511 -0.20593973 -0.14308536 -0.25747368 -0.26306364 0.36779934 -0.18172608
-0.10840116 0.31657296 0.18274543 -0.030243745 0.08197022 0.008752096 0.5083046 -0.07534284
0.2211063 -0.04561268 -0.28587046 0.028819248 0.25625163 0.083367795 0.10297933 0.0077569485
-0.037936784 -0.03762749 -0.10268403 0.34011152 0.44726396 0.30494943 -0.26957273 0.12902686
-0.116570525 -0.14698014 -0.021952111 0.025735 -0.08307662 0.037329666 -0.2497355 -0.14454715
0.41413423 -0.00092032773 -0.13505484 0.25452968 0.49349156 0.08258734 -0.08579119 -0.07870557
0.035421126 -0.07220163 0.061609756 -0.15241139 0.111448824 0.47707933 0.078315474 0.1385434
-0.009550806 0.04249078 -0.047006767 -0.5213301 0.21005763 0.1635871 0.08992172 -0.08694062
-0.31009397 -0.39411983 -0.16806349 -0.078366205 0.004010206 -0.048650313 0.32543084 0.22990721
0.14299071 0.013061563 -0.20529224 0.059756078 -0.6095432 0.14057988 0.22104493 0.2548565
-0.07347855 0.18396099 -0.53920627 -0.27952012 0.12850918 -0.020257456 0.07926914 0.06577254
0.44259462 -0.17075416 0.052659485 0.07065948 0.025024405 -0.033516362 -0.5498117 -0.36257452
0.14592636 -0.29720587 0.10274506 0.13163605 -0.24385221 0.35593897 0.011557888 0.30429044
0.00963069 0.1030845 0.05716149 -0.48001343 -0.15755314 -0.108637966 -0.17621267 -0.20193991
0.15234357 0.21263619 0.041480858 -0.017761266 0.1665383 -0.029336704 0.14307408 0.40722752
0.08507355 0.07236308 0.17197004 0.26833233 0.033687558 0.11088036 -0.11752871 -0.0084692575
-0.13818921 -0.13171257 0.53139985 -0.20353512 -0.12686843 -0.009102288 -0.20086986 -0.00819884
0.36672056 -0.014860686 -0.23028482 0.07158672 -0.15872046 0.04497796 -0.07517802 -0.1748897
0.11253545 -0.07827133 0.05025542 0.031162301 -0.74136734 0.2765398 0.0075214654 0.18429945
0.44201255 -0.049383733 0.26441586 -0.40736738 0.008907993 -0.06382531 -0.020845868 0.036912076
-0.07632221 0.7374062 -0.14709663 0.001064596 0.2812429 -0.27256465 0.13700688 -0.4573049
0.045942735 0.0018745523 -0.00081987074 -0.02994268 0.011641344 -0.17727007 -0.19735381 0.044766635
-0.11789771 0.21963155 0.09968122 -0.164194 0.243494 0.0065558464 0.08316027 -0.12827218
-0.41350743 -0.19959044 -0.17372565 -0.026662953 0.005869378 -0.052063886 0.19728723 -0.24915026
0.16893505 0.25530908 -0.11834006 0.018516654 0.21673304 -0.03373508 0.020265996 -0.016485445
0.085122496 0.23940949 0.23363346 0.097395614 -0.20468788 0.16723682 -0.17865382 -0.06772059
0.29443842 -0.044894326 -0.33346993 -0.52093834 -0.22269776 -0.024667978 -0.25504595 -0.044299215
-0.030726358 0.045750234 -0.005427012 0.019979551 -0.09635233 -0.6882507 0.15814915 -0.11753044
-0.007493962 -0.1095163 -0.039958946 -0.013311557 0.06494942 -0.25105277 0.11202037 -0.14532736
00000000: a99f 153d 6529 7d3e 77f0 07bf e896 e13d
00000010: 39ad b3be cdd1 963d 6ecb 693c bdd2 2ebe
00000020: 6eed 363d 1de2 94bc 2d43 133c f110 073f
00000030: 0f0b fd3e 5696 ae3e 317a c43d b5dc 3fbc
00000040: f724 0cbe f620 643d cbb2 b93e e5bb 3fbe
00000050: 96ce 47be b055 333b 60b2 26be f421 353d
00000060: 7ec7 af3d 4dd3 293e dde1 52be f884 12be
00000070: 97d3 83be 47b0 86be 3250 bc3e 6716 3abe
00000080: 6d01 debd da15 a23e 9e21 3b3e bbc1 f7bc
00000090: 01e0 a73d f464 0f3c 4020 023f 594d 9abd
000000a0: b169 623e 5dd4 3abd 9d5d 92be 5816 ec3c
000000b0: 6a33 833e bcbc aa3d d4e6 d23d 002e fe3b
000000c0: 9a63 1bbd 481f 1abd 014c d2bd 1923 ae3e
000000d0: c8ff e43e 5522 9c3e 7005 8abe 9e1f 043e
000000e0: 87bc eebd f681 16be ead4 b3bc 35d2 d23c
000000f0: 1324 aabd fee6 183d aaba 7fbe 2b04 14be
00000100: 6709 d43e 2642 71ba d14b 0abe b751 823e
00000110: edaa fc3e 8d23 a93d 4bb3 afbd 6330 a1bd
00000120: be15 113d 73de 93bd 835a 7c3d bb11 1cbe
00000130: 483f e43d be43 f43e dd63 a03d 52de 0d3e
00000140: fc7a 1cbc d00a 2e3d 2b8a 40bd e475 05bf
00000150: 5919 573e 6083 273e e128 b83d ec0d b2bd
00000160: a3c4 9ebe 13ca c9be d618 2cbe 767e a0bd
00000170: 0c68 833b 8d45 47bd df9e a63e cc6c 6b3e
00000180: 286c 123e 2a00 563c 2138 52be cac2 743d
00000190: 060b 1cbf 2cf4 0f3e 9a59 623e 8d7c 823e
000001a0: ec7b 96bd 4560 3c3e 6c09 0abf 431d 8fbe
000001b0: e997 033e f7f2 a5bc dc57 a23d c1b3 863d
000001c0: c39b e23e 2eda 2ebe 79b1 573d ebb5 903d
000001d0: fbff cc3c 7448 09bd 76c0 0cbf 5ea3 b9be
000001e0: b86d 153e 5e2b 98be 016c d23d 9acb 063e
000001f0: 65b4 79be a23d b63e 4c5d 3d3c f5cb 9b3e
00000200: 0bca 1d3c f71d d33d 2b22 6a3d 52c4 f5be
00000210: 9c55 21be 957d debd 1871 34be 56c9 4ebe
00000220: f4ff 1b3e 4dbd 593e d5e7 293d 1380 91bc
00000230: 0489 2a3e 8753 f0bc 0382 123e 2080 d03e
00000240: 0b3b ae3d 1833 943d ea18 303e db62 893e
00000250: f7fb 093d 3e15 e33d e4b2 f0bd a4c2 0abc
00000260: 7981 0dbe a9df 06be d209 083f 836b 50be
00000270: cce9 01be c321 15bc d4b0 4dbe 6d54 06bc
00000280: ccc2 bb3e 3c7a 73bc c9cf 6bbe 0f9c 923d
00000290: 9e87 22be cf3a 383d eff6 99bd 4916 33be
000002a0: fc78 e63d b84c a0bd a1d8 4d3d 1548 ff3c
000002b0: 40ca 3dbf a096 8d3e a076 f63b ffb8 3c3e
000002c0: 784f e23e 9946 4abd 8461 873e 7592 d0be
000002d0: d5f2 113c d8b6 82bd f4c4 aabc 1e31 173d
000002e0: d24e 9cbd a7c6 3c3f 80a0 16be ea89 8b3a
000002f0: 12ff 8f3e 988d 8bbe 884b 0c3e de23 eabe
00000300: 732e 3c3d 8ab3 f53a 98ec 56ba 5a4a f5bc
00000310: 56bb 3e3c 4986 35be 1e17 4abe 385d 373d
00000320: 5b74 f1bd 18e7 603e ab25 cc3d 7922 28be
00000330: 7e56 793e 6dd2 d63b ee4f aa3d c859 03be
00000340: 3fb7 d3be 7061 4cbe 23e5 31be 446c dabc
00000350: e953 c03b f140 55bd aa05 4a3e 3f21 7fbe
00000360: 4ffd 2c3e dfb7 823e 465c f2bd 3db0 973c
00000370: 44ef 5d3e cc2d 0abd e004 a63c 7c0c 87bc
00000380: b454 ae3d c327 753e 9c3d 6f3e 5a77 c73d
00000390: b399 51be 2140 2b3e 07f1 36be 18b1 8abd
000003a0: a2c0 963e 1de3 37bd 92bc aabe 375c 05bf
000003b0: e20a 64be 8014 cabc 6295 82be 1873 35bd
000003c0: d8b5 fbbc 9964 3b3d 14d5 b1bb 28ac a33c
000003d0: 5f54 c5bd 3331 30bf daf1 213e cdb3 f0bd
000003e0: e98f f5bb 154a e0bd feab 23bd b718 5abc
000003f0: 3404 853d fd89 80be f06a e53d b2d0 14be

linears.0.bias f4 [64]
-0.11567579 -0.001997518 -0.33329976 -0.19982818 0.20145977 -0.6317359 -0.11577503 -0.23186329
0.34758908 0.46939203 -0.19477393 -0.2990129 -0.34339708 -0.16435835 0.4004679 -0.4914655
0.29541305 -0.4906356 0.4555014 0.14705582 0.4513479 0.29075024 0.476013 0.24738626
0.41545418 0.10150244 -0.33245608 -0.025943793 0.070849724 -0.35215822 -0.02364835 0.03210005
0.05698909 0.4155605 0.08917317 0.13706763 0.018757321 -0.17841284 0.2876794 -0.37672377
-0.06816808 -0.40703365 0.43806252 -0.5313418 -0.07218497 -0.30406156 0.5305922 0.41282025
-0.14019276 0.07930962 -0.17064717 0.30173057 0.013087645 0.35031906 0.3723694 -0.24217996
-0.26620612 -0.04678962 0.3194307 -0.26760405 0.08822383 -0.024135724 0.40272063 -0.3732267
00000000: 6ee7 ecbd cae8 02bb 44a6 aabe c29f 4cbe
00000010: 784b 4e3e 72b9 21bf 751b edbd 926d 6dbe
00000020: 32f7 b13e 2754 f03e d172 47be 3818 99be
00000030: bed1 afbe 8e4d 28be 210a cd3e 5ea1 fbbe
00000040: 6140 973e 9734 fbbe 7b37 e93e cd95 163e
00000050: 1217 e73e 37dd 943e fab7 f33e d352 7d3e
00000060: 69b6 d43e 83e0 cf3d af37 aabe 1488 d4bc
00000070: a919 913d 154e b4be 2fba c1bc 587b 033d
00000080: 646d 693d 59c4 d43e 6ca0 b63d 755b 0c3e
00000090: f4a8 993c dbb1 36be b74a 933e f0e1 c0be
000000a0: b59b 8bbd b766 d0be bb49 e03e 0406 08bf
000000b0: b7d5 93bd f5ad 9bbe e4d4 073f 2d5d d33e
000000c0: b18e 0fbe 156d a23d 22be 2ebe 6e7c 9a3e
000000d0: 906d 563c 055d b33e 34a7 be3e 06fe 77be
000000e0: 2b4c 88be 79a6 3fbd 6c8c a33e 6603 89be
000000f0: b2ae b43d 48b8 c5bc 6631 ce3e 9217 bfbe

linears.1.weight f4 [64, 64]
-0.052750625 -0.03579875 0.00038448026 0.0057284245 -0.14168034 0.18470189 0.10651738 0.046984877
-0.113318205 -0.032096423 0.10906443 -0.097440146 -0.049927283 0.058741447 -0.15448894 0.08004359
0.112326644 0.019623954 -0.10430885 -0.06505765 0.0662572 -0.08977522 -0.10834712 0.08550251
0.079037786 -0.02987985 0.05137528 0.009245766 -0.10008978 -0.078007415 -0.07224739 -0.043663032
0.18749095 -0.06460067 0.12103474 0.09190091 0.02674299 -0.042014774 -0.06479689 -0.026634408
-0.039643776 -0.038871635 -0.0544006 0.15535487 -0.11219052 -0.0055499864 -0.16026452 -0.06043801
0.074142076 0.18849608 0.04269838 -0.0745182 -0.0042030322 -0.1542547 -0.05846233 -0.14967613
0.0029313562 -0.0060490184 0.122177646 0.15250206 0.14627458 -0.045650136 -0.0757346 0.08626227
-0.09087847 0.07833314 -0.06715939 -0.05193583 -0.18195465 0.117069036 -0.026413368 0.00229218
-0.07181204 0.04476634 -0.10861513 0.07329222 0.049455326 0.12177424 0.06130851 0.088575795
-0.0147053255 0.13302806 -0.24235953 -0.017885627 -0.019490292 0.11934501 -0.0899885 0.05190967
0.06290778 -0.054684803 0.23149067 -0.13445501 -0.05438256 -0.06812468 -0.20148566 0.14534156
0.17037483 0.026348574 -0.023997467 -0.10383728 -0.14386435 0.044777036 0.06788341 -0.009222524
-0.18568373 -0.0070087123 -0.16025858 0.112940945 0.12931372 0.048980426 -0.059603475 0.05293193
-0.005323116 -0.043171264 0.006261609 -0.18545327 -0.18835896 -0.047003377 -0.022199104 0.08233783
-0.23514217 -0.053580325 0.015217564 0.18407106 -0.07326998 0.013709764 0.15282032 0.23821041
0.091605276 -0.02121986 0.12016608 -0.11859603 -0.12499308 0.23353422 0.017033137 0.0035356681
0.0069186697 0.014553491 -0.045452386 0.055900533 -0.10047989 0.13960633 -0.15782039 -0.026044639
-0.05253329 -0.039880227 -0.16340566 -0.09836553 0.044171855 0.2006262 -0.040584203 0.0526934
-0.2086664 -0.10894867 0.12280276 -0.116006844 -0.11388511 -0.14959355 -0.10121969 0.08341937
0.16860041 0.016347347 -0.042000983 0.053686567 -0.04963571 0.13610047 -0.15517984 0.2170295
-0.061372764 0.00042382948 -0.03948141 0.13263464 0.19679381 0.12612952 -0.07080357 -0.0041275183
0.19310167 -0.04488265 -0.021755671 -0.07508985 -0.13018148 -0.004837955 0.043853562 0.055722095
-0.20974256 -0.13574845 0.042230595 0.0047368095 0.045679923 -0.035191063 -0.026612885 0.060747687
0.06296189 -0.090978995 0.14498357 -0.02940535 0.0736537 0.23535457 0.08352103 -0.03484033
-0.068255596 -0.008546117 -0.15572077 0.0024345035 -0.03509388 0.24034826 -0.10907089 -0.026800482
0.17686836 -0.029070279 -0.15033223 -0.059703156 0.09304269 0.18638976 -0.08400808 0.027581962
-0.10582783 -0.02850558 0.08181774 -0.06027919 -0.036824953 0.1348719 0.03246605 -0.035592396
0.23355168 -0.13377208 -0.06967341 -0.039826855 0.013531375 0.17449278 0.09793523 -0.028360393
-0.10996112 0.1930188 -0.08015493 -0.099287264 -0.1726064 0.04240716 -0.21809286 -0.050406773
0.08004268 -0.04219936 -0.035581805 -0.060610283 -0.18585221 -0.11159674 0.084379666 -0.072533265
-0.029232936 -0.069375366 -0.06445758 0.13125551 0.07182729 0.0027137992 0.13285741 0.12860459
00000000: 0a11 58bd b6a1 12bd 1194 c939 82b5 bb3b
00000010: a714 11be 7e22 3d3e c925 da3d 3773 403d
00000020: 6013 e8bd 8a77 03bd 2c5d df3d b38e c7bd
00000030: 8d80 4cbd df9a 703d 5932 1ebe e5ed a33d
00000040: 830b e63d 6ac2 a03c e19f d5bd f23c 85bd
00000050: dbb1 873d 12dc b7bd 18e5 ddbd f11b af3d
00000060: 90de a13d 96c6 f4bc e36e 523d 8e7b 173c
00000070: dffb ccbd 5ac2 9fbd 71f6 93bd 02d8 32bd
00000080: a1fd 3f3e 5b4d 84bd 10e1 f73d 8b36 bc3d
00000090: 1d14 db3c af17 2cbd 3bb4 84bd 6730 dabc
000000a0: 8361 22bd dd37 1fbd 2ad3 5ebd 5915 1f3e
000000b0: 25c4 e5bd a9dc b5bb 621c 24be d98d 77bd
000000c0: cdd7 973d 1e05 413e 7fe4 2e3d ff9c 98bd
000000d0: 97b9 89bb f2f4 1dbe 3276 6fbd b344 19be
000000e0: ff1b 403b d836 c6bb 4638 fa3d 8029 1c3e
000000f0: 01c9 153e a3fb 3abd be1a 9bbd 46aa b03d
00000100: 7e1e babd 206d a03d dd8a 89bd aaba 54bd
00000110: 5252 3abe e4c1 ef3d d960 d8bc 6638 163b
00000120: 3112 93bd e95c 373d 9c71 debd 3b1a 963d
00000130: ab91 4a3d c664 f93d a21e 7b3d 3a67 b53d
00000140: 9bee 70bc 8238 083e 192d 78be e184 92bc
00000150: 1baa 9fbc 286b f43d e44b b8bd 3c9f 543d
00000160: cbd5 803d 2cfd 5fbd e40b 6d3e 93ae 09be
00000170: 3fc0 5ebd f484 8bbd 4252 4ebe 6bd4 143e
00000180: bd76 2e3e f7d8 d73c 5696 c4bc a4a8 d4bd
00000190: 2d51 13be 2068 373d 7506 8b3d 121a 17bc
000001a0: e023 3ebe 57a9 e5bb d31a 24be 954d e73d
000001b0: d16a 043e b39f 483d c622 74bd 27cf 583d
000001c0: 896d aebb 5ad4 30bd 2f2e cd3b 76e7 3dbe
000001d0: 2ce1 40be 9d86 40bd e5da b5bc bca0 a83d
000001e0: 1cc9 70be 0b77 5bbd 1753 793c 207d 3c3e
000001f0: 920e 96bd eb9e 603c ee7c 1c3e 6eed 733e
00000200: 8c9b bb3d 46d5 adbc a219 f63d 7ae2 f2bd
00000210: 5ffc ffbd 9823 6f3e 1489 8b3c abb6 673b
00000220: 02b6 e23b c471 6e3c 482c 3abd f5f7 643d
00000230: 67c8 cdbd f6f4 0e3e ab9b 21be 915b d5bc
00000240: 262d 57bd 7359 23bd d053 27be de73 c9bd
00000250: 8ced 343d f470 4d3e 9f3b 26bd 09d5 573d
00000260: a5ac 55be 7b20 dfbd 0380 fb3d ff94 edbd
00000270: 993c e9bd 0d2f 19be 454c cfbd c6d7 aa3d
00000280: 96a5 2c3e dfea 853c 3909 2cbd 72e6 5b3d
00000290: d04e 4bbd ec5d 0b3e 77e7 1ebe fb3c 5e3e
000002a0: 0262 7bbd 6e35 de39 42b7 21bd 60d1 073e
000002b0: 5184 493e 1928 013e 7601 91bd 2240 87bb
000002c0: 72bc 453e dfd6 37bd f338 b2bc b5c8 99bd
000002d0: 4b4e 05be b587 9ebb cb9f 333d da3c 643d
000002e0: c1c6 56be a401 0bbe fdf9 2c3d 3d37 9b3b
000002f0: df1a 3b3d 8124 10bd 4403 dabc 91d2 783d
00000300: 2af2 803d 3253 babd 9376 143e 7de3 f0bc
00000310: c0d7 963d ca00 713e 130d ab3d bcb4 0ebd
00000320: 97c9 8bbd 0305 0cbc 4475 1fbe 318c 1f3b
00000330: 9abe 0fbd db1d 763e 8f60 dfbd af8c dbbc
00000340: fb1c 353e cb24 eebc b1f0 19be 4c8b 74bd
00000350: 2a8d be3d f5dc 3e3e 6e0c acbd 91f3 e13c
00000360: 43bc d8bd 8984 e9bc 0f90 a73d 50e7 76bd
00000370: c3d5 16bd dc1b 0a3e 1ffb 043d 55c9 11bd
00000380: 2c28 6f3e 8cfb 08be efb0 8ebd 7c21 23bd
00000390: b3b2 5d3c 3cae 323e 4492 c83d 0e54 e8bc
000003a0: 4c33 e1bd b8a6 453e 4528 a4bd 1f57 cbbd
000003b0: bbbf 30be 21b3 2d3d bc53 5fbe 5577 4ebd
000003c0: 6bed a33d 3cd9 2cbd 3abe 11bd 7d42 78bd
000003d0: 0b50 3ebe d58c e4bd 3fcf ac3d 528c 94bd
000003e0: e979 efbc ac14 8ebd 5602 84bd d867 063e
000003f0: 301a 933d ffd9 313b c60b 083e ecb0 033e

linears.1.bias f4 [64]
0.1839713 0.44355035 0.30479082 0.25660053 -0.07793391 0.32871526 -0.14151257 0.12241578
-0.22781913 0.3920471 0.05860371 -0.022167945 0.46850216 0.30173564 0.28873664 0.20631163
0.1779938 0.04334122 -0.27884576 0.37082598 0.25474545 0.30201787 0.31221074 0.2149745
-0.07031175 0.042517845 0.22936949 -0.19910118 0.099080734 0.04229731 -0.26072505 0.23967956
0.3222957 0.40396515 -0.085865036 -0.1999392 -0.05164878 0.082240164 0.35909992 0.052996255
0.035402894 0.1962414 -0.19233356 0.11090233 0.22084749 0.19702445 -0.29399416 0.37963346
0.233721 0.44548702 0.080237456 0.32067385 -0.21514992 -0.12767927 0.018149873 0.18967004
-0.18999332 0.2682079 -0.18327942 0.2333155 0.41185793 0.011404289 0.31474397 0.3288814
00000000: f962 3c3e 0819 e33e 8b0d 9c3e 2561 833e
00000010: d09b 9fbd 5e4d a83e ace8 10be 20b5 fa3d
00000020: 6b49 69be 66ba c83e 720a 703d 8d99 b5bc
00000030: 84df ef3e 187d 9a3e 4ad5 933e 5b43 533e
00000040: 0244 363e 9086 313d dfc4 8ebe e7dc bd3e
00000050: ff6d 823e 16a2 9a3e 16da 9f3e 4622 5c3e
00000060: 9bff 8fbd 3127 2e3d d6df 6a3e 2ee1 4bbe
00000070: d7ea ca3d f23f 2d3d c17d 85be 8f6e 753e
00000080: f103 a53e 85d4 ce3e 02da afbd ddbc 4cbe
00000090: ac8d 53bd 886d a83d f2db b73e 9a12 593d
000000a0: a002 113d 81f3 483e 17f3 44be c320 e33d
000000b0: d825 623e c7c0 493e 6786 96be 515f c23e
000000c0: 8f54 6f3e e016 e43e 8953 a43d 5d2f a43e
000000d0: 4350 5cbe 5bbe 02be 0baf 943c dd38 423e
000000e0: 9c8d 42be 8c52 893e 9aad 3bbe 42ea 6e3e
000000f0: 0bdf d23e 0ed9 3a3c 1f26 a13e 2563 a83e

linears.2.weight f4 [5, 64]
-0.12795231 -0.1826602 -0.10316155 -0.14652713 -0.07206108 -0.11575271 -0.08274447 -0.021399679
-0.20884416 -0.047022313 0.06198585 -0.031361956 -0.14923292 -0.07290301 -0.022549009 -0.146766
-0.122287646 0.054109767 -0.24771659 -0.11930014 -0.23026522 -0.05511308 -0.057937462 -0.056690205
0.07527454 -0.04495393 -0.17382985 -0.15860736 -0.078402266 0.018402494 -0.117426835 -0.04972586
0.007915838 -0.03144636 -0.09381241 -0.17888968 -0.18512261 0.20167919 -0.1513975 0.047466513
-0.033491086 -0.050274666 -0.0317824 0.10954185 -0.16431552 0.096902885 -0.057546154 -0.16146225
-0.078066885 -0.11274226 0.06290154 -0.106372274 -0.2581204 0.033305366 0.0025573298 0.04796854
-0.10041773 -0.1133673 -0.049383245 0.018797386 -0.16569687 -0.0022291879 -0.13643135 0.20301473
-0.031149099 -0.16863629 -0.15414919 -0.11461058 -0.030051297 -0.14698301 0.023970287 -0.012398221
-0.033186506 -0.15272646 0.060419932 0.03455373 -0.14869863 0.1312188 -0.019731954 -0.37315902
-0.06767002 -0.060557198 -0.12071992 -0.13180378 -0.11621476 -0.13001733 -0.15106322 -0.040529102
0.07231944 -0.0054686475 -0.045321815 0.019272136 -0.16330586 0.013858878 2.781876e-05 -0.060657993
0.05907346 -0.16099349 0.028526414 -0.115110524 -0.26568028 0.1573115 -0.055652644 -0.1336012
-0.030237515 0.08217254 0.0292657 -0.10733237 -0.17843536 0.06671513 -0.08870399 -0.11193236
-0.026863579 -0.1377013 -0.049250077 -0.14420937 -0.062413797 0.043141194 0.042104438 -0.113512374
-0.079715356 -0.027950602 0.008723025 -0.0427289 -0.106697544 0.030420346 -0.104321904 -0.00461085
-0.07550224 -0.21143654 0.019681996 -0.114626996 -0.048023187 -0.20286433 -0.19809614 -0.09281791
-0.29244938 -0.056101948 -0.064127356 0.060013458 -0.19544724 0.19207118 -0.0052274675 0.2096445
-0.25601885 0.16591072 -0.3203177 0.008238698 -0.22516617 -0.037927933 -0.0859454 0.031758618
-0.1512146 -0.17552605 -0.31445527 -0.2003933 0.01960437 0.05215024 -0.08218451 -0.05879593
-0.033967182 -0.16597484 -0.17411144 -0.08499495 -0.34165645 0.050677974 -0.22268155 0.25296408
-0.10258891 -0.1357483 -0.043227036 0.15753786 -0.07405278 0.34159762 -0.14185326 0.024622161
-0.13507912 -0.17071596 -0.21028267 -0.117761046 -0.25116646 -0.06404574 -0.22536603 -0.073500454
-0.09602533 0.005137966 -0.024951857 -0.04302299 -0.1193997 -0.066943444 -0.19775264 0.24498951
-0.1791789 -0.060098033 -0.22940344 -0.03624379 -0.04968782 -0.07894233 -0.03606127 -0.014131224
0.05441758 -0.20531778 -0.0803718 0.03943849 -0.10123382 -0.0794508 -0.14751425 -0.15190461
-0.31389758 -0.021592185 0.015315328 -0.09652358 -0.042154707 -0.24777164 -0.11070363 -0.06370169
0.10112114 -0.080294885 -0.15524948 0.032596964 -0.16339256 -0.124656335 -0.07597442 -0.08562098
0.013575888 -0.21735246 -0.05647718 0.16669714 0.0036646738 0.27196276 -0.18166296 -0.08348035
0.01075601 -0.2665021 -0.27889612 0.05576159 -0.059793334 0.1453224 -0.040428676 -0.21688111
0.10057254 -0.007624033 -0.05915578 -0.078054495 0.018491197 0.19068648 -0.106680915 -0.13840312
0.10684731 -0.17170294 0.06001722 0.004185394 -0.20364003 -0.07960304 -0.022830289 0.091811135
00000000: ee05 03be 470b 3bbe 5d46 d3bd 350b 16be
00000010: c294 93bd c20f edbd ef75 a9bd 614e afbc
00000020: 3edb 55be 789a 40bd e0e4 7d3d 6575 00bd
00000030: 84d0 18be 2c4e 95bd b3b8 b8bc d449 16be
00000040: f271 fabd 34a2 5d3d 6ba9 7dbe a253 f4bd
00000050: a5ca 6bbe 41be 61bd d54f 6dbd fd33 68bd
00000060: 8a29 9a3d 9d21 38bd 7400 32be f869 22be
00000070: 5e91 a0bd d4c0 963c 7b7d f0bd 58ad 4bbd
00000080: 6eb1 013c e6cd 00bd b920 c0bd db2e 37be
00000090: c890 3dbe fd84 4e3e f207 1bbe 3f6c 423d
000000a0: f32d 09bd cfec 4dbd 432e 02bd 7a57 e03d
000000b0: 5442 28be 0575 c63d 84b5 6bbd 5c56 25be
000000c0: 88e1 9fbd 6ae5 e6bd 86d2 803d b5d9 d9bd
000000d0: 5b28 84be 356b 083d e098 273b a97a 443d
000000e0: d0a7 cdbd 1d2d e8bd 1646 4abd fafc 993c
000000f0: 71ac 29be 9117 12bb a9b4 0bbe 18e3 4f3e
00000100: 652c ffbc feae 2cbe 49d9 1dbe f4b8 eabd
00000110: 232e f6bc b782 16be 565d c43c e821 4bbc
00000120: 93ee 07bd 5364 1cbe e47a 773d 3688 0d3d
00000130: 7444 18be 395e 063e e8a4 a1bc b30e bfbe
00000140: 9496 8abd d30a 78bd 013c f7bd 92f7 06be
00000150: 0102 eebd 4323 05be 51b0 1abe d801 26bd
00000160: 371c 943d 5732 b3bb 5ea3 39bd 99e0 9d3c
00000170: a739 27be 5910 633c 555c e937 8474 78bd
00000180: 03f7 713d 7adb 24be 3ab0 e93c 11bf ebbd
00000190: 3f07 88be 4416 213e 07f4 63bd c1ce 08be
000001a0: aab4 f7bc 144a a83d 9fbe ef3c 13d1 dbbd
000001b0: c2b7 36be f1a1 883d 70aa b5bd cb3c e5bd
000001c0: 0211 dcbc 9201 0dbe 73ba 49bd 9fab 13be
000001d0: 9ca5 7fbd d2b4 303d b475 2c3d 2d79 e8bd
000001e0: ce41 a3bd a9f8 e4bc 05eb 0e3c 8004 2fbd
000001f0: 3e84 dabd 1734 f93c b9a6 d5bd 9d16 97bb
00000200: eba0 9abd d282 58be 233c a13c 8fc1 eabd
00000210: f6b3 44bd abbb 4fbe b7d9 4abe 5117 bebd
00000220: edbb 95be 28cb 65bd 3455 83bd acd0 753d
00000230: 5223 48be 4fae 443e 2d4b abbb 0cad 563e
00000240: e714 83be 80e4 293e ae00 a4be 9bfb 063c
00000250: f691 66be 525a 1bbd 2404 b0bd 5315 023d
00000260: 00d8 1abe 1abd 33be 4800 a1be e733 4dbe
00000270: 5899 a03c 7d9b 553d 5a50 a8bd 00d4 70bd
00000280: 2c21 0bbd 4ff5 29be 454a 32be d511 aebd
00000290: 98ed aebe b593 4f3d a206 64be 8284 813e
000002a0: 221a d2bd 9a01 0bbe d50e 31bd 9b51 213e
000002b0: fca8 97bd e2e5 ae3e fb41 11be 6ab4 c93c
000002c0: 2e52 0abe 2ad0 2ebe 5754 57be b42c f1bd
000002d0: e498 80be 6a2a 83bd 5ac6 66be 6887 96bd
000002e0: eea8 c4bd 625c a83b d667 ccbc e038 30bd
000002f0: d487 f4bd a519 89bd ab7f 4abe 88de 7a3e
00000300: ac7a 37be 5b29 76bd bce8 6abe 5e74 14bd
00000310: 7585 4bbd 84ac a1bd fbb4 13bd a686 67bc
00000320: f8e4 5e3d d33e 52be f899 a4bd 418a 213d
00000330: ad53 cfbd 1ab7 a2bd fa0d 17be e28c 1bbe
00000340: 2fb7 a0be 18e2 b0bc 24ed 7a3c 28ae c5bd
00000350: 6aaa 2cbd d9b7 7dbe 96b8 e2bd 0876 82bd
00000360: 9a18 cf3d a571 a4bd b8f9 1ebe 6584 053d
00000370: 6150 27be d24b ffbd 7a98 9bbd 0d5a afbd
00000380: 676d 5e3c a591 5ebe 9e54 67bd a8b2 2a3e
00000390: 062b 703b b43e 8b3e db05 3abe bff7 aabd
000003a0: fa39 303c f772 88be 79cb 8ebe 4466 643d
000003b0: dbe9 74bd 65cf 143e 8a98 25bd 1516 5ebe
000003c0: faf8 cd3d 06d3 f9bb 554d 72bd 09db 9fbd
000003d0: da7a 973c 5143 433e 867b dabd 8cb9 0dbe
000003e0: c3d2 da3d e5d2 2fbe 9ed4 753d a125 893b
000003f0: 0387 50be eb06 a3bd 9606 bbbc 7a07 bc3d

linears.2.bias f4 [5]
-0.18134458 -0.25156033 -0.34437492 -0.349217 -0.38236547
00000000: 65b2 39be 84cc 80be e951 b0be 92cc b2be
00000010: 68c5 c3be
