dqn-exp/savedir/student-test/checkpoint1600--model.pth (torch_old, 20763 bytes, 6 tensors)

linears.0.weight f4 [64, 6]
000000 2e 1e 36 3e 10 1f 9f bd 3e 24 11 be d8 37 2d be
       0.1778495 -0.077695966 -0.14173982 -0.16915834
000010 c9 79 cb be 69 a2 0b 3e 6a 09 69 3d 40 fc 20 be
       -0.39741352 0.13636173 0.056893744 -0.15721226
000020 ce 71 40 3a c4 f6 71 3b cf 60 fc 3d 0a 74 0b 3f
       0.0007341177 0.0036920765 0.12323152 0.54473937
000030 57 37 3f 3e be e8 c1 3d 18 e5 14 be 79 90 f6 bc
       0.18673454 0.0946822 -0.14540517 -0.030098187
000040 46 f3 21 be 83 c3 a7 3e dd b0 68 3e 7a da ab bd
       -0.15815458 0.3276635 0.22723718 -0.083912805
000050 ae 52 17 bd fd 36 12 3e 83 42 44 be 1d c3 02 3e
       -0.036944084 0.14278789 -0.19165997 0.12769742
000060 21 9d f0 3b a0 23 b3 3b dc 01 d7 bd 66 bc 62 bd
       0.00734295 0.0054668933 -0.104984015 -0.055355452
000070 f1 8d 59 bd 4c 7e 8f bd 71 81 d2 3d c9 e2 09 3c
       -0.05311388 -0.07006511 0.10278595 0.008415886
000080 82 1c 7b be 32 4a 8f 3e 0c 83 4a 3e 0d c1 86 3d
       -0.24522594 0.27986294 0.19776553 0.0657979
000090 9d 9a 30 bd 51 22 4e bc c5 62 c4 3e 1f ca 3c 3e
       -0.0431162 -0.012581424 0.38356605 0.18436478
0000a0 6d d8 4c 3e 16 c9 db 3d 04 9b 12 be d9 2b 4d bc
       0.20004435 0.107317135 -0.14316946 -0.012522661
0000b0 80 d8 80 3e 39 d5 9f 3d 04 8d 3f 3d 06 34 93 3d
       0.25165176 0.07804341 0.046765342 0.07187657
0000c0 0d 84 00 be c2 8d 5e bd 1c a6 72 ba a8 8d 33 3e
       -0.12550373 -0.05433441 -0.00092563196 0.17534506
0000d0 13 df 91 3e b0 86 97 3e 75 1d b6 bd 16 dd 88 3d
       0.28490505 0.29594946 -0.08892337 0.06682794
0000e0 15 43 00 3d 96 cc 28 be 20 c9 c1 bd fc e9 5c 3d
       0.031313974 -0.16484293 -0.0946219 0.053934082
0000f0 12 99 37 be dc 6c 08 3c e3 27 49 3c 78 82 13 3c
       -0.17929485 0.008326735 0.012277576 0.009003274
000100 58 e3 25 3f d3 18 1b 3c 9b bb 1e 3e c6 5f 83 3d
       0.64800024 0.009466368 0.15501253 0.06414752
000110 d9 c1 a9 3e 9f df 28 be d0 92 1a be 70 f9 ce 3d
       0.33155707 -0.16491555 -0.15095067 0.1010617
000120 0f 08 45 3d 49 a4 75 be f3 a4 f9 3d f3 44 98 bd
       0.04810339 -0.23988451 0.12189665 -0.07435026
000130 f6 b4 3d bd 5d f1 b2 3e 60 e3 9d bc e8 c4 30 3e
       -0.046315156 0.3494977 -0.01927346 0.17262614
000140 10 d8 ed bc 2d 61 63 bc 1b 76 26 3d 0b 40 2c bf
       -0.02903369 -0.013878149 0.040639978 -0.6728522
000150 59 19 0a 3e 26 8a 28 3e 8c 3a 16 3d 38 12 9b 3c
       0.13486232 0.1645895 0.03667693 0.018929586
000160 e5 e8 58 be 83 d8 e0 be 70 0f 38 be 41 38 18 be
       -0.21182592 -0.43915185 -0.17974639 -0.14865209
000170 7f 83 4d 3d 96 83 dc 3c 23 cb 74 3e fc e4 29 3e
       0.050174233 0.026918214 0.23905616 0.16591257
000180 53 c2 1f 3e 86 1c 92 bb ca 14 41 bd 5b fd cf 3c
       0.15601473 -0.0044589667 -0.047138967 0.025389364
000190 ef f6 de be b4 a8 43 3d 28 3b a8 3d ba 0a 33 3e
       -0.4354777 0.04776831 0.08214408 0.1748456
0001a0 af 77 e8 bc 43 79 89 3d 7f fe 13 bf 87 e7 c3 bd
       -0.028377382 0.06712582 -0.57810205 -0.09565645
0001b0 ca 56 85 bd e2 4a a4 3d 03 8b 54 bc 07 38 72 3d
       -0.06510694 0.08022095 -0.012972596 0.059135463
0001c0 1f 79 dc 3e 0a d1 12 be e4 ff 09 3e 25 d5 b5 3a
       0.43061158 -0.14337555 0.13476521 0.0013872726
0001d0 4d 00 3a bb a4 37 e4 3c ac 3f 25 bf 1f df 96 3a
       -0.0028381527 0.027858563 -0.6455028 0.0011510587
0001e0 0b 81 07 3e 8b 5d 4c be be ee 46 3d c6 8f 2f 3e
       0.1323282 -0.19957559 0.048567526 0.17144689
0001f0 de ab 55 be d3 70 a5 3e 08 e4 d1 3c 1c 6a 38 3e
       -0.20866343 0.3231264 0.02562143 0.18009228
000200 70 ad b1 3b d5 60 7f 3c 94 aa 8d bc cf 98 0d bf
       0.0054222867 0.015587051 -0.017293252 -0.5531129
000210 98 1f c1 bd ad 4d b0 bd 57 29 8d bd d3 e0 f8 bd
       -0.09429854 -0.086085655 -0.068926506 -0.12152257
000220 81 6e b2 3d af db 5a 3e 40 1b c3 bd ad a2 d2 bd
       0.08712483 0.21372865 -0.09526682 -0.10284934
000230 65 73 eb bb 4d cf 82 3d 7c 77 64 3e 1d 77 aa 3e
       -0.007185387 0.06387196 0.22311205 0.33294
000240 67 ac 82 bc fa f7 3d bc d8 64 ee 3d 41 ed 33 3e
       -0.015951348 -0.011594767 0.11640328 0.17570974
000250 46 92 3f bd c1 4c 0a 3e 05 6d 03 be 79 80 50 3c
       -0.046770357 0.13505842 -0.12834556 0.012725943
000260 78 f0 80 3b 3f c8 b9 3b 38 0d 0c 3f e0 b0 10 3b
       0.003934916 0.005669623 0.5470767 0.0022078082
000270 7d 77 02 be d4 2c 69 bd 7f 1c 96 bd 4f 00 ec 3c
       -0.12740894 -0.056927517 -0.07329654 0.02880874
000280 2d 77 aa 3e 4c af e7 3c 5c f2 01 3e c2 47 1c 3e
       0.3329405 0.02828183 0.12690109 0.15261748
000290 32 d8 75 3b 6e b8 5b 3d 0e 96 62 be eb c6 5d be
       0.0037512896 0.053642683 -0.22127554 -0.21657912
0002a0 be ea 3b 3e d6 74 28 3c 0f 39 d8 bb f5 35 3c 3c
       0.18351266 0.010281762 -0.006598599 0.011487474
0002b0 b5 26 73 bf 48 55 8b 3c a9 5b dc bd f3 6d 84 3e
       -0.9498094 0.017008439 -0.1075967 0.25865135
0002c0 9b f0 90 3e 54 ee d3 bd 0e e3 68 3e ab 3f a8 be
       0.28308567 -0.10348192 0.22742864 -0.32861075
0002d0 98 54 18 bc 26 ab 14 be 1c c3 b7 bc d6 a5 db 39
       -0.0092975125 -0.14518413 -0.022431903 0.00041894492
0002e0 3c ab 8d bd 3e 7c 67 3f b6 7c 0b bd 04 c1 10 3e
       -0.06917426 0.90423954 -0.03405448 0.1413613
0002f0 d0 a6 db 3d e5 e6 52 be a0 32 75 3d 47 66 1f be
       0.10725176 -0.20595892 0.059862733 -0.1556636
000300 4a d9 79 bc 40 2d 84 3d 1f 6d b8 b9 25 f3 28 bd
       -0.01524956 0.06453943 -0.00035176516 -0.041247506
000310 1d 49 9b 3c 7c b1 94 bd a1 c6 03 be 13 ba cb 3d
       0.018955762 -0.07260415 -0.1286874 0.099476
000320 0a 52 d9 bc fb c4 bc 3d 13 33 ee 3d 9a 22 aa bd
       -0.026528377 0.092172585 0.116308354 -0.08307381
000330 18 f1 64 bd d9 fa ca bc 99 1e b4 bd 8f d7 42 be
       -0.055893987 -0.024777817 -0.087948985 -0.19027542
000340 46 87 a6 bd 80 9f 16 bd a4 13 d4 bc 41 6e 1e 3d
       -0.0813127 -0.036773205 -0.025888272 0.038679365
000350 16 69 84 3d bf 5d 94 bd da 4c 5b 3d e6 23 65 bc
       0.06465356 -0.07244443 0.05354009 -0.01398561
000360 91 25 76 bd a3 61 dc 3c 25 31 20 3c a1 17 9a 3c
       -0.06009442 0.026902026 0.009777342 0.018810095
000370 82 26 34 3f 25 72 e3 3d c6 2e 9b bd 20 02 9d bd
       0.7037126 0.11105756 -0.07577281 -0.07666421
000380 86 2e 45 3d ba c6 4f bc b7 f9 88 3e 4e 6b 70 3e
       0.04814007 -0.012681657 0.26753017 0.23478433
000390 73 d5 bc bd c7 2b 23 bd d4 76 1f bd be f1 94 bc
       -0.092204 -0.03983667 -0.038931683 -0.018181678
0003a0 ec 37 19 3e b1 ad 4a 3e d7 fa 78 bd 11 df 94 be
       0.14962739 0.1979282 -0.060786095 -0.29076436
0003b0 fa 74 0c be dd 28 ad 3d 97 85 0e bc 85 3d 94 3d
       -0.13716498 0.0845506 -0.0086988425 0.072382964
0003c0 d1 a8 92 3b 08 4e 15 3e 8d 4b 50 bc 3a ee 3d bb
       0.004475691 0.14580548 -0.012713325 -0.0028981105
0003d0 3c 9a e4 3a 93 ef 6a bf 86 9d c9 3d 25 37 35 be
       0.0017440985 -0.9177181 0.09844498 -0.17696817
0003e0 14 8e 3c 3d 43 30 1c be 47 2e 07 be 55 e6 86 3d
       0.046033934 -0.15252785 -0.13201247 0.06586901
0003f0 2e 35 6d 3d 98 ad 0f be 46 f6 5e bc 87 2c e5 bc
       0.057912044 -0.14031065 -0.013608521 -0.027975334

linears.0.bias f4 [64]
000000 4f a1 e0 be 3f b9 cf bc 69 db 01 bf 73 11 c8 be
       -0.4387307 -0.025356887 -0.5072542 -0.39075813
000010 05 7a 31 be 13 be 40 bf 5d 96 a7 be 14 19 d8 be
       -0.17331703 -0.7529003 -0.32731906 -0.42206633
000020 b3 42 df 3e d7 a0 d0 3e 14 3c 9e be de be 0a bf
       0.43605575 0.4074771 -0.3090521 -0.5419749
000030 77 0e 3c bf 03 3d 7b be f3 bd df 3e 27 a1 28 bf
       -0.7345957 -0.24534993 0.43699607 -0.658709
000040 e0 96 ce 3e 30 2e 3f bf a0 4c 17 3f a8 84 83 3d
       0.40349483 -0.7467985 0.59101295 0.064217865
000050 06 31 dc 3e 49 85 06 3e 29 57 ff 3e 3b 4b 81 3e
       0.43006152 0.13136782 0.49871185 0.2525271
000060 5d ae b3 3e f7 a7 87 3e 49 fb 0a bf bb 6d a0 be
       0.35093966 0.26495335 -0.5428968 -0.31333718
000070 f1 6d 6f bd 26 28 17 bf 79 3b 14 be 96 bc a9 be
       -0.058454458 -0.59045637 -0.14475812 -0.33151692
000080 6d 8a e1 bd 63 8c a2 3e 61 9a 9f be 56 32 1d be
       -0.11012731 0.31747732 -0.3117247 -0.15351233
000090 86 bc 0d bd 8d 90 f8 be e2 e7 3d be e5 89 1d bf
       -0.034603618 -0.48547783 -0.18545488 -0.61538535
0000a0 69 34 cc bd 2c f2 e8 be d7 e5 02 3f f9 e9 22 bf
       -0.09970934 -0.45497262 0.5113196 -0.63638264
0000b0 cb 0a bd be 62 d9 f0 be 44 8c 37 3f df c5 da 3e
       -0.36922297 -0.4704085 0.71698403 0.4272909
0000c0 f4 52 00 bf 1a 43 84 be 68 13 aa be 58 41 72 3e
       -0.50126576 -0.25832444 -0.3321793 0.23657739
0000d0 a8 e1 c8 3c b6 ec cd 3e 2d 5d 65 3e 85 40 f7 be
       0.024521664 0.4021966 0.22398825 -0.48291412
0000e0 af 75 1f bf 97 49 93 be c5 3e c2 3e e3 a0 00 bf
       -0.62288946 -0.28767082 0.37938514 -0.50245494
0000f0 0b fd a2 bc e1 8d 33 be d6 6c 9e 3e 3d 4f 08 bf
       -0.01989605 -0.17534591 0.3094241 -0.5324591

linears.1.weight f4 [64, 64]
000000 d8 50 93 bd ce aa da bc dd 21 50 3c e1 bf d8 bd
       -0.07193154 -0.026692774 0.012703386 -0.10583473
000010 a9 96 ae bd b9 3f 63 3d c5 2b 86 3c 96 8f 5c be
       -0.0852483 0.055480693 0.016378293 -0.21539149
000020 a2 ed 83 bc 1f 96 10 3c 47 b3 99 3d 90 f4 95 3b
       -0.016104523 0.008824854 0.075048976 0.0045762733
000030 e0 09 00 be e2 69 12 3b 7f 7c eb bd 64 7f ca bc
       -0.12503767 0.0022340943 -0.11498355 -0.024718948
000040 d2 d9 3e 3d 71 45 9d bc 56 a2 a9 bc e3 39 a5 3e
       0.04659445 -0.019198151 -0.02070729 0.32270727
000050 6d 2a 99 bd f7 8c 52 be 0f 48 c5 bd f7 33 c4 3c
       -0.07478795 -0.20561586 -0.09632885 0.02395056
000060 47 60 18 3e ef 67 09 3d bd 48 b9 bc 21 59 31 3e
       0.14880477 0.033546384 -0.022617692 0.17319156
000070 aa 36 a3 3c a9 56 8f 3d 1d 3b 0f bd 38 9d 47 bd
       0.019923527 0.06998951 -0.034968484 -0.04873392
000080 56 a4 c8 3d 84 e8 0f bc 85 39 3c 3d c1 45 a0 3d
       0.097969696 -0.008783463 0.045953292 0.078258045
000090 48 88 18 3e 15 ea 27 be ed ff d9 bc 2f d4 8e 3b
       0.14895737 -0.16397889 -0.026611293 0.0043587903
0000a0 26 48 b7 3d 46 8c e9 bd 72 92 1d bb 86 bb 92 3b
       0.08949308 -0.11403708 -0.0024043587 0.004477921
0000b0 ad 8e 4c be 9a 57 e9 bd 2a e1 b4 bd be 51 b7 bd
       -0.19976301 -0.11393662 -0.08832009 -0.08951138
0000c0 cc b6 c4 bc bc 2d bc 3c 68 45 95 3d 12 dd 01 be
       -0.024012946 0.022971027 0.07288629 -0.12681988
0000d0 b6 39 59 3d 20 ba a0 bc 53 4f 30 3c 1d eb e4 bd
       0.053033553 -0.019620001 0.0107611 -0.11177657
0000e0 a8 af cd 3d 5b 4a f9 bd 15 94 da 3d 6a f9 85 3d
       0.100432694 -0.12172385 0.10672776 0.065417126
0000f0 6e 28 f0 3b a5 08 54 bd 83 34 11 be 9b f0 36 3c
       0.0073290383 -0.051766057 -0.14180188 0.011165763
000100 28 fe 04 bd 00 bb 7c 3d 41 01 e5 bd 4e 21 c9 3d
       -0.032468945 0.061701775 -0.1118188 0.098208055
000110 14 c0 d4 bd 02 01 ef 3d cc 80 ab bb 46 76 1a 3c
       -0.103881985 0.11670114 -0.0052338596 0.009427613
000120 1a 4c c2 bd 08 8f db 3c 73 49 29 be d7 28 66 3d
       -0.094871715 0.026801601 -0.16531925 0.05619129
000130 6c e8 45 3d 5a 2b 47 3e 61 93 50 3c 14 4a 27 3c
       0.048317358 0.19450131 0.01273045 0.010210533
000140 44 d1 12 bd 56 a2 81 3d 00 dd a5 be b7 b6 12 bd
       -0.035844103 0.06329791 -0.32395172 -0.03581878
000150 dc 78 34 bd 9e 3a ea 3d 98 ce 9e bd 51 4f 82 39
       -0.044060573 0.114369616 -0.077542484 0.00024854628
000160 29 9f d9 3c 86 4d 40 bd d7 26 98 3e bc 1e ff bd
       0.026565151 -0.046948932 0.29717132 -0.12457034
000170 26 d8 37 3c 32 a1 bc bd 92 87 91 be 98 e9 d8 3d
       0.011220967 -0.09210433 -0.28423744 0.105914295
000180 4c 81 1e 3e fd d1 de 3c ee 98 5b bc 2d f9 91 bd
       0.1547901 0.02719974 -0.0134031605 -0.07127605
000190 1a cb 75 be cf f4 8e bb ae 4c d4 3d b3 70 85 bc
       -0.24003258 -0.0043626796 0.10366188 -0.01628909
0001a0 b6 8a 86 be d3 97 02 3d 03 6a 42 be 5b e2 0f 3e
       -0.26277703 0.031883072 -0.18985753 0.14051192
0001b0 ee 52 f2 3d 44 55 1c bd 6d e9 19 be af f2 4a 3d
       0.11832224 -0.038167253 -0.15030451 0.049547847
0001c0 93 93 e9 3c 43 c2 87 3d 9c e3 48 3c 3f 0f 1f be
       0.028512752 0.06628849 0.012261298 -0.1553316
0001d0 6d de 12 be 90 f9 8e bd 54 e3 b0 bc ba f6 be 3d
       -0.14342661 -0.06981194 -0.021592773 0.09324403
0001e0 6e c5 4f be e6 e1 43 bd 4a 24 72 bc 77 2c 49 3e
       -0.20290157 -0.047822855 -0.01477916 0.19645868
0001f0 7d 04 d5 bd 15 b9 4d bc 0c da d6 3d d1 b3 91 3e
       -0.10401247 -0.012556334 0.10490808 0.28457502
000200 75 7c da 3d 64 2a d4 bc 20 28 2e 3e d4 5f 86 bd
       0.106682695 -0.02589912 0.17007494 -0.065612465
000210 91 24 ab bc 77 d8 38 3e cb 12 27 3d f1 f5 ba 3d
       -0.02089146 0.18051325 0.040789407 0.09128941
000220 bb 36 21 3d 4f 8d 94 bc ec 90 bd ba 47 53 d3 3c
       0.039358836 -0.018133787 -0.0014462746 0.025796546
000230 1d d7 1a be 53 7a 23 3e 9b 9b e3 bd 84 fd b6 bd
       -0.15121122 0.15964632 -0.11113664 -0.08935073
000240 95 7a 92 bd d5 03 7e bd cb 38 19 be 89 97 48 bc
       -0.07152287 -0.062015373 -0.14963071 -0.01224316
000250 bd 81 20 bd 9c 45 1a 3e 7c 27 8b bd 4f 2b 65 bd
       -0.039186228 0.15065616 -0.067946404 -0.055949505
000260 6e eb dc bd f2 00 d9 bd be 87 0e 3e b2 d0 ff bc
       -0.10787092 -0.105958834 0.13918969 -0.031227443
000270 02 c3 f3 3d 14 ce 3b bd 04 7a c7 bd ae e8 80 3d
       0.11902429 -0.04585083 -0.097400695 0.0629438
000280 a3 9d 0e 3e 85 a9 07 bd 32 51 26 bd f2 81 cf 3d
       0.13927321 -0.03312065 -0.040604778 0.10132207
000290 5d 97 d8 3c 45 57 4e 3d e8 4f 7e be 1c 62 8e 3d
       0.026439363 0.050376195 -0.2483517 0.06952307
0002a0 dd c9 30 bd 1e 7a f8 ba 23 b3 30 3c 92 db ae 3d
       -0.04316126 -0.0018957292 0.010784897 0.085379735
0002b0 37 2b 33 3e f1 ab fe 3c ff 7f b5 bd 27 10 c8 bc
       0.17496954 0.031087847 -0.08862304 -0.024421765
0002c0 f3 a1 40 3e ca 8c 04 be 98 45 dd bd 3b 95 01 be
       0.18811779 -0.12944332 -0.108042896 -0.12654583
0002d0 f7 3e 0b 3b e5 5e 0e 3d d0 c9 f0 3c 79 75 45 bc
       0.0021247247 0.034758467 0.029393107 -0.012051933
0002e0 3a 9e 21 be 0b be 27 be 03 d8 88 3c fa 08 e1 bc
       -0.15783015 -0.1638109 0.016704565 -0.0274701
0002f0 1f 0a 87 bc f2 67 b3 3b 31 34 ef bd ac 90 78 3d
       -0.016484318 0.0054750377 -0.116798766 0.060684845
000300 1e b3 5f 3d 48 38 02 be d0 c2 35 3e 1e c4 a4 3d
       0.05461418 -0.12716782 0.17750096 0.08045219
000310 80 53 20 3e ee 0a 53 3e 26 87 c8 3d cb e5 8b bc
       0.15656853 0.20609638 0.097914025 -0.017077347
000320 a6 d7 c6 bc 15 64 2e bd a3 67 3f be 27 b6 cf bc
       -0.024272751 -0.042575914 -0.18691878 -0.025355412
000330 f1 0d 80 bd 75 9a 8c 3e 52 e2 43 bd 03 fc 02 be
       -0.06252659 0.2746159 -0.047823258 -0.12791447
000340 e2 8a 08 3e 08 e0 bd bd ca f6 37 be ce 22 ec bd
       0.1333423 -0.09271246 -0.17965236 -0.11530076
000350 30 b6 15 3d 78 f2 27 3e b3 b6 9b bb df a5 4b bd
       0.0365507 0.16401088 -0.004752004 -0.049718734
000360 98 86 a9 bd b8 ab ac 3d b3 92 e8 3d eb 4a 80 bd
       -0.08277625 0.0843119 0.11356106 -0.062642895
000370 85 95 20 bd 2c 2f 0c 3e c1 8b 92 3d 71 cf 00 be
       -0.039205093 0.1368987 0.07155562 -0.12579133
000380 5f 12 40 3e 1c 62 22 be 9a 9b 09 bd 1f 42 16 3d
       0.18757008 -0.15857738 -0.03359566 0.03668415
000390 91 b2 04 3e ed 6c c3 3d ee 76 2f 3e b4 62 b5 bc
       0.12958743 0.0954226 0.17135212 -0.022141792
0003a0 b0 9e 3b be 9e 82 4a 3e a5 8b bb bd 65 c5 c2 bd
       -0.18322253 0.19776389 -0.091574945 -0.09510306
0003b0 66 20 57 be 2f bc c9 bd ed 72 86 be 94 7e 42 bd
       -0.21008453 -0.09850346 -0.26259556 -0.047483996
0003c0 f6 17 9f 3d 3d 2b c0 3d c9 55 97 bd 06 45 e7 3c
       0.07768242 0.09383247 -0.07389409 0.028231155
0003d0 3e ab d0 3a 97 8b a7 bd bf 64 19 3e 71 db aa bd
       0.0015920175 -0.081809215 0.14979838 -0.083426364
0003e0 40 b5 ec 3c b1 a9 81 bd 16 85 9f bd 95 64 e2 3d
       0.02889502 -0.06331194 -0.07789056 0.11054341
0003f0 64 ba 9e 3d 38 86 a5 3d 63 00 69 3c e3 31 0e 3e
       0.07750395 0.08082241 0.014221284 0.13886218

linears.1.bias f4 [64]
000000 5a 15 5b 3e 1a 36 22 3f 25 1d d7 3e ec 77 e1 3e
       0.21394864 0.633638 0.42014423 0.44036806
000010 40 b0 a2 bd 1f 16 f4 3e 03 a8 16 be 58 00 26 3e
       -0.07943773 0.47673127 -0.14712529 0.16211069
000020 ea 57 ad be 05 15 0c 3f 87 89 ae 3d bb cc 30 bc
       -0.33856136 0.54719573 0.08522325 -0.010790999
000030 d1 e0 2b 3f dd c8 03 3f d8 33 4c 3e dc 2c 82 3e
       0.6713992 0.5147837 0.19941652 0.2542485
000040 05 30 b2 3e c7 01 09 3d 8d e1 cd be 4b 45 e7 3e
       0.3480226 0.03344896 -0.40211144 0.45170054
000050 f3 ba d0 3e 52 21 f7 3e 93 8d e5 3e 2d 04 20 3e
       0.4076763 0.4826761 0.44834575 0.15626593
000060 cc 25 30 be 7e 2b f7 3c b1 2e e8 3e 0b 38 42 be
       -0.17201918 0.030172106 0.45348123 -0.18966691
000070 2a b9 a1 3e 15 80 71 3d d2 c6 49 be f8 65 53 3e
       0.3158658 0.05896004 -0.1970475 0.20644367
000080 63 b0 dd 3e 94 0c 11 3f fd be 90 bd af d6 46 be
       0.43298635 0.5665982 -0.07067678 -0.19417833
000090 fa f7 05 3c 1a cd 01 3e d6 c7 08 3f 12 04 b5 3d
       0.008176798 0.12675896 0.53429925 0.08838667
0000a0 24 4e e5 3d 10 5a d0 3e 0b 47 b2 be d4 0f ce 3d
       0.11196545 0.40693712 -0.34819826 0.10061613
0000b0 19 e7 b9 3e ce c0 74 3e 4e 4d fa be d6 24 04 3f
       0.36309126 0.23901674 -0.48887104 0.5161871
0000c0 5d 7d d7 3e e2 d3 1a 3f 74 76 a9 3d c6 39 e8 3e
       0.42087832 0.6047956 0.08274546 0.45356578
0000d0 48 2d 79 be 63 73 67 be 93 f0 f3 bc ce 90 53 3e
       -0.2433368 -0.2260261 -0.0297778 0.20660707
0000e0 0d d4 8b be e6 b0 89 3e de 15 90 be f3 76 bc 3e
       -0.2731022 0.26892775 -0.28141683 0.368095
0000f0 2f 9c 1b 3f 68 c4 a4 3d 7e 81 e0 3e a8 5f 02 3f
       0.6078519 0.08045274 0.43848795 0.5092721

linears.2.weight f4 [5, 64]
000000 64 59 a9 bc b1 07 50 be 76 24 ee bd 78 71 2a be
       -0.020672508 -0.20315434 -0.11628048 -0.16644847
000010 e2 f4 88 3d b4 a9 1b be ef 75 a9 bd 37 ce 1f 3b
       0.06687333 -0.15201455 -0.08274447 0.0024384388
000020 3e db 55 be 04 65 28 bd 8a 08 b5 3d 65 75 00 bd
       -0.20884416 -0.04111196 0.08839519 -0.031361956
000030 b5 b2 37 be 3d 68 ae bd 3f 03 08 3d d4 49 16 be
       -0.17939265 -0.085159756 0.03320622 -0.146766
000040 50 80 74 be 34 a2 5d 3d 6b a9 7d be af 5c d3 bd
       -0.23877072 0.054109767 -0.24771659 -0.10320412
000050 d4 dc 85 be 28 f9 02 be 22 4c 1c bd 34 b4 09 bd
       -0.2614504 -0.12790358 -0.038158543 -0.03361912
000060 14 2f 4c 3d 9d 21 38 bd bd 9f 96 be f8 69 22 be
       0.049849585 -0.04495393 -0.29418746 -0.15860736
000070 dc 06 ca bd d4 c0 96 3c 7b 7d f0 bd c8 96 a8 3b
       -0.098645896 0.018402494 -0.117426835 0.0051449277
000080 6e b1 01 3c 0d 49 54 bd b9 20 c0 bd db 2e 37 be
       0.007915838 -0.05182748 -0.09381241 -0.17888968
000090 c8 90 3d be 42 7e 66 3e aa f1 40 be b0 95 18 3b
       -0.18512261 0.22509101 -0.18842188 0.002328258
0000a0 5f c6 6c bc 6e 0d 3c be c0 82 82 ba 7a 57 e0 3d
       -0.014451592 -0.18364498 -0.000995718 0.10954185
0000b0 1d b7 33 be 05 75 c6 3d 4c 44 4c 3d e0 6d 36 be
       -0.17550321 0.096902885 0.04986982 -0.17815351
0000c0 38 07 0d be 6f e8 ff bd 86 d2 80 3d 4f e2 ec bd
       -0.13772285 -0.12495505 0.06290154 -0.115666024
0000d0 5b 28 84 be 17 57 1e 3d e0 98 27 3b bc 29 54 3d
       -0.2581204 0.038657274 0.0025573298 0.051797614
0000e0 d0 a7 cd bd 70 ae a5 bd f3 87 32 3d fa fc 99 3c
       -0.10041773 -0.08089912 0.043586683 0.018797386
0000f0 99 03 4e be 91 17 12 bb 5c f0 1e be 19 2c 00 3e
       -0.2011856 -0.0022291879 -0.15521377 0.12516822
000100 9a 98 f3 3c 28 06 56 be 33 94 2f be 0f 14 0f be
       0.029735852 -0.20900786 -0.17146377 -0.13972495
000110 15 98 38 3d 9c 71 3c be 56 5d c4 3c 24 0a 12 3c
       0.04506691 -0.18402714 0.023970287 0.0089135505
000120 93 ee 07 bd 94 de 12 be 93 e6 a9 3d 36 88 0d 3d
       -0.033186506 -0.1434272 0.08295932 0.03455373
000130 f4 9e 48 be 93 19 90 3d 68 c6 b8 3b b3 0e bf be
       -0.19591886 0.07036128 0.0056388862 -0.37315902
000140 dd 43 48 be d3 0a 78 bd 01 3c f7 bd 94 41 e7 bd
       -0.19557138 -0.060557198 -0.12071992 -0.11291805
000150 9f 57 17 be f0 fd 45 be 73 b7 06 be 05 dd 97 bc
       -0.14779519 -0.1933515 -0.13155918 -0.018538008
000160 9d 65 a5 3d 57 32 b3 bb e8 12 1f be 99 e0 9d 3c
       0.08076022 -0.0054686475 -0.15534556 0.019272136
000170 7a f1 17 be 59 10 63 3c 55 5c e9 37 bc 9f 80 3b
       -0.1483821 0.013858878 2.781876e-05 0.003925292
000180 03 f7 71 3d 0f 2b 35 be 33 08 6f 3d 11 bf eb bd
       0.05907346 -0.17692207 0.05835743 -0.115110524
000190 9d d2 97 be 11 a4 bf 3d 14 c1 c5 bd 40 ce 93 bd
       -0.29652873 0.09357465 -0.09655967 -0.072170734
0001a0 1a 36 f5 bb 31 b5 47 bd 5d e0 e0 bc f2 62 0e be
       -0.007483256 -0.048756782 -0.027450735 -0.13904932
0001b0 84 ac 4b be f1 a1 88 3d cc 1e 03 3e df 15 14 be
       -0.19890028 0.06671513 0.12804717 -0.14461468
0001c0 13 a2 43 be 64 cf 2f be 73 ba 49 bd 4b 11 1e be
       -0.19104795 -0.17168957 -0.049250077 -0.15436284
0001d0 9c a5 7f bd 30 b4 92 3d b4 75 2c 3d 50 67 c9 bc
       -0.062413797 0.07163274 0.042104438 -0.024585396
0001e0 ce 41 a3 bd 32 e5 ed 3b 91 f9 88 3d 80 04 2f bd
       -0.079715356 0.007259988 0.06688226 -0.0427289
0001f0 f3 77 14 be 17 34 f9 3c 9f 0e f9 bd c3 bb ad bd
       -0.14498882 0.030420346 -0.12160992 -0.08483078
000200 6a 59 aa bc 18 d3 6d be 3c 9e 99 bb 4e d8 04 be
       -0.02079459 -0.23225057 -0.0046880525 -0.12973139
000210 d0 d7 41 3d dd 76 60 be b7 d9 4a be 0f c2 8c bc
       0.047324955 -0.21920343 -0.19809614 -0.017182378
000220 ed bb 95 be 82 21 34 bd 22 c8 0c bc ac d0 75 3d
       -0.29244938 -0.043977268 -0.008592637 0.060013458
000230 d5 f8 5c be 51 f9 43 3e cb 1c 7b 3c 0c ad 56 3e
       -0.21579297 0.19138075 0.015326689 0.2096445
000240 1c c4 88 be 80 e4 29 3e ae 00 a4 be d5 a4 5f bc
       -0.2671212 0.16591072 -0.3203177 -0.013650139
000250 4c 90 7c be 2e 3c d4 bd b8 f2 66 bd 94 e9 00 bc
       -0.2466442 -0.10363041 -0.05638382 -0.007868189
000260 b7 50 ef bd 1a bd 33 be ca 7c c1 be e7 33 4d be
       -0.11685317 -0.17552605 -0.3779052 -0.2003933
000270 a3 8e 87 bc 7d 9b 55 3d 5a 50 a8 bd 0b fc 82 ba
       -0.016547507 0.05215024 -0.08218451 -0.0009993328
000280 2c 21 0b bd 51 64 24 be 45 4a 32 be 4e e6 5b bd
       -0.033967182 -0.16053893 -0.17411144 -0.053686433
000290 78 b0 ac be b5 93 4f 3d fc f8 72 be 18 b0 6f 3e
       -0.33728385 0.050677974 -0.23727793 0.23407018
0002a0 9f e1 82 bd f8 a9 a8 be 39 63 a2 3b 8a ee c9 3d
       -0.0639069 -0.32942176 0.004955676 0.09859951
0002b0 e2 a9 c6 bd e2 e5 ae 3e 60 ab cd bc 78 68 70 ba
       -0.09700371 0.34159762 -0.025106132 -0.00091708405
0002c0 8a 20 47 be 00 a4 34 be 57 54 57 be c9 92 ec bd
       -0.19446006 -0.17640686 -0.21028267 -0.115514345
0002d0 e4 98 80 be 6b 9d f8 bc 5a c6 66 be a1 34 15 3c
       -0.25116646 -0.0303485 -0.22536603 0.009106786
0002e0 ee a8 c4 bd ec d0 91 bd 2e 4f 26 3d e0 38 30 bd
       -0.09602533 -0.07119927 0.040602855 -0.04302299
0002f0 78 60 1c be b8 37 84 bd c3 1a 4e be 65 3f 6c 3e
       -0.15271175 -0.0645594 -0.20127396 0.23071058
000300 4d f1 b3 bc 48 82 d6 bd d0 96 61 be fc 4e 89 bd
       -0.021965647 -0.10474068 -0.22030187 -0.06704518
000310 2d 84 d6 bb 32 99 00 be 9f ca 93 ba 1b 2c cd 3c
       -0.0065465183 -0.1255844 -0.0011275596 0.025045445
000320 f8 e4 5e 3d 34 e5 38 be d3 08 85 bd 41 8a 21 3d
       0.05441758 -0.18056184 -0.06495824 0.03943849
000330 33 bd 0c be 0e bf 1f 3a cc 06 e6 bc e2 8c 1b be
       -0.13744049 0.0006093838 -0.028079413 -0.15190461
000340 b4 e6 aa be 18 e2 b0 bc 24 ed 7a 3c c9 3d b8 bd
       -0.33379138 -0.021592185 0.015315328 -0.089961596
000350 8a de c2 bd 0e 3d 98 be 63 a4 9f bd bc 99 ad bc
       -0.09515102 -0.2973408 -0.07795026 -0.02119147
000360 3e fd b7 3d a5 71 a4 bd ec 12 88 be 65 84 05 3d
       0.08983849 -0.080294885 -0.26576936 0.032596964
000370 9d 4b 3d be d2 4b ff bd 7a 98 9b bd e3 78 6c bb
       -0.18485875 -0.124656335 -0.07597442 -0.0036082796
000380 67 6d 5e 3c c8 96 58 be 9e 54 67 bd ac 7d 0a 3e
       0.013575888 -0.21151268 -0.05647718 0.13524503
000390 06 2b 70 3b 53 29 92 3e 55 43 5f be 0e 49 a7 bd
       0.0036646738 0.28547153 -0.21803029 -0.08168231
0003a0 1d e4 04 3d b8 de 9d be 4f 84 eb bd ae de 99 bc
       0.03244411 -0.30833983 -0.11499845 -0.01878294
0003b0 4b 7d b0 bd 65 cf 14 3e ae 28 79 3c 24 91 6d be
       -0.08617648 0.1453224 0.015207453 -0.23199898
0003c0 0d 02 5f 3c bd 9f 2b bd 55 4d 72 bd d1 bc a8 bd
       0.013611329 -0.041900385 -0.05915578 -0.08239139
0003d0 da 7a 97 3c df d0 13 3e 86 7b da bd ef ef db bc
       0.018491197 0.14435147 -0.106680915 -0.026847808
0003e0 c3 d2 da 3d 06 63 66 bd ff e6 a1 3d a1 25 89 3b
       0.10684731 -0.05624678 0.07905387 0.004185394
0003f0 5c 6e 79 be eb 06 a3 bd cb 30 63 bd 60 01 89 3d
       -0.24358505 -0.07960304 -0.055466454 0.066897154

linears.2.bias f4 [5]
000000 52 9b c6 be 24 0a 12 bf 90 1f 0b bf 0d 8d 11 bf
       -0.38790375 -0.57046723 -0.54345036 -0.5685585
000010 a0 c3 29 bf
       -0.66314125
