dqn-exp/savedir/student-test/checkpoint1950--model.pth (torch_old, 20763 bytes, 6 tensors)

linears.0.weight f4 [64, 6]
000000 ba e6 09 3e f2 14 f9 bd c8 18 2a be ab 2d 2e bd
       0.13466921 -0.12162198 -0.16611016 -0.04252402
000010 97 cf d0 be 23 24 46 3e b2 06 72 3d 7d 1d 20 be
       -0.40783378 0.19349723 0.059088416 -0.15636249
000020 dd 73 f8 3a 9b 50 6b 3b fc 7b d1 3d 97 e1 03 3f
       0.0018955428 0.00359062 0.10228726 0.515161
000030 ad d2 63 3d 3e 7d ac 3d 70 71 13 bd 25 10 ed bd
       0.055620838 0.084223256 -0.035996854 -0.11575345
000040 02 0c 26 be 48 c2 e3 3e 44 d9 24 3e 93 8d 09 bd
       -0.16215518 0.44484162 0.16098505 -0.03358228
000050 89 6e c2 bc 18 e8 d1 3d 38 74 4f be d6 79 0f 3e
       -0.023734348 0.102493465 -0.20259178 0.1401132
000060 21 9d f0 3b a0 23 b3 3b dc 01 d7 bd 66 bc 62 bd
       0.00734295 0.0054668933 -0.104984015 -0.055355452
000070 f1 8d 59 bd 4c 7e 8f bd f5 c8 92 3d c9 e2 09 3c
       -0.05311388 -0.07006511 0.07167236 0.008415886
000080 1d 47 5b be 34 f3 7f 3e 7f 54 2a 3e 5f 56 0f 3d
       -0.21413846 0.24995118 0.16633795 0.03499448
000090 3a 65 8c bc c2 30 82 3c a0 66 b0 3e 56 4b 2f 3e
       -0.017138112 0.01589239 0.34453297 0.17118582
0000a0 27 28 88 3e b1 dd 95 3d 04 9b 12 be d9 2b 4d bc
       0.26593134 0.07317675 -0.14316946 -0.012522661
0000b0 80 d8 80 3e 39 d5 9f 3d 04 8d 3f 3d 06 34 93 3d
       0.25165176 0.07804341 0.046765342 0.07187657
0000c0 bb 6e 11 be 06 dc 8f bd 54 d8 ae ba 69 6b 1c 3e
       -0.14202397 -0.07024388 -0.0013339617 0.15275349
0000d0 27 56 95 3e d4 a1 9a 3e c6 00 98 bd fd 3c 92 3d
       0.29167292 0.3020159 -0.074220225 0.07140539
0000e0 5d 8d 4c 3d 9a 5f 35 be 7d 8c fa bd b2 cc 9b 3d
       0.049939502 -0.1771225 -0.12233827 0.07607402
0000f0 7c 52 2a be 80 05 de 3c e8 58 2c 3b f3 ef 79 ba
       -0.16633028 0.027102232 0.002629811 -0.00095343514
000100 9d c2 2c 3f 2d 87 06 3b f5 9a 05 3e bc 1d b8 bd
       0.67484456 0.0020527348 0.13047393 -0.089900464
000110 3c 22 ae 3e 2a 62 1c be 8d 1d b7 bd 7d 5c 28 3e
       0.34010494 -0.15271822 -0.08941183 0.16441531
000120 0f 08 45 3d 49 a4 75 be 30 22 e2 3d 3f 72 87 bd
       0.04810339 -0.23988451 0.11041677 -0.066135876
000130 5c a3 4c bd 0f e5 ad 3e ca 8c 26 bc 4f 01 30 3e
       -0.04996048 0.3396382 -0.010165403 0.17187999
000140 ea 89 87 bb 68 eb 7d 3c 80 2e f7 3c 80 96 33 bf
       -0.0041363137 0.01549802 0.03017354 -0.7015152
000150 13 9c f4 3d 28 4b 18 3e ca 0f 1d 3d b8 e3 3e 3c
       0.11943831 0.1487242 0.038345136 0.011650972
000160 e2 41 7f be 66 b4 d9 be 70 0f 38 be 41 38 18 be
       -0.24927476 -0.42520446 -0.17974639 -0.14865209
000170 7f 83 4d 3d 96 83 dc 3c 23 cb 74 3e fc e4 29 3e
       0.050174233 0.026918214 0.23905616 0.16591257
000180 63 b1 ff 3d 74 ee 57 bb 60 07 a5 bb 45 38 35 ba
       0.12485006 -0.0032948526 -0.0050362796 -0.0006912987
000190 06 e3 ef be cb 74 49 3c e6 83 ed 3d ef 03 a0 3d
       -0.46852893 0.012295912 0.11597423 0.0781325
0001a0 b6 b3 ad bc 78 e9 38 3d ff 0c 1b bf b5 a0 f6 bd
       -0.021203857 0.04514453 -0.60566705 -0.12042371
0001b0 cc 53 b2 bd 05 30 32 3d 84 84 0c bc f9 39 65 3d
       -0.08707389 0.043502826 -0.008576516 0.05596349
0001c0 a9 17 e5 3e c0 dc 4f be e0 27 fc 3d 69 c7 1a bb
       0.44744614 -0.20299053 0.12312293 -0.0023617393
0001d0 7b dc 71 bc 67 46 82 3b d4 08 37 bf 6b 71 3e 3b
       -0.014762039 0.003975678 -0.71497846 0.0029059302
0001e0 1f d2 e8 3d 83 4d 3d be 41 f1 8e 3c 53 d5 10 3e
       0.113682024 -0.184866 0.017449023 0.14143877
0001f0 10 eb 4c be db 2b ac 3e ec 1e 50 3c 46 d3 28 3e
       -0.20011544 0.3362721 0.012702685 0.16486844
000200 9a 5b c5 3b 59 ca 86 bc 4d 21 6e bc e3 b9 1a bf
       0.0060228826 -0.016453909 -0.014534307 -0.6043989
000210 e1 e8 c6 bd 1a 1d 83 bd f6 5b 3e bd 9b cd ca bd
       -0.09712387 -0.06402035 -0.04647442 -0.099024974
000220 3f f6 ca 3d 48 1e 70 3e 50 2a b8 bd 73 45 f6 bd
       0.09910249 0.23449051 -0.089924455 -0.12024965
000230 12 03 7e bc ea 69 19 3d 51 dc 63 3e 6c 44 a1 3e
       -0.015503662 0.037454523 0.22252013 0.31497514
000240 06 bb 71 bc 74 8a 02 bd 53 86 96 3d b8 0a 15 3e
       -0.0147540625 -0.03187032 0.07349839 0.1455487
000250 22 19 2b bd ee f5 f4 3d 61 c3 10 be 16 78 0e bc
       -0.041772015 0.1196097 -0.14137031 -0.008695623
000260 04 8c 85 3b 0b 07 bc 3c b0 13 0e 3f bc 5f 81 3c
       0.004075529 0.022952577 0.5549879 0.01579272
000270 7d c7 02 be 73 0a 22 3d 5c eb 5b bd 88 be 88 bb
       -0.12771411 0.039560746 -0.053691253 -0.0041731037
000280 96 4d ce 3e 4b a7 9c bc b9 da 08 3e 72 cf e4 3d
       0.40293568 -0.01912274 0.13364686 0.111723796
000290 24 16 4e bc 21 b4 91 3d d5 90 6b be 83 7d 87 be
       -0.012578521 0.07114435 -0.23004468 -0.26462945
0002a0 22 bf 42 3e 52 1a 6b 3b 74 e8 26 bc dc 32 fd 3b
       0.19018224 0.0035873842 -0.010187257 0.00772701
0002b0 b7 98 7a bf 8f 00 a0 3c 7c 94 0e be 9c 1e 4d 3e
       -0.97889274 0.019531516 -0.1392383 0.20031208
0002c0 7a c8 42 3e 34 20 d6 bc d8 68 b0 3e 4e 37 b6 be
       0.19021788 -0.026138403 0.3445499 -0.3558907
0002d0 82 6e 81 bc aa a1 2f be 0e 1a 34 3b b4 a0 55 3b
       -0.015799765 -0.17151514 0.002748135 0.0032597007
0002e0 b6 be 5d bd 92 18 73 3f fd b4 08 bd 24 15 0e 3e
       -0.054136954 0.94959366 -0.03337573 0.13875252
0002f0 c5 d0 d3 3d d3 0e 50 be 52 33 74 3d 0f 49 1f be
       0.10342554 -0.20318155 0.059619255 -0.15555213
000300 b6 94 36 bd 8c 5a 38 3d 47 45 17 3c 80 8d 3d bd
       -0.044575416 0.045008227 0.009232826 -0.046277523
000310 d1 79 8b 3c eb fe 98 bd 3a 62 01 be f9 b9 98 3d
       0.01702586 -0.07470497 -0.12635127 0.074573465
000320 33 e5 ab bc 2b d6 2d 3d f7 1a 07 3e 8a 8f 57 bd
       -0.020983314 0.042440575 0.1319388 -0.052627124
000330 c4 b8 12 bd d1 c0 9a bc d5 3a 98 bd ef 47 3b be
       -0.035820737 -0.01889077 -0.07433096 -0.18289159
000340 a2 25 a3 bd cc d7 17 bd a4 13 d4 bc 41 6e 1e 3d
       -0.07966162 -0.037071034 -0.025888272 0.038679365
000350 16 69 84 3d bf 5d 94 bd da 4c 5b 3d e6 23 65 bc
       0.06465356 -0.07244443 0.05354009 -0.01398561
000360 7e c2 9f bd a1 6a 02 3c 08 42 fa ba e1 e3 17 bb
       -0.07800768 0.007959993 -0.0019093165 -0.0023176598
000370 eb 57 49 3f 34 21 b2 3d a3 d1 18 be 65 e4 24 be
       0.7864978 0.08697739 -0.1492372 -0.1610275
000380 67 06 74 3c 81 3c aa bc db 6b 64 3e 30 e3 90 3e
       0.014894105 -0.020780804 0.22306769 0.2829833
000390 2b e8 ea bd 2c 32 e2 3c a6 1f 94 bd 8a ca 5a bb
       -0.11470064 0.027611814 -0.07232599 -0.0033384883
0003a0 95 80 85 3e 8a e6 67 3e d7 fa 78 bd 11 df 94 be
       0.26074663 0.22646537 -0.060786095 -0.29076436
0003b0 fa 74 0c be dd 28 ad 3d 97 85 0e bc 85 3d 94 3d
       -0.13716498 0.0845506 -0.0086988425 0.072382964
0003c0 58 52 85 bc 18 56 07 3e 07 f1 19 bc b6 1b 5e 3c
       -0.016274616 0.13216436 -0.009395844 0.0135564115
0003d0 a5 a4 96 3b 23 c6 71 bf 86 9d c9 3d 25 37 35 be
       0.004597264 -0.9444296 0.09844498 -0.17696817
0003e0 14 8e 3c 3d 43 30 1c be 47 2e 07 be 55 e6 86 3d
       0.046033934 -0.15252785 -0.13201247 0.06586901
0003f0 f0 87 3d 3d cd 5e 10 be 3c 65 d2 bb 87 82 17 bc
       0.04627222 -0.14098664 -0.0064207595 -0.009247429

linears.0.bias f4 [64]
000000 0e 40 ff be 87 15 c5 bc 13 c0 f3 be ae fc e1 be
       -0.49853557 -0.024058117 -0.47607478 -0.44138092
000010 05 7a 31 be 5e ba 48 bf 7b f7 ba be 14 19 d8 be
       -0.17331703 -0.78409374 -0.36516938 -0.42206633
000020 5a 9b dd 3e 1c 73 b6 3e 1f d3 b2 be e9 98 11 bf
       0.43282586 0.35634696 -0.34926698 -0.5687395
000030 34 e4 3e bf 29 f6 74 be b7 e9 e6 3e 27 a1 28 bf
       -0.7456696 -0.23922028 0.45100185 -0.658709
000040 87 a7 cf 3e f9 a3 42 bf cb 89 1c 3f f9 ad 82 3d
       0.405575 -0.7603145 0.61147755 0.06380839
000050 3b 6f d3 3e 8c a2 14 3e 78 c6 fa 3e 3b 84 5f 3e
       0.412958 0.14515132 0.48979545 0.21827786
000060 0e b6 96 3e f1 95 8a 3e aa 12 0a bf d9 01 c0 be
       0.29435772 0.2706752 -0.5393473 -0.3750141
000070 d0 37 ad bd b5 ce 11 bf e7 6e 0a be 18 4e ab be
       -0.08457911 -0.56956035 -0.13518868 -0.33458018
000080 aa 31 fe bd 2a fc 5b 3e 53 cc a6 be 56 32 1d be
       -0.124118164 0.21482912 -0.32577762 -0.15351233
000090 91 00 7e bc eb bc 07 bf 32 19 8a be e5 89 1d bf
       -0.015503065 -0.5302264 -0.26972347 -0.61538535
0000a0 00 ec cc bd 2c f2 e8 be 2a 5d 05 3f 94 a1 1d bf
       -0.10005951 -0.45497262 0.5209528 -0.61574674
0000b0 11 c7 c8 be 2e 75 f1 be 3c 5c 53 3f 09 04 de 3e
       -0.39214376 -0.47159714 0.82562613 0.43362454
0000c0 52 ab 00 bf 3a 2b 99 be c6 e2 9f be b7 1a 3a 3e
       -0.50261414 -0.29915792 -0.31227702 0.18174253
0000d0 03 e0 ca 3c 11 87 bf 3e 30 e4 34 3c 85 40 f7 be
       0.02476502 0.37407735 0.011040732 -0.48291412
0000e0 25 d3 21 bf f9 30 a5 be 89 5b b2 3e df b9 0a bf
       -0.63212806 -0.32263926 0.3483546 -0.54189867
0000f0 25 64 38 bb 1a f2 45 be 29 59 8f 3e 3d 4f 08 bf
       -0.0028135863 -0.19330636 0.2799771 -0.5324591

linears.1.weight f4 [64, 64]
000000 f8 b9 10 be eb 22 89 bd 19 18 a8 3d 0e 9a fd bd
       -0.14133441 -0.06696113 0.08207721 -0.12382899
000010 72 fb d7 bd 62 8a c3 3c d3 d0 25 3d 4c de 14 be
       -0.10546006 0.023869697 0.040482353 -0.14537925
000020 50 a2 6c bc 4b 4d 11 bd 70 43 16 3e 53 dc 89 bc
       -0.014442995 -0.035474103 0.14674163 -0.016828692
000030 55 d3 15 be f6 1a da 3b 19 e8 98 bd 3b d7 ec bb
       -0.14631398 0.006656046 -0.07466144 -0.007227806
000040 65 57 10 3d 55 95 04 3d 14 b0 d6 b9 07 4c 8c 3e
       0.035239596 0.032368977 -0.0004094845 0.27401754
000050 77 bc 99 bd 0f bf 5b be 63 9c 02 be 02 a9 5f 3b
       -0.0750665 -0.21459602 -0.1275497 0.0034127836
000060 b5 19 0f 3e 06 3d db 3c 1c dd 6b bd eb c0 8a 3e
       0.1397465 0.026762497 -0.057583913 0.2710031
000070 42 52 70 bd a9 ca 15 3e 0a 29 41 bb 81 61 14 bd
       -0.058672197 0.1462809 -0.0029473924 -0.0362258
000080 b2 ec 97 3d 63 76 de bc 25 c0 8a 3d 23 29 74 3d
       0.07418193 -0.02715606 0.0677493 0.059609544
000090 8d 3c f3 3d 27 fc 2f be 48 38 3e bd 7d e5 d6 bc
       0.118767835 -0.17186032 -0.046440393 -0.026232475
0000a0 58 01 fd 3d ac 14 22 be 02 37 1c 39 45 64 c8 bc
       0.12353772 -0.15828198 0.00014897811 -0.024461875
0000b0 c6 e0 4c bd 98 36 b4 3d ec b6 91 bd cc 53 bc bd
       -0.05001905 0.087994754 -0.07114968 -0.091956705
0000c0 e0 2f 70 bd 95 71 1f bc 5b 69 da bd 66 2a 27 be
       -0.058639407 -0.00973167 -0.10664626 -0.16324767
0000d0 45 fa 0a 3d aa 5d 06 bd c2 bb 00 bd 66 ed 08 be
       0.033930082 -0.03280417 -0.03142906 -0.1337181
0000e0 b3 2d f1 3d 8d 77 41 be 80 6e 9e 3d e7 a8 e0 3c
       0.117762946 -0.18893261 0.0773592 0.027424289
0000f0 b0 f8 bd bd fc 14 e5 bd 40 83 f2 bd 07 6b ff bc
       -0.09275949 -0.11185643 -0.1184144 -0.031178964
000100 b8 6d 77 bd cb 36 4b 3d d7 70 24 be 72 f7 cf 3d
       -0.06040737 0.0496128 -0.1605867 0.10154618
000110 3f 33 d0 bd ad b6 ee 3d 52 fd eb ba c3 ca f8 3b
       -0.101660244 0.116559364 -0.0018004572 0.0075925305
000120 3e 5d c4 bd 64 45 11 3c 93 4f 27 be 54 30 47 3d
       -0.09588097 0.008866642 -0.16338949 0.048630074
000130 7c f0 50 3d d1 98 4b 3e 17 27 a3 3c b5 f6 2c 3c
       0.051010594 0.19882514 0.0199161 0.010556866
000140 df 46 52 bd 08 ae 87 3d e3 4d ae be b2 ac 9d bd
       -0.05133712 0.06624991 -0.34043798 -0.07698955
000150 44 52 43 bd 45 03 e5 3d dc 16 a2 bd 7a 0a 04 bd
       -0.047685876 0.11182264 -0.07914516 -0.032236554
000160 4a 12 a6 ba f8 a6 20 bd e5 8c 99 3e ed 89 01 be
       -0.0012670245 -0.039221734 0.29990306 -0.12650271
000170 b7 74 c7 bc 70 12 d6 bd 0b 9f eb be 4e cf d6 3d
       -0.024347646 -0.104527354 -0.46019778 0.10488759
000180 c3 4c 01 3e b3 87 17 3d e0 a7 14 bc ae 75 9d bd
       0.12626939 0.036994647 -0.009073228 -0.07688461
000190 97 f8 77 be 37 0e 12 bd 4e a4 e7 3d b5 5b d1 bc
       -0.24215923 -0.035658088 0.113106355 -0.025556425
0001a0 35 0b 8b be 2a da ef 3c d1 60 67 be 42 55 48 3e
       -0.27156988 0.029278833 -0.22595526 0.19563773
0001b0 07 92 bc 3d 88 26 1a bc 04 be 31 be f9 b2 41 3d
       0.0920754 -0.009408601 -0.17357641 0.047289822
0001c0 42 36 d0 3c c4 31 95 3d 04 6f 3b 38 90 88 03 be
       0.025416497 0.07284883 4.4687666e-05 -0.12845063
0001d0 af a1 00 be d1 9e 8f bd 60 5a 4b bd 66 0d b4 3d
       -0.12561677 -0.07012714 -0.049646735 0.08791618
0001e0 f6 44 26 be a2 aa d5 bd ae 4b a3 bb 5b 99 3a 3e
       -0.16237244 -0.10432936 -0.004983387 0.18222563
0001f0 08 72 92 bd 07 3a ce bc c2 d7 cb 3d 66 c4 92 3e
       -0.07150656 -0.025174154 0.09953262 0.28665465
000200 ce 12 af 3d 8b c2 4d bd 7a db 4b 3e ab c3 87 bd
       0.085485086 -0.05023436 0.19907942 -0.066291176
000210 0b e9 42 bd 79 7b 36 3e ff a9 3a 3d 56 e2 af 3d
       -0.04758553 0.17820539 0.045572277 0.08588092
000220 0f 0f 03 3d d2 0a eb bc 10 b7 aa bc d8 2a e3 3c
       0.031996783 -0.028691683 -0.020839244 0.02773039
000230 a5 49 30 be e7 9d 19 3e 9a b8 85 bd 5f 04 83 bd
       -0.17215593 0.15001641 -0.065293506 -0.06397318
000240 0e 20 bb bd 25 36 88 bd c3 d6 11 be e5 a2 24 bd
       -0.09136973 -0.06650952 -0.14242081 -0.04019441
000250 dc 0f ba bd 72 d3 0a 3e 20 4e f8 bd 59 63 77 bd
       -0.09085056 0.13557222 -0.12124276 -0.06039748
000260 9e b9 c2 bd ab 73 b1 bd f1 ae 05 3e ec 59 42 bd
       -0.0950806 -0.0866464 0.13055016 -0.047449037
000270 70 1e 20 3e 60 81 0b bd 91 b8 22 be b9 ea 2c 3d
       0.15636611 -0.03405893 -0.15890719 0.042216036
000280 72 b2 eb 3d f5 68 32 bd ee 52 d8 bc 56 f9 af 3d
       0.11508645 -0.043557126 -0.026406731 0.08592479
000290 d7 8b fa 3c b9 42 a2 3d 67 6b 87 be bc af 12 3d
       0.030584259 0.079228826 -0.2644913 0.035812125
0002a0 95 b1 ca bd a4 9f 73 bc 98 e1 8f 39 09 13 b9 3d
       -0.09897152 -0.014869604 0.00027443166 0.09036834
0002b0 c6 8c 32 3e b9 4e 07 3d 7e de cb bd ab 54 0b bd
       0.17436513 0.03303406 -0.099545464 -0.034016293
0002c0 ce 8e 35 3e 64 20 0a be ad f2 8b bd 9b 0c 13 be
       0.17730257 -0.13488919 -0.06833396 -0.14360277
0002d0 17 33 8b bc f8 0a 8c 3d 9f 82 40 3d cf 41 34 bc
       -0.016992135 0.068380296 0.04699957 -0.011002018
0002e0 80 e8 19 be 6a 99 4a be cd 57 22 3d cb c5 4d bd
       -0.15030098 -0.19785085 0.039634515 -0.05023746
0002f0 11 96 a2 bc af 65 13 bd 13 3c 04 be 74 9f 4b 3d
       -0.019846948 -0.035985645 -0.12913541 0.049712613
000300 a0 8f 8c 3d ff cb ff bd 71 41 25 3e 06 70 eb 3d
       0.06863332 -0.12490081 0.16138245 0.11495976
000310 84 8c 1b 3e bc ef 44 3e ea 53 94 3d 9b 26 33 3b
       0.15190321 0.19232076 0.07242568 0.0027336243
000320 98 40 e5 bc ab 62 16 bd 73 ae 4d be 3c 5f 1b bd
       -0.027984902 -0.03671519 -0.20086078 -0.03793262
000330 6c cf 83 bd 1d 91 8a 3e 8a 41 96 bd 0e 09 06 be
       -0.06436047 0.27063838 -0.07336719 -0.13089392
000340 1d 13 e4 3d 7e a6 f7 bd 3f 94 59 be 70 41 d9 bd
       0.11136458 -0.12092303 -0.21247958 -0.10608184
000350 cd 41 19 3d e8 76 21 3e 47 a7 f9 3c e2 34 f2 bc
       0.03741627 0.15768015 0.030475272 -0.029566232
000360 c8 aa 9a bd 0e c6 b7 3d 95 de dd 3d 7a 82 b1 bd
       -0.07552105 0.08973323 0.1083347 -0.086674646
000370 2f 98 08 bd 5c 36 e6 3d 96 e4 be 3d 71 1b 06 be
       -0.03334826 0.11240837 0.09320943 -0.13096406
000380 f0 c3 1a 3e f6 11 27 be 0c 82 b4 bc a7 ee dc 3c
       0.15113807 -0.16315445 -0.022034667 0.026969267
000390 f0 48 99 3d 12 f2 28 3d a7 2d 34 3e 74 f4 cf bc
       0.07484615 0.04124648 0.1759554 -0.025385119
0003a0 22 22 55 be ed 16 40 3e 64 a1 d8 bd 74 dd bf bd
       -0.20813802 0.18758745 -0.10577658 -0.09368411
0003b0 94 b1 6e be 89 b0 c9 bd a0 9a 8c be cd 5d 74 bd
       -0.23309928 -0.098481245 -0.2746172 -0.059659768
0003c0 09 01 89 3d 6b 55 b2 3d 18 ac 9a bd af ed 8f 3d
       0.066896506 0.087076984 -0.075523555 0.070277564
0003d0 5a 0a cc 3b da 21 9e bd 27 38 1e 3e 66 57 b1 bd
       0.00622682 -0.077213004 0.15451108 -0.08659248
0003e0 45 92 9a 3d 7c 0f f0 bb 09 43 90 bc b2 0e b6 3d
       0.0754743 -0.0073260646 -0.01761009 0.08889522
0003f0 2c 7a c6 3d 29 f7 c6 3d 4e 8a 61 3b 29 db 07 3e
       0.09691271 0.09715111 0.0034414711 0.13267197

linears.1.bias f4 [64]
000000 e7 fa 62 3e dd 14 2b 3f 86 da e2 3e 5e 10 ee 3e
       0.22166024 0.6682871 0.44307345 0.46496862
000010 3d 10 b5 bd 74 8f fc 3e 9c c8 1d be 0a e0 2c 3e
       -0.08840988 0.49328196 -0.15408558 0.16882339
000020 a0 15 c2 be c2 f1 10 3f 23 2c d6 3d e3 9e 13 bc
       -0.37907124 0.56618893 0.10457637 -0.0090100495
000030 2b 9d 35 3f bf 61 0e 3f 5f b6 3e 3e 2b a9 85 3e
       0.70942944 0.556179 0.18624257 0.26105627
000040 cc f0 c6 3e 00 bc e0 3c 78 17 dc be 85 61 e9 3e
       0.38855588 0.027433395 -0.42986655 0.45582214
000050 1c 21 dc 3e b7 58 03 3f 13 e6 e1 3e da c8 1b 3e
       0.4299401 0.51307243 0.44120845 0.15213338
000060 ec 96 40 be 40 29 8a 3c 53 1d 00 3f 4d b5 42 be
       -0.18807572 0.016865373 0.50044745 -0.19014473
000070 61 c5 ad 3e 91 4a 76 3d 9c e4 33 be 98 fd 56 3e
       0.3393965 0.060129706 -0.17567676 0.20995176
000080 d9 cc df 3e a7 0a 19 3f c5 e0 94 bd 91 9a 5b be
       0.43710974 0.5978188 -0.07269434 -0.21445681
000090 f5 9f 02 3c 07 49 f2 3d 31 ef 11 3f 99 18 c7 3d
       0.007972707 0.11830335 0.570056 0.097214885
0000a0 d1 80 04 3e 33 6a e7 3e a8 be cb be cd 0f e6 3d
       0.12939765 0.4519821 -0.39793897 0.112334825
0000b0 d1 e8 c5 3e 14 1a 86 3e 83 a6 07 bf 92 a2 0a 3f
       0.38654187 0.2619177 -0.5298845 0.5415431
0000c0 7d 00 ea 3e e7 bb 20 3f a4 e0 b9 3d 61 86 ee 3e
       0.45703498 0.62786716 0.0907605 0.46586898
0000d0 68 28 7e be 41 17 87 be 07 1b 4a 3a 45 24 4e 3e
       -0.24820101 -0.2638493 0.0007709716 0.20131023
0000e0 b4 42 7c be a0 14 93 3e ec ea 9e be 7f 31 c3 3e
       -0.2463482 0.28726673 -0.31038606 0.381237
0000f0 3a bd 25 3f 7a 69 d8 3d 5f cf e8 3e f5 64 0b 3f
       0.6474186 0.10566993 0.45470712 0.54450923

linears.2.weight f4 [5, 64]
000000 b0 a7 cb bc f2 a7 56 be 2b 3d ef bd 35 86 2c be
       -0.024860233 -0.20962504 -0.11681589 -0.16848071
000010 e2 f4 88 3d 54 85 21 be ef 75 a9 bd 37 ce 1f 3b
       0.06687333 -0.15773517 -0.08274447 0.0024384388
000020 3e db 55 be cb 96 25 bd 8a 08 b5 3d 65 75 00 bd
       -0.20884416 -0.04042701 0.08839519 -0.031361956
000030 76 5c 41 be b0 41 9a bd e3 f6 0e 3d d4 49 16 be
       -0.18882927 -0.0753206 0.03490342 -0.146766
000040 71 7f 86 be 34 a2 5d 3d 6b a9 7d be d2 27 bd bd
       -0.26269105 0.054109767 -0.24771659 -0.09236111
000050 23 12 87 be 04 75 12 be 68 e9 d5 bc 01 ff 06 bd
       -0.26381025 -0.1430245 -0.026112273 -0.032958034
000060 14 2f 4c 3d 9d 21 38 bd 86 0d a8 be f8 69 22 be
       0.049849585 -0.04495393 -0.32822818 -0.15860736
000070 08 c5 d0 bd d4 c0 96 3c 7b 7d f0 bd 91 e2 e9 bc
       -0.10193831 0.018402494 -0.117426835 -0.028550418
000080 f6 a1 8b bc d9 8f 62 bd b9 20 c0 bd db 2e 37 be
       -0.017045002 -0.055312965 -0.09381241 -0.17888968
000090 c8 90 3d be 42 7e 66 3e 8e 01 49 be b0 95 18 3b
       -0.18512261 0.22509101 -0.196295 0.002328258
0000a0 5f c6 6c bc f7 69 59 be 9f 94 e0 bd 7a 57 e0 3d
       -0.014451592 -0.21231829 -0.10965847 0.10954185
0000b0 6d 76 36 be 05 75 c6 3d d3 2d d6 3d db fa 38 be
       -0.17818613 0.096902885 0.10457959 -0.18064444
0000c0 10 08 27 be 11 9f 05 be 86 d2 80 3d e8 5f e6 bd
       -0.1631167 -0.1304896 0.06290154 -0.112487614
0000d0 5b 28 84 be 17 57 1e 3d e0 98 27 3b c1 64 0e 3d
       -0.2581204 0.038657274 0.0025573298 0.034764055
0000e0 d0 a7 cd bd d2 b8 a6 bd f3 87 32 3d fa fc 99 3c
       -0.10041773 -0.081407204 0.043586683 0.018797386
0000f0 de 4b 56 be 91 17 12 bb c0 c1 1e be d0 07 6f 3d
       -0.20927379 -0.0022291879 -0.15503597 0.05835706
000100 07 02 ca 3c 8c 24 5f be 48 05 30 be ff c0 14 be
       0.02465917 -0.21791285 -0.17189515 -0.14526747
000110 15 98 38 3d 21 53 44 be 9e 02 d6 bb 24 0a 12 3c
       0.04506691 -0.19172336 -0.0065310737 0.0089135505
000120 93 ee 07 bd e4 9b 0b be 93 e6 a9 3d 36 88 0d 3d
       -0.033186506 -0.13633686 0.08295932 0.03455373
000130 b3 89 54 be c1 94 e8 bd 46 ed 93 3c b3 0e bf be
       -0.20755653 -0.113564976 0.018057477 -0.37315902
000140 f8 7a 69 be d3 0a 78 bd 01 3c f7 bd fe c1 da bd
       -0.22800815 -0.060557198 -0.12071992 -0.10681532
000150 49 69 1d be 5d ab 5a be d0 69 e2 bd 05 dd 97 bc
       -0.15372194 -0.21354432 -0.110553384 -0.018538008
000160 9d 65 a5 3d 57 32 b3 bb 42 5d 4d be 99 e0 9d 3c
       0.08076022 -0.0054686475 -0.20055106 0.019272136
000170 4f 5b 15 be 59 10 63 3c fc f6 c4 3c ed 63 be bb
       -0.14585613 0.013858878 0.024043553 -0.005810252
000180 a5 5c 01 3d 0e 5e 36 be 33 08 6f 3d 11 bf eb bd
       0.031582493 -0.17809317 0.05835743 -0.115110524
000190 a6 21 91 be 11 a4 bf 3d 01 43 e6 bd 40 ce 93 bd
       -0.28345984 0.09357465 -0.11243249 -0.072170734
0001a0 1a 36 f5 bb 7d 82 b4 bd f5 18 aa bd f2 62 0e be
       -0.007483256 -0.08813951 -0.083055414 -0.13904932
0001b0 69 76 4f be f1 a1 88 3d 93 45 35 3e c2 91 19 be
       -0.20260014 0.06671513 0.17702322 -0.14997008
0001c0 3b a3 5c be 8e 8b 36 be 73 ba 49 bd 77 2a 1a be
       -0.21546642 -0.17826673 -0.049250077 -0.15055262
0001d0 9c a5 7f bd 30 b4 92 3d b4 75 2c 3d 54 08 24 3d
       -0.062413797 0.07163274 0.042104438 0.040047005
0001e0 ce 41 a3 bd 11 bf 5f bd 91 f9 88 3d 80 04 2f bd
       -0.079715356 -0.054625574 0.06688226 -0.0427289
0001f0 0f 2f 1e be 17 34 f9 3c 77 ec f6 bd 75 b6 ad bd
       -0.15447639 0.030420346 -0.12056821 -0.084820665
000200 2e 94 f7 bb f4 c5 71 be 9d fb 20 bc 46 67 07 be
       -0.007555506 -0.2361067 -0.009825614 -0.1322299
000210 d0 d7 41 3d c8 2a 5b be b7 d9 4a be 0f c2 8c bc
       0.047324955 -0.21403039 -0.19809614 -0.017182378
000220 ed bb 95 be 79 60 2c bd 22 c8 0c bc ac d0 75 3d
       -0.29244938 -0.04208419 -0.008592637 0.060013458
000230 63 56 62 be 92 ee 82 3d 81 af 3d bc 0c ad 56 3e
       -0.22103266 0.0639316 -0.011577488 0.2096445
000240 b3 c2 89 be 80 e4 29 3e ae 00 a4 be b6 37 d0 bc
       -0.26906356 0.16591072 -0.3203177 -0.02541719
000250 41 f2 7a be b4 ea ea bd 52 ea 2b bd 9e e2 ff b9
       -0.24506475 -0.11470547 -0.041971512 -0.00048806233
000260 b7 50 ef bd 1a bd 33 be 04 de cd be e7 33 4d be
       -0.11685317 -0.17552605 -0.40208447 -0.2003933
000270 94 b5 e6 bc 7d 9b 55 3d 5a 50 a8 bd ae 54 45 bc
       -0.028162755 0.05215024 -0.08218451 -0.012044115
000280 2c 21 0b bd 1b 01 24 be 45 4a 32 be 4e e6 5b bd
       -0.033967182 -0.16016047 -0.17411144 -0.053686433
000290 57 17 a6 be b5 93 4f 3d 18 78 76 be 18 b0 6f 3e
       -0.32439682 0.050677974 -0.2406925 0.23407018
0002a0 9f e1 82 bd eb 2c b0 be 81 24 bc 3d e3 c7 8a 3d
       -0.0639069 -0.3440927 0.0918665 0.067764066
0002b0 2e c6 d7 bd e2 e5 ae 3e 90 e5 a9 3c 86 9a 5e bb
       -0.10535847 0.34159762 0.020739347 -0.0033966615
0002c0 60 52 5c be ae 0f 36 be 57 54 57 be 87 d6 e3 bd
       -0.21515799 -0.17779419 -0.21028267 -0.11124902
0002d0 e4 98 80 be 6b 9d f8 bc 5a c6 66 be 8c 9c 17 3d
       -0.25116646 -0.0303485 -0.22536603 0.03701453
0002e0 ee a8 c4 bd 58 65 89 bd b1 2e dd 3c e0 38 30 bd
       -0.09602533 -0.06708783 0.026999803 -0.04302299
0002f0 a3 d4 27 be b8 37 84 bd 44 81 4d be da a5 66 3e
       -0.16389708 -0.0645594 -0.20068842 0.22524205
000300 3c 99 d3 bc 42 cd ed bd d7 ad 60 be 2f c1 95 bd
       -0.025829904 -0.116114154 -0.21941315 -0.073122375
000310 2d 84 d6 bb a8 f7 04 be 9f ca 93 ba 1b 2c cd 3c
       -0.0065465183 -0.12985098 -0.0011275596 0.025045445
000320 f8 e4 5e 3d a9 37 33 be d3 08 85 bd 41 8a 21 3d
       0.05441758 -0.17501701 -0.06495824 0.03943849
000330 31 35 18 be 2a ff 85 bd 85 68 0b bd e2 8c 1b be
       -0.14864041 -0.06542809 -0.034035224 -0.15190461
000340 33 6c b3 be 18 e2 b0 bc 24 ed 7a 3c 82 06 a5 bd
       -0.35043487 -0.021592185 0.015315328 -0.08057882
000350 0a d5 cc bd 81 49 9c be b6 a4 88 bd bc 99 ad bc
       -0.100015715 -0.3052483 -0.06672041 -0.02119147
000360 3e fd b7 3d a5 71 a4 bd b1 67 9b be 65 84 05 3d
       0.08983849 -0.080294885 -0.30352548 0.032596964
000370 f9 07 37 be d2 4b ff bd 7a 98 9b bd ea f4 07 bd
       -0.17874135 -0.124656335 -0.07597442 -0.033192553
000380 c4 9a 7d bc 54 3f 57 be 9e 54 67 bd f8 64 e2 3d
       -0.0154787935 -0.21020252 -0.05647718 0.110544145
000390 83 d3 39 3d 53 29 92 3e cc d9 66 be 0e 49 a7 bd
       0.04536773 0.28547153 -0.2254402 -0.08168231
0003a0 1d e4 04 3d f2 97 ad be 4f 84 eb bd ae de 99 bc
       0.03244411 -0.33904988 -0.11499845 -0.01878294
0003b0 dd 0b bb bd 65 cf 14 3e 24 37 fa 3d 2a 74 70 be
       -0.09133122 0.1453224 0.122175485 -0.23481813
0003c0 69 bb b2 bc 58 fe 55 bd 55 4d 72 bd 24 85 a6 bd
       -0.02181788 -0.052244514 -0.05915578 -0.08130863
0003d0 da 7a 97 3c df d0 13 3e 86 7b da bd f7 6f ed bb
       0.018491197 0.14435147 -0.106680915 -0.0072460133
0003e0 c3 d2 da 3d 06 63 66 bd ff e6 a1 3d a1 25 89 3b
       0.10684731 -0.05624678 0.07905387 0.004185394
0003f0 a2 fe 7f be eb 06 a3 bd a3 0f 66 bd a2 52 8a 3c
       -0.24999478 -0.07960304 -0.056167256 0.016885106

linears.2.bias f4 [5]
000000 6f 1b da be 0b d9 1e bf 7a d7 13 bf 69 dc 1f bf
       -0.42599055 -0.6204993 -0.57750666 -0.62445694
000010 da 46 36 bf
       -0.7120186
