dqn-exp/savedir/student-test/checkpoint1750--model.pth (torch_old, 20763 bytes, 6 tensors)

linears.0.weight f4 [64, 6]
0.09869291 -0.12212749 -0.15315895 -0.09350296 -0.40512115 0.15667912 0.05734761 -0.16551317
0.003713863 -0.0010848918 0.14167197 0.5264498 0.112097465 0.1461049 -0.051981606 -0.09522731
-0.17500903 0.3978855 0.20207739 -0.055913117 0.004004954 0.109818205 -0.24475493 0.16402349
0.00734295 0.0054668933 -0.104984015 -0.055355452 -0.05311388 -0.07006511 0.07167236 0.008415886
-0.21413846 0.24995118 0.16633795 0.03499448 0.005623514 0.015096143 0.3976201 0.22771318
0.29097936 0.09792492 -0.14316946 -0.012522661 0.25165176 0.07804341 0.046765342 0.07187657
-0.12951942 -0.066604145 -0.007876938 0.16334999 0.3095066 0.31452605 -0.08358068 0.064257376
0.03278803 -0.17241195 -0.0940491 0.06243885 -0.16142452 0.027099246 0.021940952 -0.010630201
0.6556491 -0.003363612 0.16563503 0.04454147 0.33537418 -0.13251172 -0.12330091 0.121818185
0.04810339 -0.23988451 0.11984831 -0.071740754 -0.05218606 0.34622842 -0.009834732 0.15911171
-0.010688452 -0.0007954284 0.031874273 -0.68264616 0.11888529 0.15878642 0.0436235 0.00673253
-0.24681242 -0.4204288 -0.17974639 -0.14865209 0.050174233 0.026918214 0.23905616 0.16591257
0.13652864 -0.0035183919 -0.030597687 0.013557411 -0.45160484 0.032746498 0.10278226 0.12109433
-0.01561789 0.0029918961 -0.59126586 -0.10398966 -0.07878476 0.06407195 -0.0065864595 0.04169941
0.43968806 -0.15290448 0.12872943 0.006661587 -0.006773301 -0.0023914792 -0.6773935 -0.0021574954
0.12281563 -0.19249241 0.023079084 0.16201282 -0.19156435 0.32113695 0.017934239 0.1624116
0.009435922 -0.005855101 -0.010307053 -0.56732833 -0.095677316 -0.07774992 -0.06176779 -0.11669709
0.09010287 0.22216955 -0.088504694 -0.11373687 -0.009864045 0.04345862 0.24158993 0.34605092
-0.02180264 -0.028425304 0.09996497 0.15167536 -0.040688332 0.13019654 -0.13942 -0.004638701
-0.00051024894 0.0047250995 0.5476414 0.013848159 -0.10709995 0.02658747 -0.06669755 0.009568085
0.37095058 -0.018588865 0.09277363 0.14350747 -0.04994773 0.053427134 -0.23430626 -0.25286514
0.17917442 0.018823419 0.0027873812 0.0028479458 -0.9678198 0.035845842 -0.1075967 0.2144671
0.26532975 -0.08076686 0.2731846 -0.3514123 -0.02324284 -0.1545817 -0.0059819515 -0.006575109
-0.07262435 0.9244829 -0.03337573 0.13875252 0.10342554 -0.20318155 0.059619255 -0.15555213
-0.01524956 0.06453943 -0.00035176516 -0.041247506 0.018955762 -0.07260415 -0.1252065 0.08130799
-0.026620924 0.05982061 0.1284854 -0.07134968 -0.035820737 -0.01889077 -0.07433096 -0.18289159
-0.07966162 -0.037071034 -0.025888272 0.038679365 0.06465356 -0.07244443 0.05354009 -0.01398561
-0.057522573 0.014488032 0.0012833381 0.0063497867 0.73089695 0.10342594 -0.1432433 -0.13847807
0.07193457 -0.026693318 0.21386479 0.2516123 -0.074902296 0.01779025 -0.06690321 -0.022707183
0.21802616 0.21568556 -0.060786095 -0.29076436 -0.13716498 0.0845506 -0.0086988425 0.072382964
-0.0023127885 0.14139225 0.0015326625 0.0048542717 0.008793146 -0.9279791 0.09844498 -0.17696817
0.046033934 -0.15252785 -0.13201247 0.06586901 0.05661747 -0.13930349 -0.0053749066 -0.025358172
00000000: 821f ca3d fa1d fabd b3d5 1cbe 7b7e bfbd
00000010: 0a6c cfbe 7e70 203e 54e5 6a3d 497c 29be
00000020: 4864 733b ee32 8eba 7512 113e 6ac5 063f
00000030: 5b93 e53d 869c 153e aaea 54bd 8906 c3bd
00000040: 9135 33be a6b7 cb3e 60ed 4e3e 2705 65bd
00000050: fd3b 833b 5ee8 e03d 09a1 7abe c6f5 273e
00000060: 219d f03b a023 b33b dc01 d7bd 66bc 62bd
00000070: f18d 59bd 4c7e 8fbd f5c8 923d c9e2 093c
00000080: 1d47 5bbe 34f3 7f3e 7f54 2a3e 5f56 0f3d
00000090: 7445 b83b d055 773c dd94 cb3e a52d 693e
000000a0: 3ffb 943e dc8c c83d 049b 12be d92b 4dbc
000000b0: 80d8 803e 39d5 9f3d 048d 3f3d 0634 933d
000000c0: bda0 04be c167 88bd 460e 01bc 3845 273e
000000d0: a677 9e3e 8f09 a13e 592c abbd 5f99 833d
000000e0: be4c 063d c28c 30be d19c c0bd e1bf 7f3d
000000f0: 784c 25be 3dff dd3c 83bd b33c 4b2a 2ebc
00000100: 9fd8 273f 0c70 5cbb 3b9c 293e 1e71 363d
00000110: 2ab6 ab3e 27b1 07be 3085 fcbd d07b f93d
00000120: 0f08 453d 49a4 75be 0873 f53d d1ec 92bd
00000130: 0dc1 55bd da44 b13e db21 21bc 2eee 223e
00000140: 9e1e 2fbc 4c84 50ba 998e 023d e6c1 2ebf
00000150: 227a f33d e898 223e 8eae 323d 8e9c dc3b
00000160: 65bc 7cbe 7242 d7be 700f 38be 4138 18be
00000170: 7f83 4d3d 9683 dc3c 23cb 743e fce4 293e
00000180: 2ace 0b3e d294 66bb 00a8 fabc e71f 5e3c
00000190: c038 e7be 3121 063d 817f d23d 4e00 f83d
000001a0: 2ee2 7fbc b013 443b 335d 17bf 88f8 d4bd
000001b0: e759 a1bd 2838 833d 3ad3 d7bb 00cd 2a3d
000001c0: cb1e e13e fe92 1cbe a6d1 033e 7149 da3b
000001d0: 91f2 ddbb 5dba 1cbb a969 2dbf c464 0dbb
000001e0: c386 fb3d bb1c 45be 5910 bd3c b0e6 253e
000001f0: 7229 44be 106c a43e d3ea 923c 3a4f 263e
00000200: 2099 1a3c 26dc bfbb eade 28bc 6e3c 11bf
00000210: 78f2 c3bd 5a3b 9fbd 3900 7dbd e2fe eebd
00000220: da87 b83d 6a80 633e f341 b5bd e0ee e8bd
00000230: ce9c 21bc aa01 323d 5a63 773e 962d b13e
00000240: 739b b2bc 2fdc e8bc 6fba cc3d c950 1b3e
00000250: cfa8 26bd 3e52 053e 1ec4 0ebe 3f00 98bb
00000260: 3ac2 05ba 02d5 9a3b 3a32 0c3f 64e3 623c
00000270: 3857 dbbd f7cd d93c ba98 88bd 75c3 1c3c
00000280: 3ced bd3e ad47 98bc 1a00 be3d 9ff3 123e
00000290: fe95 4cbd 69d6 5a3d fbed 6fbe 8a77 81be
000002a0: 8079 373e 9233 9a3c 7fac 363b 9aa4 3a3b
000002b0: 0ac3 77bf 17d3 123d a95b dcbd 439d 5b3e
000002c0: 4dd9 873e 1869 a5bd dade 8b3e 50ec b3be
000002d0: c567 bebc aa4a 1ebe 3f04 c4bb 0374 d7bb
000002e0: 13bc 94bd e9aa 6c3f fdb4 08bd 2415 0e3e
000002f0: c5d0 d33d d30e 50be 5233 743d 0f49 1fbe
00000300: 4ad9 79bc 402d 843d 1f6d b8b9 25f3 28bd
00000310: 1d49 9b3c 7cb1 94bd 2236 00be ce84 a63d
00000320: 2014 dabc 7506 753d ad91 033e c81f 92bd
00000330: c4b8 12bd d1c0 9abc d53a 98bd ef47 3bbe
00000340: a225 a3bd ccd7 17bd a413 d4bc 416e 1e3d
00000350: 1669 843d bf5d 94bd da4c 5b3d e623 65bc
00000360: ca9c 6bbd 365f 6d3c ae35 a83a df11 d03b
00000370: 101c 3b3f fbd0 d33d 5fae 12be 32cd 0dbe
00000380: 6f52 933d f2ab dabc 5fff 5a3e 54d3 803e
00000390: 6066 99bd dcbc 913c 8d04 89bd 6a04 babc
000003a0: 4042 5f3e addc 5c3e d7fa 78bd 11df 94be
000003b0: fa74 0cbe dd28 ad3d 9785 0ebc 853d 943d
000003c0: 2792 17bb 21c9 103e 9fe3 c83a 9510 9f3b
000003d0: 2111 103c 0a90 6dbf 869d c93d 2537 35be
000003e0: 148e 3c3d 4330 1cbe 472e 07be 55e6 863d
000003f0: b8e7 673d 93a5 0ebe fc1f b0bb f1bb cfbc

linears.0.bias f4 [64]
-0.46334028 -0.035661977 -0.46154994 -0.37367558 -0.17331703 -0.78409374 -0.31326544 -0.42206633
0.4324187 0.39237148 -0.35224655 -0.5586573 -0.73701113 -0.24608609 0.44383788 -0.658709
0.4052653 -0.74785495 0.60214245 0.063129514 0.42803878 0.13971257 0.4979786 0.23806204
0.33468577 0.2663399 -0.53361404 -0.33427477 -0.056047153 -0.5784731 -0.14784193 -0.33458018
-0.11012731 0.28671038 -0.32577762 -0.15351233 -0.036549352 -0.52773094 -0.22050871 -0.61538535
-0.092002794 -0.45497262 0.5170697 -0.6694372 -0.38994458 -0.46691453 0.7558888 0.43089208
-0.5089481 -0.26857907 -0.26967126 0.22038065 0.031347115 0.3940727 0.14626978 -0.48291412
-0.64830846 -0.28732055 0.37023416 -0.5121922 -0.013808588 -0.1930893 0.30077213 -0.5324591
00000000: f03a edbe 4b12 12bd 4650 ecbe 6852 bfbe
00000010: 057a 31be 5eba 48bf 5464 a0be 1419 d8be
00000020: fc65 dd3e eae4 c83e a959 b4be 2a04 0fbf
00000030: c3ac 3cbf fefd 7bbe b83e e33e 27a1 28bf
00000040: ef7e cf3e 6c73 3fbf 0226 1a3f 0c4a 813d
00000050: e627 db3e d010 0f3e 0df7 fe3e 89c6 733e
00000060: ef5b ab3e b45d 883e ee9a 08bf 1026 abbe
00000070: b391 65bd d016 14bf e063 17be 184e abbe
00000080: 6d8a e1bd b4cb 923e 53cc a6be 5632 1dbe
00000090: c6b4 15bd 6019 07bf 09cd 61be e589 1dbf
000000a0: f66b bcbd 2cf2 e8be ae5e 043f 3d60 2bbf
000000b0: d1a6 c7be 6c0f efbe ee81 413f e39d dc3e
000000c0: 6c4a 02bf 3283 89be 5a12 8abe 77ab 613e
000000d0: d565 003d e6c3 c93e bfc7 153e 8540 f7be
000000e0: 8bf7 25bf ae1b 93be 558f bd3e 071f 03bf
000000f0: 6a3d 62bc 34b9 45be cefe 993e 3d4f 08bf

linears.1.weight f4 [64, 64]
-0.10400683 -0.049371086 -0.04120808 -0.09875405 -0.11568358 0.052223668 0.019797897 -0.20025223
-0.017648034 -0.0117426645 0.12766816 0.0031673545 -0.12914717 -0.011466927 -0.09316572 -0.028607776
0.031917363 -0.02534533 -0.008659502 0.30729568 -0.0826506 -0.20648758 -0.109406 0.01628502
0.13784914 0.031759173 -0.039300065 0.21704291 -0.029738767 0.07600713 -0.04176344 -0.062121745
0.074375734 -0.011024058 0.048401423 0.06805897 0.12986064 -0.16580597 -0.0031096446 -0.013335505
0.12194139 -0.13149588 -0.00886455 0.03138448 -0.16116716 -0.039077044 -0.07934811 -0.08824433
-0.045782525 -8.2360064e-05 0.029242322 -0.14307183 0.033401057 -0.013725546 -0.010585021 -0.12682632
0.122382775 -0.16942137 0.096999414 0.046939984 0.0025845396 -0.07256244 -0.12728938 -0.009174245
-0.041104756 0.060639277 -0.1376003 0.087004416 -0.102941014 0.11356996 0.017716225 0.009515992
-0.090189405 0.020035164 -0.16053787 0.04630453 0.051895395 0.19779277 0.018190803 0.0049157967
-0.042446747 0.05827618 -0.3263383 -0.057700682 -0.048085142 0.11394145 -0.07605194 -0.008812012
0.015173611 -0.036256388 0.29942906 -0.136168 -0.004902787 -0.09636871 -0.33909824 0.11265554
0.14726692 0.030721022 -0.010892058 -0.06691846 -0.21762626 -0.024784751 0.10609127 -0.017109279
-0.26161447 0.032144357 -0.20216343 0.18131894 0.101288535 -0.023760308 -0.16082875 0.05096006
0.029557055 0.0537818 0.00781736 -0.14343189 -0.12349569 -0.06828012 -0.02355365 0.0983963
-0.18519151 -0.073273815 -0.0057188454 0.19237553 -0.08632986 -0.004111182 0.10120794 0.28685984
0.09853879 -0.038188174 0.20854047 -0.045317553 -0.036832 0.17478389 0.059523225 0.09973735
0.03905149 -0.025282238 -0.016348053 0.013457169 -0.15888634 0.15707645 -0.094383545 -0.067504115
-0.08029806 -0.07831018 -0.14694546 -0.015473669 -0.06907676 0.14416848 -0.091003574 -0.05849476
-0.10599503 -0.09712509 0.13694625 -0.051405128 0.14408901 -0.048328884 -0.11786429 0.0694775
0.13199198 -0.038734127 -0.036356628 0.10222909 0.03678598 0.053537775 -0.25779027 0.07135596
-0.07970024 -0.0060225767 0.009535831 0.09759564 0.16146135 0.02467927 -0.096951805 -0.02867992
0.18588239 -0.115814336 -0.11821635 -0.1342026 0.0020215756 0.037933413 0.03706662 -0.018145388
-0.14544734 -0.18256967 0.029481295 -0.035812672 -0.0153529225 -0.0066309604 -0.13223416 0.057461437
0.067059465 -0.12654054 0.16845569 0.08385791 0.15441142 0.19893493 0.10363257 -0.012708821
-0.026806926 -0.037035797 -0.19948883 -0.03402925 -0.06058151 0.27402815 -0.07072361 -0.13233738
0.12366413 -0.094729096 -0.19465782 -0.10546925 0.029100142 0.16154227 0.012255036 -0.04485439
-0.0966303 0.08060493 0.11235509 -0.07758821 -0.02692961 0.13130388 0.1045464 -0.12292959
0.17558268 -0.1601679 -0.024395594 0.03631996 0.100100204 0.07009771 0.17428234 -0.02387146
-0.17258474 0.19463624 -0.10588527 -0.083792165 -0.21399288 -0.09481842 -0.2730965 -0.058684845
0.07478084 0.074109115 -0.05988766 0.045916975 -0.0022084273 -0.090159245 0.15292318 -0.07242025
0.050570387 -0.033459004 -0.06261215 0.10296962 0.090979725 0.073166564 0.0065618716 0.13719048
00000000: 8801 d5bd 5639 4abd cec9 28bd 903f cabd
00000010: 83eb ecbd 7ce8 553d 332f a23c ec0e 4dbe
00000020: 9c92 90bc 4e64 40bc 71bb 023e 6493 4f3b
00000030: 283f 04be c7df 3bbc abcd bebd db5a eabc
00000040: c8bb 023d 02a1 cfbc 95e0 0dbc dc55 9d3e
00000050: b844 a9bd 7b71 53be 4110 e0bd 2a68 853c
00000060: 5328 0d3e e815 023d 1bf9 20bd 7f40 5e3e
00000070: b79e f3bc a0a9 9b3d 2410 2bbd 5f73 7ebd
00000080: 4e52 983d 409e 34bc 9240 463d 8062 8b3d
00000090: 30fa 043e 0ac9 29be 2ecb 4bbb 297d 5abc
000000a0: 68bc f93d dba6 06be 9e3c 11bc 038d 003d
000000b0: 0109 25be 400f 20bd 4381 a2bd 71b9 b4bd
000000c0: 7586 3bbd b9b8 acb8 988d ef3c 6c81 12be
000000d0: 8ccf 083d 1de1 60bc cc6c 2dbc c2de 01be
000000e0: d2a3 fa3d cc7c 2dbe a1a7 c63d 2444 403d
000000f0: 6161 293b 9e9b 94bd 2658 02be 934f 16bc
00000100: 765d 28bd e460 783d 18e7 0cbe 5f2f b23d
00000110: bdd2 d2bd 5e97 e83d 9e21 913c f7e8 1b3c
00000120: 39b5 b8bd c920 a43c 0a64 24be d2a9 3d3d
00000130: 4490 543d 308a 4a3e e104 953c b114 a13b
00000140: a4dc 2dbd 01b3 6e3d d015 a7be 8d57 6cbd
00000150: edf4 44bd 235a e93d 1fc1 9bbd 4260 10bc
00000160: bd9a 783c 9481 14bd c44e 993e a06f 0bbe
00000170: 8fa7 a0bb f55c c5bd 499e adbe f3b7 e63d
00000180: 24cd 163e a7aa fb3c 9a74 32bc 8c0c 89bd
00000190: 6bd9 5ebe 6409 cbbc 6146 d93d c228 8cbc
000001a0: 55f2 85be cda9 033d ee03 4fbe acab 393e
000001b0: 5d70 cf3d faa4 c2bc 4bb0 24be 7fbb 503d
000001c0: a321 f23c 4e4a 5c3d 6214 003c cfdf 12be
000001d0: 4feb fcbd 73d6 8bbd 96f3 c0bc 0084 c93d
000001e0: d8a2 3dbe 9510 96bd 2765 bbbb 17fe 443e
000001f0: b6cd b0bd 18b7 86bb 1c46 cf3d 4bdf 923e
00000200: b5ce c93d 346b 1cbd a28b 553e e69e 39bd
00000210: 27dd 16bd 8cfa 323e a0ce 733d 1943 cc3d
00000220: 75f4 1f3d b21c cfbc 5aec 85bc 757b 5c3c
00000230: 1ab3 22be a6d8 203e 294c c1bd 993f 8abd
00000240: 4f73 a4bd 1661 a0bd df78 16be 4685 7dbc
00000250: 1e78 8dbd e7a0 133e 1560 babd 3498 6fbd
00000260: ec13 d9bd 85e9 c6bd a33b 0c3e 2f8e 52bd
00000270: 128c 133e 82f4 45bd d562 f1bd 384a 8e3d
00000280: e828 073e ada7 1ebd b0ea 14bd 7c5d d13d
00000290: e5ac 163d 6d4a 5b3d 16fd 83be 1323 923d
000002a0: e139 a3bd 0959 c5bb 2d3c 1c3c 39e0 c73d
000002b0: 2056 253e 2e2c ca3c ab8e c6bd 27f2 eabc
000002c0: f457 3e3e 1130 edbd 6a1b f2bd 686c 09be
000002d0: 697c 043b 1160 1b3d 2bd3 173d a3a5 94bc
000002e0: 26f0 14be 8bf3 3abe c282 f13c 4fb0 12bd
000002f0: d38a 7bbc 8748 d9bb 6468 07be af5c 6b3d
00000300: 7956 893d d893 01be a67f 2c3e b2bd ab3d
00000310: 071e 1e3e 99b5 4b3e 503d d43d a938 50bc
00000320: 339a dbbc d9b2 17bd cd46 4cbe 4162 0bbd
00000330: 5124 78bd 6b4d 8c3e 8ad7 90bd 7383 07be
00000340: 9f43 fd3d 5401 c2bd 6154 47be 4300 d8bd
00000350: 6c63 ee3c 566b 253e 59c9 483c 3db9 37bd
00000360: 1be6 c5bd 3314 a53d 6d1a e63d 91e6 9ebd
00000370: 7c9b dcbc 8674 063e 6c1c d63d 82c2 fbbd
00000380: f2cb 333e 0e03 24be 45d9 c7bc 3dc4 143d
00000390: 5601 cd3d 638f 8f3d 1277 323e 158e c3bc
000003a0: 0eba 30be b94e 473e 60da d8bd 3a9b abbd
000003b0: f320 5bbe 2930 c2bd 4ed3 8bbe 855f 70bd
000003c0: b226 993d 85c6 973d c34c 75bd 7013 3c3d
000003d0: 43bb 10bb 69a5 b8bd e597 1c3e 1151 94bd
000003e0: e522 4f3d 4f0c 09bd cd3a 80bd bce1 d23d
000003f0: 9453 ba3d 5ad8 953d f804 d73b a97b 0c3e

linears.1.bias f4 [64]
0.21431398 0.6504078 0.430069 0.4512491 -0.09077565 0.48497456 -0.1475117 0.1673593
-0.35513335 0.5575336 0.0935234 -0.020640714 0.68946964 0.5343992 0.19842304 0.26544547
0.36687413 0.032223843 -0.41218567 0.45418653 0.41944608 0.4971113 0.44792342 0.15603231
-0.17813408 0.025888093 0.47520262 -0.199669 0.3270103 0.060137384 -0.18833713 0.2190514
0.4385045 0.5816567 -0.07871589 -0.21191892 0.0054743723 0.11242385 0.55124104 0.09084998
0.116657734 0.42782786 -0.3687934 0.1211997 0.3734422 0.2511309 -0.5068349 0.52878803
0.43808472 0.6149259 0.091883115 0.46051532 -0.24325715 -0.24174832 -0.016545933 0.20373602
-0.25901294 0.27684987 -0.29397732 0.37654504 0.6262017 0.091642074 0.4480557 0.5259306
00000000: 2075 5b3e 2081 263f 0132 dc3e 1f0a e73e
00000010: 96e8 b9bd 964e f83e 4f0d 17be 3d60 2b3e
00000020: 0ad4 b5be 86ba 0e3f 3289 bf3d b716 a9bc
00000030: 1581 303f 63ce 083f 692f 4b3e 78e8 873e
00000040: edd6 bb3e 26fd 033d 000a d3be 238b e83e
00000050: a3c1 d63e 5f85 fe3e 3856 e53e efc6 1f3e
00000060: c868 36be 4413 d43c c24d f33e 0876 4cbe
00000070: e56d a73e 9e52 763d 73db 40be 034f 603e
00000080: a983 e03e 74e7 143f cc35 a1bd 4601 59be
00000090: 5d62 b33b 7a3e e63d 221e 0d3f 8e0f ba3d
000000a0: 40ea ee3d 410c db3e 7dd2 bcbe 8c37 f83d
000000b0: d133 bf3e 3b94 803e efbf 01bf a75e 073f
000000c0: a44c e03e c96b 1d3f 372d bc3d aac8 eb3e
000000d0: 6718 79be df8c 77be 568b 87bc 2da0 503e
000000e0: 589d 84be 44bf 8d3e 3284 96be 83ca c03e
000000f0: c14e 203f d7ae bb3d 8f67 e53e 63a3 063f

linears.2.weight f4 [5, 64]
-0.020058384 -0.20611013 -0.117091686 -0.16778989 0.06687333 -0.15609694 -0.08274447 0.0024384388
-0.20884416 -0.041916076 0.08839519 -0.031361956 -0.18359354 -0.085159756 0.03320622 -0.146766
-0.25236776 0.054109767 -0.24771659 -0.100654334 -0.26260513 -0.13517885 -0.03522573 -0.032958034
0.049849585 -0.04495393 -0.30934483 -0.15860736 -0.10028311 0.018402494 -0.117426835 -0.029154632
0.007915838 -0.053975597 -0.09381241 -0.17888968 -0.18512261 0.22509101 -0.19181973 0.002328258
-0.014451592 -0.19610585 -0.0728781 0.10954185 -0.17759691 0.096902885 0.071935564 -0.17966247
-0.14910018 -0.12832078 0.06290154 -0.11600456 -0.2581204 0.038657274 0.0025573298 0.051797614
-0.10041773 -0.11009999 0.043586683 0.018797386 -0.20454474 -0.0022291879 -0.15566252 0.0952589
0.02867421 -0.21333054 -0.17223866 -0.14262384 0.04506691 -0.1889522 0.023970287 0.0089135505
-0.033186506 -0.14164384 0.08295932 0.03455373 -0.20149678 0.07036128 0.0056388862 -0.37315902
-0.21238203 -0.060557198 -0.12071992 -0.11019142 -0.15151748 -0.20347278 -0.12507363 -0.018538008
0.08076022 -0.0054686475 -0.176479 0.019272136 -0.14827001 0.013858878 2.781876e-05 -0.005810252
0.05907346 -0.17836857 0.05835743 -0.115110524 -0.28346017 0.09357465 -0.10436577 -0.072170734
-0.007483256 -0.06917662 -0.052436735 -0.13904932 -0.20064992 0.06671513 0.14072804 -0.14800648
-0.20179664 -0.17466247 -0.049250077 -0.15413955 -0.062413797 0.07163274 0.042104438 -0.024585396
-0.079715356 -0.025772303 0.06688226 -0.0427289 -0.1494743 0.030420346 -0.122241326 -0.07519981
-0.020762704 -0.23421024 -0.0089694355 -0.13138801 0.047324955 -0.21792199 -0.19809614 -0.017182378
-0.29244938 -0.04527931 -0.008592637 0.060013458 -0.21847974 0.19138075 0.015326689 0.2096445
-0.26672697 0.16591072 -0.3203177 -0.020973302 -0.24673636 -0.10914016 -0.053878542 0.013421705
-0.11685317 -0.17552605 -0.3841385 -0.2003933 -0.022626448 0.05215024 -0.08218451 -0.059642345
-0.033967182 -0.16095516 -0.17411144 -0.053686433 -0.32439706 0.050677974 -0.23981602 0.23407018
-0.0639069 -0.33568463 -0.007734836 0.09859951 -0.10098079 0.34159762 -0.0115093645 -0.004044081
-0.20083503 -0.17702922 -0.21028267 -0.11406474 -0.25116646 -0.0303485 -0.22536603 0.009106786
-0.09602533 -0.06497732 0.026999803 -0.04302299 -0.15729554 -0.0645594 -0.20137914 0.2600922
-0.021929251 -0.11012209 -0.220343 -0.07048348 -0.0065465183 -0.12813927 -0.0011275596 0.025045445
0.05441758 -0.17936626 -0.06495824 0.03943849 -0.14247213 0.0006093838 -0.028079413 -0.15190461
-0.34144735 -0.021592185 0.015315328 -0.08782758 -0.097879335 -0.30076113 -0.075354815 -0.02119147
0.08983849 -0.080294885 -0.2801024 0.032596964 -0.18293695 -0.124656335 -0.07597442 -0.033192553
0.013575888 -0.21148008 -0.05647718 0.13524503 0.045367587 0.28547153 -0.221723 -0.08168231
0.03244411 -0.32008705 -0.11499845 -0.01878294 -0.08969977 0.1453224 0.04813125 -0.23406932
-0.0021624828 -0.04697602 -0.05915578 -0.08369442 0.018491197 0.14435147 -0.106680915 -0.026847808
0.10684731 -0.05624678 0.07905387 0.004185394 -0.24670437 -0.07960304 -0.05681712 0.0669655
00000000: 7b51 a4bc 890e 53be c4cd efbd 1dd1 2bbe
00000010: e2f4 883d e0d7 1fbe ef75 a9bd 37ce 1f3b
00000020: 3edb 55be 31b0 2bbd 8a08 b53d 6575 00bd
00000030: f2ff 3bbe 3d68 aebd 3f03 083d d449 16be
00000040: 5936 81be 34a2 5d3d 6ba9 7dbe dc23 cebd
00000050: 2e74 86be 536c 0abe db48 10bd 01ff 06bd
00000060: 142f 4c3d 9d21 38bd 7262 9ebe f869 22be
00000070: 3b61 cdbd d4c0 963c 7b7d f0bd b2d5 eebc
00000080: 6eb1 013c 8415 5dbd b920 c0bd db2e 37be
00000090: c890 3dbe 427e 663e 646c 44be b095 183b
000000a0: 5fc6 6cbc f9cf 48be 1d41 95bd 7a57 e03d
000000b0: f7db 35be 0575 c63d f452 933d 70f9 37be
000000c0: b8ad 18be 8666 03be 86d2 803d cc93 edbd
000000d0: 5b28 84be 1757 1e3d e098 273b bc29 543d
000000e0: d0a7 cdbd 1b7c e1bd f387 323d fafc 993c
000000f0: 2d74 51be 9117 12bb ff65 1fbe 1917 c33d
00000100: 2de6 ea3c 5273 5abe 555f 30be fc0b 12be
00000110: 1598 383d af7c 41be 565d c43c 240a 123c
00000120: 93ee 07bd 150b 11be 93e6 a93d 3688 0d3d
00000130: 2c55 4ebe 9319 903d 68c6 b83b b30e bfbe
00000140: ad7a 59be d30a 78bd 013c f7bd 0aac e1bd
00000150: 6627 1bbe 2b5b 50be 4d13 00be 05dd 97bc
00000160: 9d65 a53d 5732 b3bb e9b6 34be 99e0 9d3c
00000170: 18d4 17be 5910 633c 555c e937 ed63 bebb
00000180: 03f7 713d 40a6 36be 3308 6f3d 11bf ebbd
00000190: b121 91be 11a4 bf3d b9bd d5bd 40ce 93bd
000001a0: 1a36 f5bb 79ac 8dbd e7c7 56bd f262 0ebe
000001b0: 2c77 4dbe f1a1 883d 031b 103e 038f 17be
000001c0: c7a3 4ebe b8da 32be 73ba 49bd c2d6 1dbe
000001d0: 9ca5 7fbd 30b4 923d b475 2c3d 5067 c9bc
000001e0: ce41 a3bd 7020 d3bc 91f9 883d 8004 2fbd
000001f0: ca0f 19be 1734 f93c a959 fabd 5c02 9abd
00000200: 8c16 aabc cfd4 6fbe 8af4 12bc 948a 06be
00000210: d0d7 413d f126 5fbe b7d9 4abe 0fc2 8cbc
00000220: edbb 95be cc76 39bd 22c8 0cbc acd0 753d
00000230: 27b9 5fbe 51f9 433e cb1c 7b3c 0cad 563e
00000240: 7090 88be 80e4 293e ae00 a4be 34d0 abbc
00000250: 75a8 7cbe e084 dfbd bfaf 5cbd b6e6 5b3c
00000260: b750 efbd 1abd 33be cdad c4be e733 4dbe
00000270: 1a5b b9bc 7d9b 553d 5a50 a8bd 884b 74bd
00000280: 2c21 0bbd 6ed1 24be 454a 32be 4ee6 5bbd
00000290: 5f17 a6be b593 4f3d 5592 75be 18b0 6f3e
000002a0: 9fe1 82bd dbde abbe 8274 fdbb 8aee c93d
000002b0: 04cf cebd e2e5 ae3e c691 3cbc 3684 84bb
000002c0: b3a7 4dbe 2647 35be 5754 57be c69a e9bd
000002d0: e498 80be 6b9d f8bc 5ac6 66be a134 153c
000002e0: eea8 c4bd d412 85bd b12e dd3c e038 30bd
000002f0: 1512 21be b837 84bd 5536 4ebe ce2a 853e
00000300: f9a4 b3bc b187 e1bd 98a1 61be a559 90bd
00000310: 2d84 d6bb f136 03be 9fca 93ba 1b2c cd3c
00000320: f8e4 5e3d caab 37be d308 85bd 418a 213d
00000330: 37e4 11be 0ebf 1f3a cc06 e6bc e28c 1bbe
00000340: 30d2 aebe 18e2 b0bc 24ed 7a3c f2de b3bd
00000350: f674 c8bd 5dfd 99be a053 9abd bc99 adbc
00000360: 3efd b73d a571 a4bd 9569 8fbe 6584 053d
00000370: d353 3bbe d24b ffbd 7a98 9bbd eaf4 07bd
00000380: 676d 5e3c 3c8e 58be 9e54 67bd ac7d 0a3e
00000390: 5dd3 393d 5329 923e 5b0b 63be 0e49 a7bd
000003a0: 1de4 043d 73e2 a3be 4f84 ebbd aede 99bc
000003b0: 83b4 b7bd 65cf 143e 4625 453d deaf 6fbe
000003c0: 71b8 0dbb ed69 40bd 554d 72bd fb67 abbd
000003d0: da7a 973c dfd0 133e 867b dabd efef dbbc
000003e0: c3d2 da3d 0663 66bd ffe6 a13d a125 893b
000003f0: 12a0 7cbe eb06 a3bd 12b9 68bd 3525 893d

linears.2.bias f4 [5]
-0.40566793 -0.59139454 -0.55770004 -0.592039 -0.68496436
00000000: b5b3 cfbe a265 17bf 6ec5 0ebf de8f 17bf
00000010: d359 2fbf
