dqn-exp/savedir/student-test/checkpoint1800--model.pth (torch_old, 20763 bytes, 6 tensors)

linears.0.weight f4 [64, 6]
00000000: 9586 913d 7925 0ebe 8cc5 1cbe 98d7 b5bd
00000010: e0a3 d5be cb59 213e 5056 843d da97 2abe
00000020: 7465 793c f14b 83bb b22e 0a3e 75eb 033f
00000030: d116 ae3d 31ea cc3d d9c2 c8bc e8c2 eabd
00000040: 446c 0fbe 7b82 d03e 6a90 463e 373e 57bd
00000050: bac0 9c3c 8772 ea3d 251c 6cbe 4fb1 0c3e
00000060: 219d f03b a023 b33b dc01 d7bd 66bc 62bd
00000070: f18d 59bd 4c7e 8fbd f5c8 923d c9e2 093c
00000080: 1d47 5bbe 34f3 7f3e 7f54 2a3e 5f56 0f3d
00000090: a597 a93c f2f7 a43c ddb9 c73e d99f 643e
000000a0: 6bec 913e 714a 893d 049b 12be d92b 4dbc
000000b0: 80d8 803e 39d5 9f3d 048d 3f3d 0634 933d
000000c0: df99 07be a1c8 88bd 9bdf 36bc 489f 263e
000000d0: da2a 9d3e 624a 9e3e 69fc a1bd 1137 8a3d
000000e0: 0085 0d3d 9945 33be efd8 c5bd 27af 8a3d
000000f0: 0838 24be 03c9 9c3c e041 743c 482b 733c
00000100: 45fe 263f bb3a a3bc 7743 0d3e 9c13 8e3c
00000110: 8ed6 b03e 18d0 07be b6a6 f0bd d46b 0d3e
00000120: 0f08 453d 49a4 75be 3022 e23d 3f72 87bd
00000130: 5ca3 4cbd 0fe5 ad3e e1a5 ec3a 68a6 2c3e
00000140: 5759 15bb 9b60 963c 60ec 103d 348b 2ebf
00000150: 6e57 fc3d c04a 203e e683 233d 9341 453b
00000160: 9688 7ebe 04d1 d4be 700f 38be 4138 18be
00000170: 7f83 4d3d 9683 dc3c 23cb 743e fce4 293e
00000180: 0989 0b3e fe96 3fbb dfeb d6bc 715a 293c
00000190: a72e e8be a955 be3c d110 d63d 75ce ee3d
000001a0: bde8 47bc 71b8 0e3c fca6 17bf c4fe ddbd
000001b0: c5c0 9bbd e446 833d f4d4 0dbc c3f6 413d
000001c0: b451 e33e 1997 23be de9a 003e 9279 bd3b
000001d0: c3cb 54bc 6aca 253b 5460 2fbf cb93 923a
000001e0: aae4 f83d b4b0 40be 79e3 853c e325 213e
000001f0: 9162 47be e845 a63e 3dab ae3c 0264 2a3e
00000200: 5647 ecbb 3f90 06bc c9a4 71bc 08f7 10bf
00000210: 5e51 c1bd 0497 91bd fd56 80bd 2d0c ecbd
00000220: a442 bb3d f22c 693e e4c2 b6bd ce47 edbd
00000230: 4aed 6ebc f317 163d 7429 773e 0ffa a93e
00000240: 8406 88bc d9fb 05bd 8144 c23d ecf8 1a3e
00000250: b4f8 1cbd d453 fd3d 7986 0dbe 97e0 8dba
00000260: 2c53 2cba 78b8 183c 1783 0c3f 80b0 b73c
00000270: 968c 00be 76e2 ed3c 175d 70bd a958 e93b
00000280: e95b c13e ba27 41bd c6c4 ed3d 9b93 183e
00000290: fc20 3dbd 35a2 503d 5177 63be 52af 7dbe
000002a0: a9c7 3c3e 3ff8 c13b dfb7 633b f180 183b
000002b0: 197e 77bf c9fd d03c a95b dcbd a8c4 593e
000002c0: 956e 863e 200b 9cbd d597 8f3e 8b21 b6be
000002d0: 7058 d1bc bb28 27be 7499 0b3b d94a d9bb
000002e0: 2b12 84bd 9f66 6c3f fdb4 08bd 2415 0e3e
000002f0: c5d0 d33d d30e 50be 5233 743d 0f49 1fbe
00000300: 4ad9 79bc 402d 843d 1f6d b8b9 25f3 28bd
00000310: 1d49 9b3c 7cb1 94bd 0b8b fdbd f71a a73d
00000320: 17bd 03bd f681 523d 02dd 063e c3fb 86bd
00000330: c4b8 12bd d1c0 9abc d53a 98bd ef47 3bbe
00000340: a225 a3bd ccd7 17bd a413 d4bc 416e 1e3d
00000350: 1669 843d bf5d 94bd da4c 5b3d e623 65bc
00000360: 8b99 5dbd 04a2 3a3c 6c3e 143c a96f 4dbb
00000370: 59e5 3d3f 9a99 d13d a3cc 05be 43c5 1cbe
00000380: 41ea 903d b455 48bd 4f14 5a3e 0a57 8e3e
00000390: 465d c4bd a76b b13c b86f 69bd 187c 843b
000003a0: 41e5 5f3e ce2b 533e d7fa 78bd 11df 94be
000003b0: fa74 0cbe dd28 ad3d 9785 0ebc 853d 943d
000003c0: ae5b 3c3b a448 133e 4b29 38bc 453f 623b
000003d0: f46d cb3b 1cbe 6dbf 869d c93d 2537 35be
000003e0: 148e 3c3d 4330 1cbe 472e 07be 55e6 863d
000003f0: baaa 663d 52d7 0cbe 13b1 24bc e27f a9bc
0.071057476 -0.13881482 -0.15309733 -0.08879012 -0.4172659 0.1575691 0.06461775 -0.1665949
0.015221942 -0.0040068557 0.13494375 0.51531154 0.08500446 0.10005606 -0.024506973 -0.11462957
-0.14006144 0.4072455 0.19391027 -0.052549567 0.019134868 0.114476256 -0.23057611 0.13739513
0.00734295 0.0054668933 -0.104984015 -0.055355452 -0.05311388 -0.07006511 0.07167236 0.008415886
-0.21413846 0.24995118 0.16633795 0.03499448 0.020702193 0.02013776 0.3900899 0.22326602
0.28500685 0.06703652 -0.14316946 -0.012522661 0.25165176 0.07804341 0.046765342 0.07187657
-0.13242291 -0.06678892 -0.01116171 0.16271698 0.30696756 0.30916125 -0.079094715 0.06748784
0.034550667 -0.17507018 -0.096605174 0.06771689 -0.16036999 0.019138819 0.014908284 0.014841862
0.65231735 -0.019925466 0.13795267 0.017343335 0.34538692 -0.13262975 -0.117505476 0.13810664
0.04810339 -0.23988451 0.11041677 -0.066135876 -0.04996048 0.3396382 0.0018054807 0.16860354
-0.0022788846 0.018356612 0.035381675 -0.6818116 0.123213634 0.15653515 0.03992071 0.00300989
-0.24856791 -0.41565716 -0.17974639 -0.14865209 0.050174233 0.026918214 0.23905616 0.16591257
0.13626494 -0.0029234285 -0.026235519 0.010336504 -0.45348093 0.023234205 0.10452426 0.11660472
-0.012201485 0.008710966 -0.5923917 -0.10839608 -0.07605127 0.06410006 -0.008656729 0.04735447
0.44398272 -0.15975608 0.12559077 0.0057823146 -0.012988034 0.002529765 -0.6850636 0.0011182962
0.12152989 -0.18817407 0.016343819 0.15737109 -0.19471194 0.3247521 0.021321887 0.16639712
-0.0072106523 -0.008213102 -0.0147487605 -0.5662694 -0.09439348 -0.07108882 -0.06266592 -0.1152576
0.0914357 0.22771052 -0.08923891 -0.11585961 -0.014582941 0.036643934 0.24136907 0.33198592
-0.01660467 -0.032710884 0.09485722 0.15134019 -0.03832312 0.123695046 -0.13820828 -0.0010824379
-0.0006573673 0.0093213245 0.5488753 0.022423029 -0.1255363 0.029038649 -0.058682527 0.007121165
0.37765434 -0.047157027 0.11609797 0.14900057 -0.046174034 0.050935943 -0.22213484 -0.2477391
0.1843554 0.005919486 0.0034747047 0.0023270214 -0.96676785 0.02551164 -0.1075967 0.21266425
0.26256242 -0.076193094 0.28045526 -0.35572466 -0.025554866 -0.16324131 0.0021301182 -0.006631237
-0.06448778 0.9234409 -0.03337573 0.13875252 0.10342554 -0.20318155 0.059619255 -0.15555213
-0.01524956 0.06453943 -0.00035176516 -0.041247506 0.018955762 -0.07260415 -0.12380036 0.0815944
-0.032162752 0.05139347 0.13170245 -0.065909885 -0.035820737 -0.01889077 -0.07433096 -0.18289159
-0.07966162 -0.037071034 -0.025888272 0.038679365 0.06465356 -0.07244443 0.05354009 -0.01398561
-0.054101508 0.011391167 0.009048086 -0.0031347072 0.7417808 0.10234375 -0.13066344 -0.15309624
0.070759304 -0.048909858 0.2129681 0.2780078 -0.09588103 0.021657778 -0.05699131 0.0040431134
0.21864797 0.20622179 -0.060786095 -0.29076436 -0.13716498 0.0845506 -0.0086988425 0.072382964
0.0028741169 0.14383179 -0.011240314 0.0034522575 0.006208176 -0.9286821 0.09844498 -0.17696817
0.046033934 -0.15252785 -0.13201247 0.06586901 0.05631516 -0.13754013 -0.010051983 -0.020690862

linears.0.bias f4 [64]
00000000: e166 edbe 51af 06bd d4fa f1be 0a97 cdbe
00000010: 057a 31be 5eba 48bf b531 a3be 1419 d8be
00000020: ffa3 df3e 1d50 c73e 8498 b9be d162 0ebf
00000030: 34e4 3ebf 8d5a 7bbe 2189 e63e 27a1 28bf
00000040: 806c d13e 3477 40bf d293 1b3f b3d3 9c3d
00000050: fd5f db3e a6b6 183e fee9 ff3e 30bc 753e
00000060: 9088 a93e 9f5f 8b3e 61d2 08bf 48db b5be
00000070: 8a36 50bd a4b4 13bf fc2c 14be 184e abbe
00000080: 6d8a e1bd 3513 8e3e 53cc a6be 5632 1dbe
00000090: e278 8bbc 0e11 04bf e937 84be e589 1dbf
000000a0: 8192 c0bd 2cf2 e8be 0894 053f db82 25bf
000000b0: 323e c9be c3fc efbe 156c 453f 4ed7 dd3e
000000c0: 7788 02bf dbb8 8abe 1c7f 88be d06f 5e3e
000000d0: 9a56 013d bb06 ca3e 5d81 043e 8540 f7be
000000e0: 6a3a 26bf d6c6 9bbe 9745 bd3e 071f 03bf
000000f0: 94af c53a ff95 4fbe 12d0 9b3e 3d4f 08bf
-0.46367553 -0.03288204 -0.4726168 -0.40154296 -0.17331703 -0.78409374 -0.3187386 -0.42206633
0.43679807 0.3892831 -0.36249173 -0.5561953 -0.7456696 -0.24546261 0.45026496 -0.658709
0.4090309 -0.7518189 0.6077243 0.07657566 0.4284667 0.14913425 0.4998321 0.23997569
0.33112 0.2722139 -0.5344601 -0.3551886 -0.050833263 -0.5769751 -0.14470285 -0.33458018
-0.11012731 0.2774903 -0.32577762 -0.15351233 -0.017025415 -0.51588523 -0.25823906 -0.61538535
-0.094029434 -0.45497262 0.52179 -0.64652795 -0.39305264 -0.4687253 0.77118045 0.43328327
-0.5098948 -0.2709416 -0.26659477 0.2172234 0.03157673 0.3945826 0.12939973 -0.48291412
-0.6493288 -0.30425137 0.36967155 -0.5121922 0.0015082234 -0.20272063 0.30432183 -0.5324591

linears.1.weight f4 [64, 64]
00000000: 5d85 e4bd bb81 55bd 1ea6 21bc 5549 d6bd
00000010: d7eb ecbd 5ee8 553d 77ab 013d 730e 4dbe
00000020: 8e0c 8ebc decb 82bc b61a 143e e961 633c
00000030: c8fd 03be 6469 71bc 569d b2bd 9b5b eabc
00000040: d805 133d 6201 763c 878a d8bb b096 973e
00000050: 095f 96bd 0e35 5abe 08ed e0bd c4a3 823c
00000060: bfc0 0e3e cae5 f33c d67d 1abd d0a7 563e
00000070: dbda 38bd ae7c ab3d 79f2 03bd 6d74 7ebd
00000080: 1252 983d fbad acbc ee41 463d 0b62 8b3d
00000090: fca9 fc3d 468d 28be 05d6 033b 667f 5abc
000000a0: 1ed8 f13d f5a6 06be 4a50 d1ba b3fe ff3b
000000b0: e374 e0bd b574 26bd 7470 96bd 9554 b3bd
000000c0: f879 3bbd 6c4c 66bb 2335 37bd e124 1dbe
000000d0: 6221 113d 8812 8ebc c220 75bc dcde 01be
000000e0: 3095 073e 14e2 43be 6737 c13d b143 403d
000000f0: 4f62 eebc 1c04 a7bd a787 f1bd 9351 16bc
00000100: 3e67 3bbd 8809 793d 7696 13be 54e1 c83d
00000110: 1f1c ddbd adc4 ee3d d6df faba 82a8 243c
00000120: 0928 c1bd 9ce1 a63c 0fed 20be 6795 3e3d
00000130: 8385 693d 7e8e 4c3e 7082 ae3c 3a14 d63b
00000140: 24c7 2dbd ff35 883d 072a a9be c917 62bd
00000150: e437 2fbd 4db9 ed3d 4440 99bd 3b2f 91bc
00000160: 2bfd 203c 82fc 27bd e17e 9a3e a085 04be
00000170: 4ec0 0dbc 88d8 cdbd 5065 c2be aa88 dc3d
00000180: 8bea 133e c0ae 0d3d b6b5 23bc 3248 9dbd
00000190: 8ed3 6bbe 4614 e8bc 768f e73d c97c b1bc
000001a0: 5ea6 89be 1abc 093d 5023 57be e8ee 383e
000001b0: b462 d33d 706b 77bc a9f0 27be d8f8 513d
000001c0: 9fdc fa3c 20dd 893d 479e 83bb 52aa 0dbe
000001d0: 7249 03be 8ce0 8cbd 0018 15bd b470 b63d
000001e0: e1db 34be 2185 a2bd 33f2 15bc fa37 443e
000001f0: 4aa5 acbd 5e83 b3bb deb3 dc3d 5889 933e
00000200: e8fb aa3d eddd 31bd e5e9 513e b60b 60bd
00000210: 4412 2ebd 5a0f 333e d2a0 3a3d 127d c53d
00000220: 2c64 2c3d 9ba5 d6bc a37e 45bc 8548 873c
00000230: 0db2 25be 2d93 203e 621c a9bd ad10 89bd
00000240: 417b a6bd 8729 8fbd c557 11be d39e fcbc
00000250: c9b7 93bd 22b7 123e 81d9 c9bd cd58 7bbd
00000260: 24a6 c6bd a44a c7bd ac9c 0c3e 923f 2dbd
00000270: b620 103e a7a2 36bd 83e6 14be 46c2 5e3d
00000280: 50f9 043e d487 19bd b215 f7bc 4faa b63d
00000290: b5be 943c 330c 753d bb38 86be 4741 863d
000002a0: 6903 c3bd a769 d4bb 1783 143c f345 c23d
000002b0: e2fe 203e edc9 0d3d 926e c7bd 8294 e2bc
000002c0: d0a6 3e3e c9c0 f2bd e052 eebd 1827 06be
000002d0: e56b 27bb 4ad9 423d 60cb f03c 1c15 8dbc
000002e0: 53bc 10be bb85 53be 511b 183d 36b9 1cbd
000002f0: 62c7 9cbc 5efb 91bc b81e 04be 6ba1 683d
00000300: 7e64 8f3d 83f3 fbbd 1cb9 263e 892e cf3d
00000310: 271a 183e 696a 4d3e aadd a63d 6847 0fbc
00000320: ecd7 edbc 3e52 01bd 618d 4bbe 6262 09bd
00000330: 6b49 64bd d0c1 8c3e fa8d 89bd 67dc 07be
00000340: 9b94 fb3d 297e c2bd a044 4abe 739a d6bd
00000350: 39e3 173d e37c 273e f2f5 c03c e29c 1dbd
00000360: ded9 c0bd 2036 b03d 11b3 e83d e366 98bd
00000370: f3d3 05bd 3a6c ff3d d377 ba3d 1448 03be
00000380: 9e5e 2f3e aa88 1fbe 413a a9bc ced0 da3c
00000390: f553 b23d 6866 813d 457b 393e d8e6 d2bc
000003a0: 4bf9 41be 83ce 473e b5ee dfbd 3553 afbd
000003b0: acc6 5dbe 1b0e b3bd 4c98 8bbe b566 5dbd
000003c0: 71d5 983d 275b b33d 74d8 89bd 6260 733d
000003d0: abfe d1bb 5f54 a0bd 05ba 183e fdb6 a9bd
000003e0: 392c 753d 470e f8bc 7993 5cbd ee42 cf3d
000003f0: 0311 c23d 6440 a63d 0e95 443c e0ac 0c3e
-0.111582495 -0.052125674 -0.009866266 -0.10463206 -0.115684204 0.052223556 0.031657662 -0.20025043
-0.01733997 -0.015966352 0.14463314 0.013878324 -0.12889779 -0.0147346 -0.08721416 -0.028608134
0.035894245 0.015014978 -0.0066083106 0.29607153 -0.07342345 -0.21309301 -0.1098271 0.01594723
0.13940714 0.029772658 -0.037717663 0.20962453 -0.04513059 0.0837339 -0.03221366 -0.06212275
0.07437529 -0.021079054 0.04840272 0.068058096 0.123371094 -0.16460142 0.002011658 -0.013336038
0.11808799 -0.13149627 -0.0015969363 0.007812345 -0.10959794 -0.040638644 -0.073456675 -0.08756367
-0.045770615 -0.0035140766 -0.04472841 -0.153461 0.035432227 -0.01734282 -0.014961423 -0.1268267
0.13240504 -0.1912921 0.09434395 0.046939556 -0.029099612 -0.08155081 -0.11793452 -0.009174722
-0.045752756 0.060800105 -0.14412865 0.09808603 -0.10796379 0.11658607 -0.0019140195 0.010049941
-0.09431464 0.02037125 -0.1571543 0.0465292 0.057012092 0.19976231 0.021302432 0.006533173
-0.042426243 0.06650924 -0.33039877 -0.055198465 -0.04277791 0.11607609 -0.07482961 -0.017722717
0.009825985 -0.041012295 0.30174926 -0.12941599 -0.008651806 -0.10051066 -0.3796792 0.10768254
0.1444494 0.034590483 -0.009992054 -0.07679786 -0.2302992 -0.02832998 0.1130666 -0.021665948
-0.2688474 0.033626653 -0.21009564 0.18059886 0.103215605 -0.015101299 -0.16400398 0.051262707
0.030622778 0.06731629 -0.004016671 -0.13834503 -0.12820986 -0.068787664 -0.03639984 0.08908215
-0.17662002 -0.079355486 -0.009151983 0.19161978 -0.08429964 -0.0054783067 0.107764944 0.28815722
0.083488286 -0.043424536 0.2049938 -0.05469867 -0.04249789 0.17486325 0.045563526 0.09642996
0.04208772 -0.026202014 -0.012054118 0.016514072 -0.16181202 0.15681143 -0.08257367 -0.06692634
-0.081289776 -0.069903426 -0.14193638 -0.030837452 -0.072127886 0.14327672 -0.09855939 -0.061363984
-0.096996576 -0.097310334 0.1373164 -0.042296953 0.14074978 -0.04458871 -0.14541058 0.054384492
0.1298573 -0.03748305 -0.030161712 0.089192025 0.018157342 0.059826087 -0.26215157 0.065554194
-0.09522135 -0.0064823213 0.009064457 0.09485998 0.1572223 0.0346164 -0.097378865 -0.027658705
0.18618321 -0.11853177 -0.11636901 -0.1310085 -0.0025546488 0.047570504 0.029393852 -0.01722198
-0.1413434 -0.20656483 0.037135426 -0.03826257 -0.019138042 -0.017820057 -0.12902343 0.056794565
0.07001589 -0.123023055 0.16281551 0.10116298 0.14853726 0.20060124 0.08147748 -0.008745052
-0.029033624 -0.031572573 -0.1987815 -0.03354109 -0.05573408 0.27491617 -0.06716533 -0.1326767
0.122842036 -0.094967194 -0.19752741 -0.104786776 0.03708193 0.16356234 0.023554776 -0.038479693
-0.09416555 0.086040735 0.11362279 -0.07441499 -0.032672834 0.124718145 0.09104886 -0.12820464
0.17125937 -0.15579477 -0.02065766 0.026710894 0.0870742 0.063183606 0.1811343 -0.02574484
-0.18942754 0.19512372 -0.10934202 -0.08560792 -0.21657819 -0.08742925 -0.2726463 -0.054053027
0.07462586 0.0875762 -0.06730738 0.05941809 -0.0064085326 -0.078285925 0.14914711 -0.08286855
0.059856627 -0.030280245 -0.05385158 0.10120188 0.09475901 0.0811775 0.011998428 0.13737822

linears.1.bias f4 [64]
00000000: a8a2 603e d860 283f 6c12 df3e ee89 ea3e
00000010: bd06 babd 73ec fa3e c9e4 17be 8621 283e
00000020: 8f3a babe bf13 103f 4008 c53d 1e75 3cbc
00000030: cd8d 323f a6f5 0a3f e0e3 493e 3353 863e
00000040: 79f6 bf3e dfbe eb3c 474d d6be f53c ea3e
00000050: a8da d93e 7900 013f 3386 e63e 3dc3 203e
00000060: 4656 3abe b85a c53c 8df1 f73e 5334 46be
00000070: 8a5d aa3e de0e 783d 19ee 3ebe 1e9e 533e
00000080: fa21 e23e 40aa 163f bf66 92bd 77cc 58be
00000090: ba2e 433b cc1e e63d 8821 0f3f f6f5 bf3d
000000a0: 6403 f93d 6684 df3e 41ab c1be cf10 e53d
000000b0: 9c69 c23e 0fe4 823e 7be0 03bf 2dfa 083f
000000c0: 7a42 e43e 30fe 1e3f d69e ba3d b53c ee3e
000000d0: d05a 7cbe 5f6a 7ebe 5fe6 78bc 0379 593e
000000e0: 1317 82be 8069 903e 2c80 98be aa2d c33e
000000f0: 7c58 223f 3c23 c83d 6122 e83e 7195 083f
0.21937048 0.6577277 0.43568742 0.45808357 -0.090833165 0.4900852 -0.14833368 0.16419038
-0.36372802 0.5628013 0.09620714 -0.011502532 0.6974762 0.5428108 0.19715834 0.2623535
0.3749273 0.028777538 -0.41855833 0.45749632 0.42549634 0.50391346 0.4502426 0.15699477
-0.18196973 0.02409111 0.48426476 -0.19355898 0.3327449 0.060561053 -0.18645515 0.20665786
0.44166547 0.5885353 -0.071485035 -0.21171747 0.002978249 0.11236343 0.5591054 0.09373085
0.1215885 0.436557 -0.3782597 0.111848466 0.379712 0.2556462 -0.51514405 0.5350674
0.44581968 0.6210661 0.09112327 0.4653069 -0.24644017 -0.24845265 -0.0151916435 0.21237569
-0.2540823 0.2820549 -0.29785287 0.38120776 0.63416266 0.097723454 0.4533873 0.5335303

linears.2.weight f4 [5, 64]
00000000: 7b51 a4bc 96f8 54be 2bc1 f1bd 1640 2dbe
00000010: e2f4 883d 548f 21be ef75 a9bd 37ce 1f3b
00000020: 3edb 55be 8f87 31bd 8a08 b53d 6575 00bd
00000030: 4959 3ebe 1dd0 e5bd 4aed fa3c d449 16be
00000040: 2261 83be 34a2 5d3d 6ba9 7dbe cea1 cdbd
00000050: ed0d 87be e603 0dbe f98f 10bd 01ff 06bd
00000060: 142f 4c3d 9d21 38bd 26f0 a0be f869 22be
00000070: 1a71 cebd d4c0 963c 7b7d f0bd b2d5 eebc
00000080: 6eb1 013c 823f 63bd b920 c0bd db2e 37be
00000090: c890 3dbe 427e 663e 2074 46be b095 183b
000000a0: 5fc6 6cbc dda3 4ebe 3654 ddbd 7a57 e03d
000000b0: 154e 37be 0575 c63d 0eb9 ae3d 8e9a 39be
000000c0: 5b65 1ebe ab97 05be 86d2 803d 29dc eebd
000000d0: 5b28 84be 1757 1e3d e098 273b bc29 543d
000000e0: d0a7 cdbd f3bf 0abe f387 323d fafc 993c
000000f0: cd5a 53be 9117 12bb ae82 20be ff05 bf3d
00000100: 2de6 ea3c 604a 5cbe 8329 31be cda3 13be
00000110: 1598 383d a55c 43be 565d c43c 240a 123c
00000120: 93ee 07bd 419e 11be 93e6 a93d 3688 0d3d
00000130: d0e4 50be 2858 203d 9e1b 1d3d b30e bfbe
00000140: 3864 5fbe d30a 78bd 013c f7bd 7090 e1bd
00000150: 5490 1cbe 7e02 54be 1b82 febd 05dd 97bc
00000160: 9d65 a53d 5732 b3bb 326e 3bbe 99e0 9d3c
00000170: 84c1 17be 5910 633c fcf6 c43c ed63 bebb
00000180: 03f7 713d 76fe 37be 3308 6f3d 11bf ebbd
00000190: a621 91be 11a4 bf3d 42b5 dbbd 40ce 93bd
000001a0: 1a36 f5bb 874d 99bd f1e9 85bd f262 0ebe
000001b0: 01e7 4ebe f1a1 883d f6cd 193e 707e 19be
000001c0: 5292 53be 4dc7 34be 73ba 49bd 15d0 1ebe
000001d0: 9ca5 7fbd 30b4 923d b475 2c3d 5067 c9bc
000001e0: ce41 a3bd e098 96bc 91f9 883d 8004 2fbd
000001f0: 43fd 1abe 1734 f93c 4f8d fbbd 9e0d b0bd
00000200: 8c16 aabc 2c8b 71be 6a5e 29bc 96e1 07be
00000210: d0d7 413d c2a7 5fbe b7d9 4abe 0fc2 8cbc
00000220: edbb 95be 9a9e 3bbd 22c8 0cbc acd0 753d
00000230: 1a6b 61be 51f9 433e cb1c 7b3c 0cad 563e
00000240: 5047 89be 80e4 293e ae00 a4be 4302 bfbc
00000250: 39ad 7dbe b491 e5bd 32b4 55bd cf09 1d3c
00000260: b750 efbd 1abd 33be 79ff c7be e733 4dbe
00000270: 7423 d0bc 7d9b 553d 5a50 a8bd 884b 74bd
00000280: 2c21 0bbd 329b 25be 454a 32be 4ee6 5bbd
00000290: 5717 a6be b593 4f3d e90a 77be 18b0 6f3e
000002a0: 9fe1 82bd 5f3d aebe 8274 fdbb 8aee c93d
000002b0: 8ab6 d2bd e2e5 ae3e a586 3cbb 5a0d abbb
000002c0: 490e 52be 5957 36be 5754 57be f9ad e9bd
000002d0: e498 80be 6b9d f8bc 5ac6 66be a134 153c
000002e0: eea8 c4bd 0508 85bd b12e dd3c e038 30bd
000002f0: 31eb 23be b837 84bd 9a20 4fbe 6ddc 833e
00000300: f9a4 b3bc 1dff e6bd eaf9 62be c6d9 93bd
00000310: 2d84 d6bb 0894 05be 9fca 93ba 1b2c cd3c
00000320: f8e4 5e3d 10ce 38be d308 85bd 418a 213d
00000330: e697 14be 0ebf 1f3a cc06 e6bc e28c 1bbe
00000340: d1f9 b0be 18e2 b0bc 24ed 7a3c 980d b4bd
00000350: e2c3 ccbd 7e4a 9bbe 98ef 9abd bc99 adbc
00000360: 3efd b73d a571 a4bd 31cf 92be 6584 053d
00000370: d6cb 3bbe d24b ffbd 7a98 9bbd eaf4 07bd
00000380: 676d 5e3c 42b8 59be 9e54 67bd ac7d 0a3e
00000390: 83d3 393d 5329 923e efae 65be 0e49 a7bd
000003a0: 1de4 043d fd40 a7be 4f84 ebbd aede 99bc
000003b0: 1b97 babd 65cf 143e 181e 7c3d d9a3 71be
000003c0: dd0f d7bb bfd5 49bd 554d 72bd 2713 adbd
000003d0: da7a 973c dfd0 133e 867b dabd efef dbbc
000003e0: c3d2 da3d 0663 66bd ffe6 a13d a125 893b
000003f0: 7c88 7ebe eb06 a3bd 4524 6dbd 57a0 873d
-0.020058384 -0.20797953 -0.11804422 -0.16918978 0.06687333 -0.15777332 -0.08274447 0.0024384388
-0.20884416 -0.04334217 0.08839519 -0.031361956 -0.18588747 -0.11221335 0.030630726 -0.146766
-0.25660044 0.054109767 -0.24771659 -0.100406274 -0.26377812 -0.13771018 -0.035293553 -0.032958034
0.049849585 -0.04495393 -0.3143322 -0.15860736 -0.10080166 0.018402494 -0.117426835 -0.029154632
0.007915838 -0.055480488 -0.09381241 -0.17888968 -0.18512261 0.22509101 -0.19380236 0.002328258
-0.014451592 -0.20179696 -0.108070776 0.10954185 -0.1790088 0.096902885 0.0853139 -0.18125364
-0.15468352 -0.13046138 0.06290154 -0.11663086 -0.2581204 0.038657274 0.0025573298 0.051797614
-0.10041773 -0.13549785 0.043586683 0.018797386 -0.20640106 -0.0022291879 -0.1567485 0.093273155
0.02867421 -0.21512747 -0.17300992 -0.14417954 0.04506691 -0.1907831 0.023970287 0.0089135505
-0.033186506 -0.14220525 0.08295932 0.03455373 -0.20399785 0.039146572 0.038356416 -0.37315902
-0.21815574 -0.060557198 -0.12071992 -0.110138774 -0.15289432 -0.20704076 -0.124271594 -0.018538008
0.08076022 -0.0054686475 -0.18303755 0.019272136 -0.14819914 0.013858878 0.024043553 -0.005810252
0.05907346 -0.17968163 0.05835743 -0.115110524 -0.28345984 0.09357465 -0.107279316 -0.072170734
-0.007483256 -0.0748549 -0.065387614 -0.13904932 -0.20205308 0.06671513 0.15019974 -0.14989638
-0.20661286 -0.17654152 -0.049250077 -0.15509064 -0.062413797 0.07163274 0.042104438 -0.024585396
-0.079715356 -0.018383443 0.06688226 -0.0427289 -0.15135674 0.030420346 -0.12282812 -0.08596347
-0.020762704 -0.23588246 -0.0103374515 -0.13269648 0.047324955 -0.21841338 -0.19809614 -0.017182378
-0.29244938 -0.04580555 -0.008592637 0.060013458 -0.22013512 0.19138075 0.015326689 0.2096445
-0.2681222 0.16591072 -0.3203177 -0.023316508 -0.2477311 -0.11209431 -0.0521738 0.009584858
-0.11685317 -0.17552605 -0.39062098 -0.2003933 -0.02540753 0.05215024 -0.08218451 -0.059642345
-0.033967182 -0.16172484 -0.17411144 -0.053686433 -0.32439682 0.050677974 -0.24125256 0.23407018
-0.0639069 -0.34031197 -0.007734836 0.09859951 -0.10288723 0.34159762 -0.0028766778 -0.0052200975
-0.20513262 -0.17806758 -0.21028267 -0.11410136 -0.25116646 -0.0303485 -0.22536603 0.009106786
-0.09602533 -0.0649567 0.026999803 -0.04302299 -0.16007687 -0.0645594 -0.2022728 0.2575411
-0.021929251 -0.11279128 -0.22165647 -0.07219271 -0.0065465183 -0.1304475 -0.0011275596 0.025045445
0.05441758 -0.18047357 -0.06495824 0.03943849 -0.1451107 0.0006093838 -0.028079413 -0.15190461
-0.34565595 -0.021592185 0.015315328 -0.08791655 -0.09998299 -0.3033027 -0.0756523 -0.02119147
0.08983849 -0.080294885 -0.286737 0.032596964 -0.18339476 -0.124656335 -0.07597442 -0.033192553
0.013575888 -0.21261695 -0.05647718 0.13524503 0.04536773 0.28547153 -0.22430013 -0.08168231
0.03244411 -0.3266677 -0.11499845 -0.01878294 -0.09110852 0.1453224 0.061552137 -0.23597659
-0.0065631703 -0.04927611 -0.05915578 -0.08450919 0.018491197 0.14435147 -0.106680915 -0.026847808
0.10684731 -0.05624678 0.07905387 0.004185394 -0.24856752 -0.07960304 -0.057895917 0.06622379

linears.2.bias f4 [5]
00000000: 2a6c d3be 6375 19bf 8235 10bf 9bb9 19bf
00000010: 5386 31bf
-0.4129346 -0.5994474 -0.56331646 -0.60048836 -0.6934559
