dqn-exp/savedir/student-test/checkpoint750--model.pth (torch_old, 20763 bytes, 6 tensors)

linears.0.weight f4 [64, 6]
0	0x3d1b4d03	0.03791524
1	0x3e25124c	0.16120261
2	0xbee0be2e	-0.43895096
3	0x3d82efa1	0.06393362
4	0xbe98e51b	-0.29862294
5	0x3d65a9a9	0.056070004
6	0x3ca990c8	0.02069892
7	0xbe30205d	-0.17199846
8	0x3bef0903	0.0072947755
9	0xbbfcd323	-0.007715599
10	0x3d39d239	0.0453665
11	0x3f091623	0.535494
12	0x3ecde9e8	0.4021752
13	0x3e8fd903	0.28095254
14	0xbd4cef68	-0.050033003
15	0xbd907533	-0.07053604
16	0xbda57b07	-0.08080106
17	0x3d40217f	0.046906944
18	0x3e877723	0.26458082
19	0xbe2d2a64	-0.16910702
20	0xbe7143b8	-0.23560989
21	0xbd425a1f	-0.047449227
22	0xbe010c75	-0.12602408
23	0x3cb393ec	0.02192112
24	0x3dd924d2	0.10602726
25	0x3dc50e24	0.09621838
26	0xbe521e95	-0.20519479
27	0xbe3395df	-0.1753764
28	0xbe5a1a3c	-0.2129907
29	0xbde9f63f	-0.11423921
30	0x3e44b727	0.19210492
31	0xbc6adbbc	-0.014334615
32	0xbe8623d9	-0.26199225
33	0x3eaa077f	0.33208844
34	0x3e6d66f8	0.2318381
35	0x3d22ad86	0.039716266
36	0xbce86e64	-0.02837295
37	0x3c0a7ead	0.008453053
38	0x3ed6d2e8	0.41957784
39	0xbd5ebe1c	-0.05438052
40	0x3e2e935a	0.17048398
41	0xbcdfd540	-0.027323365
42	0xbe8a5973	-0.2702137
43	0xbd450aff	-0.04810619
44	0x3e82b877	0.2553136
45	0x3d727b06	0.059199356
46	0x3d93f55b	0.07224532
47	0x3d84bf59	0.06481809
48	0xbda7031f	-0.08154892
49	0xbd6bdd41	-0.05758405
50	0xbd2d0cbe	-0.04224848
51	0x3e95781f	0.29193208
52	0x3eccf4cc	0.40030515
53	0x3e8d57f7	0.27606174
54	0xbe54c9fa	-0.20780173
55	0x3dd0e790	0.10200417
56	0xbd77d62a	-0.060506977
57	0xbe0a422a	-0.13501802
58	0xbced37cd	-0.028957272
59	0x3c5f3573	0.013623583
60	0xbe02877c	-0.12746996
61	0xbbb5e536	-0.0055510057
62	0xbdf63ec7	-0.120236926
63	0xbd0adad6	-0.033900104
64	0x3f043f11	0.5165873
65	0xbc55568a	-0.013021121
66	0xbde7388f	-0.112900846
67	0x3e5873bf	0.21137904
68	0x3eba1ad1	0.36348584
69	0xbd0a4b90	-0.03376347
70	0xbd9e80fe	-0.07739447
71	0xbc969d89	-0.018385665
72	0xbcd05992	-0.025433335
73	0xbd9bfc3a	-0.07616468
74	0x3d16ab64	0.036784545
75	0xbe12a5d4	-0.14321071
76	0x3d3b1673	0.045675706
77	0x3ed6adea	0.4192956
78	0x3c966812	0.018360171
79	0x3e216952	0.15762833
80	0x3be7006f	0.0070496122
81	0x3cc0f616	0.023554843
82	0x3d0ddb73	0.03463311
83	0xbf15ad98	-0.5846801
84	0x3e477a72	0.19480303
85	0x3e2dfc5e	0.16990802
86	0x3d95adc4	0.07308534
87	0xbd97503f	-0.073883526
88	0xbe913fab	-0.28368887
89	0xbebefc39	-0.37301806
90	0xbe2f666e	-0.17128918
91	0xbe2fe034	-0.1717537
92	0x3d32915a	0.04359565
93	0xbc8abbd4	-0.016935267
94	0x3e856ae8	0.26058125
95	0x3e720873	0.23636036
96	0x3e2c5b91	0.16831805
97	0xbc8a4ef6	-0.016883355
98	0xbe0c205c	-0.13684219
99	0x3c95aa1f	0.018269597
100	0xbefe3a5a	-0.49653894
101	0x3e08550d	0.13313694
102	0x3e20982a	0.15683046
103	0x3e187662	0.1488891
104	0xbdd5345a	-0.10410376
105	0x3c908a60	0.017644107
106	0xbf0671f4	-0.5251763
107	0xbe96b362	-0.29433733
108	0x3cf8209c	0.030288987
109	0x3d24a557	0.040196743
110	0x3cfc4e09	0.030798929
111	0x3d2d186c	0.04225962
112	0x3ee3e6e1	0.44512084
113	0xbe12f793	-0.14352255
114	0x3dad9895	0.08476368
115	0x3db8c13c	0.090212315
116	0x3ca2a997	0.019856257
117	0xbd7ee352	-0.06222851
118	0xbf1c4bef	-0.61053365
119	0xbe64237e	-0.22279164
120	0x3e1e7c31	0.15477063
121	0xbe8c7c1f	-0.27438447
122	0x3da260b5	0.07928602
123	0x3e1fe38c	0.15614146
124	0xbe4f28c9	-0.20230402
125	0x3ea6883e	0.3252582
126	0xbcef67d2	-0.02922431
127	0x3e8409a0	0.25788593
128	0x3c64fe4d	0.013976646
129	0x3da9c0c5	0.08288721
130	0x3d658c87	0.05604222
131	0xbeea641d	-0.45779505
132	0xbe0221de	-0.12708232
133	0xbdce4d60	-0.10073352
134	0xbdee34b5	-0.11631147
135	0xbe31b1ae	-0.17352936
136	0x3e1fbcec	0.15599412
137	0x3e5beaed	0.21476336
138	0xbaa53106	-0.0012603111
139	0xbd581306	-0.052752517
140	0x3dd2dfd6	0.102965996
141	0x3c8db260	0.01729697
142	0x3e3bb820	0.18331957
143	0x3ecef28c	0.40419424
144	0x3d7e7af5	0.06212898
145	0x3d6d01d0	0.057863057
146	0x3e11ae29	0.14226593
147	0x3e713a00	0.23557281
148	0x3d00bcc5	0.031430025
149	0x3df6e96d	0.12056241
150	0xbe1d0173	-0.15332584
151	0x3d1d9676	0.03847357
152	0xbd8b8aa1	-0.06813551
153	0xbdcde742	-0.100538746
154	0x3f041866	0.5159973
155	0xbe0951f7	-0.13410173
156	0xbd6510ea	-0.055924334
157	0xbd51eb89	-0.051250014
158	0xbe4092f6	-0.18806061
159	0x3c992c19	0.018697785
160	0x3ead7839	0.33880785
161	0x3dc2338b	0.09482487
162	0xbd1a8409	-0.037723575
163	0x3d9ed5e2	0.07755639
164	0xbe03a967	-0.1285759
165	0x3deadde0	0.114681005
166	0xbe36cb3f	-0.1785097
167	0xbddc6cd3	-0.10762944
168	0x3dc1145c	0.09427711
169	0xbc38c604	-0.011277679
170	0x3c8846d4	0.016635336
171	0x3c8bc94a	0.017063756
172	0xbf53adb8	-0.8268695
173	0x3db19bfc	0.0867233
174	0xbc9252cb	-0.017861744
175	0x3e465231	0.19367291
176	0x3eb98540	0.36234474
177	0xbdd2ced5	-0.10293356
178	0x3e8e2859	0.27765158
179	0xbec4bcb3	-0.38425216
180	0x3be42406	0.006962302
181	0xbdd64136	-0.10461657
182	0xbb8aac73	-0.0042319833
183	0xbb926713	-0.004467854
184	0x3c517da1	0.0127863
185	0x3f455780	0.7708664
186	0xbdbefa56	-0.093250915
187	0x3dc856da	0.097821906
188	0x3e0c99dd	0.13730569
189	0xbe49d09d	-0.19708486
190	0x3df46165	0.11932639
191	0xbea4c376	-0.32180375
192	0x3b1588fb	0.0022817242
193	0x3d5b7821	0.05358136
194	0xbc6bb1e1	-0.014385671
195	0xbd48f287	-0.049059417
196	0x3d0550fb	0.032547932
197	0xbdb12d22	-0.086511865
198	0xbe227d2c	-0.15868062
199	0x3d61f9c4	0.055169836
200	0xbd99c1fe	-0.07507704
201	0x3e3effb4	0.1865223
202	0x3e169123	0.14703803
203	0xbe322cfe	-0.17399976
204	0x3e27eb10	0.16398263
205	0x3dc60c10	0.096702695
206	0xbcb51c7e	-0.022108313
207	0xbdbdbb0e	-0.092641935
208	0xbe4bdbf6	-0.19908127
209	0xbe21bfed	-0.1579587
210	0xbd82db76	-0.06389515
211	0x3cb6ef0e	0.022330787
212	0x3d3cbdad	0.046079326
213	0xbb0751c1	-0.0020648094
214	0x3e22dbe5	0.15904196
215	0xbe6353dc	-0.22199959
216	0x3d165fee	0.03671258
217	0x3da13e4c	0.0787321
218	0xbd9d9fb1	-0.07696474
219	0xbc70ef69	-0.014705517
220	0x3ec8420e	0.39112896
221	0x3e0a6e55	0.13518651
222	0xbcbe4772	-0.023227427
223	0xbb175f81	-0.0023097696
224	0x3dcf18a7	0.10112124
225	0x3e648797	0.22317348
226	0x3e5a8631	0.21340252
227	0x3ddbf3be	0.107398495
228	0xbe3e8d31	-0.18608548
229	0x3dada19f	0.084780924
230	0xbe097351	-0.13422896
231	0xbda24f34	-0.07925263
232	0x3e919e98	0.2844131
233	0xbd445d10	-0.047940314
234	0xbe68b008	-0.227234
235	0xbee67d05	-0.45017257
236	0xbe293e30	-0.16527629
237	0x3d6acc70	0.057323873
238	0xbe5122bb	-0.20423405
239	0x3c284edb	0.010272707
240	0xbc8a3d8a	-0.016875047
241	0x3dbd024d	0.092289545
242	0xbc0f139b	-0.008732702
243	0x3b92e956	0.004483382
244	0xbcef9629	-0.029246407
245	0xbf445165	-0.766867
246	0x3e21f1da	0.15814915
247	0xbdf0b3cd	-0.11753044
248	0xbbf58fe9	-0.007493962
249	0xbde04a15	-0.1095163
250	0xbd23abfe	-0.039958946
251	0xbc5a18b7	-0.013311557
252	0x3d41c68c	0.04730849
253	0xbe533c7d	-0.20628543
254	0x3cfdf6d5	0.031001488
255	0xbd961271	-0.07327736

linears.0.bias f4 [64]
0	0xbe508df2	-0.20366648
1	0xbb9150d4	-0.0044346843
2	0xbed4c8e0	-0.41559505
3	0xbe868190	-0.26270723
4	0x3db91abd	0.09038303
5	0xbf331783	-0.6995775
6	0xbe47d01b	-0.1951298
7	0xbe99f4a7	-0.30069467
8	0x3ecbe490	0.39822817
9	0x3eedd26b	0.464496
10	0xbe78cf5a	-0.24297848
11	0xbec56bb7	-0.38558742
12	0xbf001aa7	-0.5004067
13	0xbe483036	-0.19549641
14	0x3ed2fccb	0.4120849
15	0xbf146898	-0.579721
16	0x3eb08840	0.3447895
17	0xbf17fa10	-0.5936594
18	0x3eff8565	0.4990646
19	0x3e04deba	0.12975588
20	0x3ee7deb8	0.45287108
21	0x3e8eb34e	0.27871174
22	0x3efa49c9	0.4888442
23	0x3e8868c7	0.2664244
24	0x3ed4a294	0.41530287
25	0x3e24bb50	0.16087079
26	0xbecaa0b7	-0.3957574
27	0xbd22cda7	-0.039746907
28	0x3cb8c27f	0.02255368
29	0xbed80bd9	-0.4219654
30	0xbdaf78c0	-0.08567953
31	0xbdfcbc67	-0.123406224
32	0xbdad3129	-0.08456642
33	0x3ed38cbf	0.41318318
34	0xbd7befe8	-0.06150809
35	0x3d810c9b	0.063012324
36	0xbc9dec1d	-0.019277627
37	0xbe9a4396	-0.3012969
38	0x3e7e0da0	0.24809885
39	0xbee02893	-0.43780956
40	0xbda73909	-0.081651755
41	0xbed066b7	-0.40703365
42	0x3ef1fc16	0.4726264
43	0xbf1a3150	-0.60231495
44	0xbe5f2348	-0.21790802
45	0xbebd1ef6	-0.36937684
46	0x3f0e8e42	0.5568582
47	0x3ed8a74e	0.42315143
48	0xbe9daa84	-0.30794156
49	0x3cbe9130	0.02326259
50	0xbe7ca7d9	-0.24673404
51	0x3e989480	0.29800797
52	0x3d07c539	0.03314707
53	0x3ec507b5	0.38482442
54	0x3eba593b	0.36396202
55	0xbeb5df12	-0.35521752
56	0xbec4ea6e	-0.38460106
57	0xbe036104	-0.12829977
58	0x3eb7dab0	0.35909033
59	0xbe8fc0b5	-0.2807671
60	0x3d946e07	0.072475486
61	0xbdf14ac7	-0.11781841
62	0x3ec50741	0.38482097
63	0xbed876b2	-0.42278057

linears.1.weight f4 [64, 64]
0	0xbd3c83fb	-0.046024304
1	0xbcaf488f	-0.021396903
2	0xbc1d6cf6	-0.009608498
3	0x3c7af23d	0.015316543
4	0xbdc2866e	-0.09498297
5	0x3e2cbb3c	0.16868299
6	0x3d0a8c40	0.03382516
7	0xbc5e1977	-0.013555876
8	0xbdb2dbd1	-0.08733333
9	0xbbed8bff	-0.007249355
10	0x3dc65de7	0.09685879
11	0xbd21a369	-0.03946248
12	0xbd37ce69	-0.044874582
13	0x3d8138c3	0.063096546
14	0xbddaa4bd	-0.106759526
15	0x3d6c1fd8	0.057647556
16	0x3de8e6fc	0.11372182
17	0xbcc709e2	-0.024296705
18	0xbdba1a3b	-0.09087034
19	0xbd32b3ad	-0.043628383
20	0x3d5b6115	0.05355938
21	0xbdcdf302	-0.10056116
22	0xbd7fca39	-0.062448714
23	0x3d5e0dd1	0.054212395
24	0x3de48716	0.11158578
25	0xbc267d3c	-0.010161694
26	0x3d5b4ac0	0.053538084
27	0x3d2ad04d	0.041702557
28	0xbd8d28a2	-0.06892516
29	0xbce8c886	-0.02841593
30	0xbda42e4c	-0.08016643
31	0xbda1e936	-0.079058096
32	0x3e355553	0.1770833
33	0xbcd2359c	-0.025660329
34	0x3dcf8c0f	0.10134136
35	0x3df2c8e7	0.11854725
36	0x3d829019	0.06375141
37	0xbd7d531e	-0.061846845
38	0xbd346753	-0.04404385
39	0x3c761dd8	0.015021764
40	0xbc3efc6c	-0.011656862
41	0xbd3004dc	-0.042973384
42	0xbd137d49	-0.036008153
43	0x3e0338a7	0.1281458
44	0xbe134be6	-0.14384422
45	0xbd037d1f	-0.032101747
46	0xbe1fd000	-0.1560669
47	0xbd16c992	-0.036813326
48	0x3d8c6126	0.06854467
49	0x3e833cdd	0.25632372
50	0x3d8b3e34	0.06798974
51	0xbd24c6d9	-0.0402287
52	0x3cc3b33c	0.023889177
53	0xbe08b2db	-0.13349478
54	0xbd1d4dd8	-0.038404316
55	0xbe1ed210	-0.1550982
56	0x3c74b1b7	0.014934949
57	0xbd115562	-0.035481818
58	0x3df68c2b	0.12038454
59	0x3e1020a0	0.14074945
60	0x3e3b3b99	0.18284453
61	0xbd6fe0cb	-0.05856399
62	0xbdded91b	-0.10881253
63	0x3da10edb	0.078641616
64	0xbd8dfae0	-0.06932616
65	0x3da3221c	0.0796549
66	0xbcf6efb6	-0.0301436
67	0xbc860c03	-0.01636315
68	0xbe226c18	-0.15861547
69	0x3e0764e0	0.13222075
70	0xbc1b0d3c	-0.009463605
71	0xbc3ea332	-0.0116355885
72	0xbdb85f45	-0.09002546
73	0x3d3791a7	0.04481664
74	0xbdf4636d	-0.119330265
75	0x3dcbc8f5	0.09950439
76	0x3d602e98	0.054731935
77	0x3e1d88d6	0.1538423
78	0x3d52d25e	0.051470153
79	0x3db12364	0.08649328
80	0xbc20e2e2	-0.009819718
81	0x3dd5ae0b	0.10433587
82	0xbe8c57af	-0.27410647
83	0xbcfc1ece	-0.030776408
84	0xbcbe99d9	-0.02326672
85	0x3e009486	0.12556657
86	0xbdb6dc1d	-0.08928702
87	0x3d125fd5	0.035735924
88	0x3d36bc57	0.04461321
89	0xbdaf0eac	-0.0854772
90	0x3e865fd6	0.26244992
91	0xbdec7fe0	-0.11547828
92	0x3b28b501	0.0025742652
93	0xbdb00d7c	-0.08596322
94	0xbe443a7b	-0.19162934
95	0x3e0afbde	0.13572642
96	0x3e3907f0	0.18069434
97	0x3c80dbe7	0.015729858
98	0xbb81a7d2	-0.0039567733
99	0xbdba23a4	-0.09088829
100	0xbdfa279e	-0.12214588
101	0x3d639fe7	0.055572417
102	0x3d47e67d	0.048803795
103	0xbc3f9d08	-0.011695154
104	0xbe2173e2	-0.15766862
105	0x3c57241e	0.01313117
106	0xbe323cd0	-0.1740601
107	0x3dbcb0db	0.0921342
108	0x3de3c8e6	0.11122303
109	0x3d4809a2	0.04883731
110	0xbdb9e470	-0.09076774
111	0x3d44a0a7	0.048004773
112	0x3c63ff99	0.01391592
113	0xbd78514c	-0.060624406
114	0xbca87db0	-0.020567745
115	0xbe46d3fc	-0.19416803
116	0xbe40556e	-0.18782589
117	0xbd86ba7a	-0.06578536
118	0xbccde2a0	-0.025132477
119	0x3dbac719	0.09120006
120	0xbe7d87c0	-0.24758816
121	0xbd5272de	-0.051379077
122	0xbbd239de	-0.0064155897
123	0x3e4ddbc5	0.20103367
124	0xbda54532	-0.080698386
125	0x3cd685cf	0.026186852
126	0x3e0e0b21	0.13871433
127	0x3e847531	0.2587066
128	0x3db75a63	0.08952787
129	0xbca931c3	-0.020653611
130	0x3dc9083c	0.09816024
131	0xbd42da88	-0.04757169
132	0xbddf54c6	-0.10904841
133	0x3e718257	0.23584877
134	0x3d2d3560	0.04228723
135	0x3ce97395	0.028497497
136	0x3ac221be	0.0014811081
137	0x3caf7150	0.021416336
138	0xbd6f54e6	-0.058430575
139	0xbbb0b770	-0.005392961
140	0xbde6cc7a	-0.112694696
141	0x3e1e7056	0.1547254
142	0xbe0bf9e9	-0.13669552
143	0xbd115296	-0.03547915
144	0xbd4ff43d	-0.050770033
145	0xbd9ee222	-0.07757975
146	0xbe2cad7f	-0.16863059
147	0xbdaccd9f	-0.084376566
148	0x3cf2a583	0.029619938
149	0x3e4be416	0.19911227
150	0xb9f875aa	-0.00047389913
151	0x3d12fb15	0.03588398
152	0xbe4858bc	-0.195651
153	0xbdd7282e	-0.105057105
154	0x3e0cf4e4	0.13765293
155	0xbdc3a5a1	-0.095530756
156	0xbcfff907	-0.031246675
157	0xbdce4376	-0.10071461
158	0xbda06811	-0.07832349
159	0x3d839daa	0.064265564
160	0x3e2b0783	0.16702084
161	0x3c3760de	0.0111925285
162	0xbce3c808	-0.027805343
163	0x3db02eb4	0.08602658
164	0xbcb7d150	-0.022438675
165	0x3e02f340	0.12788105
166	0xbe46bafd	-0.19407268
167	0x3e756350	0.23963666
168	0xbcf7d516	-0.030252974
169	0x3be112e1	0.0068687056
170	0xbcb13773	-0.021632886
171	0x3dfe8143	0.124269985
172	0x3e399a08	0.18125165
173	0x3dd8ce63	0.1058624
174	0xbda567d9	-0.08076448
175	0xbb363a1c	-0.0027805632
176	0x3e4cef2d	0.20013113
177	0xbcedf352	-0.029046688
178	0xbd3879d0	-0.045038044
179	0xbdaa7aa2	-0.083241716
180	0xbdebb92b	-0.11509927
181	0xbba381f3	-0.0049898564
182	0x3d0c2a23	0.034219872
183	0x3c56da68	0.013113596
184	0xbe57f6b1	-0.21090199
185	0xbdc31294	-0.09525028
186	0x3b450a45	0.0030065936
187	0x3a806d17	0.0009798136
188	0x3e0c9b8a	0.13731208
189	0xbd0e7d1b	-0.03478728
190	0xbd794a92	-0.06086213
191	0x3d8844da	0.066537574
192	0x3daa752d	0.08323131
193	0xbdc28c0e	-0.094993696
194	0x3e43fb9d	0.19138952
195	0x3c2de0ee	0.010612709
196	0x3de1353c	0.10996482
197	0x3e75015a	0.23926297
198	0x3d924f2c	0.07144007
199	0xbcf9fc03	-0.030515676
200	0xbd821bf2	-0.063529864
201	0xbb17234a	-0.0023061805
202	0xbe3815f9	-0.17977132
203	0x3ba9896c	0.0051738527
204	0xbcf887f9	-0.030338274
205	0x3e852561	0.2600508
206	0xbdcd845c	-0.10035011
207	0xbd209be3	-0.039211165
208	0x3e39d4d6	0.18147597
209	0xbd8e2436	-0.069405004
210	0xbe23ca46	-0.1599513
211	0xbde1a26e	-0.11017309
212	0x3dafc579	0.08582587
213	0x3e401a4d	0.18760033
214	0xbd80aaed	-0.062826015
215	0x3a2f286c	0.00066817435
216	0xbddaeb83	-0.106894515
217	0x3bff70ad	0.0077954144
218	0x3dcfbdb5	0.101436056
219	0xbd10984f	-0.035301503
220	0xbc19483b	-0.0093556
221	0x3e2e6355	0.1703008
222	0x3d6a1f2f	0.057158645
223	0xbd62fd72	-0.055417486
224	0x3e72f0ee	0.2372472
225	0xbe014544	-0.12624079
226	0xbd01818e	-0.031617694
227	0xbc000506	-0.007813698
228	0x3d464d36	0.048413478
229	0x3e3198f0	0.17343497
230	0x3df28d51	0.1184336
231	0xbd4194e6	-0.04726114
232	0xbdb45cc5	-0.08806757
233	0x3e4ef60f	0.20211051
234	0xbd93a2f9	-0.07208819
235	0xbdfc92be	-0.12332676
236	0xbe41438e	-0.18873426
237	0x3cfe2e0a	0.031027813
238	0xbe6ca9bc	-0.23111624
239	0xbd74343d	-0.05962013
240	0x3db494b2	0.08817424
241	0xbc85c393	-0.016328609
242	0xbd852b99	-0.06502456
243	0xbd3762b3	-0.04477186
244	0xbe2b6346	-0.16737089
245	0xbdd9e77d	-0.10639856
246	0x3dc228af	0.09480416
247	0xbdbf0fee	-0.0932921
248	0xbd0199c8	-0.031640798
249	0xbd8cfde4	-0.06884363
250	0xbd99f96e	-0.07518278
251	0x3e0bff6b	0.13671653
252	0x3d79622b	0.060884636
253	0x3c4806fb	0.0122086955
254	0x3dd33df7	0.10314553
255	0x3e0d4d98	0.13799131

linears.1.bias f4 [64]
0	0x3e7d7d00	0.24754715
1	0x3f016a56	0.5055288
2	0x3eb277ef	0.34857127
3	0x3eab347d	0.33438483
4	0xbd3f89ef	-0.046762403
5	0x3ec4dd38	0.38450027
6	0xbe10c835	-0.14138873
7	0x3e085d0f	0.13316749
8	0xbe82a35c	-0.25515258
9	0x3eead410	0.45864916
10	0x3d9774e4	0.07395342
11	0xbd1365ed	-0.035985876
12	0x3f08730a	0.53300536
13	0x3ebcad3a	0.3685091
14	0x3e943b32	0.28951412
15	0x3e7608d5	0.24026807
16	0x3e6daa89	0.23209585
17	0x3d01257a	0.03152988
18	0xbea2a0ee	-0.31763405
19	0x3ecd8fab	0.40148672
20	0x3e9eea18	0.31037974
21	0x3eb92327	0.36159632
22	0x3ec568b5	0.38556448
23	0x3e671256	0.22565588
24	0xbdd4b7d4	-0.10386625
25	0x3d0af0a1	0.033920888
26	0x3e999b2e	0.30001205
27	0xbe41c2cf	-0.1892197
28	0x3e61fec8	0.22069848
29	0x3ceca5b5	0.028887609
30	0xbe592048	-0.2120372
31	0x3e855867	0.26044008
32	0x3eba4974	0.36384165
33	0x3eed0463	0.4629241
34	0xbd92ea75	-0.071736254
35	0xbe3981e6	-0.18115959
36	0xbcdeaa86	-0.027180921
37	0x3df7d7b8	0.12101692
38	0x3ed4a74d	0.4153389
39	0x3d5e4b61	0.054271106
40	0x3d99c43d	0.075081326
41	0x3e84688c	0.25861013
42	0xbe6678c9	-0.22507013
43	0x3e013a8e	0.12619993
44	0x3e85418a	0.26026565
45	0x3e6b859d	0.23000188
46	0xbeb28d30	-0.34873343
47	0x3ed927f1	0.42413285
48	0x3e94b513	0.290444
49	0x3f0018c9	0.5003782
50	0x3d7d4c74	0.06184049
51	0x3ec19196	0.37806386
52	0xbe66138d	-0.22468396
53	0xbe2351c1	-0.15949155
54	0x3afa6334	0.0019103051
55	0x3e4f809f	0.20263909
56	0xbe701a86	-0.23447618
57	0x3e8e565b	0.2780026
58	0xbe323004	-0.17401129
59	0x3e8f5a06	0.2799837
60	0x3ef4f6d0	0.47844553
61	0x3d1d7e17	0.038450327
62	0x3eb88069	0.3603547
63	0x3ec5a903	0.38605508

linears.2.weight f4 [5, 64]
0	0xbde0d04b	-0.10977229
1	0xbe42778d	-0.18990918
2	0xbdddce0f	-0.10830318
3	0xbe2043ed	-0.15650912
4	0xbd336c8f	-0.0438047
5	0xbdfa3d54	-0.12218729
6	0xbda975ef	-0.08274447
7	0x3bde8544	0.006790789
8	0xbe55db3e	-0.20884416
9	0xbd328c2f	-0.04359072
10	0x3db5088a	0.08839519
11	0xbd007565	-0.031361956
12	0xbe21c39d	-0.15797277
13	0xbd954e2c	-0.07290301
14	0x3be15c33	0.006877446
15	0xbe1649d4	-0.146766
16	0xbe14a550	-0.14516187
17	0x3d5da234	0.054109767
18	0xbe7da96b	-0.24771659
19	0xbdf278b5	-0.11839429
20	0xbe78e584	-0.24306303
21	0xbd95eacc	-0.073201746
22	0xbd5c9f24	-0.053862706
23	0xbcb81d86	-0.022475015
24	0x3d4c2f14	0.049849585
25	0xbd38219d	-0.04495393
26	0xbe4c6618	-0.1996082
27	0xbe2269f8	-0.15860736
28	0xbdaaab97	-0.083335094
29	0x3c96c0d4	0.018402494
30	0xbdf07d7b	-0.117426835
31	0xbd4e5ae0	-0.050379634
32	0x3c01b16e	0.007915838
33	0xbd195d1b	-0.037442308
34	0xbdc020b9	-0.09381241
35	0xbe372edb	-0.17888968
36	0xbe3d90c8	-0.18512261
37	0x3e4e84fd	0.20167919
38	0xbe279b36	-0.16367802
39	0x3cfe4c65	0.031042287
40	0xbc6cc65f	-0.014451592
41	0xbdec2495	-0.11530415
42	0xbd994a7a	-0.074849084
43	0x3de0577a	0.10954185
44	0xbe2ca5c6	-0.16860113
45	0x3dc67505	0.096902885
46	0xbd481cc3	-0.048855554
47	0xbe2cd8bb	-0.16879551
48	0xbdbe0487	-0.09278207
49	0xbdefe34a	-0.11713274
50	0x3d80d286	0.06290154
51	0xbde5d7d6	-0.11222808
52	0xbe84285b	-0.2581204
53	0x3d1e5717	0.038657274
54	0x3b2798e0	0.0025573298
55	0x3d96715f	0.073458426
56	0xbdcda7d0	-0.10041773
57	0xbdd149b6	-0.10219137
58	0xbcfd9e44	-0.030959256
59	0x3c99fcfa	0.018797386
60	0xbe3514fa	-0.17683783
61	0xbb121791	-0.0022291879
62	0xbe15e84b	-0.14639394
63	0x3e4fe318	0.20301473
64	0xbcc3e654	-0.02391354
65	0xbe35593c	-0.17709821
66	0xbe24d655	-0.16097386
67	0xbdfcda40	-0.123463154
68	0xbc6c9310	-0.014439359
69	0xbe1d7ae2	-0.15378907
70	0x3cc45d56	0.023970287
71	0x3ccc9b3d	0.024976367
72	0xbd07ee93	-0.033186506
73	0xbe19ae08	-0.15007794
74	0x3da9e693	0.08295932
75	0x3d0d8836	0.03455373
76	0xbe238bbb	-0.15971272
77	0x3d8c32a0	0.068455935
78	0x3a495c8b	0.00076813315
79	0xbebf0eb3	-0.37315902
80	0xbdce40a5	-0.10070924
81	0xbd780ad3	-0.060557198
82	0xbdf73c01	-0.12071992
83	0xbe05bd1c	-0.13060421
84	0xbe048195	-0.12940057
85	0xbe1af0a2	-0.15130857
86	0xbe182251	-0.1485684
87	0xbd24ebed	-0.04026406
88	0x3da5659d	0.08076022
89	0xbbb33257	-0.0054686475
90	0xbda451fe	-0.08023451
91	0x3c9de099	0.019272136
92	0xbe28dcdd	-0.16490503
93	0x3c631059	0.013858878
94	0x37e95c55	2.781876e-05
95	0xbd6979e7	-0.05700102
96	0x3d71f703	0.05907346
97	0xbe279a56	-0.16367468
98	0x3ce9b03a	0.028526414
99	0xbdebbf11	-0.115110524
100	0xbe88073f	-0.26568028
101	0x3e211644	0.1573115
102	0xbd89924d	-0.06717358
103	0xbd96dd5a	-0.07366438
104	0xbbf5361a	-0.007483256
105	0x3cfd44a3	0.030916518
106	0x3cb969c4	0.02263344
107	0xbddbd113	-0.10733237
108	0xbe3d06f9	-0.18459691
109	0x3d88a1f1	0.06671513
110	0xbd93a0b4	-0.07208386
111	0xbdf937de	-0.12168859
112	0xbd99df7a	-0.07513328
113	0xbe143b2c	-0.14475697
114	0xbd49ba73	-0.049250077
115	0xbe17b5e0	-0.14815474
116	0xbd7fa59c	-0.062413797
117	0x3d92b430	0.07163274
118	0x3d2c75b4	0.042104438
119	0xbdad01a3	-0.08447578
120	0xbda341ce	-0.079715356
121	0xbcd8d331	-0.026467891
122	0x3b9b64c7	0.004742238
123	0xbd2f0480	-0.0427289
124	0xbdf31d39	-0.11870808
125	0x3cf93417	0.030420346
126	0xbde7d7fc	-0.113204926
127	0xbb97169d	-0.00461085
128	0xbd666622	-0.056249745
129	0xbe5ff46c	-0.21870583
130	0x3c20068c	0.009767186
131	0xbdf5e944	-0.120073825
132	0xbca145c3	-0.019686585
133	0xbe53b58f	-0.20674728
134	0xbe4ad9b7	-0.19809614
135	0xbd78046e	-0.0605511
136	0xbe95bbed	-0.29244938
137	0xbd64a17f	-0.055818077
138	0xbc0cc822	-0.008592637
139	0x3d75d0ac	0.060013458
140	0xbe504171	-0.20337464
141	0x3e44ae4f	0.19207118
142	0x3c231740	0.009954274
143	0x3e56ad0c	0.2096445
144	0xbe804a05	-0.25056472
145	0x3e29e480	0.16591072
146	0xbea400ae	-0.3203177
147	0x3b6a27d0	0.0035729297
148	0xbe6fe996	-0.2342895
149	0xbd6589ea	-0.05603973
150	0xbda72df0	-0.08163059
151	0x3c0b346c	0.008496385
152	0xbdef50b7	-0.11685317
153	0xbe33bd1a	-0.17552605
154	0xbea41457	-0.32046768
155	0xbe4d33e7	-0.2003933
156	0x3c63c06b	0.0139008565
157	0x3d559b7d	0.05215024
158	0xbda8505a	-0.08218451
159	0xbd3f3f6a	-0.046691336
160	0xbd0b212c	-0.033967182
161	0xbe2c438e	-0.16822645
162	0xbe324a45	-0.17411144
163	0xbdae11d5	-0.08499495
164	0xbeaeed98	-0.34165645
165	0x3d4f93b5	0.050677974
166	0xbe6a51e6	-0.22882804
167	0x3e838a30	0.25691366
168	0xbd82e19f	-0.0639069
169	0xbe7d7fd8	-0.247558
170	0xbba3954e	-0.0049921637
171	0x3e21519b	0.15753786
172	0xbda50ff1	-0.08059681
173	0x3eaee5e2	0.34159762
174	0xbe01219c	-0.12610477
175	0x3c4ff12a	0.012691775
176	0xbe1dc284	-0.15406233
177	0xbe30eecd	-0.17278595
178	0xbe575457	-0.21028267
179	0xbdf7e6e4	-0.12104586
180	0xbe8098e4	-0.25116646
181	0xbcf901b8	-0.030396327
182	0xbe66c65a	-0.22536603
183	0xbd41a3c6	-0.047275327
184	0xbdc4a8ee	-0.09602533
185	0x3982030a	0.00024797797
186	0xbc75b369	-0.014996388
187	0xbd3038e0	-0.04302299
188	0xbe0337e6	-0.12814292
189	0xbd8437b8	-0.0645594
190	0xbe4fd047	-0.20294295
191	0x3e7ade88	0.24498951
192	0xbe231ff8	-0.15930164
193	0xbd920ab3	-0.07130947
194	0xbe6f2c67	-0.23356782
195	0xbd34c5a7	-0.04413381
196	0xbcdbd5c5	-0.026835332
197	0xbdbb9cb7	-0.0916075
198	0xbd13b4fb	-0.03606127
199	0x3ccd2c1b	0.025045445
200	0x3d5ee4f8	0.05441758
201	0xbe4f1905	-0.20224388
202	0xbd8508d3	-0.06495824
203	0x3d218a41	0.03943849
204	0xbde513a2	-0.11185385
205	0xbda2b71a	-0.0794508
206	0xbde5ebf0	-0.11226642
207	0xbe1b8ce2	-0.15190461
208	0xbeaa94ba	-0.33316594
209	0xbcb0e218	-0.021592185
210	0x3c7aed24	0.015315328
211	0xbdcd6ecf	-0.10030901
212	0xbd67840d	-0.056522418
213	0xbe857dd4	-0.26072562
214	0xbde3ce06	-0.1112328
215	0xbd704232	-0.05865688
216	0x3db7fd3e	0.08983849
217	0xbda471a5	-0.080294885
218	0xbe35e069	-0.17761387
219	0x3d058465	0.032596964
220	0xbe2a383e	-0.16623017
221	0xbdff4bd2	-0.124656335
222	0xbd9b987a	-0.07597442
223	0xbda50375	-0.080573
224	0x3c5e6d67	0.013575888
225	0xbe616396	-0.22010645
226	0xbd67549e	-0.05647718
227	0x3e2ab2a8	0.16669714
228	0x3b702b06	0.0036646738
229	0x3e8b3eb4	0.27196276
230	0xbe4262fb	-0.1898307
231	0xbdca65e9	-0.09882719
232	0x3d04e41d	0.03244411
233	0xbe8fedf4	-0.2811123
234	0xbe81101d	-0.25207606
235	0x3d646644	0.05576159
236	0xbd908f05	-0.07058529
237	0x3e14cf65	0.1453224
238	0xbce6c54f	-0.028170256
239	0xbe65da89	-0.22446646
240	0x3d72a7f2	0.059242196
241	0xbc8c8bbf	-0.01715648
242	0xbd724d55	-0.05915578
243	0xbdae21b2	-0.085025206
244	0x3c977ada	0.018491197
245	0x3e13d0df	0.14435147
246	0xbdda7b86	-0.106680915
247	0xbdde4768	-0.108534634
248	0x3ddad2c3	0.10684731
249	0xbe2377f5	-0.15963729
250	0x3d618429	0.05505768
251	0x3b8925a1	0.004185394
252	0xbe5a4707	-0.21316157
253	0xbda306eb	-0.07960304
254	0xbd074ef8	-0.033034295
255	0x3dbc077a	0.091811135

linears.2.bias f4 [5]
0	0xbe81d574	-0.25358164
1	0xbeae309f	-0.3402147
2	0xbed8553d	-0.42252532
3	0xbedba082	-0.42895895
4	0xbeece9d4	-0.46272147
