dqn-exp/savedir/student-test/checkpoint150--model.pth (torch_old, 20763 bytes, 6 tensors)

linears.0.weight f4 [64, 6]
0.110346496 0.4393675 -0.4686035 0.19830419 -0.3448426 -0.055389278 0.061056297 -0.2974708
0.054916188 -0.067768015 -0.07079597 0.48729813 0.53994626 0.51483035 0.15056077 -0.06213411
-0.25525004 0.16257244 0.48129648 -0.3160668 -0.14426227 -0.10768658 -0.11453293 -0.014850678
0.011186123 0.29358402 -0.25409648 -0.052680865 -0.29043323 -0.34713748 0.61255705 -0.33975446
-0.20146926 0.20355757 0.09504216 -0.08169767 0.2556731 -0.13091007 0.3723789 -0.3232967
0.05903092 0.07476908 -0.29590797 0.08553161 0.2791648 -0.095169045 0.13498425 0.053508613
0.24284361 -0.12762809 -0.12385525 0.32943 0.45653677 0.34324783 -0.37580553 0.32836342
-0.15736783 -0.14783557 -0.04657094 0.03187105 -0.017068824 0.23524214 -0.3312197 -0.12809151
0.3642328 -0.06551838 -0.2763842 0.07582656 0.5299681 0.21992311 -0.17942111 -0.08445153
0.18871093 0.11285938 -0.002024322 -0.22483385 0.1003854 0.5603726 0.05892952 0.31284857
0.16229303 0.20899203 -0.21026403 -0.44315055 0.20028578 0.11243316 0.07731082 0.04476474
-0.2261393 -0.5801056 0.09819505 0.0077952123 0.083030276 -0.18257649 0.18719219 0.33086357
0.23642464 0.045604136 -0.27022195 0.13680875 -0.5982783 0.1437525 0.17611507 0.3583659
0.1309934 0.2815094 -0.5333381 -0.2838056 0.24842675 -0.1367005 0.07066814 0.054582708
0.41366827 -0.1409297 0.0743828 0.108340465 -0.14804961 0.129321 -0.43507537 -0.3956803
0.025287408 -0.31908447 0.23868726 0.1837854 -0.16849606 0.4254262 0.021522397 0.43307298
0.107402384 0.2371559 0.010342825 -0.51213336 -0.14631446 -0.051167157 -0.14513755 -0.23500344
0.0871981 0.20922828 -0.06044865 0.21745138 0.23091775 -0.108396985 0.15202498 0.40174016
0.10349207 0.15015316 0.18408225 0.35283217 0.04162147 0.09876923 -0.06174607 -0.058204286
-0.19470537 -0.18224561 0.4815095 -0.19792157 -0.15497218 -0.22181058 -0.3643714 -0.22066782
0.36262986 0.04227061 -0.28540578 0.058279987 -0.20275378 0.1028312 0.087443635 -0.27649245
0.024367785 -0.07524307 0.1357157 0.10292736 -0.5604072 0.52284336 -0.18612087 0.32121244
0.42748955 -0.028162908 0.1699632 -0.31359965 0.059264865 -0.106583014 -0.13539794 0.28931
-0.19735798 0.6187572 -0.3005987 -0.1992534 0.34988984 -0.39117044 0.16972324 -0.4148317
0.18564111 -0.12975606 0.017893558 -0.35031387 -0.047925465 -0.00076546584 -0.2860469 0.0823158
-0.17234978 0.27969334 0.07039547 -0.16300556 0.27702922 -0.07715651 0.19067208 -0.31301817
-0.53016514 -0.15089859 -0.30443573 -0.035860006 -0.01731418 -0.0480559 0.24969487 -0.33584848
0.27030432 0.31733707 -0.15172923 0.18954892 0.1965812 -0.14826062 0.18117769 0.21026193
0.20104471 0.39668855 0.20314752 0.14441751 -0.26270446 0.19256012 -0.24658807 -0.059161466
0.3296122 -0.13439567 -0.35859033 -0.5707564 -0.19821343 -0.0070927795 -0.35124147 -0.045662906
-0.021284718 0.13141142 -0.11391501 0.1703549 -0.18812335 -0.57041115 0.15814915 -0.11753044
-0.007493962 -0.1095163 -0.039958946 -0.013311557 -0.014873034 -0.28910056 0.21469942 -0.27796033
00000000: 58fd e13d c7f4 e03e ccec efbe 4110 4b3e
00000010: 368f b0be dedf 62bd 2b16 7a3d 184e 98be
00000020: ccef 603d f5c9 8abd 7afd 90bd 247f f93e
00000030: eb39 0a3f eccb 033f 9a2c 1a3e 5680 7ebd
00000040: 22b0 82be 6479 263e 7e6c f63e 82d3 a1be
00000050: 7db9 13be c88a dcbd 3e90 eabd 4250 73bc
00000060: 0046 373c a550 963e ef18 82be e4c7 57bd
00000070: aab3 94be 01bc b1be 8ad0 1c3f 4cf4 adbe
00000080: f54d 4ebe 6571 503e 77a5 c23d 1c51 a7bd
00000090: 96e7 823e 4a0d 06be 72a8 be3e 2587 a5be
000000a0: 68ca 713d 8820 993d 4081 97be 322b af3d
000000b0: b0ee 8e3e fde7 c2bd 5039 0a3e d92b 5b3d
000000c0: ffab 783e f0b0 02be d2a7 fdbd 0dab a83e
000000d0: 30bf e93e 2ebe af3e 9569 c0be 401f a83e
000000e0: 0825 21be 3562 17be 2cc1 3ebd 388b 023d
000000f0: ebd3 8bbc 51e3 703e a195 a9be 6c2a 03be
00000100: b97c ba3e 802e 86bd 3b82 8dbe f54a 9b3d
00000110: fdab 073f 8633 613e 2bba 37be ecf4 acbd
00000120: 703d 413e d222 e73d 7daa 04bb d83a 66be
00000130: dc96 cd3d 9474 0f3f 1560 713d b02d a03e
00000140: 2530 263e 0202 563e 744f 57be a1e4 e2be
00000150: b717 4d3e 5b43 e63d 2355 9e3d 3b5b 373d
00000160: 1091 67be cd81 14bf 7d1a c93d fb6e ff3b
00000170: c70b aa3d 55f5 3abe 4faf 3f3e f366 a93e
00000180: 4d19 723e 67cb 3a3d 885a 8abe 9817 0c3e
00000190: c428 19bf db33 133e 8257 343e bc7b b73e
000001a0: 2223 063e 0022 903e d988 08bf f84e 91be
000001b0: 9563 7e3e 37fb 0bbe 75ba 903d 1e92 5f3d
000001c0: 54cc d33e e04f 10be 0256 983d 9be1 dd3d
000001d0: 519a 17be b96c 043e 33c2 debe 9c96 cabe
000001e0: 8a27 cf3c 0a5f a3be 6f6a 743e 3d32 3c3e
000001f0: 3b8a 2cbe 76d1 d93e bd4f b03c bebb dd3e
00000200: c8f5 db3d ffd8 723e f474 293c 2c1b 03bf
00000210: 75d3 15be a794 51bd f09e 14be bea4 70be
00000220: eb94 b23d f03f 563e 0199 77bd 93ab 5e3e
00000230: b475 6c3e 3dff ddbd 70ac 1b3e e3b0 cd3e
00000240: a7f3 d33d c0c1 193e 0f80 3c3e 6ba6 b43e
00000250: 467b 2a3d 8647 ca3d 72e9 7cbd 9e67 6ebd
00000260: d860 47be 989e 3abe 6a88 f63e f4ab 4abe
00000270: 07b1 1ebe 5022 63be e38e babe bff6 61be
00000280: 9faa b93e f223 2d3d b520 92be ffb6 6e3d
00000290: b09e 4fbe 2a99 d23d a615 b33d 6b90 8dbe
000002a0: f39e c73c 0a19 9abd 0ef9 0a3e 94cb d23d
000002b0: d976 0fbf 10d9 053f 7896 3ebe f575 a43e
000002c0: e9df da3e e6b5 e6bc d50a 2e3e 2290 a0be
000002d0: b7bf 723d 3248 dabd c2a5 0abe 7120 943e
000002e0: 3618 4abe df66 1e3f 13e8 99be 1509 4cbe
000002f0: c324 b33e 7e47 c8be eecb 2d3e d264 d4be
00000300: b418 3e3e c6de 04be 8395 923c 575c b3be
00000310: 7e4d 44bd 8ba9 48ba bd74 92be 3095 a83d
00000320: 767c 30be f733 8f3e 802b 903d eeea 26be
00000330: c6d6 8d3e 3b04 9ebd 8b3f 433e eb43 a0be
00000340: e7b8 07bf 2985 1abe 00df 9bbe f1e1 12bd
00000350: 78d6 8dbc 43d6 44bd 03b0 7f3e 55f4 abbe
00000360: 5465 8a3e 017a a23e e85e 1bbe 1d19 423e
00000370: 954c 493e a2d1 17be a586 393e e74e 573e
00000380: aade 4d3e c31a cb3e e705 503e 2fe2 133e
00000390: 3381 86be 7b2e 453e 9581 7cbe 4b53 72bd
000003a0: eec2 a83e 059f 09be 2799 b7be 171d 12bf
000003b0: 76f8 4abe 8c6a e8bb ecd5 b3be 0709 3bbd
000003c0: 4a5d aebc b790 063e 464c e9bd 8471 2e3e
000003d0: 68a3 40be 7706 12bf daf1 213e cdb3 f0bd
000003e0: e98f f5bb 154a e0bd feab 23bd b718 5abc
000003f0: 07ae 73bc fd04 94be 2ada 5b3e d150 8ebe

linears.0.bias f4 [64]
-0.0618672 0.06078398 -0.17799516 -0.12240843 0.22731492 -0.46260482 -0.057070114 -0.12599187
0.26982912 0.45218906 -0.13504407 -0.22040562 -0.23630859 -0.066711456 0.33426055 -0.26989317
0.1780497 -0.33265105 0.43559045 0.17842278 0.4437706 0.25308147 0.47753534 0.27314955
0.4271277 0.06039238 -0.17553447 0.019296004 0.09521122 -0.33321145 0.049541462 0.17061973
0.2961342 0.412613 0.16885212 0.12592636 0.096121676 0.08640697 0.25231245 -0.40541446
-0.06545095 -0.40703365 0.43147278 -0.49646512 0.097187586 -0.23089053 0.54575664 0.3892705
0.08048116 0.120324254 0.061147753 0.27872163 0.05614419 0.35894042 0.36726868 -0.03331151
-0.0030903206 -0.08360002 0.26415184 -0.16809039 -0.052643277 0.0038303297 0.45378992 -0.22100481
00000000: 7668 7dbd 9ff8 783d 5d44 36be 45b1 fabd
00000010: 3ec5 683e 8ada ecbe 5ac2 69bd 0304 01be
00000020: 0b27 8a3e 5385 e73e fe48 0abe 03b2 61be
00000030: e1fa 71be 04a0 88bd 3324 ab3e 702f 8abe
00000040: a952 363e 3d51 aabe b605 df3e 76b4 363e
00000050: e635 e33e e593 813e 837f f43e 42da 8b3e
00000060: 7bb0 da3e 005e 773d 4fbf 33be a712 9e3c
00000070: 1afe c23d b19a aabe fdeb 4a3d f0b6 2e3e
00000080: e79e 973e 0342 d33e 92e7 2c3e d7f2 003e
00000090: 71db c43d 23f6 b03d 192f 813e 7c92 cfbe
000000a0: 260b 86bd b766 d0be 00ea dc3e ad30 febe
000000b0: 490a c73d 916e 6cbe b5b6 0b3f 774e c73e
000000c0: 4ed3 a43d 906c f63d 1176 7a3d 9ab4 8e3e
000000d0: 73f7 653d 0ac7 b73e a40a bc3e a671 08bd
000000e0: fa86 4abb 7d36 abbd e93e 873e e31f 2cbe
000000f0: 7aa0 57bd 4506 7b3b 2757 e83e 164f 62be

linears.1.weight f4 [64, 64]
-0.094549716 -0.012284445 -0.08388342 -0.04655611 -0.16207981 0.21087019 0.08288752 0.0131633775
-0.15115578 -0.06775815 0.024333935 -0.12487063 -0.069725655 0.028594164 -0.15969864 0.11152956
0.095004186 0.06879064 -0.11323135 -0.038716257 0.0062624286 -0.12014022 -0.12637936 0.098284155
0.03436536 -0.06262069 0.0027820233 -0.0317107 -0.15755516 -0.1107023 -0.10156879 -0.005996441
0.17762083 -0.09813394 0.03017196 0.039165623 -0.014886754 -0.042989522 -0.11251935 2.2462991e-05
-0.04517141 -0.04375621 -0.07961219 0.20671101 0.019409267 0.028895766 -0.1639812 -0.11984446
0.061151568 0.11624063 0.12446689 -0.11793157 -0.019399125 -0.1497598 -0.116568096 -0.10576378
0.0033922011 0.009861904 0.08699792 0.16457501 0.030985352 -0.087565646 -0.07876989 0.08633997
-0.12321199 0.075777486 -0.10339189 -0.08184546 -0.1714587 0.1068415 -0.06946988 -0.0063739433
-0.040990423 0.028509201 -0.033788938 0.049183723 0.06488884 0.07417637 0.06047254 0.08612173
-0.01730487 0.14501715 -0.20467022 0.023839626 0.015937576 0.099554665 -0.08000468 0.062268384
0.115399435 -0.015588349 0.1970353 -0.13193418 -0.06642378 -0.100691326 -0.21090038 0.15070128
0.1645844 0.03319987 -0.04464712 -0.11198487 -0.14968073 0.030716244 0.07714991 -0.006776891
-0.21310388 -0.028882137 -0.14707504 0.15831718 0.15153575 0.044723123 -0.0100914445 0.051947158
-0.0260161 -0.05910073 0.04581433 -0.112613484 -0.17616257 -0.018228997 0.010373039 0.1173035
-0.21244909 -0.041022144 0.021073153 0.16016452 -0.08313982 0.018864341 0.18734874 0.21443641
0.055758197 0.0068473886 0.05196312 -0.1711296 -0.11569216 0.23321447 0.032874588 -0.006864859
0.0019052757 -0.007602401 -0.06975785 0.07213967 -0.11637179 0.11242067 -0.03698509 -0.01144907
-0.049712677 -0.008251637 -0.15447663 -0.06599324 0.0875662 0.19255084 -0.05290183 0.06575511
-0.13686466 -0.119365096 0.09845309 -0.1337382 -0.157867 -0.1510525 -0.124635525 0.11346
0.16992694 0.037720297 -0.0763907 0.03489097 -0.07165162 0.14310038 -0.10943707 0.20730862
-0.078851014 -0.0071042404 -0.05286085 0.16400042 0.22754055 0.15823527 -0.039672367 -0.009767655
0.1812523 -0.07991922 0.034888804 -0.08667336 -0.122703716 0.01689104 0.034360714 0.10923753
-0.2052724 -0.12438229 0.0562892 0.0027146935 -0.019491518 -0.043378856 0.043373402 0.054790657
0.029153407 -0.0621255 0.09705315 -0.06318377 0.052238386 0.23545712 0.04491149 -0.065281
-0.076043755 -0.04054175 -0.14739127 -0.020078633 -0.049542725 0.20782603 -0.13632613 -0.013680278
0.16483183 0.007050484 -0.14332409 -0.018441278 0.041652963 0.15523075 -0.08776603 0.04914866
-0.13591711 -0.04177438 0.040374894 -0.089038715 -0.07620741 0.09417561 0.025817182 -0.06957546
0.21031883 -0.15604828 -0.12528124 -0.084644884 -0.010305139 0.16034646 0.061137263 0.009381135
-0.113826856 0.18642679 -0.091210194 -0.039059382 -0.07263132 0.07678374 -0.21004656 -0.04901747
0.06294191 -0.092092134 0.007023079 -0.078516714 -0.18782084 -0.12004435 0.029678551 -0.027911928
-0.018461823 -0.017984932 -0.083182216 0.11933961 0.0064514265 -0.012846203 0.058832232 0.111629896
00000000: 48a3 c1bd b244 49bc 12cb abbd 9fb1 3ebd
00000010: 40f8 25be 5bee 573e efc0 a93d 35ab 573c
00000020: 95c8 1abe c9c4 8abd f657 c73c 2cbc ffbd
00000030: 53cc 8ebd 4f3e ea3c 0a88 23be 9c69 e43d
00000040: 8e91 c23d 1be2 8c3d d7e5 e7bd f094 1ebd
00000050: 0f35 cd3b 130c f6bd 9769 01be 3449 c93d
00000060: b1c2 0c3d 473f 80bd 9b52 363b 14e3 01bd
00000070: 2456 21be e3b7 e2bd 4c03 d0bd cb7d c4bb
00000080: 3ce2 353e 72fa c8bd 302b f73c 226c 203d
00000090: 92e7 73bc c815 30bd 8c70 e6bd e86e bc37
000000a0: a805 39bd b639 33bd b70b a3bd 0dac 533e
000000b0: 2f00 9f3c d0b6 ec3c b0ea 27be 0371 f5bd
000000c0: 117a 7a3d 910f ee3d 7fe8 fe3d 1b86 f1bd
000000d0: eaea 9ebc a25a 19be 41bb eebd ae9a d8bd
000000e0: b14f 5e3b d393 213c f72b b23d 5a86 283e
000000f0: fed4 fd3c 9e55 b3bd 1c52 a1bd 03d3 b03d
00000100: 9156 fcbd 3a31 9b3d 21bf d3bd 989e a7bd
00000110: df92 2fbe b7cf da3d 3946 8ebd 83dc d0bb
00000120: 93e5 27bd 218c e93c 4566 0abd df74 493d
00000130: 71e4 843d c8e9 973d 0eb2 773d 9760 b03d
00000140: f1c2 8dbc 607f 143e 1295 51be 524b c33c
00000150: 858f 823c 51e3 cb3d 7ed9 a3bd 220d 7f3d
00000160: 8a56 ec3d 4666 7fbc 9fc3 493e c119 07be
00000170: 3109 88bd 4137 cebd 45f6 57be 7051 1a3e
00000180: d088 283e 96fc 073d e6df 36bd 5358 e5bd
00000190: e845 19be a2a0 fb3c c600 9e3d af10 debb
000001a0: e737 5abe 3b9a ecbc d79a 16be e61d 223e
000001b0: 302c 1b3e 982f 373d 9656 25bc 8bc6 543d
000001c0: b71f d5bc 9b13 72bd cfa7 3b3d e6a1 e6bd
000001d0: f663 34be fa54 95bc aef3 293c d13c f03d
000001e0: 418c 59be d606 28bd 9ba1 ac3c 2b02 243e
000001f0: 3645 aabd 6489 9a3c 59d8 3f3e 3895 5b3e
00000200: b562 643d 0f60 e03b 48d7 543d 993c 2fbe
00000210: 03f0 ecbd c6cf 6e3e 81a7 063d 9cf2 e0bb
00000220: 72ba f93a 901d f9bb 34dd 8ebd f7bd 933d
00000230: 5554 eebd cf3c e63d ad7d 17bd e194 3bbc
00000240: 859f 4bbd e031 07bc 1f2f 1ebe 7727 87bd
00000250: e855 b33d 0c2c 453e 97af 58bd 9daa 863d
00000260: 4026 0cbe b075 f4bd c6a1 c93d abf2 08be
00000270: e3a7 21be 82ad 1abe e940 ffbd b75d e83d
00000280: 5401 2e3e 9980 1a3d ba72 9cbd d5e9 0e3d
00000290: 16be 92bd e888 123e 8b20 e0bd b648 543e
000002a0: a47c a1bd b0ca e8bb 9e84 58bd baef 273e
000002b0: 6400 693e 6d08 223e 7e7f 22bd 8408 20bc
000002c0: 349a 393e b0ac a3bd 90e7 0e3d cd81 b1bd
000002d0: 164c fbbd 145f 8a3c d2bd 0c3d edb7 df3d
000002e0: ee32 52be 24bc febd 818f 663d 00e9 313b
000002f0: adac 9fbc 07ae 31bd 4fa8 313d 2b6c 603d
00000300: 20d3 ee3c 4f77 7ebd cdc3 c63d 7e66 81bd
00000310: ebf7 553d ac1b 713e 1cf5 373d 0cb2 85bd
00000320: d4bc 9bbd 1b0f 26bd bded 16be f27b a4bc
00000330: 50ed 4abd 59d0 543e 1499 0bbe 3f23 60bc
00000340: adc9 283e bf07 e73b 8dc3 12be 2a12 97bc
00000350: 4c9c 2a3d cff4 1e3e adbe b3bd 1b50 493d
00000360: db2d 0bbe 9d1b 2bbd 2560 253d ee59 b6bd
00000370: a112 9cbd 24df c03d 8e7e d33c 947d 8ebd
00000380: d25d 573e 1fcb 1fbe ba49 00be 4c5a adbd
00000390: e3d6 28bc dd31 243e 116b 7a3d 55b3 193c
000003a0: 0e1e e9bd aae6 3e3e 69cc babd bbfc 1fbd
000003b0: bbbf 94bd cb40 9d3d 7216 57be 8bc6 48bd
000003c0: b0e7 803d cd9a bcbd db21 e63b 5fcd a0bd
000003d0: 1b54 40be d0d9 f5bd 6f20 f33c 8ea7 e4bc
000003e0: 403d 97bc 2355 93bc 705b aabd 5368 f43d
000003f0: 7d66 d33b e178 52bc 11fa 703d 379e e43d

linears.1.bias f4 [64]
0.114133455 0.31995466 0.1830648 0.055429906 -0.109322146 0.23800954 -0.14111757 0.08895972
-0.17639254 0.13657485 0.060020965 0.01233893 0.35477957 0.196602 0.19017242 0.1459576
0.08358514 -0.0051453053 -0.22067751 0.288176 0.14798321 0.20080227 0.06917062 0.15572979
-0.04884465 -0.0011381613 0.1069618 -0.16374071 0.058968384 0.022277882 -0.24960949 0.18083197
0.24837466 0.26950592 -0.10327484 -0.1940086 -0.019638995 0.014468878 0.23029272 0.058188837
0.053713158 0.11078842 -0.17107207 0.15559416 0.12642075 0.13148691 -0.21988955 0.26992515
0.12658277 0.31443635 0.11540141 0.10334527 -0.15688945 -0.11734158 0.0061038844 0.15536967
-0.115849 0.19945547 -0.18249679 0.1682472 0.19190452 -0.045033704 0.21452035 0.23808679
00000000: cdbe e93d 19d1 a33e 5775 3b3e 780a 633d
00000010: 4ae4 dfbd c6b8 733e 2081 10be 8430 b63d
00000020: 3fa0 34be 47da 0b3e 8bd8 753d 3929 4a3c
00000030: aba5 b53e 0952 493e 8fbc 423e e975 153e
00000040: b02e ab3d f399 a8bb 49f9 61be ce8b 933e
00000050: e988 173e 1c9f 4d3e 53a9 8d3d a177 1f3e
00000060: 5411 48bd 5b2e 95ba ca0e db3d a5ab 27be
00000070: d588 713d 1b80 b63c a199 7fbe 042c 393e
00000080: ed55 7e3e aefc 893e c281 d3bd 31aa 46be
00000090: f5e1 a0bc df0e 6d3c dbd1 6b3e 6b57 6e3d
000000a0: 5402 5c3d 0ae5 e23d 842d 2fbe 1354 1f3e
000000b0: 7174 013e 81a4 063e ba2a 61be a133 8a3e
000000c0: ea9e 013e cdfd a03e 9357 ec3d afa6 d33d
000000d0: a1a7 20be c850 f0bd 1803 c83b 3a19 1f3e
000000e0: 3e42 edbd 0e3e 4c3e 70e0 3abe fe48 2c3e
000000f0: 9e82 443e 4375 38bd 39ab 5b3e 06cd 733e

linears.2.weight f4 [5, 64]
-0.15927915 -0.1830771 -0.10488318 -0.14648491 -0.10180605 -0.12144661 -0.054000337 -0.07650883
0.002127381 -0.056787327 0.06198585 -0.031361956 -0.1501703 -0.07290301 -0.056959003 0.003551271
-0.07171451 0.054109767 -0.2766922 -0.124089345 -0.22689188 -0.055819646 -0.06201802 -0.0906147
0.07172318 -0.018559875 -0.15607136 -0.09110766 -0.078955464 0.012563226 -0.09373139 -0.073267736
0.007915838 -0.03510592 -0.043716446 -0.18015431 -0.21570684 0.20201395 -0.15053223 0.23206893
-0.070918724 0.15376033 -0.053420544 0.10954185 -0.16920835 0.09756384 -0.07069102 -0.16644448
0.105303004 -0.11808545 0.06290154 -0.10726393 -0.14444752 0.01372848 0.0025573298 0.029886747
-0.169605 -0.14365546 -0.058897015 0.018797386 -0.16265564 0.052909005 -0.14237027 0.20319675
-0.054025456 -0.16485697 -0.16027206 -0.116314866 -0.05502964 -0.15005645 0.022803182 -0.017125662
0.04216592 -0.16650487 0.060419932 0.03455373 -0.14644477 0.1312188 -0.051818702 -0.26350522
-0.062195104 -0.060557198 -0.12360143 -0.139118 -0.10725625 -0.13110581 -0.164645 -0.071643524
0.05348809 0.009989611 -0.043535292 -0.010653932 -0.17039323 0.014977077 0.017819077 -0.08006874
0.05907346 -0.1732869 0.030114554 -0.11608406 -0.23753378 0.15681294 -0.05256387 -0.03579336
-0.071027845 0.26939017 -0.036265098 -0.10733237 -0.18016735 0.0659908 -0.10858167 -0.11445731
0.03614161 -0.13961138 -0.049250077 -0.14788257 -0.091952436 -0.008794551 0.042104438 -0.14928575
-0.10747001 -0.04724001 0.010002766 -0.0427289 -0.09970175 0.049937848 -0.10364651 -0.0040424573
-0.095679924 -0.21329261 0.022934716 -0.116289854 -0.05856455 -0.22134471 -0.07795364 -0.1654626
0.005955606 -0.061456263 -0.064127356 0.060013458 -0.19821507 0.19207118 -0.021164602 0.36144495
-0.2727203 0.16591072 -0.35656974 0.008502039 -0.22439064 -0.049387995 -0.09216985 0.036500067
-0.010835193 -0.022436587 -0.31999165 -0.066584066 0.024319682 0.023170916 -0.11030338 -0.076412044
-0.033967182 -0.17602445 -0.07915111 -0.08460439 -0.39739984 0.050677974 -0.22373791 0.23053381
-0.1446312 0.18992299 -0.048197135 0.15753786 -0.0761335 0.34159762 -0.15071453 0.024451287
-0.059080772 -0.17980379 -0.21028267 -0.12085379 -0.106506124 -0.1364458 -0.22536603 -0.10159236
-0.1596192 -0.009258096 0.031822633 -0.04302299 -0.11984617 0.13369086 -0.20466082 0.24498951
-0.19664565 -0.056605842 -0.23709929 -0.030089445 -0.072108135 -0.07482913 -0.015091881 -0.05254187
-0.039838634 -0.21922578 -0.0803718 0.03943849 -0.09679202 -0.0794508 -0.1715933 -0.083384015
-0.20597604 -0.021592185 0.015315328 -0.09459299 -0.023719309 -0.23985535 -0.1195299 -0.08263101
0.050789263 0.161367 -0.09924933 0.063423015 -0.16446356 -0.12163925 -0.033164557 -0.08601345
0.013575888 -0.21864904 -0.034603428 0.16669714 0.0036646738 0.27200997 -0.17258026 -0.020847306
-0.035492703 -0.15685388 -0.2917176 0.05576159 -0.06468076 0.14531116 -0.043500077 -0.21552697
0.22482689 -0.0028557165 -0.05915578 -0.082006104 0.06340211 0.19041514 -0.106680915 -0.17018938
0.10413593 -0.18502167 -0.037873868 0.004185394 -0.19813713 0.028007712 -0.012760845 0.09161879
00000000: 131a 23be 9078 3bbe fecc d6bd 2400 16be
00000010: b17f d0bd 00b9 f8bd 752f 5dbd a9b0 9cbd
00000020: 886b 0b3b d499 68bd e0e4 7d3d 6575 00bd
00000030: 3ec6 19be 2c4e 95bd d84d 69bd 71bc 683b
00000040: 0fdf 92bd 34a2 5d3d 9aaa 8dbe 8e22 febd
00000050: 5856 68be 24a3 64bd 9b06 7ebd 3394 b9bd
00000060: 9ae3 923d e10a 98bc 2cd1 1fbe a796 babd
00000070: 67b3 a1bd fdd5 4d3c 3ef6 bfbd 650d 96bd
00000080: 6eb1 013c 3acb 0fbd 0410 33bd 5f7a 38be
00000090: 41e2 5cbe bfdc 4e3e 1f25 1abe 7aa3 6d3e
000000a0: d63d 91bd 5973 1d3e 80cf 5abd 7a57 e03d
000000b0: f444 2dbe 8dcf c73d 74c6 90bd 6c70 2abe
000000c0: 1aa9 d73d c9d6 f1bd 86d2 803d 31ad dbbd
000000d0: 0dea 13be 6bed 603c e098 273b 0dd5 f43c
000000e0: efac 2dbe 6b1a 13be ff3d 71bd fafc 993c
000000f0: 338f 26be 1db7 583d 83c9 11be cf12 503e
00000100: cc49 5dbd 44d0 28be 5c1e 24be 7d36 eebd
00000110: c366 61bd 66a8 19be bdcd ba3c 1e4b 8cbc
00000120: 2cb6 2c3d 4180 2abe e47a 773d 3688 0d3d
00000130: 9ef5 15be 395e 063e d93f 54bd 28ea 86be
00000140: 4bc0 7ebd d30a 78bd bf22 fdbd f374 0ebe
00000150: 2aa9 dbbd 9a40 06be b398 28be d7b9 92bd
00000160: 5416 5b3d 77ab 233c 1052 32bd d48d 2ebc
00000170: 907b 2ebe 6a62 753c 50f9 913c 14fb a3bd
00000180: 03f7 713d 1f72 31be ccb2 f63c 7bbd edbd
00000190: 0e3c 73be 9293 203e 364d 57bd 0f9c 12bd
000001a0: 0c77 91bd 82ed 893e b68a 14bd 13d1 dbbd
000001b0: ca7d 38be 2f26 873d 1160 debd 9868 eabd
000001c0: 3a09 143d 49f6 0ebe 73ba 49bd 876e 17be
000001d0: 8f51 bcbd 0517 10bc b475 2c3d 5dde 18be
000001e0: 3d19 dcbd be7e 41bd a4e2 233c 8004 2fbd
000001f0: 6e30 ccbd a18b 4c3d 9f44 d4bd 9776 84bb
00000200: d6f3 c3bd 6169 5abe 96e1 bb3c 6029 eebd
00000210: 62e1 6fbd 30a8 62be 28a6 9fbd 076f 29be
00000220: 3e27 c33b 90b9 7bbd 3455 83bd acd0 753d
00000230: e4f8 4abe 4fae 443e 6361 adbc 500f b93e
00000240: ffa1 8bbe 80e4 293e 4f90 b6be 234c 0b3c
00000250: a9c6 65be 114b 4abd 8cc3 bcbd 1881 153d
00000260: 1886 31bc efcc b7bc f2d5 a3be 3a5d 88bd
00000270: 123a c73c efd0 bd3c bde6 e1bd eb7d 9cbd
00000280: 2c21 0bbd c13f 34be fa19 a2bd 1145 adbd
00000290: fe77 cbbe b593 4f3d 8d1b 65be 0e11 6c3e
000002a0: 341a 14be 2c7b 423e 5c6a 45bd 9b51 213e
000002b0: e1eb 9bbd e2e5 ae3e e954 1abe 114e c83c
000002c0: aefe 71bd 7c1e 38be 5754 57be 3182 f7bd
000002d0: e21f dabd 73b8 0bbe 5ac6 66be a80f d0bd
000002e0: 3773 23be 45af 17bc 7358 023d e038 30bd
000002f0: e971 f5bd 42e6 083e 9b92 51be 88de 7a3e
00000300: 7a5d 49be 87db 67bd 28ca 72be 247e f6bc
00000310: 6ead 93bd 0440 99bd f043 77bc 2536 57bd
00000320: d62d 23bd b97c 60be f899 a4bd 418a 213d
00000330: e53a c6bd 1ab7 a2bd 27b6 2fbe 3dc5 aabd
00000340: 62eb 52be 18e2 b0bc 24ed 7a3c f8b9 c1bd
00000350: ff4e c2bc a49c 75be 18cc f4bd 723a a9bd
00000360: 6708 503d 643d 253e 3c43 cbbd ede3 813d
00000370: 2369 28be 001e f9bd 8fd7 07bd d227 b0bd
00000380: 676d 5e3c 89e5 5fbe 53bc 0dbd a8b2 2a3e
00000390: 062b 703b e444 8b3e e1b8 30be f8c7 aabc
000003a0: cc60 11bd 4e9e 20be 025c 95be 4466 643d
000003b0: 5977 84bd 73cc 143e 232d 32bd 1ab3 5cbe
000003c0: 0539 663e f926 3bbb 554d 72bd d1f2 a7bd
000003d0: f7d8 813d 30fc 423e 867b dabd 2046 2ebe
000003e0: 3845 d53d 5276 3dbe a121 1bbd a125 893b
000003f0: 76e4 4abe 6e70 e53c dd12 51bc a2a2 bb3d

linears.2.bias f4 [5]
-0.050475094 -0.09648635 -0.2948348 -0.24002215 -0.22419499
00000000: f9be 4ebd a39a c5bd 96f4 96be 5ec8 75be
00000010: 5f93 65be
