dqn-exp/savedir/student-test/checkpoint450--model.pth (torch_old, 20763 bytes, 6 tensors)

linears.0.weight f4 [64, 6]
00000000: 2fbf de3c 6eb7 813e 92ad 05bf 73d9 e33d
00000010: 2957 bdbe c9b7 963d 1499 353c 9cad 37be
00000020: 9190 503d 4320 29bc da37 d1bb 1896 043f
00000030: 11df 033f 1e73 b93e c3fe cc3d 5ea1 2d3d
00000040: f418 e3bd 2b21 4f3d 479c bf3e c04a 57be
00000050: b75e 58be 0efb b1bc 4e0c 22be cd61 523d
00000060: 89f3 973d 9740 3e3e 2663 54be dfd3 0dbe
00000070: 248a 88be bc84 89be 91c4 dc3e 4815 81be
00000080: 0383 ffbd c9f4 a43e 6d4e 513e 9c6e cdbd
00000090: 8c33 fe3d bee0 17bc a888 033f b23b c8bd
000000a0: ed25 623e 075b 91bd d066 9bbe 7457 643d
000000b0: bcc9 8b3e f78e 713d 5f5b d53d d992 da3c
000000c0: 368f aabc 1a23 26bd 2294 00be f308 be3e
000000d0: 6e06 ea3e 2121 943e e727 91be 6f8c 173e
000000e0: b18c 09be 22b6 13be d98c 5dbc d5ec d03c
000000f0: 7207 9cbd b626 9b3d 188f 83be 45e1 0dbe
00000100: a050 ca3e 1684 af3a 51c6 2cbe 7038 833e
00000110: 0816 043f 64bb d63d 7bbb d3bd e403 9bbd
00000120: dd22 4d3d 1688 f5bd 7d9a d03d e44e 10be
00000130: 4b15 cd3d 07e4 f03e 1442 bf3d 726b 163e
00000140: 2a49 0e3c 6e67 8c3d 6066 54bd c95d fdbe
00000150: e1d0 643e 8ddd 2f3e 311f c13d c624 aabd
00000160: 3f0b 9cbe 855c d1be 9de9 19be 34fd ebbd
00000170: bdde 293c c630 06bd 6243 a13e 0424 583e
00000180: ad4c 0e3e cb8e b53c 3dcf 65be 1fd5 b03d
00000190: 0729 1fbf e516 023e 5dfe 643e 48a0 893e
000001a0: 4a04 b8bc 0f7d 513e a468 0ebf 23ab 65be
000001b0: 180d 143e f597 1abd 1619 993d b5e3 843d
000001c0: dc13 e23e 2cad 38be a408 5e3d 0754 833d
000001d0: 70fc dd3a a411 1dbd f4f5 06bf 7645 c2be
000001e0: 1e1b 1f3e cfbd 96be ec84 e53d a2b5 083e
000001f0: 7e40 7abe 8769 b83e 1de1 d23c 822d a23e
00000200: f0e2 0a3c b675 e33d a4be 683d 23c9 f7be
00000210: aebb 1dbe 406d d4bd 640d 3ebe 205a 50be
00000220: 7343 203e 8710 533e 468b 3b3d 0a10 0abc
00000230: e24a 493e 924a 26bd 3a38 f23d 0550 ce3e
00000240: a400 cf3d afcb a13d 328f 323e e573 903e
00000250: 8297 233d c99d dd3d 77c1 ebbd 5fae a4bc
00000260: 3530 12be 812c 10be e48b 063f 6ac4 58be
00000270: 26e4 01be 413d 37bd 5e72 55be 33f6 dabc
00000280: 780c bd3e ff45 c0bc 83e5 83be d0ae 0c3e
00000290: 29d5 19be a399 1e3d e06e 72bd b580 23be
000002a0: 630d c83d dfdd 94bd bc60 3e3d c38e 123b
000002b0: c98b 37bf 97df a33e 441f 813c 7516 443e
000002c0: 5e42 e93e 6aba 30bd b5c7 743e aaaa ccbe
000002d0: 5f53 023c 948b a4bd f62f 1dbd 7b2a 863d
000002e0: 1cd3 abbd 7fb9 373f c22d 30be e690 acbc
000002f0: aa9e 993e f187 9abe 9d4e 0b3e 061b e8be
00000300: 099e b13d e154 19bd c965 55bc 3665 b9bd
00000310: fb4a a4ba 262c 35be 3bc1 46be fd01 253d
00000320: 7ef2 0cbe e647 6e3e 7c40 e93d be82 28be
00000330: 70fc 833e 2fd3 c5bc b559 9f3d c315 49be
00000340: 8015 e6be 127b 4abe a5a4 36be d927 efbc
00000350: 956c 27bb a60c 5cbd 411b 5e3e 40b2 78be
00000360: 24b3 583e d74c 8b3e 04a1 f3bd 47a0 6d3d
00000370: 98c3 4a3e 0afa 84bd 1c89 173d b7b5 85bd
00000380: fc99 083e a9f6 853e 7527 563e 9341 ac3d
00000390: aaec 54be aa86 343e 770d 42be b262 68bd
000003a0: c834 9c3e f00f 63bd 36c8 b5be 2665 07bf
000003b0: ec44 44be f7ab 09bd 7d0b 9bbe b811 7abd
000003c0: e0ba 39bd 6840 523d 61ea b0bc 4ffc 063d
000003d0: b84c c1bd 610c 2abf daf1 213e cdb3 f0bd
000003e0: e98f f5bb 154a e0bd feab 23bd b718 5abc
000003f0: 606a 933d fe6d 82be 655d 0f3e 3781 1dbe
0.027190773 0.25335258 -0.5221797 0.111254595 -0.3698056 0.07359273 0.01108386 -0.1793732
0.05091912 -0.010322633 -0.006384832 0.51791525 0.5151225 0.3622064 0.100095294 0.04239022
-0.11088744 0.05056874 0.37423918 -0.21024609 -0.21129881 -0.021726158 -0.15825006 0.0513628
0.074194975 0.18579327 -0.20740947 -0.13850354 -0.26667893 -0.2685908 0.43118718 -0.2521155
-0.124761604 0.32218006 0.20440073 -0.10030863 0.124121755 -0.009269891 0.51380396 -0.09777011
0.2208478 -0.0709744 -0.30351877 0.055747464 0.2730235 0.058974233 0.10417818 0.02668135
-0.020820241 -0.04056082 -0.12556508 0.37116203 0.4570803 0.28931525 -0.28350756 0.14799665
-0.13432576 -0.14424947 -0.01352235 0.025503555 -0.076186076 0.07575743 -0.2569511 -0.13855465
0.39514637 0.0013390805 -0.16872527 0.25628996 0.51596117 0.10484961 -0.103384934 -0.075691015
0.050082076 -0.11988847 0.10185716 -0.14092594 0.10013827 0.4704897 0.09338775 0.14689425
0.008684436 0.06855665 -0.051855445 -0.49485615 0.22345306 0.17174359 0.094297774 -0.08307795
-0.3047733 -0.408909 -0.15030523 -0.11522904 0.010368046 -0.032761358 0.31496722 0.21107489
0.13896437 0.022162816 -0.22442336 0.086343996 -0.6217198 0.12704046 0.22362657 0.26880097
-0.022462983 0.20457862 -0.5562842 -0.22428565 0.1445812 -0.037742574 0.07475488 0.06488744
0.44155777 -0.1803481 0.05420746 0.06412511 0.0016936194 -0.0383469 -0.52719045 -0.3794362
0.15537688 -0.29441687 0.112069935 0.13350537 -0.24438664 0.3601801 0.025742108 0.31675345
0.008476958 0.11106436 0.056822434 -0.48395643 -0.15403625 -0.103724 -0.18559796 -0.2034688
0.1565073 0.20611773 0.04578712 -0.008426676 0.19657472 -0.04059846 0.118271306 0.40295425
0.10107544 0.07900178 0.17437437 0.2821342 0.03993941 0.10821111 -0.1151151 -0.020102678
-0.14276202 -0.14079477 0.52557206 -0.21168676 -0.12684688 -0.04473615 -0.20844409 -0.026728725
0.36923575 -0.023470877 -0.2576104 0.1373856 -0.1502272 0.03872074 -0.05918777 -0.15967067
0.09768178 -0.07268881 0.04647897 0.0022362925 -0.7169767 0.32006523 0.015761979 0.19149192
0.45558447 -0.04314653 0.23904307 -0.39973956 0.0079544475 -0.08034435 -0.038375817 0.06551071
-0.08389875 0.7176742 -0.17204955 -0.021065187 0.30003864 -0.3018184 0.13604207 -0.45333117
0.08672721 -0.037434462 -0.013024756 -0.090525076 -0.0012534553 -0.17692623 -0.19409649 0.0402851
-0.13764378 0.23269615 0.113892525 -0.16456124 0.25778532 -0.024148552 0.07780782 -0.19637208
-0.44938278 -0.1977351 -0.17836244 -0.029193806 -0.0025546898 -0.053723 0.21690084 -0.24286747
0.21162087 0.27207062 -0.11895946 0.05801418 0.19801176 -0.06493004 0.036995992 -0.065288
0.1333999 0.2616475 0.20913489 0.08410945 -0.20793405 0.17629495 -0.18950449 -0.05673475
0.3050902 -0.05543512 -0.3550431 -0.52888715 -0.19166917 -0.033611264 -0.30282202 -0.061052054
-0.045344234 0.051330954 -0.021596136 0.032955464 -0.09438461 -0.6642514 0.15814915 -0.11753044
-0.007493962 -0.1095163 -0.039958946 -0.013311557 0.07198024 -0.25474542 0.14000471 -0.15381323

linears.0.bias f4 [64]
00000000: ec4f e4bd 8568 22bc d975 a2be 392a 41be
00000010: ff50 593e ae46 13bf f5aa c8bd 0b30 53be
00000020: bea7 ac3e 9570 f03e bb83 50be 736a 8ebe
00000030: 1178 abbe 345c 2abe 4ce1 ca3e 5bc6 f7be
00000040: 28b0 903e cf49 f1be f9be e73e 8eb1 223e
00000050: ed87 e73e dcc7 963e 5f41 f33e 6f5d 783e
00000060: 4072 d63e 5766 ce3d 04e6 a0be e419 96bc
00000070: 04be 8d3d 2f50 b5be 16f9 f9bc a7ca 883d
00000080: 4c16 dd3d 0cdf d53e f1d9 ed3d 8245 0f3e
00000090: b935 ce3c 168d 19be 1031 973e 8272 babe
000000a0: 15b4 8fbd b766 d0be ec05 dd3e 616a 0abf
000000b0: bacc 6dbd 668d 98be bc83 073f e6f8 d13e
000000c0: 77a3 f8bd 7bf5 b93d 2429 29be 06ab 9c3e
000000d0: 0687 543b 258b af3e b5f8 c03e fbc8 5fbe
000000e0: de02 80be 2f3a 32bd 1076 9d3e 27c5 8abe
000000f0: 7f3c bb3d efb5 85bc 9c7c d03e 4586 b9be
-0.111480564 -0.009912615 -0.31730536 -0.18863763 0.21222304 -0.57529724 -0.097982325 -0.20623796
0.33721727 0.46960893 -0.20362751 -0.2781559 -0.3349004 -0.16636735 0.39625013 -0.4839352
0.28259397 -0.47126624 0.45262888 0.15888044 0.4522089 0.29449356 0.47510812 0.24254392
0.4188404 0.100781135 -0.31425488 -0.018322892 0.06921008 -0.35412738 -0.030514281 0.06679278
0.107952684 0.41771734 0.11613835 0.13991359 0.025172101 -0.14995226 0.2952962 -0.36415488
-0.0701677 -0.40703365 0.4316858 -0.5406857 -0.05805657 -0.29795378 0.52935386 0.41010207
-0.121405534 0.09080025 -0.165196 0.3059923 0.0032429113 0.34285846 0.37689748 -0.21854012
-0.25002187 -0.04351252 0.30754137 -0.2710354 0.09142398 -0.016322104 0.4072007 -0.36235252

linears.1.weight f4 [64, 64]
00000000: 41e8 83bd b17a 0bbd 1326 72bb deaf bdbb
00000010: 2de1 1dbe c02c 413e 6170 023e 80ee 943d
00000020: a700 f8bd 5df3 31bd b742 ce3d bf92 ccbd
00000030: 2680 61bd e8a5 633d 7f49 25be d245 ad3d
00000040: c416 d43d 1224 dd3c 1ac9 debd febe 80bd
00000050: 98a0 753d 2faf bdbd 6acd eebd 4135 b23d
00000060: a1e8 8a3d 5cb4 24bd f09a 463d db1c 8d3b
00000070: 1a0d debd bc2a 9abd df79 9cbd af8f 0cbd
00000080: bec0 3d3e 080b 9cbd 3520 e33d 385f ae3d
00000090: 6fb7 a73c 5a24 26bd b5e6 a9bd 37da cabc
000000a0: e495 32bd 5d52 23bd a63c 6dbd 9715 1c3e
000000b0: 2e83 cfbd e535 7ebb 3133 26be b9ce a8bd
000000c0: 09d6 973d 73a9 313e b5c2 4a3d d7a1 adbd
000000d0: 4544 f9bb 3b06 22be a7be 7abd 0fd9 17be
000000e0: de07 0f3b b9bf 023d 4994 f03d b994 1c3e
000000f0: 9dbd 023e 8dde 5fbd f3de a2bd 6b05 b43d
00000100: 4933 cdbd 233b 9e3d 505a 81bd bd99 66bd
00000110: 8512 39be 5f89 eb3d 6248 b5bc c1ea ad3c
00000120: ba89 80bd 1b65 3b3d a388 d0bd 8ac2 823d
00000130: 9dab 353d 845b e93d 7770 8e3d f6ad b23d
00000140: c903 98bc 0716 0c3e 85d9 6fbe 3c3e 5dbc
00000150: 7ffb 8bbc 6105 f43d 9a75 adbd ef02 5b3d
00000160: 554a 8d3d 9b65 08bd 78f8 643e ee01 0bbe
00000170: 4284 84bd 3ab4 93bd 8a88 52be 27a5 153e
00000180: 23b1 2c3e 7361 ee3c ce5e b8bc e1f8 d7bd
00000190: 8f77 14be 7c50 2c3d 13b1 9f3d c32c 7dbc
000001a0: 9518 45be 2a95 39bc e20a 20be 7b15 e13d
000001b0: 4565 083e f029 433d 4fe0 52bd 52b7 6e3d
000001c0: 5ce8 0abc dd59 35bd 3950 0f3c 9ae3 30be
000001d0: f82b 3fbe 1a21 24bd abc9 c6bb 1d42 af3d
000001e0: 7e40 6dbe 3159 64bd 523d cd3c 219c 383e
000001f0: 31c5 94bd 4a19 d23c 3b51 1f3e 984b 6f3e
00000200: 01d7 a93d 5224 92bc cf87 023e a470 05be
00000210: e5ae 02be 7ef8 6f3e 17be 333d e0c1 963c
00000220: e31c 093c 09b0 403b bcf9 5ebd 538e 8b3d
00000230: 876c d1bd de4d 0a3e 5c64 e3bd c09c c4bc
00000240: fe13 66bd 9331 17bd 1b0e 23be cb0c c9bd
00000250: 8ab3 413d 1948 4e3e da53 41bd ec29 5c3d
00000260: ecc6 47be 56bb d7bd 8dda f43d 44fa f4bd
00000270: 9b8c 08be 989c 18be a87e e0bd 9e43 b73d
00000280: 8881 2c3e 50e1 c83c b397 3fbd 5685 513d
00000290: 7077 4abd 340c 0c3e eecd 12be bbe2 583e
000002a0: 1b9a 8bbd 74a3 beba fa77 33bd 06ad f73d
000002b0: 1795 473e 0a59 033e 211c 8dbd 0f5c efba
000002c0: 1936 443e 6b58 80bd d8d0 8fbc a0a4 92bd
000002d0: 08f2 02be c43e 91b9 69e6 8b3d 855e 813d
000002e0: bbc6 56be 7b09 0dbe 9280 763d c79c 933b
000002f0: 9e00 d23c be33 eebc e80e d4bc da6c 743d
00000300: 3721 533d bec0 b2bd 90a3 1c3e b13a 1ebd
00000310: 35ff 893d 9169 703e 9397 b33d da6a 6cbc
00000320: 81ac 8ebd e597 6bbc e68c 18be 06fd b73b
00000330: 49c9 1cbd 9bc6 713e 498d e3bd 088e c8bc
00000340: 7178 2f3e 5d0e b6bc 511b 1abe 9dfd 5fbd
00000350: 2e0d be3d fa0b 3d3e ad25 b3bd 44f6 023d
00000360: 4527 e7bd 73f3 15bd 3c83 9c3d dfbf 83bd
00000370: 524b 2ebd 3f3e 023e de5f eb3c 7050 01bd
00000380: 3e4a 6c3e 7d87 12be dc4c 97bd 86bd 40bd
00000390: f50b 063c d22d 323e 2f20 b33d 3047 cdbc
000003a0: 18f8 e5bd 1a9c 433e b96d a7bd a9fa dcbd
000003b0: ead1 29be a252 343d 9dbf 5dbe 7bfd 4ebd
000003c0: 3280 a03d 594e 69bd cb82 0fbd 64fb 88bd
000003d0: aa6d 41be bc2b e8bd b574 a63d e642 86bd
000003e0: 64c2 e1bc 7d52 43bd c66a 8abd 8b95 043e
000003f0: e64a 8b3d f805 16ba 8697 0a3e b3c7 013e
-0.06440783 -0.034052555 -0.0036948964 -0.0057887873 -0.15417929 0.18864727 0.12738182 0.07272053
-0.121094994 -0.04344498 0.100713186 -0.09988927 -0.055053852 0.055578142 -0.16141318 0.08460583
0.10355905 0.026994739 -0.10878201 -0.06286429 0.059967607 -0.09261929 -0.116602734 0.087015636
0.06782652 -0.040211067 0.048487604 0.0043064184 -0.10842343 -0.07527682 -0.076404326 -0.034316715
0.18530557 -0.076192915 0.110901274 0.08514255 0.02047321 -0.04056201 -0.08295957 -0.024762256
-0.043599978 -0.03987347 -0.057919167 0.15242611 -0.101324424 -0.0038789448 -0.16230465 -0.08242554
0.07413871 0.17349796 0.049502093 -0.08478134 -0.0076070153 -0.15822689 -0.061216976 -0.14828895
0.0021824758 0.031921122 0.11747033 0.15291108 0.12767644 -0.0546556 -0.079526804 0.08790096
-0.100195475 0.07726123 -0.06316054 -0.05629896 -0.18073471 0.11500811 -0.022129241 0.021230103
-0.06276269 0.04575072 -0.101823114 0.06384762 0.044353116 0.11394408 0.06955045 0.08724587
-0.018556492 0.13680278 -0.23422821 -0.013503607 -0.017087696 0.119150884 -0.08469696 0.053469595
0.06898943 -0.033300024 0.22360408 -0.13574955 -0.06470539 -0.0721211 -0.20559898 0.14613782
0.16864447 0.029099202 -0.022506144 -0.10545517 -0.14498733 0.042068943 0.07797446 -0.015452567
-0.19247659 -0.011327067 -0.15629151 0.10990425 0.13319881 0.047647417 -0.05148345 0.058280297
-0.00847825 -0.044275153 0.008747154 -0.17274323 -0.18669116 -0.04007063 -0.006066521 0.08557532
-0.23169133 -0.055749122 0.025053654 0.18028308 -0.07264174 0.025646824 0.1555833 0.2336868
0.08292962 -0.017839584 0.1274712 -0.1303125 -0.1276203 0.23434636 0.043882456 0.018402994
0.008368704 0.00294018 -0.054437384 0.068142556 -0.10225778 0.13506266 -0.111031264 -0.024000525
-0.05617141 -0.036912512 -0.1592335 -0.09816893 0.047290362 0.2014469 -0.047199108 0.053750917
-0.19509476 -0.10533778 0.11955748 -0.11961797 -0.13334887 -0.14903486 -0.10961658 0.08948444
0.16846287 0.0245215 -0.04677553 0.05115255 -0.04943031 0.1367653 -0.14336368 0.21180241
-0.06816503 -0.0014544562 -0.04381559 0.120935485 0.19490467 0.12826934 -0.06890131 -0.0018261689
0.19161262 -0.062668644 -0.01755564 -0.07160306 -0.1278764 -0.0002770332 0.068310566 0.06316856
-0.20974247 -0.13773148 0.060181208 0.0045047733 0.02563506 -0.029077407 -0.025886014 0.05967412
0.051545348 -0.08728169 0.15296769 -0.03863019 0.0673813 0.2347777 0.08769145 -0.014429772
-0.06966496 -0.014379476 -0.14897498 0.0056148795 -0.038277898 0.23610918 -0.111109324 -0.024481788
0.17135789 -0.022223646 -0.15049483 -0.054685224 0.092798576 0.184616 -0.087474205 0.03197314
-0.11286787 -0.036609124 0.076422185 -0.06433081 -0.0425523 0.12719058 0.028732236 -0.03157085
0.23075196 -0.14309497 -0.07387707 -0.047055744 0.008181562 0.17400292 0.08746373 -0.025058359
-0.11228961 0.19102517 -0.08175225 -0.10789997 -0.16583982 0.044024117 -0.21655126 -0.050534707
0.07836951 -0.056959484 -0.035036843 -0.06688574 -0.1888949 -0.11336467 0.08127729 -0.065557286
-0.027558513 -0.04768609 -0.06758647 0.12947671 0.06801395 -0.00057229353 0.13534364 0.12673835

linears.1.bias f4 [64]
00000000: fdec 223e 5437 dc3e 8d4e 983e 5d54 623e
00000010: 57e4 aabd 9e31 a23e 2db5 0bbe 5a8f 013e
00000020: 7afb 63be 08c4 be3e 3700 6f3d 8b7f a6bc
00000030: 455d e83e a376 933e 52c1 923e 6234 4b3e
00000040: 6fc8 2a3e b3b5 203d bdf0 8abe 6c2a bb3e
00000050: fca0 763e 8e7d 943e ac6d 933e 3097 593e
00000060: 84ce 7abd 7df5 193d 725a 5b3e aca7 4abe
00000070: dd31 ab3d f969 2d3d 1138 88be a264 6f3e
00000080: 7db9 a03e 7408 c83e 4b63 b0bd c27d 50be
00000090: 9a74 4ebd 6242 983d e61d b03e 0e98 613d
000000a0: 656d 0d3d cad5 3a3e 4317 3ebe d015 e33d
000000b0: 1e1e 593e fece 423e edd7 91be e574 bd3e
000000c0: 2236 633e 71e2 dd3e 2604 b63d c8e1 9c3e
000000d0: 88f9 58be f51f fabd c27c d93c fc72 403e
000000e0: fef9 38be 3373 883e 9c70 39be e5ff 643e
000000f0: 0735 ca3e 4475 2eb9 301e 9b3e 4c39 a23e
0.15910716 0.43010962 0.2974743 0.22102495 -0.083443336 0.3167848 -0.13643332 0.1265234
-0.222639 0.37258935 0.058349814 -0.02032449 0.4538366 0.2880145 0.28663117 0.19844201
0.16678022 0.039235782 -0.27136794 0.36555803 0.24084848 0.2900204 0.2879461 0.2124908
-0.061232105 0.03758763 0.21421221 -0.19790524 0.0835912 0.04233739 -0.26605275 0.23378232
0.31391516 0.3906895 -0.08612689 -0.20360473 -0.05040417 0.074345365 0.3439781 0.05507665
0.034528155 0.18245617 -0.18563561 0.11088145 0.21202895 0.19024274 -0.2848505 0.37003246
0.22188619 0.43336824 0.0888751 0.30641007 -0.21188939 -0.122131266 0.026548747 0.18793863
-0.18064114 0.2665039 -0.18109363 0.22363241 0.39493582 -0.00016637618 0.3029647 0.3168434

linears.2.weight f4 [5, 64]
00000000: 7c6c 07be a8eb 39be 005d d2bd a584 14be
00000010: 14e4 9cbd 230c edbd ef75 a9bd 6bef c1bc
00000020: 3edb 55be 6550 43bd e0e4 7d3d 6575 00bd
00000030: df14 18be 2c4e 95bd a003 e8bc d449 16be
00000040: 358b f7bd 34a2 5d3d 6ba9 7dbe c944 f5bd
00000050: eb4c 69be 6e7f 59bd f01b 73bd 7135 81bd
00000060: ffb5 cc3c 9d21 38bd e64a 30be f869 22be
00000070: 5e34 9ebd d4c0 963c 7b7d f0bd 674c 51bd
00000080: 6eb1 013c f591 fcbc 9289 e8bd db2e 37be
00000090: c890 3dbe fd84 4e3e b7af 18be da79 ad3c
000000a0: 90e0 28bd c8cc e7bc c367 eabc 7a57 e03d
000000b0: ad3f 28be 0575 c63d 251b 70bd 6c95 24be
000000c0: 0e61 a8bd 4d17 e7bd 86d2 803d 48c9 d8bd
000000d0: 5b28 84be 5446 053d e098 273b 680b 323d
000000e0: d0a7 cdbd 3b21 efbd 1646 4abd fafc 993c
000000f0: fa91 27be 9117 12bb 1462 0abe 18e3 4f3e
00000100: 1bc8 0abd 73af 2bbe b5cb 1dbe b1e7 e9bd
00000110: 70f1 08bd c784 17be 565d c43c 1b21 ae3a
00000120: 93ee 07bd d4a4 1dbe e47a 773d 3688 0d3d
00000130: 163c 17be 395e 063e ed1a d3bc b30e bfbe
00000140: 89c7 8bbd d30a 78bd 013c f7bd eea3 07be
00000150: 5b52 eabd d519 05be 6595 1bbe 4df7 3dbd
00000160: 4e74 883d 5732 b3bb 6791 3cbd 99e0 9d3c
00000170: 8766 27be 5910 633c 555c e937 d629 83bd
00000180: 03f7 713d 8b87 25be bb8c df3c 11bf ebbd
00000190: 3f07 88be 4416 213e 56a3 5fbd 8883 19be
000001a0: a69b 1ebd 73ac b63d c814 cd3c 13d1 dbbd
000001b0: 5774 36be f1a1 883d 508a b9bd 83d5 e4bd
000001c0: 3d3d e4bc 2cb9 0cbe 73ba 49bd 8666 13be
000001d0: 9ca5 7fbd cb09 273d b475 2c3d ad82 f4bd
000001e0: ce41 a3bd 5b06 f1bc 05eb 0e3c 8004 2fbd
000001f0: 1f79 d7bd 1734 f93c 7536 d5bd 9d16 97bb
00000200: 2239 a2bd 9953 57be b4af a83c 5f27 eabd
00000210: d65f 57bd eb17 50be b7d9 4abe 00d5 c9bd
00000220: edbb 95be 8ba5 66bd 3455 83bd acd0 753d
00000230: a2d2 46be 4fae 443e 9c60 05bc 0cad 563e
00000240: c17e 84be 80e4 293e ae00 a4be 83c4 143c
00000250: 0a17 65be 4f34 11bd 913c b1bd e20f 083d
00000260: 5972 26be 1abd 33be ddda a3be e733 4dbe
00000270: 36eb a73c 7d9b 553d 5a50 a8bd b636 75bd
00000280: 2c21 0bbd 4c77 29be e3e4 45be d511 aebd
00000290: 98ed aebe b593 4f3d 7fdd 62be 9c73 6d3e
000002a0: a985 e3bd e933 02be d020 46bd 9b51 213e
000002b0: 7480 95bd e2e5 ae3e 3e3a 14be ce8d da3c
000002c0: c480 0bbe e472 2ebe 5754 57be a4d5 efbd
000002d0: e498 80be b547 9ebd 5ac6 66be f517 9fbd
000002e0: eea8 c4bd 5740 763b d667 ccbc e038 30bd
000002f0: 9080 f1bd a519 89bd 9de1 49be 88de 7a3e
00000300: 77b0 3bbe d789 6bbd c7dc 69be 1f67 0bbd
00000310: 057b 5bbd 337b 9cbd fbb4 13bd b6ae e8bc
00000320: f8e4 5e3d 8bd0 51be f899 a4bd 418a 213d
00000330: c780 cabd 1ab7 a2bd 650c 1cbe e28c 1bbe
00000340: 2c29 9dbe 18e2 b0bc 24ed 7a3c e6fa c0bd
00000350: 5584 1cbd 0db1 7abe 63fa e2bd d6eb 82bd
00000360: 5fb5 3a3c a571 a4bd 8e0f 18be 6584 053d
00000370: 8909 26be d24b ffbd 7a98 9bbd 4dda b0bd
00000380: 676d 5e3c 0e74 5dbe 6e58 88bd a8b2 2a3e
00000390: 062b 703b b43e 8b3e 0aa2 37be 9ccb d0bd
000003a0: 8380 1d3a 2d83 83be 5032 93be 4466 643d
000003b0: 4f64 6bbd 65cf 143e 03bd 29bd 3356 5bbe
000003c0: 24e8 e93d fc5e bbbb 554d 72bd a8eb 9bbd
000003d0: da7a 973c 3b9e 413e 867b dabd 3d0a 12be
000003e0: c3d2 da3d 0945 31be 9ed4 753d a125 893b
000003f0: 7c92 4dbe eb06 a3bd 36b3 a5bc 7a07 bc3d
-0.13224977 -0.18156302 -0.102716446 -0.14503725 -0.0766069 -0.115745805 -0.08274447 -0.023673734
-0.20884416 -0.047684092 0.06198585 -0.031361956 -0.14851712 -0.07290301 -0.028322041 -0.146766
-0.120870985 0.054109767 -0.24771659 -0.1197601 -0.22783248 -0.053100042 -0.059352815 -0.06309021
0.024989126 -0.04495393 -0.17216071 -0.15860736 -0.07724832 0.018402494 -0.117426835 -0.051098254
0.007915838 -0.030831316 -0.113543645 -0.17888968 -0.18512261 0.20167919 -0.1491078 0.021176267
-0.041229784 -0.02829589 -0.02861393 0.10954185 -0.1643054 0.096902885 -0.058619637 -0.16072625
-0.08221637 -0.11283741 0.06290154 -0.10585266 -0.2581204 0.032537773 0.0025573298 0.04346791
-0.10041773 -0.1167626 -0.049383245 0.018797386 -0.1636428 -0.0022291879 -0.13513976 0.20301473
-0.03388224 -0.16766147 -0.1540974 -0.11421145 -0.033433378 -0.14796744 0.023970287 0.0013285013
-0.033186506 -0.15394908 0.060419932 0.03455373 -0.14769015 0.1312188 -0.025769675 -0.37315902
-0.06825168 -0.060557198 -0.12071992 -0.13246128 -0.11441489 -0.12998135 -0.15193708 -0.046378423
0.06662808 -0.0054686475 -0.046037104 0.019272136 -0.16347705 0.013858878 2.781876e-05 -0.06404464
0.05907346 -0.16164987 0.027288785 -0.115110524 -0.26568028 0.1573115 -0.05459913 -0.14991581
-0.038722657 0.08919611 0.025034323 -0.10733237 -0.17817818 0.06671513 -0.09059584 -0.11173537
-0.027861232 -0.13742512 -0.049250077 -0.14394578 -0.062413797 0.040780824 0.042104438 -0.11938987
-0.079715356 -0.029421976 0.008723025 -0.0427289 -0.10521149 0.030420346 -0.104107775 -0.00461085
-0.079210535 -0.21027984 0.020591594 -0.11433291 -0.05258163 -0.20321624 -0.19809614 -0.0985508
-0.29244938 -0.056310218 -0.064127356 0.060013458 -0.19416288 0.19207118 -0.008140709 0.2096445
-0.25877956 0.16591072 -0.3203177 0.009080055 -0.2237207 -0.035450276 -0.0865413 0.033218272
-0.16254558 -0.17552605 -0.32002917 -0.2003933 0.0204979 0.05215024 -0.08218451 -0.05986663
-0.033967182 -0.16549414 -0.19325595 -0.08499495 -0.34165645 0.050677974 -0.22154807 0.23188633
-0.11109478 -0.12715115 -0.048371136 0.15753786 -0.07299891 0.34159762 -0.14475343 0.026678946
-0.13623339 -0.17036015 -0.21028267 -0.117106706 -0.25116646 -0.07728521 -0.22536603 -0.07768241
-0.09602533 0.003757497 -0.024951857 -0.04302299 -0.117920995 -0.066943444 -0.19714971 0.24498951
-0.18329035 -0.0575045 -0.22838126 -0.03403389 -0.053584117 -0.07640686 -0.03606127 -0.028403621
0.05441758 -0.20489709 -0.0803718 0.03943849 -0.098878436 -0.0794508 -0.15239103 -0.15190461
-0.30695474 -0.021592185 0.015315328 -0.09422855 -0.03821214 -0.24481602 -0.11082914 -0.063926384
0.011395781 -0.080294885 -0.14849684 0.032596964 -0.16214575 -0.124656335 -0.07597442 -0.086353876
0.013575888 -0.21626303 -0.066574916 0.16669714 0.0036646738 0.27196276 -0.17932907 -0.101950854
0.00060082244 -0.25686017 -0.28749323 0.05576159 -0.05746871 0.1453224 -0.04144002 -0.21419601
0.114212304 -0.00571811 -0.05915578 -0.07613307 0.018491197 0.18908016 -0.106680915 -0.14261718
0.10684731 -0.17311491 0.06001722 0.004185394 -0.2007541 -0.07960304 -0.020227056 0.091811135

linears.2.bias f4 [5]
00000000: 9c80 29be 8659 6fbe 830c a6be 36f3 a9be
00000010: d95b b9be
-0.16552967 -0.23373994 -0.3243142 -0.33193368 -0.36202887
