dqn-exp/savedir/student-test/checkpoint950--model.pth (torch_old, 20763 bytes, 6 tensors)

linears.0.weight f4 [64, 6]
000000 78 1c 71 3d 5d 49 9c 3d 0b dc 92 be 63 f5 39 bd
       0.05886504 0.076311804 -0.28683504 -0.045400035
000010 e1 72 b1 be 99 79 e2 3d 24 f2 c0 3c 89 9c 1e be
       -0.34657958 0.11058349 0.023552962 -0.15489401
000020 c6 fb b6 bb 78 91 00 bb f1 09 94 3d 58 bd 0c 3f
       -0.005584213 -0.0019617956 0.07228459 0.54976416
000030 0b b7 a4 3e 3d f1 5d 3e 64 b4 db bd 3e 74 e5 3d
       0.321709 0.21674056 -0.10727766 0.11203812
000040 15 63 e4 bd 6f 59 1d 3d 35 f9 73 3e 88 58 35 be
       -0.11151711 0.03841537 0.23825534 -0.17709553
000050 35 10 8d be 43 79 3c 3c 93 27 cc bd 6c ff cc 3d
       -0.27551427 0.01150352 -0.09968486 0.10009655
000060 cc ee 5f 3d fd cf 8b 3d 21 a9 16 be 22 54 20 be
       0.054671094 0.0682678 -0.14712955 -0.15657094
000070 f7 7d f8 bd c8 26 d7 bc 55 23 e6 3d b5 49 21 3c
       -0.12133401 -0.02626361 0.11237208 0.009844233
000080 6f c0 85 be fe 00 98 3e b9 af 56 3e b7 45 73 3d
       -0.26123378 0.29688257 0.2096547 0.059392657
000090 df ef d6 3c db 83 2a ba 09 01 d5 3e ee 00 2a bc
       0.026237426 -0.00065046333 0.41602352 -0.010376198
0000a0 80 67 58 3e 65 27 e4 bc 47 2c 59 be f2 c2 18 bd
       0.21133232 -0.027850816 -0.21208297 -0.03729529
0000b0 e5 d6 8f 3e 32 0d d0 3d bb 94 2c 3d 4a 84 93 3c
       0.2809364 0.10158767 0.042134028 0.018007416
0000c0 74 b3 d3 bd 73 d7 7e bd 7a 7b ae bc 11 aa 7b 3e
       -0.10336962 -0.062217187 -0.021299113 0.24576594
0000d0 f0 c1 b5 3e ba df 79 3e ea 93 31 be 16 63 a3 3d
       0.35499525 0.24401751 -0.17341581 0.079778835
0000e0 ab 1d 0f bd 6a df 17 be ad 3c 49 bd d2 4c 38 bb
       -0.034940403 -0.1483132 -0.04913013 -0.002812196
0000f0 7a 2c 12 be f9 9d 80 bc 92 48 4f bd a3 da db 3c
       -0.14274779 -0.015700327 -0.050606318 0.026837653
000100 c2 84 10 3f 32 df cf 3c 4f 69 a0 bd ad cc 65 3e
       0.5645257 0.025374983 -0.07832586 0.22441359
000110 25 17 a9 3e 07 01 08 be 22 e6 ea 3c ac bc 34 bc
       0.3302547 -0.13281642 0.028674189 -0.011031311
000120 96 09 00 3d 79 a7 b5 bd d1 f6 a3 3c 9a 9b ed bd
       0.03125914 -0.088698335 0.020015152 -0.11601944
000130 7e 55 87 3c 37 d9 d0 3e 2f 81 92 bb 02 e7 13 3e
       0.016520258 0.40790722 -0.0044709663 0.14443591
000140 ff 9c cf b9 e3 9f a9 3c 42 07 4b 3c e6 45 21 bf
       -0.00039599088 0.020706123 0.012391867 -0.6299728
000150 5c 7c 3a 3e fa 13 27 3e a3 47 2d 3d 69 aa 8d bd
       0.18211502 0.16316214 0.042304646 -0.06917269
000160 fd 55 83 be 9e 99 bd be 70 0f 38 be 7e be 38 be
       -0.2565154 -0.37031263 -0.17974639 -0.18041417
000170 bd 52 7b 3d 3e f7 e1 bc 10 27 71 3e 37 b2 67 3e
       0.061358202 -0.027583715 0.23550057 0.22626577
000180 a4 f0 34 3e dd 57 1a bd 57 59 c7 bd c3 4a 94 3c
       0.17669922 -0.03768145 -0.09733837 0.018102055
000190 0d d0 fb be ea 77 da 3d 1d 16 ba 3d e0 d5 ba 3d
       -0.49182168 0.10667403 0.09086249 0.09122825
0001a0 46 67 a1 bd 89 1b c1 3d 4a ff 0d bf 3c f4 33 be
       -0.07881026 0.0942908 -0.55467665 -0.17573637
0001b0 17 7b 92 bc 0d 9a 08 3d 22 de 94 3b 46 78 16 3d
       -0.01788096 0.03335004 0.004543082 0.036735795
0001c0 10 6c da 3e ca e6 34 be 27 50 cf 3d dd 69 eb 3d
       0.4266057 -0.17666164 0.1012271 0.11494801
0001d0 07 18 54 bc de 7c 9d bd f8 5c 22 bf 8c f1 f3 bd
       -0.012945182 -0.07689832 -0.6342311 -0.11911306
0001e0 71 88 25 3e 2b 70 85 be 93 0d 8f 3d cf 07 12 3e
       0.1616533 -0.2606214 0.06985011 0.14260791
0001f0 e6 c1 50 be 9b b0 aa 3e c4 bb ab bc ea 37 57 3e
       -0.20386466 0.33337864 -0.020963557 0.21017423
000200 8a 11 b7 3a e8 b4 4d 3d 91 1d 53 3d 8d 9a 00 bf
       0.0013967019 0.050221354 0.05154187 -0.50235826
000210 bd ad e1 bd 66 a2 e0 bd f4 03 d0 bd 3c ca 20 be
       -0.11019466 -0.10968475 -0.10157004 -0.15702146
000220 b5 a2 0e 3e ff 26 2d 3e cc 46 f7 bc 66 c2 bd bd
       0.13929255 0.16909407 -0.030185126 -0.09265594
000230 33 ae 78 3d ea 13 ae 3c ec 35 55 3e d6 6f bd 3e
       0.060713004 0.02124973 0.20821351 0.36999387
000240 d4 41 0d 3d 8f 07 15 3d eb e5 07 3e dc 82 4f 3e
       0.034486607 0.03638416 0.132713 0.20264763
000250 db 58 9b ba 6e 6c f3 3d 39 be 10 be c2 aa ed 3c
       -0.0011852043 0.11885916 -0.14135064 0.029012088
000260 48 93 f9 bb 87 ee 78 3b e5 e7 08 3f 24 97 6e bd
       -0.0076164342 0.003798397 0.5347884 -0.058249608
000270 02 fa 9f bd 14 ac a5 bd 26 20 11 be d9 0a 77 3d
       -0.07811357 -0.08089462 -0.1417242 0.06031308
000280 7a f2 a3 3e 98 31 ab 3d d1 64 ae 3c d3 d8 cd 3d
       0.32020932 0.08359069 0.021288307 0.100511216
000290 1f 46 b1 bd 31 b3 5d 3d 01 01 35 be dd 73 59 bd
       -0.08655953 0.05412597 -0.17676164 -0.05308901
0002a0 63 23 0f 3e 82 a0 80 3a 13 ad 88 3c 43 1d 4e bb
       0.13978343 0.000981346 0.01668409 -0.0031450547
0002b0 5e e4 60 bf d6 90 1b 3d 11 1f cc bd c1 9c 31 3e
       -0.8784846 0.037979923 -0.09966863 0.17344953
0002c0 70 53 ba 3e 98 c4 43 be 40 3e 7e 3e f1 0f b0 be
       0.36391783 -0.19117963 0.24828434 -0.34387162
0002d0 f0 86 42 bb c1 e3 e6 bd b4 a0 a6 3b 0d 3d 55 3b
       -0.002968248 -0.11273909 0.0050850753 0.003253761
0002e0 f0 10 a7 bc a0 81 4f 3f 2b bc bb bd fa 7a d3 3d
       -0.020393819 0.8105717 -0.091667496 0.1032619
0002f0 7a 0d ad 3d e9 5d 3b be 95 c7 8a 3d 27 2e 33 be
       0.08449836 -0.18297543 0.067763485 -0.17498074
000300 4a d9 79 bc 40 2d 84 3d 1f 6d b8 b9 25 f3 28 bd
       -0.01524956 0.06453943 -0.00035176516 -0.041247506
000310 1d 49 9b 3c 7c b1 94 bd 58 34 20 be 9b e3 3a 3d
       0.018955762 -0.07260415 -0.15644968 0.045627218
000320 01 7d 98 bd 8d 97 21 3e ed 9b 1a 3e a2 a9 45 be
       -0.074457176 0.15780468 0.15098543 -0.19302991
000330 1c 06 53 3d 78 17 c8 3d 03 32 ad bd 0b 1b 23 be
       0.0515195 0.09770101 -0.084568046 -0.15928285
000340 e9 10 e7 bd 35 14 f5 bd 7c 6b 26 bd 24 bb 0a 3d
       -0.11282522 -0.11966745 -0.04062985 0.033869877
000350 b0 94 89 3d bf ce 6a bd b6 50 d4 3d 0c 76 cc bd
       0.06717813 -0.057326075 0.10366957 -0.09983453
000360 45 61 b8 3c a3 d5 4f 3c c0 ae 24 bc 6c 1b 1f bc
       0.02250732 0.012685212 -0.010051429 -0.009711128
000370 5a 03 03 3f d9 ad 08 3e e6 23 35 3d f7 a1 91 3d
       0.5117699 0.13347568 0.04422369 0.071109705
000380 6e a3 ca 3d b4 bf 52 3e 48 fd 64 3e ea 30 14 3e
       0.09894453 0.20580941 0.22362244 0.14471784
000390 24 8e 3e be d5 c2 34 3d d5 96 9f bd 94 b0 bb bd
       -0.1860891 0.04413112 -0.07792441 -0.09164539
0003a0 36 1d 83 3e 1c ef 8f bd 80 65 0a be 17 5c c4 be
       0.25608224 -0.07028028 -0.13515282 -0.3835151
0003b0 44 72 12 be 87 ad 01 3e 9d 5c 06 be b6 79 9f 3c
       -0.14301401 0.12663852 -0.13121267 0.019467216
0003c0 0b ba 3f bc cd 24 e2 3d 9b c8 36 bc 2f c6 a5 3c
       -0.011702071 0.110421754 -0.0111562265 0.020236103
0003d0 53 9d 90 bc 6a 9a 52 bf da f1 21 3e cd b3 f0 bd
       -0.017653143 -0.8226687 0.15814915 -0.11753044
0003e0 e9 8f f5 bb 15 4a e0 bd fe ab 23 bd b7 18 5a bc
       -0.007493962 -0.1095163 -0.039958946 -0.013311557
0003f0 e7 ea 63 3d 22 46 3d be ae 15 78 3c 55 f4 89 bd
       0.055643942 -0.18483785 0.015141888 -0.06736056

linears.0.bias f4 [64]
000000 fc 66 9d be 37 9e 8b bc 5c 1a ff be a3 f0 90 be
       -0.30742633 -0.017043216 -0.49824798 -0.2830859
000010 76 6c 66 bd 68 18 3d bf 53 fc 7d be ee 90 b8 be
       -0.05625578 -0.73865366 -0.24803285 -0.36048073
000020 d0 18 d7 3e 98 39 eb 3e 0f 3d 7f be 27 ff cf be
       0.42011118 0.45942378 -0.24925636 -0.40624353
000030 92 b3 10 bf eb 53 51 be cc c5 dc 3e 4a 2e 19 bf
       -0.56524 -0.20442168 0.43119657 -0.59836257
000040 3f b4 b8 3e 02 73 2b bf 4c 3f 06 3f f0 bf 00 3e
       0.36075017 -0.66972363 0.52440333 0.12573218
000050 a8 9f e6 3e d0 9e 81 3e 06 64 00 3f 89 b4 8c 3e
       0.45043683 0.25316477 0.50152624 0.27481487
000060 ac 37 d2 3e 88 90 51 3e ad 11 eb be 92 4d 05 be
       0.410581 0.2046529 -0.45911923 -0.13017872
000070 3e 30 41 bc 97 8b f3 be b9 d9 ad bd 6c 75 61 be
       -0.011791287 -0.47567436 -0.08488793 -0.22017449
000080 6d 8a e1 bd 27 04 cd 3e da 25 0f be 48 34 a5 bc
       -0.11012731 0.4004223 -0.13979283 -0.020166531
000090 49 9a 67 bc 80 cf 9e be 34 46 4c 3e 03 f4 01 bf
       -0.014135906 -0.31017685 0.19948655 -0.5076296
0000a0 c7 df b6 bd b7 66 d0 be 4e 81 f9 3e 67 2f 1e bf
       -0.08929401 -0.40703365 0.48731464 -0.6179108
0000b0 b3 11 64 be 39 8b d5 be 9e b6 19 3f a8 a0 dd 3e
       -0.22272377 -0.4170778 0.60044277 0.43286633
0000c0 1a e2 c0 be 2c d0 97 bd c4 6c 84 be 37 e9 94 3e
       -0.37672502 -0.074127525 -0.25864232 0.2908418
0000d0 5e 80 e7 3c 30 a8 cb 3e 9a 93 b6 3e 14 22 c9 be
       0.028259452 0.39776754 0.35659486 -0.39283812
0000e0 08 83 dd be 8b fe 4e be c9 69 c3 3e 6b 13 a7 be
       -0.4326403 -0.20214288 0.38166645 -0.32632002
0000f0 74 ca 98 3c ab 6e 00 be 0b 9b c0 3e e0 c1 e1 be
       0.018651225 -0.12542216 0.37618288 -0.44093227

linears.1.weight f4 [64, 64]
000000 97 20 0d bd 12 2f 09 ba ec 25 32 3c ab d1 ab 3a
       -0.03445491 -0.0005233149 0.010873299 0.001310875
000010 74 be ec bc c2 98 12 3e 41 11 34 bc a5 14 99 bd
       -0.028899409 0.14316085 -0.010990442 -0.07474641
000020 50 56 8c bd 15 77 d9 3a 33 cb 14 3d 03 5a 52 3c
       -0.068524 0.0016591275 0.0363266 0.012838843
000030 39 71 09 bd bc 22 56 3d 91 51 b2 bd 08 b7 0a 3d
       -0.033555243 0.05227922 -0.08706964 0.03386596
000040 4f dd c9 3d 00 27 78 bd fa e3 a3 bd 4c 80 1e bc
       0.098566644 -0.06058407 -0.080024675 -0.009674143
000050 73 10 6a 3c 49 dd 00 be c5 10 0a bd 6d d7 d5 3b
       0.014286148 -0.12584414 -0.0337074 0.006525925
000060 f6 95 07 3e cd 57 b0 3c 47 50 2a 3d cf c1 a5 3d
       0.132408 0.021526242 0.041580465 0.08093607
000070 f0 7d 8c bd 32 43 ed bb e8 d1 e5 bd 4a 45 ce bd
       -0.06859958 -0.0072406763 -0.11221677 -0.100718096
000080 ad 13 22 3e 61 5b ad bc c2 78 9c 3d 26 af ec 3d
       0.15827818 -0.021161737 0.0764022 0.115568444
000090 38 5f 95 3d ae ae b3 bd 53 48 08 bd d8 24 86 3c
       0.07293552 -0.08773552 -0.0332721 0.01637499
0000a0 d5 e0 ce bc 2c 83 66 bd c0 f4 f3 bc 05 16 96 3d
       -0.025253693 -0.05627744 -0.029779792 0.07328419
0000b0 c3 22 25 be a7 17 83 bd 14 17 18 be cf a7 53 bd
       -0.16126542 -0.06400996 -0.14852554 -0.051673707
0000c0 4d 97 4c 3d 43 d5 8f 3e 09 ce 85 3d 48 f6 95 bc
       0.04994898 0.28092393 0.06533439 -0.018305913
0000d0 49 20 87 3d 87 1c d9 bd ce 92 b6 bc a7 11 25 be
       0.06597955 -0.10601144 -0.022286799 -0.16120015
0000e0 39 33 0d 3d 59 de 28 bd 29 5a f4 3d 91 f5 fb 3d
       0.034472678 -0.041227672 0.11931259 0.123026974
0000f0 91 c3 13 3e e4 f9 d7 bd f0 cf 0f be b4 16 81 3d
       0.14430071 -0.1054571 -0.14044166 0.063031584
000100 e2 bb 8d bd 41 0e 93 3d 9f 1d b8 bc 1c 88 b6 3b
       -0.069206014 0.07180453 -0.022475062 0.0055704247
000110 ad 11 0b be a5 d3 04 3e f9 9d fb ba 17 26 63 bc
       -0.13580962 0.12971361 -0.001919686 -0.013864062
000120 62 ef c3 bd 55 21 55 3d ef ef ed bd 02 fe e3 3d
       -0.09567143 0.05203374 -0.11618029 0.111324325
000130 00 d2 60 3d 99 9c 2c 3e 96 0a 55 3d f5 59 a1 3d
       0.05488777 0.16856612 0.05201205 0.07878486
000140 9f 28 36 bc 00 f2 bb 3d ff 80 94 be 24 00 f5 bc
       -0.011118083 0.09177017 -0.29004666 -0.029907294
000150 e2 ff 0e bd a1 09 fa 3d 02 9d a6 bd 20 e8 06 3b
       -0.034911998 0.12208868 -0.081354156 0.0020585135
000160 9c 79 21 3d bd 67 91 bd 62 67 8c 3e 04 6e c1 bd
       0.039422616 -0.07099865 0.27422625 -0.09444812
000170 fb 3c 35 3d df 24 cc bd 75 5f 53 be dd 22 ea 3d
       0.04424761 -0.0996797 -0.20641883 0.11432431
000180 2b e3 3a 3e ae a2 87 3c 7a e8 15 3c e0 4b a3 bd
       0.1825072 0.016557064 0.009149665 -0.079734564
000190 10 e9 d7 bd e8 88 5a 3d b0 89 2b 3d 85 57 c2 3a
       -0.105425 0.05335322 0.041879356 0.0014827108
0001a0 6a ef 19 be 6e 47 b8 3c a7 ea 30 be 9d 8a 03 3e
       -0.15032735 0.022494998 -0.17277013 0.12845846
0001b0 92 0e c3 3d 03 d0 1d 3d 78 f8 d7 bd a3 ad 24 3d
       0.095242634 0.038528454 -0.105454385 0.040204655
0001c0 1e 5a b3 3c 35 21 6c bd e9 c6 83 3b 96 e7 42 be
       0.021893557 -0.057648856 0.0040215147 -0.19033656
0001d0 79 9c 2d be f9 1e 88 bd b3 1a 07 bd a6 7c c6 3d
       -0.16954221 -0.066465326 -0.032984447 0.096917436
0001e0 95 ee 7c be 16 49 27 bd 46 43 78 bc eb 40 53 3e
       -0.24700387 -0.040841185 -0.015152758 0.20630233
0001f0 5b cf 7d bd 2e 0a 19 3d 21 4b 06 3e bd 8f 89 3e
       -0.061965328 0.037363224 0.13114597 0.26867476
000200 10 17 cb 3d 86 6a c0 bc 7d 88 ce 3d 7d d7 70 bd
       0.09916508 -0.023488294 0.10084627 -0.058799256
000210 77 40 99 bd 65 4c 69 3e be e5 1b 3d 46 f9 34 3d
       -0.07482999 0.22783048 0.038060896 0.04418304
000220 0b c5 39 3a 88 a5 35 3b cc ef 6d bd 2a b9 e2 bc
       0.00070865516 0.0027717073 -0.058090016 -0.027676184
000230 e3 22 dd bd 6e ff 1f 3e 76 3f e3 bd eb 3e 43 bd
       -0.1079767 0.15624782 -0.110960886 -0.047667425
000240 4b bd 6b bd 43 04 c4 bd bb 80 2b be 23 0f b1 bd
       -0.05755357 -0.09571125 -0.16748326 -0.08645465
000250 bc e0 e7 3b 75 85 43 3e c8 0f 15 3b f0 80 93 3b
       0.007076351 0.19093879 0.0022745002 0.0045014545
000260 a3 4d 30 be 6b af bd bd ad 0b 10 3e 26 3a 72 bd
       -0.17217116 -0.09261974 0.14066954 -0.059137486
000270 50 9a 23 3c 57 8f b0 bd 28 a6 9b bd 32 89 7a 3d
       0.009985521 -0.0862109 -0.07600051 0.061165996
000280 ed dc 22 3e 53 fe 03 ba fc 37 41 bd 3e 00 b5 3d
       0.15904589 -0.00050351507 -0.04717253 0.08837937
000290 7c 3c 92 ba db ed ea 3d 80 ca 52 be e4 c5 3a 3e
       -0.0011156942 0.114711486 -0.2058506 0.18239552
0002a0 88 c0 10 bd a5 4b d0 3b 5b 90 91 bc 91 4f fe 3d
       -0.035339862 0.006356674 -0.01776903 0.1241752
0002b0 0a 9b 33 3e 53 78 a5 3d 4e b8 aa bd b7 14 27 3b
       0.17539611 0.08079591 -0.083359346 0.0025494525
0002c0 19 55 4a 3e 40 9f 8b bb d6 e6 9a bd e3 98 c8 bd
       0.19759025 -0.0042609274 -0.0756356 -0.09794786
0002d0 eb 66 ba bd 88 60 db 3a 67 51 18 3d 1e a1 03 3b
       -0.09101661 0.0016737143 0.037187006 0.0020085047
0002e0 d6 d4 50 be 32 4c e5 bd 61 50 68 3b 92 8f dc bb
       -0.2039369 -0.11196174 0.00354483 -0.006730982
0002f0 43 a7 cf 3d 43 f4 03 bd 83 33 b4 bd d4 8d 85 3d
       0.101393245 -0.032215368 -0.087988876 0.06521192
000300 bd c3 a6 3d e7 e4 cf bd ab a1 4b 3e 33 65 bc 3c
       0.08142803 -0.101510815 0.1988589 0.022997474
000310 fa 55 16 3e 34 48 6d 3e c8 ea cc 3d 40 c4 f4 bc
       0.14681235 0.23172075 0.100057185 -0.029878736
000320 f3 3e 6e bd 5a a1 03 bc 17 94 2b be 26 df ba ba
       -0.0581655 -0.008034075 -0.1675571 -0.0014257177
000330 98 87 04 bd 69 4a 89 3e db 4e b0 bd 64 d5 53 bd
       -0.032355875 0.26814583 -0.086087905 -0.051717177
000340 96 ae 33 3e d4 22 a5 bd bf 1e 26 be e4 28 14 be
       0.17547068 -0.080632836 -0.16222666 -0.14468724
000350 c7 9d 8d 3d a6 0f 39 3e 70 57 22 bd ac b1 0e bd
       0.06914859 0.18072376 -0.03963417 -0.03483741
000360 4c 8a b3 bd d7 86 2f 3d ca 63 db 3d 5a 72 ce bc
       -0.087666124 0.042853203 0.10712393 -0.025201011
000370 5d 07 b9 bb 3b 43 1c 3e 3d 73 86 3d cd 15 ac bd
       -0.0056466297 0.15260021 0.06564949 -0.08402596
000380 17 15 6f 3e 03 8d 12 be ca d1 2a bc 92 27 b2 3b
       0.23347889 -0.14311604 -0.010425994 0.005436846
000390 43 22 82 3d f4 17 2a 3e 7b aa df 3d a8 dd 43 bd
       0.06354191 0.166107 0.109211884 -0.04781881
0003a0 b6 3d f9 bd ab 70 52 3e d7 c4 80 bd 67 47 c8 bd
       -0.121699736 0.20550792 -0.06287544 -0.09779244
0003b0 5d 30 4e be 6a d3 60 3c c5 ad 73 be 68 68 84 bd
       -0.20135637 0.01372228 -0.23796757 -0.064652264
0003c0 88 7f b7 3d b9 e7 84 ba 9c 57 8d bd b9 ff 15 bd
       0.089598715 -0.001013986 -0.06901476 -0.03662083
0003d0 40 94 0a be c0 3d cf bd ee 92 e0 3d 24 00 c2 bd
       -0.13533115 -0.101192 0.109655246 -0.09472683
0003e0 8d c7 c9 bc 18 ab 95 bd 55 86 94 bd ee 07 0b 3e
       -0.024631286 -0.07308024 -0.07252184 0.13577244
0003f0 ad c9 29 3d da 70 41 3d 8a 8a 97 3d 25 47 11 3e
       0.0414521 0.047226764 0.07399471 0.14187296

linears.1.bias f4 [64]
000000 4c 42 82 3e 70 39 0b 3f a2 89 bf 3e 8e 3f bb 3e
       0.25441206 0.5438452 0.37409693 0.36571926
000010 58 34 23 bd 96 4c d5 3e 5e 49 0c be ac 1b 12 3e
       -0.03984484 0.41659993 -0.13699862 0.14268368
000020 42 fa 8d be d1 33 fc 3e 5d 63 a1 3d f8 ea 17 bd
       -0.27729994 0.49258283 0.0788028 -0.037089318
000030 57 75 12 3f f6 f7 d2 3e 39 e3 89 3e 9e 0d 83 3e
       0.57210296 0.41204804 0.2693117 0.25596327
000040 60 4a 89 3e 6f 45 c1 3c 55 a9 af be a1 f3 d7 3e
       0.26814556 0.023592679 -0.34308878 0.42178062
000050 36 1b ae 3e 42 2a cd 3e 17 0c d5 3e 09 40 48 3e
       0.34005135 0.40071303 0.41610786 0.19555677
000060 41 f3 f5 bd 4f f7 04 3d 02 80 b0 3e 19 bd 30 be
       -0.120092876 0.032462414 0.34472662 -0.17259635
000070 dc f3 83 3e 76 d1 fc 3c 14 e5 4d be b2 15 84 3e
       0.25771987 0.030861598 -0.20106918 0.25797802
000080 68 61 c7 3e 8d 11 fe 3e 86 30 8f bd ba 73 3a be
       0.38941503 0.49622765 -0.06991677 -0.18208209
000090 c5 ec 84 3b 4a 17 10 3e a6 72 e4 3e 63 fd 8b 3d
       0.0040565454 0.14071384 0.4461872 0.06835439
0000a0 6b bc c8 3d f0 85 9a 3e 8f ee 77 be b7 e2 ff 3d
       0.09801563 0.3018031 -0.24212097 0.12494414
0000b0 3b 98 92 3e eb ae 7c 3e fa 11 c7 be 57 e6 e7 3e
       0.28631768 0.24676101 -0.38880903 0.45292923
0000c0 cb a2 a7 3e d4 65 08 3f 0e 1d 80 3d 96 d3 d0 3e
       0.3274139 0.5328038 0.06255542 0.40786427
0000d0 c2 60 60 be 8c 19 39 be 09 1b 4a bc 0a ac 52 3e
       -0.2191191 -0.18076152 -0.012335547 0.2057344
0000e0 74 d7 84 be 1b 78 91 3e ed c9 3e be 7e 2b 9e 3e
       -0.25945628 0.28411946 -0.18631716 0.30892557
0000f0 2e 30 05 3f 51 4a 55 3d 16 f2 c3 3e b8 24 d8 3e
       0.5202664 0.052072827 0.38270634 0.42215514

linears.2.weight f4 [5, 64]
000000 ea e4 c8 bd 80 d3 44 be ce 1a df bd 82 99 23 be
       -0.09809287 -0.19221306 -0.108937845 -0.15976527
000010 72 98 68 bb 0a 0b 06 be ef 75 a9 bd 44 85 de 3b
       -0.0035491255 -0.13090149 -0.08274447 0.006790789
000020 3e db 55 be ab 05 21 bd 8a 08 b5 3d 65 75 00 bd
       -0.20884416 -0.039312046 0.08839519 -0.031361956
000030 29 25 25 be 3d 68 ae bd cb 3b 08 3d d4 49 16 be
       -0.16127457 -0.085159756 0.033260148 -0.146766
000040 d3 ff 34 be 34 a2 5d 3d 6b a9 7d be d6 43 ea bd
       -0.17675714 0.054109767 -0.24771659 -0.1143872
000050 82 bf 7f be 61 2a b3 bd 68 a9 41 bd 2b be b2 3b
       -0.24975398 -0.087483175 -0.0472807 0.0054547987
000060 14 2f 4c 3d 9d 21 38 bd 45 e9 69 be f8 69 22 be
       0.049849585 -0.04495393 -0.22842892 -0.15860736
000070 3e a6 b0 bd d4 c0 96 3c 7b 7d f0 bd b8 25 3d bd
       -0.08625458 0.018402494 -0.117426835 -0.04617855
000080 6e b1 01 3c 7d 59 25 bd b9 20 c0 bd db 2e 37 be
       0.007915838 -0.040368546 -0.09381241 -0.17888968
000090 c8 90 3d be 42 7e 66 3e 20 a6 2d be 65 4c fe 3c
       -0.18512261 0.22509101 -0.16957903 0.031042287
0000a0 5f c6 6c bc e2 9b 12 be 36 c9 b4 bd 7a 57 e0 3d
       -0.014451592 -0.14317277 -0.088274404 0.10954185
0000b0 fb 9d 2c be 05 75 c6 3d e8 d6 1a bd 24 12 2e be
       -0.1685714 0.096902885 -0.037802607 -0.16999108
0000c0 20 1f d1 bd cd 6a f0 bd 86 d2 80 3d 80 a0 e7 bd
       -0.10211015 -0.11739121 0.06290154 -0.1130991
0000d0 5b 28 84 be 17 57 1e 3d e0 98 27 3b 26 5a ba 3d
       -0.2581204 0.038657274 0.0025573298 0.09099226
0000e0 d0 a7 cd bd 84 ed c0 bd 8a e5 ad bb fa fc 99 3c
       -0.10041773 -0.094203025 -0.005306904 0.018797386
0000f0 39 7e 3a be 91 17 12 bb ee 70 19 be 58 22 18 3e
       -0.18212213 -0.0022291879 -0.14984486 0.14856851
000100 b8 c2 93 bc dc 33 3c be 91 ff 28 be d5 e5 02 be
       -0.018037185 -0.18379158 -0.16503741 -0.12782986
000110 28 72 02 3c 4a e4 24 be 56 5d c4 3c 98 22 d6 3c
       0.007961787 -0.1610271 0.023970287 0.026139542
000120 93 ee 07 bd cb 6b 17 be 93 e6 a9 3d 36 88 0d 3d
       -0.033186506 -0.14787214 0.08295932 0.03455373
000130 e3 fa 2b be ed 36 a2 3d 91 f7 ac 3c b3 0e bf be
       -0.16794924 0.079206325 0.021114143 -0.37315902
000140 20 37 04 be d3 0a 78 bd 01 3c f7 bd a8 07 04 be
       -0.12911654 -0.060557198 -0.12071992 -0.12893546
000150 1f 72 0b be c8 49 29 be cc 47 15 be 69 85 22 bc
       -0.13617752 -0.16532052 -0.1457817 -0.009919503
000160 9d 65 a5 3d 57 32 b3 bb 26 14 d1 bd 99 e0 9d 3c
       0.08076022 -0.0054686475 -0.10208921 0.019272136
000170 da 36 29 be 59 10 63 3c 55 5c e9 37 ea c1 48 bd
       -0.1652483 0.013858878 2.781876e-05 -0.049013056
000180 03 f7 71 3d 50 17 2a be 3a b0 e9 3c 11 bf eb bd
       0.05907346 -0.16610456 0.028526414 -0.115110524
000190 3f 07 88 be 11 a4 bf 3d 02 c7 99 bd 5a dd 96 bd
       -0.26568028 0.09357465 -0.07508661 -0.07366438
0001a0 1a 36 f5 bb 77 b0 86 3b f4 cb d7 bb 13 d1 db bd
       -0.007483256 0.0041103917 -0.0065855924 -0.10733237
0001b0 5f 9d 3f be f1 a1 88 3d 2a 7b 4f bd bc 43 03 be
       -0.18712376 0.06671513 -0.050654568 -0.12818807
0001c0 0f 6e c8 bd d3 eb 19 be 73 ba 49 bd ce e5 18 be
       -0.09786617 -0.15031366 -0.049250077 -0.14931414
0001d0 9c a5 7f bd 30 b4 92 3d b4 75 2c 3d 3b 28 71 bd
       -0.062413797 0.07163274 0.042104438 -0.058876257
0001e0 ce 41 a3 bd d1 d5 cc bc e5 78 e0 3c 80 04 2f bd
       -0.079715356 -0.0250043 0.027401397 -0.0427289
0001f0 bf 97 00 be 17 34 f9 3c e7 62 ef bd ca c4 b5 bd
       -0.12557887 0.030420346 -0.11688786 -0.08875425
000200 52 20 30 bd 69 9d 61 be c5 69 bb 3b ba 16 f9 bd
       -0.042999573 -0.22032703 0.005719396 -0.12162538
000210 b2 a7 2d 3c b3 8b 55 be b7 d9 4a be 4e 0e 70 bd
       0.010599064 -0.20854072 -0.19809614 -0.058607392
000220 ed bb 95 be b1 dd 54 bd 22 c8 0c bc ac d0 75 3d
       -0.29244938 -0.051969234 -0.008592637 0.060013458
000230 4b 01 52 be 51 f9 43 3e 79 ff b6 3c 0c ad 56 3e
       -0.20508306 0.19138075 0.022338616 0.2096445
000240 7c f3 80 be 80 e4 29 3e ae 00 a4 be 12 99 4c 3b
       -0.25185764 0.16591072 -0.3203177 0.0031219167
000250 73 ef 72 be 10 e6 89 bd e3 7b 99 bd ce 93 c7 bb
       -0.23724155 -0.06733334 -0.07494333 -0.0060906177
000260 b7 50 ef bd 1a bd 33 be ff 98 aa be e7 33 4d be
       -0.11685317 -0.17552605 -0.33319852 -0.2003933
000270 29 1b 1a 3c 7d 9b 55 3d 5a 50 a8 bd 76 c8 0e bd
       0.00940589 0.05215024 -0.08218451 -0.034859143
000280 2c 21 0b bd 83 cf 29 be 45 4a 32 be 4e e6 5b bd
       -0.033967182 -0.16583066 -0.17411144 -0.053686433
000290 98 ed ae be b5 93 4f 3d 05 ae 6b be 30 8a 83 3e
       -0.34165645 0.050677974 -0.23015602 0.25691366
0002a0 9f e1 82 bd 48 15 8d be d9 c7 a3 bc 9b 51 21 3e
       -0.0639069 -0.275553 -0.019992756 0.15753786
0002b0 9b 48 a8 bd e2 e5 ae 3e 20 bd e2 bd 43 73 18 3c
       -0.082169734 0.34159762 -0.11071229 0.009304824
0002c0 3b 49 28 be 55 10 2f be 57 54 57 be a0 b5 f4 bd
       -0.16434185 -0.17096074 -0.21028267 -0.11948705
0002d0 e4 98 80 be 6b 9d f8 bc 5a c6 66 be 57 3a a4 bc
       -0.25116646 -0.0303485 -0.22536603 -0.02004735
0002e0 ee a8 c4 bd 16 42 e5 bb f7 69 33 3c e0 38 30 bd
       -0.09602533 -0.0069964034 0.010950557 -0.04302299
0002f0 f6 30 07 be b8 37 84 bd 3d 39 50 be 65 3f 6c 3e
       -0.13202271 -0.0645594 -0.20334335 0.23071058
000300 09 01 10 be c9 77 a3 bd 48 fd 6e be 02 58 4c bd
       -0.14062895 -0.079818316 -0.23338807 -0.04988862
000310 46 5d e4 bb 63 73 cf bd fb b4 13 bd 1b 2c cd 3c
       -0.006969127 -0.1012943 -0.03606127 0.025045445
000320 f8 e4 5e 3d bd c7 4b be d3 08 85 bd 41 8a 21 3d
       0.05441758 -0.19900413 -0.06495824 0.03943849
000330 14 35 f3 bd 0e bf 1f 3a 1f 6e 9b bd e2 8c 1b be
       -0.11875358 0.0006093838 -0.07589363 -0.15190461
000340 be c7 ab be 18 e2 b0 bc 24 ed 7a 3c 4c f5 cb bd
       -0.3355083 -0.021592185 0.015315328 -0.09958896
000350 3b 86 87 bd a0 fc 88 be 4e ed dc bd 5e 23 88 bc
       -0.06617399 -0.26755238 -0.1078745 -0.016618427
000360 3e fd b7 3d a5 71 a4 bd 86 c2 45 be 65 84 05 3d
       0.08983849 -0.080294885 -0.19312486 0.032596964
000370 5c 21 2d be d2 4b ff bd 7a 98 9b bd 59 13 94 bd
       -0.16907257 -0.124656335 -0.07597442 -0.07230253
000380 67 6d 5e 3c be be 61 be 9e 54 67 bd ac 7d 0a 3e
       0.013575888 -0.22045419 -0.05647718 0.13524503
000390 06 2b 70 3b 53 29 92 3e 75 4a 48 be e9 65 ca bd
       0.0036646738 0.28547153 -0.19559653 -0.09882719
0003a0 1d e4 04 3d 99 f0 8e be 59 4b 2a be 44 66 64 3d
       0.03244411 -0.27917936 -0.16630305 0.05576159
0003b0 af 16 9d bd 65 cf 14 3e f2 7f 65 bc 1a 83 69 be
       -0.07670342 0.1453224 -0.014007555 -0.22803918
0003c0 fa 2d 18 3d 73 22 c9 bc 55 4d 72 bd d6 58 b3 bd
       0.03715322 -0.02455256 -0.05915578 -0.087571785
0003d0 da 7a 97 3c df d0 13 3e 86 7b da bd 9e d0 89 bd
       0.018491197 0.14435147 -0.106680915 -0.06729244
0003e0 c3 d2 da 3d 87 b0 08 be 20 8a 93 3d a1 25 89 3b
       0.10684731 -0.1334859 0.0720408 0.004185394
0003f0 c4 5b 61 be eb 06 a3 bd 8f 5e 24 bd 60 01 89 3d
       -0.22007662 -0.07960304 -0.04012924 0.066897154

linears.2.bias f4 [5]
000000 8e 4a 93 be 54 26 cd be 72 fd e9 be b7 b2 f3 be
       -0.28767818 -0.40068305 -0.45701176 -0.47597286
000010 cc 6a 03 bf
       -0.51334834
