dqn-exp/savedir/student-test/checkpoint650--model.pth (torch_old, 20763 bytes, 6 tensors)

linears.0.weight f4 [64, 6]
0.050827578 0.17753923 -0.48866144 0.06866245 -0.3030266 0.05817119 0.0019320388 -0.15787868
0.02171778 -0.0068691517 0.016298864 0.53015697 0.44090083 0.314941 0.11827886 -0.028197866
-0.11216921 0.02008783 0.26791647 -0.1785151 -0.24273816 -0.0174839 -0.17801462 0.031573795
0.08794608 0.12665267 -0.20103249 -0.17319798 -0.24366218 -0.18550257 0.22407351 -0.09687794
-0.19834721 0.29772732 0.19124937 0.041437943 0.017235659 0.0071791275 0.45279738 -0.055048563
0.20281115 -0.03830164 -0.25561896 0.041328195 0.24713251 0.026081773 0.13097294 0.015848966
-0.090703845 -0.048249092 -0.062566005 0.31277058 0.40948272 0.302533 -0.23346709 0.10974538
-0.081561916 -0.13439944 -0.024062233 0.018405505 -0.10241259 0.020011948 -0.14218074 -0.069205336
0.4838136 -0.0235687 -0.12809616 0.22248425 0.40815368 0.032010764 -0.08795504 -0.010341992
0.00094472175 -0.06579337 0.03300641 -0.15418507 0.08080267 0.4620649 0.027378019 0.1568324
-0.014756881 0.01937091 0.016410962 -0.5497601 0.19198601 0.16680783 0.071649775 -0.07896464
-0.29549596 -0.3729135 -0.18479337 -0.13794711 0.057268523 -0.03779227 0.28661767 0.24958432
0.15719403 -0.010369558 -0.1632531 0.032307204 -0.53136617 0.1399404 0.22523855 0.14284217
-0.15737014 0.06720956 -0.50311357 -0.3233505 0.055805285 0.0241674 0.047383107 0.052618135
0.45858467 -0.15975183 0.06771462 0.09940231 0.0295 -0.030954028 -0.5833315 -0.28100103
0.14784597 -0.280694 0.084288105 0.16167983 -0.21081127 0.33138677 -0.0304294 0.2873814
0.025959678 0.08596088 0.042074583 -0.4457799 -0.14369996 -0.1009702 -0.13944815 -0.1768492
0.15891328 0.21810125 0.010256996 -0.041662008 0.13208559 0.007037783 0.15984598 0.41180366
0.06329808 0.06548283 0.1530119 0.24934655 0.03312336 0.11801245 -0.14735413 0.027522987
-0.10205857 -0.13939652 0.51377606 -0.16660424 -0.07864258 -0.033897042 -0.16765554 0.04409078
0.34924117 0.03882854 -0.149967 0.03410439 -0.1208371 0.13110211 -0.14725977 -0.14168854
0.087536 -0.048494603 0.01543056 0.056521215 -0.7902168 0.14377074 -0.025805509 0.18240437
0.40251195 -0.04088469 0.25346002 -0.40987995 0.030487727 -0.07142778 -0.010940985 -0.002557742
-0.030242002 0.7651671 -0.08106425 0.087705374 0.20034169 -0.1930052 0.14439836 -0.37737337
-0.012519798 0.05619412 -0.014705789 -0.016510881 0.023549002 -0.10296299 -0.16929772 0.054869182
-0.08330828 0.19450347 0.13157012 -0.17183527 0.18220222 0.07381917 0.046904642 -0.08328679
-0.2793671 -0.20163183 -0.1224617 -0.011785157 0.026053853 -0.016072199 0.18818675 -0.24113305
0.06669983 0.14609371 -0.106535025 4.1900785e-06 0.3165461 0.06243488 -0.0396182 0.015991552
0.094970584 0.23066646 0.23992841 0.12443312 -0.20255783 0.12912956 -0.15785159 -0.08571253
0.29360357 -0.02309074 -0.25639826 -0.48023754 -0.16158031 0.009901634 -0.22526087 -0.014742874
-0.03015039 0.09631965 0.006169743 0.009329702 -0.06145848 -0.73266083 0.15814915 -0.11753044
-0.007493962 -0.1095163 -0.039958946 -0.013311557 0.047783326 -0.22347984 0.056779385 -0.09675729
00000000: 9430 503d d8cc 353e d531 fabe e69e 8c3d
00000010: 4d26 9bbe ea44 6e3d 773c fd3a f3aa 21be
00000020: 7ce9 b13c 9f16 e1bb 3285 853c 5eb8 073f
00000030: c1bd e13e f23f a13e 303c f23d 36ff e6bc
00000040: f9b8 e5bd 3c8f a43c 592c 893e aacc 36be
00000050: 5a90 78be 653a 8fbc 7749 36be 8653 013d
00000060: 131d b43d 3db1 013e 76db 4dbe d05a 31be
00000070: 9482 79be 63f4 3dbe 8773 653e f167 c6bd
00000080: 881b 4bbe b76f 983e e0d6 433e d5ba 293d
00000090: cc31 8d3c e33e eb3b 0fd5 e73e 9a7a 61bd
000000a0: baad 4f3e 2ee2 1cbd 7de0 82be c147 293d
000000b0: 4e10 7d3e 71a9 d53c c51d 063e b1d5 813c
000000c0: f0c2 b9bd d7a0 45bd 9b22 80bd 7723 a03e
000000d0: b8a7 d13e 9be5 9a3e ff11 6fbe 30c2 e03d
000000e0: ef09 a7bd 02a0 09be 291e c5bc 24c7 963c
000000f0: b1bd d1bd 19f0 a33c d497 11be 87bb 8dbd
00000100: 6bb6 f73e 2513 c1bc a42b 03be e9d2 633e
00000110: 85f9 d03e b81d 033d c621 b4bd 7571 29bc
00000120: 34a7 773a adbe 86bd bb31 073d b1e2 1dbe
00000130: df7b a53d c593 ec3e de47 e03c ac98 203e
00000140: d8c6 71bc beaf 9e3c 4870 863c 14bd 0cbf
00000150: fb97 443e accf 2a3e 1ebd 923d 37b8 a1bd
00000160: 3f4b 97be 85ee bebe 793a 3dbe 0242 0dbe
00000170: 6692 6a3d 11cc 1abd 8dbf 923e 0893 7f3e
00000180: 79f7 203e 14e5 29bc d22b 27be 8f54 043d
00000190: 9d07 08bf 894c 0f3e efa4 663e 3845 123e
000001a0: a325 21be 2aa5 893d 0dcc 00bf 328e a5be
000001b0: 1594 643d b6fa c53c ca14 423d 1d86 573d
000001c0: 9ccb ea3e fc95 23be f6ad 8a3d 7093 cb3d
000001d0: fca9 f13c 4d93 fdbc 3755 15bf 5edf 8fbe
000001e0: ef64 173e 20b7 8fbe 3e9f ac3d 668f 253e
000001f0: e9de 57be 87ab a93e 1447 f9bc a823 933e
00000200: 64a9 d43c 420c b03d 6656 2c3d 433d e4be
00000210: 1526 13be 77c9 cebd 7fcb 0ebe f517 35be
00000220: 2aba 223e ef55 5f3e f60c 283c c8a5 2abd
00000230: 7241 073e 349d e63b aaae 233e eed7 d23e
00000240: 6ca2 813d dd1b 863d 27af 1c3e b454 7f3e
00000250: 5cac 073d 83b0 f13d 00e4 16be e377 e13c
00000260: 1504 d1bd f6bd 0ebe d486 033f 4d9a 2abe
00000270: 5c0f a1bd a0d7 0abd e5ad 2bbe 8998 343d
00000280: bdcf b23e ad0a 1f3d f390 19be 0bb1 0b3d
00000290: 7179 f7bd a23f 063e 44cb 16be cd16 11be
000002a0: 1346 b33d 47a2 46bd 76d0 7c3c ca82 673d
000002b0: a64b 4abf a338 133e 1366 d3bc 36c8 3a3e
000002c0: 0c16 ce3e b476 27bd 83c5 813e c9db d1be
000002d0: 66c1 f93c ba48 92bd d141 33bc ca9f 27bb
000002e0: 13be f7bc fee1 433f 0305 a6bd e09e b33d
000002f0: 5f26 4d3e 28a3 45be 2add 133e 1537 c1be
00000300: d71f 4dbc ce2b 663d 8df0 70bc d441 87bc
00000310: d6e9 c03c 43de d2bd 625c 2dbe 82be 603d
00000320: 889d aabd eb2b 473e 51ba 063e 96f5 2fbe
00000330: 3893 3a3e 812e 973d 151f 403d 4492 aabd
00000340: 3409 8fbe 9378 4ebe 33cd fabd 8816 41bc
00000350: e46e d53c d8a9 83bc 07b4 403e 95eb 76be
00000360: ec99 883d 9799 153e 092f dabd 8098 8c36
00000370: 5512 a23e b7bb 7f3d b246 22bd b700 833c
00000380: f07f c23d d433 6c3e cbaf 753e cbd6 fe3d
00000390: 526b 4fbe 8a3a 043e d9a3 21be 0d8a afbd
000003a0: 3553 963e cb28 bdbc a246 83be b2e1 f5be
000003b0: 4f75 25be 773a 223c c9aa 66be 188c 71bc
000003c0: f3fd f6bc 3d43 c53d 8e2b ca3b 9bdb 183c
000003d0: e3bb 7bbd a98f 3bbf daf1 213e cdb3 f0bd
000003e0: e98f f5bb 154a e0bd feab 23bd b718 5abc
000003f0: 73b8 433d e6d7 64be 8091 683d b028 c6bd

linears.0.bias f4 [64]
-0.1702681 0.0035931182 -0.3748168 -0.2440176 0.12895902 -0.7078627 -0.17067724 -0.27616382
0.3770336 0.4612639 -0.22140338 -0.36145917 -0.4281575 -0.19824345 0.4044615 -0.54167813
0.32628423 -0.5619138 0.47798628 0.13428836 0.4465938 0.28270105 0.47960505 0.25399578
0.41026655 0.14290658 -0.37473917 -0.027322575 0.051230036 -0.38283834 -0.057394296 -0.088106506
-0.050805368 0.40824473 -0.0026643325 0.079475865 -0.002960637 -0.2727401 0.2516922 -0.41984385
-0.07978433 -0.40703365 0.4555214 -0.5724355 -0.16373944 -0.36351523 0.5430762 0.41424543
-0.23771556 0.056737315 -0.24845225 0.29135966 0.02273399 0.3703329 0.36072722 -0.326141
-0.34553537 -0.09212269 0.3383012 -0.3013252 0.08355916 -0.073033534 0.38479418 -0.38900656
00000000: c35a 2ebe 857a 6b3b fde7 bfbe c0df 79be
00000010: d50d 043e 7d36 35bf 04c6 2ebe 5865 8dbe
00000020: 8c0a c13e c82a ec3e 91b7 62be 2d11 b9be
00000030: 7637 dbbe 5500 4bbe 9415 cf3e 6bab 0abf
00000040: ba0e a73e 95d9 0fbf 9eba f43e e382 093e
00000050: f1a7 e43e 31be 903e cb8e f53e bc0b 823e
00000060: 750e d23e 1a56 123e d0dd bfbe 98d3 dfbc
00000070: 96d6 513d 6303 c4be 4816 6bbd 2f71 b4bd
00000080: 4a19 50bd 7405 d13e 159c 2ebb 3ec4 a23d
00000090: 3f07 42bb 97a4 8bbe cddd 803e c6f5 d6be
000000a0: f865 a3bd b766 d0be 1a3a e93e 228b 12bf
000000b0: 50ab 27be ab1e babe 0b07 0b3f fa17 d43e
000000c0: b56b 73be 6365 683d 446a 7ebe 182d 953e
000000d0: a23c ba3c 469c bd3e 3db1 b83e f4fb a6be
000000e0: 03ea b0be d2aa bcbd d135 ad3e 4c47 9abe
000000f0: 1121 ab3d 9b92 95bd be03 c53e de2b c7be

linears.1.weight f4 [64, 64]
-0.04303959 -0.017255148 0.01792316 0.035438605 -0.10870451 0.17245962 0.0514576 0.012458472
-0.09070533 -0.000971434 0.11560573 -0.066369936 -0.050480906 0.061428796 -0.12618604 0.06382857
0.11515842 -0.012373555 -0.092492394 -0.051544648 0.06152454 -0.095994465 -0.071106195 0.066656515
0.10155713 -0.006706361 0.053324454 0.030573675 -0.07038131 -0.029157927 -0.060998738 -0.06986863
0.18026288 -0.026378578 0.12225811 0.119316675 0.05592777 -0.055796906 -0.033403657 0.008996306
-0.016224964 -0.042664386 -0.036597107 0.12892629 -0.13454808 -0.024386508 -0.15502052 -0.03625927
0.0691699 0.2507754 0.05648297 -0.042400002 0.015536918 -0.13950133 -0.039412495 -0.16472724
0.013222499 -0.032505497 0.12900348 0.14374329 0.19973756 -0.027853055 -0.09597099 0.07951748
-0.07277772 0.07200298 -0.04674283 -0.026996117 -0.17072402 0.12707904 -0.01591691 -0.0023650078
-0.08389174 0.04076316 -0.10891291 0.10294377 0.047696512 0.14280485 0.0469891 0.0866333
-0.012168383 0.11340087 -0.26439902 -0.037530396 -0.024106704 0.12386367 -0.09785447 0.040378135
0.047901064 -0.08421602 0.25273255 -0.12161805 -0.027558336 -0.07333558 -0.18966848 0.14084436
0.17644171 0.01742748 -0.018100912 -0.089473166 -0.13189 0.05237191 0.052732896 -0.012447416
-0.16666447 0.005499185 -0.17540282 0.093288094 0.11222164 0.047976855 -0.08284797 0.045117997
0.006142116 -0.06166112 -0.0133808255 -0.1952144 -0.18687391 -0.061136242 -0.023013087 0.087784566
-0.24290816 -0.05522621 -0.0032957264 0.19488412 -0.08440034 0.021212889 0.1404913 0.25125122
0.10239272 -0.019227909 0.11907934 -0.052416895 -0.114794284 0.2354923 0.020169543 0.011310377
0.0045574857 0.035596315 -0.05104756 0.021395648 -0.10693638 0.15048715 -0.16304 -0.0336286
-0.051281016 -0.06533721 -0.16745917 -0.08923723 0.03501067 0.19969958 -0.0076758508 0.04062187
-0.21083987 -0.10362986 0.13305303 -0.10303968 -0.06278876 -0.112849906 -0.082266495 0.06877807
0.16732706 0.017460505 -0.024698203 0.08104458 -0.033603333 0.13050541 -0.17482328 0.24801153
-0.037625637 0.004108179 -0.024504403 0.120492674 0.1872218 0.11280156 -0.077582985 -0.00561953
0.1973558 -0.022148827 -0.02646771 -0.05718325 -0.1205598 -0.0066147884 0.03766267 0.017881598
-0.209681 -0.107468575 0.014539509 0.0020821502 0.12918973 -0.03960256 -0.0451846 0.06334282
0.075401224 -0.102404594 0.1745165 0.0031039873 0.09765039 0.23709856 0.06596694 -0.029548049
-0.06342023 0.004030615 -0.17057936 0.006246953 -0.038489383 0.25259805 -0.10842093 -0.03698248
0.17939334 -0.057281945 -0.15563363 -0.08621299 0.086495265 0.18772912 -0.06892371 0.008121798
-0.10650119 -0.001997936 0.09489359 -0.042342786 -0.014426931 0.16151285 0.052301038 -0.047595806
0.23534606 -0.12061794 -0.048447218 -0.010577578 0.03713101 0.17293705 0.11639776 -0.024754152
-0.09134118 0.19733396 -0.07414598 -0.123837106 -0.18934627 0.03301259 -0.22572349 -0.060619485
0.08388761 -0.021443743 -0.042607285 -0.04578933 -0.17262325 -0.10581877 0.095255315 -0.08667453
-0.029925795 -0.07336619 -0.06549825 0.1337874 0.06755712 0.015112022 0.11357079 0.13348974
00000000: 484a 30bd ab5a 8dbc 97d3 923c 1228 113d
00000010: 78a0 debd 4199 303e 34c5 523d 9e1e 4c3c
00000020: b7c3 b9bd d5a7 7eba b2c2 ec3d f6ec 87bd
00000030: 11c5 4ebd c39c 7b3d ea36 01be 8eb8 823d
00000040: 2dd8 eb3d 74ba 4abc a76c bdbd 7b20 53bd
00000050: 2801 7c3d bf98 c4bd 20a0 91bd 3683 883d
00000060: 2ffd cf3d 09c1 dbbb be6a 5a3d a575 fa3c
00000070: 1424 90bd 9bdc eebc d0d9 79bd 4917 8fbd
00000080: d596 383e e317 d8bc 7662 fa3d 4d5c f43d
00000090: 8414 653d 4c8b 64bd 46d2 08bd 3e65 133c
000000a0: 37ea 84bc dac0 2ebd d9e6 15bd 4105 043e
000000b0: f9c6 09be 37c6 c7bc b3bd 1ebe 9a84 14bd
000000c0: f3a8 8d3d a265 803e b05a 673d a0ab 2dbd
000000d0: 8f8e 7e3c 70d9 0ebe ff6e 21bd 42ae 28be
000000e0: 2ea3 583c 7c24 05bd 7d19 043e 7131 133e
000000f0: 0188 4c3e 172c e4bc 708c c4bd 10da a23d
00000100: 7c0c 95bd 4c76 933d 6975 3fbd f626 ddbc
00000110: 47d2 2ebe 0221 023e 2e64 82bc 3ffe 1abb
00000120: 6fcf abbd 45f7 263d bb0d dfbd 2fd4 d23d
00000130: 6b5d 433d 6f3b 123e a477 403d cd6c b13d
00000140: e65d 47bc b73e e83d 4f5f 87be 79b9 19bd
00000150: 6c7b c5bc 3cac fd3d ed67 c8bd 8b63 253d
00000160: e833 443d 7379 acbd 2966 813e e212 f9bd
00000170: 05c2 e1bc f730 96bd 7438 42be 8139 103e
00000180: 23ad 343e 13c4 8e3c 5d48 94bc b53d b7bd
00000190: 2c0e 07be ee83 563d 73fe 573d 3ff0 4bbc
000001a0: 17aa 2abe 8232 b43b cc9c 33be d40d bf3d
000001b0: 76d4 e53d 6183 443d 32ac a9bd a6cd 383d
000001c0: ce43 c93b 5f90 7cbd 403b 5bbc 49e6 47be
000001d0: e05b 3fbe ff69 7abd f185 bcbc 65c8 b33d
000001e0: ebbc 78be e134 62bd 1dfd 57bb b48f 473e
000001f0: 16da acbd a7c6 ad3c f4dc 0f3e 00a4 803e
00000200: 46b3 d13d d983 9dbc dedf f33d 19b3 56bd
00000210: 4419 ebbd e524 713e 993a a53c 294f 393c
00000220: f656 953b 71cd 113d 3f17 51bd ed45 af3c
00000230: 7601 dbbd 4e19 1a3e f5f3 26be 25be 09bd
00000240: 0b0c 52bd 84cf 85bd 6b7a 2bbe 02c2 b6bd
00000250: 5967 0f3d 0c7e 4c3e b485 fbbb 1e63 263d
00000260: 68e6 57be e43b d4bd 0e3f 083e 7806 d3bd
00000270: 6597 80bd da1d e7bd 567b a8bd 84db 8c3d
00000280: c957 2b3e 5509 8f3c e353 cabc b3fa a53d
00000290: a6a3 09bd 36a3 053e e004 33be bcf6 7d3e
000002a0: 571d 1abd e79d 863b 75bd c8bc ddc4 f63d
000002b0: 12b7 3f3e 8104 e73d d4e3 9ebd 0924 b8bb
000002c0: a417 4a3e 7571 b5bc d0d2 d8bc fc38 6abd
000002d0: 0ee8 f6bd dec0 d8bb 2c44 1a3d 6e7c 923c
000002e0: 9eb6 56be 7c18 dcbd 1f37 6e3c af74 083b
000002f0: 504a 043e 4b36 22bd 7d13 39bd e1b9 813d
00000300: f56b 9a3d 80b9 d1bd 74b4 323e 446c 4b3b
00000310: edfc c73d f7c9 723e ad19 873d c00e f2bc
00000320: 77e2 81bd 4013 843b 5bac 2ebe 3db3 cc3b
00000330: 0ba7 1dbd 8854 813e cb0b debd f17a 17bd
00000340: e3b2 373e 79a0 6abd 6c5e 1fbe 7090 b0bd
00000350: 6e24 b13d 103c 403e e027 8dbd 4a11 053c
00000360: 4c1d dabd ceef 02bb 9257 c23d a16f 2dbd
00000370: ef5e 6cbc a063 253e 9d39 563d d2f3 42bd
00000380: 8ffe 703e 8a06 f7bd 9770 46bd 944d 2dbc
00000390: b016 183d 6916 313e f361 ee3d 38c9 cabc
000003a0: 1611 bbbd ea11 4a3e d9d9 97bd 4f9e fdbd
000003b0: fde3 41be 3638 073d 0f24 67be 234c 78bd
000003c0: 44cd ab3d caaa afbc fa84 2ebd 988d 3bbd
000003d0: 26c4 30be 83b7 d8bd 3815 c33d 6a82 b1bd
000003e0: f126 f5bc 0341 96bd f223 86bd 90ff 083e
000003f0: 635b 8a3d 6a98 773c cd97 e83d 89b1 083e

linears.1.bias f4 [64]
0.23604931 0.4838556 0.334236 0.31524548 -0.056083564 0.36532155 -0.14068367 0.13316919
-0.24317485 0.43785447 0.07140089 -0.033521786 0.5110061 0.34541184 0.28848815 0.22747247
0.21372922 0.038179975 -0.30235538 0.3891179 0.2915462 0.34040686 0.36507282 0.2203791
-0.09556996 0.035431355 0.2764848 -0.19369936 0.19141243 0.03180982 -0.22412087 0.25258574
0.34815225 0.44279042 -0.0725841 -0.18327856 -0.040724527 0.10643063 0.39657775 0.05129886
0.053893227 0.23622616 -0.21110484 0.12257113 0.24524976 0.21685924 -0.3279093 0.40770698
0.26943228 0.48015743 0.062462356 0.3616388 -0.21943179 -0.14655153 0.0061870166 0.19710281
-0.2183312 0.27199292 -0.17242822 0.262707 0.45744544 0.031711165 0.34454152 0.3658068
00000000: e9b6 713e ecbb f73e fb20 ab3e db67 a13e
00000010: e1b7 65bd 6d0b bb3e 610f 10be 815d 083e
00000020: d402 79be 762e e03e a13a 923d 244e 09bd
00000030: 4cd1 023f d2d9 b03e b8b4 933e 8bee 683e
00000040: d5db 5a3e 9b62 1c3d 53ce 9abe 763a c73e
00000050: 8b45 953e cf49 ae3e d3ea ba3e 0fab 613e
00000060: 2fba c3bd 7820 113d 6a8f 8d3e 2059 46be
00000070: 9f01 443e 044b 023d f17f 65be eb52 813e
00000080: 0341 b23e 6db5 e23e f9a6 94bd 60ad 3bbe
00000090: c3ce 26bd 4df8 d93d 3d0c cb3e c11e 523d
000000a0: 25bf 5c3d 45e5 713e de2b 58be 9306 fb3d
000000b0: c122 7b3e 5910 5e3e bae3 a7be f8be d03e
000000c0: 07f3 893e 32d7 f53e 87d8 7f3d b928 b93e
000000d0: bab2 60be 9b11 16be 75bc ca3b 52d5 493e
000000e0: 3792 5fbe a842 8b3e 0691 30be 8881 863e
000000f0: 4a36 ea3e 91e3 013d bf67 b03e 074b bb3e

linears.2.weight f4 [5, 64]
-0.11206015 -0.18580264 -0.10442447 -0.15177068 -0.05104924 -0.11706839 -0.08274447 -0.02354403
-0.20884416 -0.042711936 0.068150036 -0.031361956 -0.15335396 -0.07290301 -0.0007268777 -0.146766
-0.1330331 0.054109767 -0.24771659 -0.11668678 -0.23751433 -0.06563257 -0.052656144 -0.039528653
0.049849585 -0.04495393 -0.18841241 -0.15860736 -0.07979807 0.018402494 -0.117426835 -0.048314903
0.007915838 -0.03355649 -0.09381241 -0.17888968 -0.18512261 0.20167919 -0.15814286 0.031042287
-0.013932569 -0.095709786 -0.04922495 0.10954185 -0.16488615 0.096902885 -0.049499545 -0.16493075
-0.08473039 -0.113430046 0.06290154 -0.10838014 -0.2581204 0.03878551 0.0025573298 0.06966852
-0.10041773 -0.101745136 -0.038825195 0.018797386 -0.17220517 -0.0022291879 -0.14143069 0.20301473
-0.023481997 -0.17427643 -0.15823789 -0.12015433 -0.018466543 -0.1505504 0.023970287 -0.020261051
-0.033186506 -0.15028404 0.062537104 0.03455373 -0.15566386 0.1312188 -0.0027420463 -0.37315902
-0.084543586 -0.060557198 -0.12071992 -0.13015048 -0.12545067 -0.1425919 -0.14868565 -0.027962774
0.08076022 -0.0054686475 -0.064981446 0.019272136 -0.16357316 0.013858878 2.781876e-05 -0.05524524
0.05907346 -0.16204025 0.028526414 -0.115110524 -0.26568028 0.1573115 -0.06332868 -0.07366438
-0.007401822 0.052825004 0.041085422 -0.10733237 -0.18228458 0.06671513 -0.078186505 -0.118019804
-0.057160117 -0.14162539 -0.049250077 -0.14623478 -0.062413797 0.07196423 0.042104438 -0.09219871
-0.079715356 -0.023161609 0.00037061432 -0.0427289 -0.11458692 0.030420346 -0.11005804 -0.00461085
-0.05992954 -0.21501614 0.015103366 -0.11643873 -0.027291976 -0.20424432 -0.19809614 -0.07938964
-0.29244938 -0.054191135 -0.06437582 0.060013458 -0.1996437 0.19207118 0.008985237 0.2096445
-0.2502259 0.16591072 -0.3203177 0.006947713 -0.23009303 -0.048313078 -0.08113261 0.026668772
-0.11685317 -0.17552605 -0.31471542 -0.2003933 0.018289104 0.05215024 -0.08218451 -0.04835122
-0.033967182 -0.16566116 -0.17411144 -0.08499495 -0.34165645 0.050677974 -0.22534898 0.25691366
-0.066122524 -0.22222988 -0.019153157 0.15753786 -0.076908395 0.34159762 -0.129215 0.018267032
-0.14787015 -0.17080191 -0.21028267 -0.11834593 -0.25116646 -0.028211793 -0.22536603 -0.05312141
-0.09602533 0.0077184024 -0.02092193 -0.04302299 -0.12382361 -0.0645594 -0.19963044 0.24498951
-0.16299516 -0.06563504 -0.23052888 -0.03979769 -0.03186054 -0.08530774 -0.03606127 -0.0037341183
0.05441758 -0.2013184 -0.09472202 0.03943849 -0.10657197 -0.0794508 -0.1217616 -0.15190461
-0.32948092 -0.021592185 0.015315328 -0.097635485 -0.05023623 -0.2560178 -0.10910614 -0.07353543
0.08983849 -0.080294885 -0.17078997 0.032596964 -0.16315858 -0.124656335 -0.07597442 -0.080437444
0.013575888 -0.21706855 -0.05647718 0.16669714 0.0036646738 0.27196276 -0.18509972 -0.09882719
0.032404978 -0.27705097 -0.21075845 0.05576159 -0.06582665 0.1453224 -0.029638018 -0.2204516
0.069595695 -0.012062288 -0.05915578 -0.081267156 0.018491197 0.1434198 -0.106680915 -0.117265955
0.10684731 -0.16126384 0.050778158 0.004185394 -0.20850015 -0.07960304 -0.027847877 0.091811135
00000000: cb7f e5bd 0c43 3ebe 7fdc d5bd c669 1bbe
00000010: 0219 51bd 8dc1 efbd ef75 a9bd 69df c0bc
00000020: 3edb 55be b6f2 2ebd 3f92 8b3d 6575 00bd
00000030: d208 1dbe 2c4e 95bd f08b 3eba d449 16be
00000040: d439 08be 34a2 5d3d 6ba9 7dbe 7af9 eebd
00000050: f536 73be 5e6a 86bd f8ad 57bd cce8 21bd
00000060: 142f 4c3d 9d21 38bd 2fef 40be f869 22be
00000070: 2c6d a3bd d4c0 963c 7b7d f0bd d9e5 45bd
00000080: 6eb1 013c 8872 09bd b920 c0bd db2e 37be
00000090: c890 3dbe fd84 4e3e 34f0 21be 654c fe3c
000000a0: 6e45 64bc 7e03 c4bd 1aa0 49bd 7a57 e03d
000000b0: ead7 28be 0575 c63d 09c0 4abd 9be3 28be
000000c0: 2087 adbd 034e e8bd 86d2 803d 68f6 ddbd
000000d0: 5b28 84be 8edd 1e3d e098 273b 5eae 8e3d
000000e0: d0a7 cdbd c15f d0bd 2b07 1fbd fafc 993c
000000f0: 8d56 30be 9117 12bb 35d3 10be 18e3 4f3e
00000100: 515d c0bc 8575 32be 1d09 22be 7913 f6bd
00000110: 2647 97bc e229 1abe 565d c43c 81fa a5bc
00000120: 93ee 07bd 0fe4 19be 7413 803d 3688 0d3d
00000130: 5966 1fbe 395e 063e e7b3 33bb b30e bfbe
00000140: 3025 adbd d30a 78bd 013c f7bd 2b46 05be
00000150: 2476 00be 9c03 12be 0d41 18be 3012 e5bc
00000160: 9d65 a53d 5732 b3bb fe14 85bd 99e0 9d3c
00000170: b97f 27be 5910 633c 555c e937 d548 62bd
00000180: 03f7 713d e1ed 25be 3ab0 e93c 11bf ebbd
00000190: 3f07 88be 4416 213e 78b2 81bd 5add 96bd
000001a0: fc8a f2bb 085f 583d 3049 283d 13d1 dbbd
000001b0: cfa8 3abe f1a1 883d 3f20 a0bd 5eb4 f1bd
000001c0: ba20 6abd 3f06 11be 73ba 49bd 92be 15be
000001d0: 9ca5 7fbd fb61 933d b475 2c3d add2 bcbd
000001e0: ce41 a3bd 6abd bdbc 034f c239 8004 2fbd
000001f0: 8cac eabd 1734 f93c 1c66 e1bd 9d16 97bb
00000200: ad78 75bd 312d 5cbe 1c74 773c 6e77 eebd
00000210: 6c93 dfbc 6c25 51be b7d9 4abe 0997 a2bd
00000220: edbb 95be 86f7 5dbd 78d7 83bd acd0 753d
00000230: 666f 4cbe 4fae 443e d136 133c 0cad 563e
00000240: 9c1d 80be 80e4 293e ae00 a4be a4a9 e33b
00000250: 829d 6bbe efe3 45bd db28 a6bd 7878 da3c
00000260: b750 efbd 1abd 33be 6122 a1be e733 4dbe
00000270: 08d3 953c 7d9b 553d 5a50 a8bd ee0b 46bd
00000280: 2c21 0bbd 14a3 29be 454a 32be d511 aebd
00000290: 98ed aebe b593 4f3d e2c1 66be 308a 833e
000002a0: 3f6b 87bd 3b90 63be 15e7 9cbc 9b51 213e
000002b0: 2682 9dbd e2e5 ae3e f050 04be bea4 953c
000002c0: 466b 17be b2e6 2ebe 5754 57be 5a5f f2bd
000002d0: e498 80be 6b1c e7bc 5ac6 66be d695 59bd
000002e0: eea8 c4bd a7ea fc3b 7864 abbc e038 30bd
000002f0: 3c97 fdbd b837 84bd ec6b 4cbe 88de 7a3e
00000300: 34e8 26be aa6b 86bd c30f 6cbe e702 23bd
00000310: 3380 02bd d3b5 aebd fbb4 13bd 1cb8 74bb
00000320: f8e4 5e3d 6926 4ebe 9efd c1bd 418a 213d
00000330: 6842 dabd 1ab7 a2bd 255e f9bd e28c 1bbe
00000340: b9b1 a8be 18e2 b0bc 24ed 7a3c 1df5 c7bd
00000350: 81c4 4dbd c414 83be 0a73 dfbd be99 96bd
00000360: 3efd b73d a571 a4bd 91e3 2ebe 6584 053d
00000370: 0b13 27be d24b ffbd 7a98 9bbd 63bc a4bd
00000380: 676d 5e3c 3847 5ebe 9e54 67bd a8b2 2a3e
00000390: 062b 703b b43e 8b3e c88a 3dbe e965 cabd
000003a0: 15bb 043d a0d9 8dbe 10d1 57be 4466 643d
000003b0: 1fd0 86bd 65cf 143e 6ecb f2bc 10be 61be
000003c0: 3088 8e3d e7a0 45bc 554d 72bd 656f a6bd
000003d0: da7a 973c a4dc 123e 867b dabd 2229 f0bd
000003e0: c3d2 da3d 5922 25be c2fc 4f3d a125 893b
000003f0: 1081 55be eb06 a3bd 3b21 e4bc 7a07 bc3d

linears.2.bias f4 [5]
-0.23284511 -0.3128242 -0.4018493 -0.40591237 -0.43815383
00000000: f36e 6ebe 7e2a a0be 31bf cdbe bfd3 cfbe
00000010: b355 e0be
