dqn-exp/savedir/student-test/checkpoint200--model.pth (torch_old, 20763 bytes, 6 tensors)

linears.0.weight f4 [64, 6]
00000000: acb0 843d beaa c43e a9e1 f8be 7cbd 663e
00000010: f6cd b7be a7ff 70bc 2508 3a3d 76b7 82be
00000020: a7b2 6e3d 047d 58bd a5e1 53bd dbce 013f
00000030: ee59 123f 4f73 ee3e ae7a 093e dfea 52bd
00000040: db7e 49be f4de e33d f3d5 e23e fff6 a6be
00000050: f018 2bbe 6266 d9bd 5078 f1bd c564 be3b
00000060: c67f 073c c592 8e3e bf2e 80be a0ed 85bd
00000070: a53c 95be dce6 b0be e2db 173f 945b e0be
00000080: 1dec 40be 4124 183e 1225 fb3d 7519 b2bd
00000090: 2ece 7d3e 9b0d 42bd cf3f dc3e ddba 9fbe
000000a0: 5219 0f3e 5fd1 e4bc 5f4a 9cbe aa91 a63d
000000b0: 72a8 9e3e 9ce7 cebd 4beb bb3d fbda 3e3a
000000c0: 3243 423e 3667 d8bd 9f5d fdbd 59c6 b03e
000000d0: 996c ed3e c5f6 a63e bacf bbbe 1adf 8e3e
000000e0: 7404 1dbe eda9 26be f2b2 22bd 815e 1b3d
000000f0: 492a bfbc 7a0f 4e3e bfe9 a2be c3c7 12be
00000100: d70b bf3e c458 7dbd 5bc2 8ebe 6d92 133e
00000110: 9c5a 083f fd3c 273e 4830 18be b68f babd
00000120: 66aa 3c3e 6ca8 f03c 2617 253d db22 4fbe
00000130: 546a dc3d c55f 0f3f 10f0 6f3d ed7c 763e
00000140: 2eab 0f3e dad3 423e ef50 2abe b64b eabe
00000150: f36d 4e3e 395c 2d3e 0bd8 8f3d 4fc0 323c
00000160: e236 80be c8d0 09bf a3f2 ca3d fe20 8bbd
00000170: 92e8 0f3e e00b febd 7b6e 403e c74a 983e
00000180: cac2 4f3e a167 b73c 8838 6fbe 3441 a73d
00000190: 9eed 23bf 8fa8 123e d37b 463e 8705 c23e
000001a0: 3574 0f3e 7fff 773e 4c65 09bf 15a3 85be
000001b0: 6a66 663e f934 07be 11e5 8d3d b34d 6e3d
000001c0: 2db5 d73e 62fc 13be a11c d03c b9e1 c63d
000001d0: ff98 f9bd 8cbc 9b3d b0d2 f6be 9e71 c5be
000001e0: c310 b23d 05b3 a7be fcd3 743e 482c 473e
000001f0: 6a4d 4cbe 04e3 cf3e c41c b63c b674 de3e
00000200: f588 943d 7aaf 603e f40b d53c bd45 00bf
00000210: 2211 16be ec57 85bd f730 1cbe d50d 77be
00000220: b0a3 cb3d c753 613e 38cc 59bd 0766 213e
00000230: 8134 6e3e 24de d0bd 939c 173e 559f d13e
00000240: e0c0 dd3d c9b0 013e 2004 3b3e a0ed ad3e
00000250: f153 343d 3bf1 e43d 3692 85bd 81a6 64bd
00000260: 9187 41be be55 17be 3289 fd3e 4eac 52be
00000270: 7ed5 29be 867b 27be e0f5 b5be 7259 58be
00000280: 973b bd3e 545e 24bb 5056 8ebe b06e fa3d
00000290: 25a2 48be 0a98 d53d 2b14 a23d 7662 89be
000002a0: 8e80 e83c 8631 dabd a92a 073e 5ac9 c33d
000002b0: 0c6c 19bf b367 fe3e 6f61 f9bd c411 793e
000002c0: b957 e03e 5075 273c 3ed3 3a3e 8caa a6be
000002d0: d986 cc3d e198 d1bd c693 a5bd 6e6c 513e
000002e0: f61b 39be d6df 253f 4d7f 97be e15c 4abe
000002f0: 8a61 ac3e 5001 c0be e3a9 2d3e b094 d3be
00000300: bceb 3e3e 121c 01be bbf5 263c 647e 9bbe
00000310: 352f 3abd fa28 2ebd 7e71 8cbe c7f5 793d
00000320: 9988 2fbe f549 893e b1b7 af3d 3a52 19be
00000330: a640 9f3e 03be 95bd 6843 d23d 8156 9fbe
00000340: cf75 0fbf b48b 01be 2bae 97be 54e3 4ebd
00000350: 7fe1 88bc e654 35bd 1108 813e 3710 a0be
00000360: 0e38 873e b5ad a03e 6b81 16be 9f4b 2d3e
00000370: e403 463e 3342 01be 27f2 3f3e 1041 063e
00000380: bd2f 493e f085 bb3e 9dd1 573e 7341 363e
00000390: 65ee 81be 0081 2a3e 3a6b 74be 94b6 13bd
000003a0: e52e ac3e 7f4f 01be 75b2 afbe c3c0 0abf
000003b0: 7b78 49be e60b 293c 1aaa a8be 11ca c6bd
000003c0: 7b2c 0bbd 2a0f be3d 38e4 e5bd 3cae 0a3e
000003d0: dec0 24be e179 16bf daf1 213e cdb3 f0bd
000003e0: e98f f5bb 154a e0bd feab 23bd b718 5abc
000003f0: 17ee 1a3c a125 90be fbf2 573e cf0c 7ebe
0.0647901 0.38411516 -0.48609665 0.2253322 -0.35899323 -0.01470939 0.045417923 -0.25530595
0.058275845 -0.0528536 -0.051728863 0.5070626 0.5716847 0.46572348 0.13425705 -0.05149352
-0.19677298 0.11126509 0.44303855 -0.32610318 -0.16708732 -0.10615231 -0.11790526 0.0058103525
0.00827021 0.2784635 -0.25035664 -0.06539464 -0.2914783 -0.34551132 0.5931989 -0.4381987
-0.1884007 0.1485758 0.1226293 -0.08696262 0.24785683 -0.047376256 0.43017432 -0.31197253
0.13974503 -0.027931867 -0.3052549 0.08133252 0.3098789 -0.1010277 0.09175738 0.00072805554
0.18970945 -0.10566561 -0.123713724 0.34526327 0.46371916 0.32610145 -0.3668192 0.27904588
-0.1533373 -0.16275759 -0.039721437 0.037931923 -0.023335593 0.20123091 -0.3181896 -0.14334016
0.3731372 -0.06185223 -0.27882656 0.14411326 0.5326326 0.16331859 -0.14862168 -0.09109442
0.18424377 0.029377185 0.04030528 -0.2022814 0.10762468 0.5600551 0.05857855 0.24071093
0.14030144 0.19026127 -0.16632436 -0.45760888 0.2015913 0.16929711 0.07023629 0.010910108
-0.25041872 -0.538342 0.099095605 -0.06793402 0.14053562 -0.12404609 0.18792145 0.2974455
0.2028915 0.022388281 -0.23361409 0.081667334 -0.6403445 0.14322113 0.19383173 0.37894842
0.14009173 0.24218558 -0.5367019 -0.26100984 0.22500005 -0.13203801 0.069284566 0.05817957
0.42130414 -0.14451745 0.025404276 0.09711022 -0.12187385 0.07604322 -0.48207617 -0.38563246
0.08694603 -0.3275377 0.2390899 0.19450486 -0.19951406 0.40602887 0.022230513 0.43448418
0.07252685 0.21941939 0.026006676 -0.5010641 -0.14654973 -0.065109104 -0.15253054 -0.2412637
0.0994333 0.22004615 -0.053173274 0.15761577 0.23262216 -0.1019862 0.14805822 0.40941873
0.108278036 0.12665094 0.18263292 0.33970356 0.044025365 0.111788236 -0.06522028 -0.055822853
-0.1889937 -0.14778802 0.49518734 -0.20573542 -0.16585347 -0.16355714 -0.3553915 -0.2112787
0.36959526 -0.0025080638 -0.27800226 0.12228143 -0.19593103 0.1042939 0.07914003 -0.26832932
0.028381612 -0.10653977 0.13199867 0.09559889 -0.5993049 0.4968849 -0.12176787 0.24323183
0.43816927 0.010220841 0.18244645 -0.32551992 0.09986658 -0.102342375 -0.08084826 0.20451519
-0.18077073 0.6479467 -0.2958931 -0.19761993 0.33668166 -0.37501 0.16959338 -0.41324377
0.18644613 -0.12608364 0.010190423 -0.30369866 -0.045455176 -0.042519547 -0.27430338 0.061025407
-0.17141952 0.26814237 0.08579958 -0.14972773 0.3110401 -0.073116325 0.10266763 -0.31120685
-0.56039137 -0.12650949 -0.29625067 -0.050509766 -0.016709087 -0.04427042 0.25201467 -0.3126237
0.26409954 0.31382528 -0.14697807 0.16923378 0.19337422 -0.12622909 0.18744718 0.13110757
0.19647117 0.36625624 0.21076055 0.17798404 -0.25377193 0.16650772 -0.23869029 -0.036062792
0.33629528 -0.12627982 -0.3431584 -0.5420038 -0.19674866 0.010317778 -0.32942277 -0.0970651
-0.033977967 0.09280236 -0.1122517 0.13543028 -0.16089198 -0.5877972 0.15814915 -0.11753044
-0.007493962 -0.1095163 -0.039958946 -0.013311557 0.009456179 -0.2815371 0.21088783 -0.24809574

linears.0.bias f4 [64]
00000000: 1b09 82bd bbb6 0a3d b4b5 61be aa5b 16be
00000010: 50b5 623e 5f76 f5be e811 6abd bead 0ebe
00000020: 6e74 923e bb33 e93e bc4e 0cbe 3b70 6ebe
00000030: ea85 5fbe 9afc b0bd c12d b13e 9559 adbe
00000040: e64f 373e 156a b5be 8ab0 df3e aa43 2b3e
00000050: cbac dd3e 9c8e 843e 0abd f23e 5829 843e
00000060: 6af0 d93e 690c 913d d520 33be ae25 7a3c
00000070: 9a8c 4a3d 9e30 bfbe 98ea 823c 419c 2b3e
00000080: 5557 8d3e e430 d33e cd15 f83d dcbe 023e
00000090: 0480 ac3d 3a38 973d c6bf 873e ff93 dabe
000000a0: 2117 61bd b766 d0be b965 d53e f71a 09bf
000000b0: 229a 343d 3ac3 6bbe 476b 073f c933 c63e
000000c0: c60a 893d ed43 f73d 6103 8ebc bd81 903e
000000d0: 71ba 283d 6476 b33e 6b31 bb3e d16c 93bd
000000e0: 83b2 6abd c5be 8abd f4e6 8a3e 8c53 44be
000000f0: 17cd cabc a422 783c 89d0 e23e 1cd6 71be
-0.06349393 0.03386567 -0.2204197 -0.14683405 0.22139478 -0.47941872 -0.057145983 -0.13933465
0.28604454 0.4554728 -0.1370191 -0.23285 -0.21828428 -0.0864193 0.3460522 -0.33857408
0.17901573 -0.35432497 0.43689376 0.1672503 0.43295893 0.25890052 0.4740985 0.25812793
0.42566234 0.07082445 -0.17492993 0.015267773 0.049450494 -0.3734178 0.015981004 0.16758825
0.27605692 0.41248238 0.12113533 0.1276812 0.084228545 0.07383771 0.265135 -0.42691037
-0.054953698 -0.40703365 0.4167917 -0.5355677 0.044092305 -0.23023692 0.5289807 0.38711384
0.06691508 0.12073503 -0.017335596 0.28223982 0.04119343 0.35051262 0.3656114 -0.071984895
-0.05729915 -0.06774668 0.27129328 -0.19172496 -0.024755998 0.015144978 0.44299725 -0.23616832

linears.1.weight f4 [64, 64]
00000000: 46e4 c1bd d804 edbc 31a5 a7bd 355b 3ebd
00000010: 4ec9 29be fc27 553e ad43 b53d 2f0c cf3c
00000020: 9a8f 18be 914a 8bbd 3e79 c13c 381c f5bd
00000030: 2362 93bd 3ca8 0d3d b5af 23be d8bf dd3d
00000040: b688 c83d ad83 873d 934a e9bd 8203 66bd
00000050: bdf3 d53c d93e e8bd ccdf 04be 6613 c13d
00000060: 6cc0 113d 8d5e 84bd 59e9 003c 6975 f3bc
00000070: 2f78 23be 0d2f d2bd 4868 c9bd b145 3a3b
00000080: 814c 3c3e 0657 c7bd e2c8 213d 69b8 2f3d
00000090: caa5 36bc 2536 2bbd 5444 ecbd 2880 88bb
000000a0: 8b1d 3cbd 4daa 2cbd 18a3 a2bd abc4 4f3e
000000b0: 6edc 1cbc 2b07 a93c e5d4 25be 37bd f1bd
000000c0: 4fdc 853d be7c f13d ba44 f13d cfca f3bd
000000d0: db9f 9abc e114 18be b4ed dcbd 2293 e6bd
000000e0: 66bd 253b 988a 42bb 4c75 ba3d ba08 263e
000000f0: 498c 193d 7617 adbd 0611 91bd 5d21 b33d
00000100: e325 00be 6e68 8b3d 2f78 c5bd f7bc a6bd
00000110: 864e 33be 4f7d d63d 81a7 87bd be38 8cbb
00000120: 4a4d 30bd 4ba3 c33c 6454 26bd 2c8d 533d
00000130: 63ca 7a3d 7cf2 a13d 9345 783d 9635 af3d
00000140: e4f9 91bc 320b 153e 71ed 54be 9731 1a3c
00000150: a3da 413c fdad d23d c8ce adbd c9f4 683d
00000160: 3c62 c73d 8a55 2dbc f9b7 4d3e 634b 06be
00000170: 32cc 89bd 5513 acbd c190 58be 1757 153e
00000180: e4eb 263e 1e0c d73c e44f 23bd 255f e0bd
00000190: dbd2 18be fac1 fd3c a8e8 9e3d 891a 66bc
000001a0: 237b 54be 5ccb d4bc a21f 15be 9519 183e
000001b0: 469d 163e 2ee2 363d ae33 83bc 9685 4f3d
000001c0: c477 cfbc f119 78bd 5b00 203d 5a2e f7bd
000001d0: cc19 35be 9f7b a1bc 27f8 113c 9b78 e63d
000001e0: 8730 5dbe fa8b 34bd cbf4 ca3c a478 253e
000001f0: fa3a adbd 7c4d c03c 5a35 373e 34cb 5d3e
00000200: a3d1 653d 4b93 0dbb 624b 5d3d aefa 2dbe
00000210: 22d1 f6bd 44c1 6b3e 8531 103d 785a bf3a
00000220: 28f5 273b 1c01 3fbc 8cf4 99bd 08d1 9e3d
00000230: f72b f0bd 29b5 ea3d b168 2dbd b53a 52bc
00000240: 8792 52bd 1966 3cbc 0545 21be 0e9b c1bd
00000250: 8335 a63d a228 433e 14ca 6bbd 9b87 7a3d
00000260: daaf 17be 1f0d f5bd e2b2 cf3d ffe0 07be
00000270: 8093 24be 261b 17be 4d51 febd 5a60 e53d
00000280: fa7d 2e3e f5c5 ff3c a081 92bd 416f 0f3d
00000290: 525e 90bd 4504 113e c474 e8bd b7bd 493e
000002a0: e795 a0bd 52cb 7ebb 8117 59bd 988e 243e
000002b0: 5849 593e 2dc5 1c3e 4af0 34bd 4e04 7cbc
000002c0: 95c0 3b3e 3988 a8bd 8242 f03c fde5 b7bd
000002d0: 7421 fdbd f79a 763c c2fb 1e3d 3d88 ca3d
000002e0: 0420 53be 3414 00be a918 6c3d 3a0f 463b
000002f0: 804b 80bc 58e0 20bd b98c f13c 2314 673d
00000300: e305 053d 792e c1bd 1e6e c33d 8a76 7fbd
00000310: 3729 5a3d dedf 6d3e e665 4d3d ea71 70bd
00000320: b820 9cbd a4ad 23bd e8f7 1cbe bf83 b0bc
00000330: 3a08 74bd adb6 583e 7019 0bbe 5cf8 5dbc
00000340: 5edf 2d3e 7f42 b73b 8f53 16be e0da 0abd
00000350: 959a 423d da54 243e 6fd4 bbbd 2d58 353d
00000360: 7ec5 0fbe eda3 34bd 0a2a 473d f459 b1bd
00000370: cad0 9bbd ec66 db3d 30b9 d93c cad3 55bd
00000380: 6387 5a3e 72e9 20be 237e f0bd 05db a4bd
00000390: c82a 14bc 8b3d 263e 6be0 6f3d f901 7139
000003a0: 6f20 eebd 5641 403e 897e b8bd c7e7 3ebd
000003b0: aa43 ddbd 483a 863d b228 57be 0d29 4fbd
000003c0: 734d 8a3d a208 bdbd 7ed1 cd3a 7b27 a7bd
000003d0: bff7 43be 4948 f6bd cca5 083d 5668 10bd
000003e0: 5907 a2bc ed56 d7bc 9278 a3bd cb79 f63d
000003f0: fc54 4a3c 3fee 1fbc 1510 8c3d edd3 e73d
-0.09467368 -0.028932974 -0.08185805 -0.0464737 -0.16580698 0.20816034 0.08850799 0.025274364
-0.1489853 -0.06801332 0.023617383 -0.11968273 -0.071964525 0.03458427 -0.15984996 0.10827607
0.097917005 0.06616912 -0.11391177 -0.05615569 0.0261172 -0.11340112 -0.12975997 0.09427528
0.0355839 -0.06463347 0.007868134 -0.029719071 -0.15963815 -0.102628805 -0.09834343 0.0028422887
0.18388559 -0.09733395 0.039498217 0.042900477 -0.011147926 -0.041799683 -0.1153647 -0.004165668
-0.045926612 -0.0421546 -0.07941264 0.20289867 -0.009574039 0.0206333 -0.16194494 -0.11803668
0.06536161 0.11791371 0.11780687 -0.11903917 -0.018875053 -0.14851715 -0.10787526 -0.11258532
0.0025289892 -0.002968466 0.09104404 0.16214266 0.037487302 -0.084517404 -0.07083325 0.08746598
-0.12514453 0.06807028 -0.09642064 -0.08141511 -0.17510423 0.104731195 -0.06623746 -0.004279225
-0.04304246 0.023881575 -0.040607825 0.051648304 0.061228167 0.07907578 0.060613226 0.085551426
-0.017819352 0.14555052 -0.20793702 0.009411237 0.011831912 0.10287092 -0.08486706 0.05687407
0.097355336 -0.010579476 0.20089711 -0.13114695 -0.067284 -0.08402125 -0.21148969 0.14584003
0.16300923 0.026250895 -0.03987111 -0.109556474 -0.14924185 0.030976284 0.077592194 -0.014044412
-0.20750098 -0.025975876 -0.14562848 0.14853509 0.14708433 0.044649296 -0.016015854 0.050664507
-0.025325663 -0.060571615 0.03906284 -0.12069388 -0.17685622 -0.019712267 0.008909262 0.112534724
-0.21600543 -0.044078805 0.02477493 0.16159302 -0.084585145 0.023474447 0.17891446 0.21659547
0.05610813 -0.0021602686 0.05402697 -0.16990158 -0.12051608 0.23022944 0.035203476 0.0014599105
0.0025628302 -0.011657979 -0.07517347 0.07754713 -0.11727136 0.11460335 -0.04233617 -0.01283138
-0.05140927 -0.011498951 -0.15748985 -0.094534025 0.08115675 0.19058469 -0.057565764 0.06116448
-0.14813176 -0.11965393 0.10141541 -0.13269423 -0.16071892 -0.1475645 -0.12417851 0.11200018
0.17040244 0.031222323 -0.0715363 0.03501821 -0.0704924 0.14161785 -0.11350396 0.19701277
-0.078410916 -0.0038878513 -0.05300093 0.1607002 0.21219385 0.15309592 -0.04417447 -0.015381886
0.18335183 -0.082291074 0.029328588 -0.08979414 -0.12359896 0.015051595 0.038814314 0.09889267
-0.20617682 -0.12507707 0.057640705 0.0030221478 -0.015661001 -0.03927645 0.029486047 0.05641569
0.032476317 -0.09432692 0.095424876 -0.062368907 0.05326196 0.2322993 0.050146006 -0.058702387
-0.07623428 -0.03996052 -0.15328944 -0.021547196 -0.059578158 0.21163435 -0.13583922 -0.013547983
0.16979739 0.0055926437 -0.14680313 -0.03390014 0.047510702 0.16047993 -0.09171378 0.044273544
-0.14040181 -0.044101644 0.048624076 -0.08659735 -0.07608183 0.1071299 0.026577562 -0.05220393
0.21340708 -0.15714052 -0.11742809 -0.08049587 -0.009043403 0.16234414 0.05856363 0.00022984286
-0.1162728 0.18774924 -0.0900851 -0.04660776 -0.108039215 0.06554085 -0.21011618 -0.05057626
0.067530535 -0.09230162 0.0015702692 -0.08161827 -0.19137476 -0.12025506 0.03336124 -0.035255753
-0.019778894 -0.026286567 -0.07981981 0.12034949 0.012349363 -0.009761392 0.06839005 0.113197185

linears.1.bias f4 [64]
00000000: 73be f63d 583f ac3e 52c3 543e 4613 793d
00000010: 3bfe dabd 3f0d 803e 5d70 13be 430d b73d
00000020: c174 3bbe 8135 353e 5572 403d da01 d43b
00000030: 1f98 bb3e 3f9c 573e b9fc 663e 644e 1c3e
00000040: b9e3 c13d 2ee3 173b a0e4 6cbe cb03 9c3e
00000050: 4f73 233e 0c4e 5d3e 3f37 b73d 66ff 2a3e
00000060: 559f 44bd fab1 11bb c446 f83d 5d01 31be
00000070: eb13 723d 6e6a c93c 1f55 83be 928e 433e
00000080: 5dcd 843e f24d 963e e28d d8bd 8c68 4bbe
00000090: 9722 e5bc 2d6d c73c 5e8f 7a3e e89a 9b3d
000000a0: f175 3e3d aa23 f03d f29e 2ebe eeef 1f3e
000000b0: d900 103e b17e 113e 737e 6cbe 6ff6 933e
000000c0: c9df 0e3e 9e2f ad3e ea86 f23d b2fe 0d3e
000000d0: 1d07 2bbe e899 f5bd bda9 d23b c5e6 273e
000000e0: 76f4 01be 7fbb 5e3e e088 40be e88e 343e
000000f0: f73f 693e 6640 3fbd a312 693e a619 7f3e
0.12048044 0.33642077 0.20777634 0.060809396 -0.10693022 0.25010106 -0.14398332 0.08938076
-0.18306257 0.17696191 0.046984036 0.0064699473 0.36639497 0.21055697 0.22557344 0.15264279
0.09467263 0.002317618 -0.23134089 0.30471644 0.15961955 0.21611804 0.08946084 0.1669899
-0.048003513 -0.0022231326 0.121228725 -0.17285676 0.059101027 0.024586882 -0.2565088 0.19097355
0.2593793 0.29356343 -0.10573937 -0.198641 -0.027970595 0.024344051 0.24468753 0.075979054
0.046499196 0.117255524 -0.1705282 0.1561887 0.14062823 0.14208485 -0.23095112 0.2889895
0.13952555 0.33825392 0.11842139 0.1386669 -0.16701932 -0.11992246 0.006428926 0.16396625
-0.1269091 0.21751212 -0.18802214 0.1763264 0.22778307 -0.046692275 0.22761016 0.24912128

linears.2.weight f4 [5, 64]
00000000: 8553 1fbe 851c 3bbe 4364 d6bd 66bf 15be
00000010: ef62 c8bd 4ca0 f8bd 537d 86bd cb31 86bd
00000020: cae1 1b3d 61f2 64bd e0e4 7d3d 6575 00bd
00000030: e050 19be 2c4e 95bd ec65 57bd 50d9 abbc
00000040: 66e0 96bd 34a2 5d3d 6ba9 7dbe 75e0 fdbd
00000050: d90b 68be ac7d 60bd a2b9 7cbd 2254 b2bd
00000060: 9ae3 923d 36a2 5fbd f06b 18be 9338 adbd
00000070: b5cb a1bd d4c0 963c 93f3 bebd d84b 8fbd
00000080: 6eb1 013c 7b91 0dbd 615a 44bd db2e 37be
00000090: c890 3dbe fd84 4e3e a01d 19be 7aa3 6d3e
000000a0: f8b7 8dbd b8be cb3d b2ba 43bd 7a57 e03d
000000b0: 3d29 2dbe 0575 c63d c34f 8dbd b870 29be
000000c0: fa41 823d be2e f1bd 86d2 803d e79b dbbd
000000d0: 9aa8 febd 7695 b13c e098 273b c197 f73c
000000e0: 0470 f4bd abdd 0ebe d087 68bd fafc 993c
000000f0: 08be 26be bdba 183c 98cb 10be 18e3 4f3e
00000100: 1164 51bd 81b1 27be 238e 21be 98a9 ebbd
00000110: c469 54bd 9d90 17be 2a79 433b af3d 3bbc
00000120: c684 603d 8494 27be e47a 773d 3688 0d3d
00000130: f7b4 14be 395e 063e 53c7 47bd 9fd2 a4be
00000140: d0d8 54bd d30a 78bd 013c f7bd 38a7 0cbe
00000150: 2868 dabd 3c6c 03be 7ec4 25be bd2a 8abd
00000160: 5416 5b3d d14c 53bc 0bb5 08bd 8b61 113d
00000170: b0c3 2cbe 4a10 633c e296 9a3c 7fe7 9cbd
00000180: 03f7 713d 4da9 2ebe 5c27 dd3d 11bf ebbd
00000190: 3f07 88be 4416 213e 5a41 55bd 0f9c 12bd
000001a0: b139 8cbd 9440 483e 60e7 04bd 13d1 dbbd
000001b0: 7286 36be f1a1 883d 867f d8bd 13b0 e5bd
000001c0: 76a1 6c3c de71 0dbe 73ba 49bd 28e0 15be
000001d0: d5ca 3ebd d512 04bb b475 2c3d 0023 14be
000001e0: 53b4 bbbd eaed 34bd 1045 483c 8004 2fbd
000001f0: ddf8 cbbd 9303 ca3c f669 d1bd 9d16 97bb
00000200: 0363 bdbd 9c12 59be 735b ad3c 97ae edbd
00000210: 1ce4 70bd 8b10 60be cb00 c2bd 5090 24be
00000220: 4223 f9bc fddd 79bd 3455 83bd acd0 753d
00000230: b210 4abe 4fae 443e a1b7 9bbc 3d31 983e
00000240: 3e40 8dbe 80e4 293e ae00 a4be 0295 153c
00000250: 8477 65be 4bc9 44bd 05e1 bdbd 3070 0f3d
00000260: 1886 31bc fffd 43be 8e6f a4be b04e 19bd
00000270: 5df5 c83c 27c8 553d 7dc8 d7bd 5197 95bd
00000280: 2c21 0bbd 96d8 31be 72e1 37be d511 aebd
00000290: 98ed aebe b593 4f3d ddb1 63be 0e11 6c3e
000002a0: 4da8 0fbe 0917 1e3e 96d9 60bd 9b51 213e
000002b0: 285b 9abd e2e5 ae3e 744b 1abe 905f d63c
000002c0: 8658 64bd b6ce 35be 5754 57be ce5e f5bd
000002d0: efd2 b8bd c9a5 edbd 5ac6 66be f22e d0bd
000002e0: 874e fcbd 50e3 06bc 54b7 cc3b e038 30bd
000002f0: b28a f2bd 575b 47bd 3c69 50be 88de 7a3e
00000300: 3914 4bbe 0be5 6fbd 7ca6 71be eba9 e5bc
00000310: 62e2 8cbd f455 9fbd f043 77bc 0717 48bd
00000320: d62d 23bd bc65 5ebe f899 a4bd 418a 213d
00000330: d47d c7bd 1ab7 a2bd c18f 2ebe db11 7cbd
00000340: 3bbc 71be 18e2 b0bc 24ed 7a3c a663 c1bd
00000350: 3e99 dbbc 2efc 74be a282 eabd 6d95 9cbd
00000360: 6708 503d 67db bbbd 07bb e0bd a57d a43d
00000370: 30b6 25be d24b ffbd 8fd7 07bd 2dfd adbd
00000380: 676d 5e3c aea2 5ebe 9895 b7bd a8b2 2a3e
00000390: 062b 703b b43e 8b3e 7967 33be f8c7 aabc
000003a0: 8cbe 03bd 4e89 4bbe c461 93be 4466 643d
000003b0: e845 80bd 65cf 143e f44f 30bd 084c 5cbe
000003c0: bdfe 433e a70d 6fbb 554d 72bd 8686 9fbd
000003d0: b62d b53d e08b 3f3e 867b dabd a4c4 28be
000003e0: 23f2 d53d 3b5a 3bbe 0d70 8dbc a125 893b
000003f0: 52bb 49be 1eb5 dc3c b1cb 6fbc 7a07 bc3d
-0.15559204 -0.18272598 -0.10468342 -0.14623794 -0.09784495 -0.12139949 -0.065668724 -0.06552466
0.038057126 -0.055895213 0.06198585 -0.031361956 -0.14972258 -0.07290301 -0.052587435 -0.020977646
-0.07367019 0.054109767 -0.24771659 -0.123963274 -0.2266077 -0.05480735 -0.06170047 -0.08707453
0.07172318 -0.054598056 -0.14884925 -0.08458056 -0.07900182 0.018402494 -0.09323802 -0.06996888
0.007915838 -0.03456257 -0.047937755 -0.17888968 -0.18512261 0.20167919 -0.14952707 0.23206893
-0.06919855 0.09948486 -0.04778547 0.10954185 -0.16910262 0.096902885 -0.06899979 -0.16546905
0.0636024 -0.117764935 0.06290154 -0.107230954 -0.12434502 0.021677714 0.0025573298 0.03022373
-0.11935428 -0.13951747 -0.056770146 0.018797386 -0.16283429 0.009321866 -0.14140165 0.20301473
-0.05112082 -0.16376306 -0.15776877 -0.11506957 -0.05185868 -0.1480126 0.0029826858 -0.011428281
0.054814123 -0.16365248 0.060419932 0.03455373 -0.14522158 0.1312188 -0.048774075 -0.3219194
-0.05196458 -0.060557198 -0.12071992 -0.13735664 -0.106643975 -0.12834257 -0.16188237 -0.06746433
0.05348809 -0.012896732 -0.03337578 0.035493415 -0.16871524 0.013858864 0.018870775 -0.07661342
0.05907346 -0.1705677 0.10798523 -0.115110524 -0.26568028 0.1573115 -0.052064277 -0.03579336
-0.06846941 0.19555885 -0.03244722 -0.10733237 -0.17824724 0.06671513 -0.10571198 -0.11215224
0.014442792 -0.13812968 -0.049250077 -0.1463629 -0.046580154 -0.0020152826 0.042104438 -0.14466476
-0.091652535 -0.044172205 0.012223497 -0.0427289 -0.09959576 0.024659907 -0.102252886 -0.00461085
-0.092474006 -0.21198505 0.02116177 -0.11605566 -0.058811292 -0.2188131 -0.094728075 -0.16070676
-0.03041232 -0.06100272 -0.064127356 0.060013458 -0.19732931 0.19207118 -0.01900846 0.29725066
-0.27588075 0.16591072 -0.3203177 0.0091297645 -0.22408873 -0.04804353 -0.09271435 0.0350191
-0.010835193 -0.1913986 -0.3211636 -0.037428558 0.02453106 0.052192833 -0.10536287 -0.07304252
-0.033967182 -0.17367777 -0.17957094 -0.08499495 -0.34165645 0.050677974 -0.22235818 0.23053381
-0.14029045 0.15438475 -0.054895006 0.15753786 -0.07536918 0.34159762 -0.15067846 0.026168615
-0.055748485 -0.17754635 -0.21028267 -0.11980973 -0.090246074 -0.11603887 -0.22536603 -0.10165204
-0.123196654 -0.008232906 0.0062474404 -0.04302299 -0.1184286 -0.048671093 -0.20352644 0.24498951
-0.19831933 -0.05856804 -0.23598665 -0.028035125 -0.068791166 -0.07780066 -0.015091881 -0.048850086
-0.039838634 -0.21718496 -0.0803718 0.03943849 -0.09740797 -0.0794508 -0.17047025 -0.061540466
-0.2360696 -0.021592185 0.015315328 -0.094428346 -0.02680647 -0.23924324 -0.114506975 -0.07645688
0.050789263 -0.09172707 -0.10973173 0.08031777 -0.1618278 -0.124656335 -0.033164557 -0.08495555
0.013575888 -0.21741745 -0.089640796 0.16669714 0.0036646738 0.27196276 -0.1751994 -0.020847306
-0.03216414 -0.19876596 -0.28785527 0.05576159 -0.062633336 0.1453224 -0.043045 -0.21513379
0.19140144 -0.0036476643 -0.05915578 -0.0778933 0.08846609 0.18705702 -0.106680915 -0.16481262
0.104465745 -0.18296139 -0.017265344 0.004185394 -0.19700363 0.026941832 -0.014635966 0.091811135

linears.2.bias f4 [5]
00000000: 5620 8abd 09a2 ecbd 0355 94be 7e70 8cbe
00000010: 87c0 7abe
-0.06744449 -0.11554343 -0.2897111 -0.27429575 -0.24487506
