dqn-exp/savedir/student-test/checkpoint1650--model.pth (torch_old, 20763 bytes, 6 tensors)

linears.0.weight f4 [64, 6]
000000 1d 9e 1d 3e f5 a5 f5 bd 3f 82 05 be bd af 25 be
       0.15392347 -0.119945444 -0.13037966 -0.1618032
000010 44 66 cc be d9 84 11 3e 11 1b 70 3d 04 de 1f be
       -0.39921772 0.14210834 0.058619563 -0.15612036
000020 3f e1 42 3b 95 8b c8 3b c0 b7 00 3e c2 bc 0a 3f
       0.0029736308 0.006120155 0.12570095 0.5419427
000030 cd 20 4b 3e db 10 02 3e db 36 24 be d0 da 0d bd
       0.19836731 0.12701742 -0.1603655 -0.034632504
000040 43 0e 23 be 48 dd ac 3e 69 9d 71 3e 11 af a5 bd
       -0.15923409 0.33762574 0.23595203 -0.08090032
000050 1c 82 fe bb c4 3f 0d 3e ef dd 61 be c2 88 0e 3e
       -0.007766975 0.13793856 -0.22057317 0.13919356
000060 21 9d f0 3b a0 23 b3 3b dc 01 d7 bd 66 bc 62 bd
       0.00734295 0.0054668933 -0.104984015 -0.055355452
000070 f1 8d 59 bd 4c 7e 8f bd f5 c8 92 3d c9 e2 09 3c
       -0.05311388 -0.07006511 0.07167236 0.008415886
000080 1d 47 5b be 34 f3 7f 3e 7f 54 2a 3e 5f 56 0f 3d
       -0.21413846 0.24995118 0.16633795 0.03499448
000090 c5 3c 94 3a ff 3a d3 3c 93 15 dc 3e db 22 72 3e
       0.0011309615 0.025784967 0.4298521 0.23646109
0000a0 5d 59 4b 3e aa 29 06 3e 04 9b 12 be d9 2b 4d bc
       0.19858308 0.13101831 -0.14316946 -0.012522661
0000b0 80 d8 80 3e 39 d5 9f 3d 04 8d 3f 3d 06 34 93 3d
       0.25165176 0.07804341 0.046765342 0.07187657
0000c0 0f 40 01 be 42 60 6f bd 86 51 c8 3b d1 9e 2d 3e
       -0.12622093 -0.058441408 0.006113234 0.16955115
0000d0 d2 82 96 3e 5e c6 9e 3e 1a ee b2 bd 41 d0 80 3d
       0.29396683 0.31010717 -0.087368205 0.06289721
0000e0 39 c9 27 3d c8 19 2c be 60 2e c8 bd 24 c4 6c 3d
       0.040963385 -0.1680671 -0.0977447 0.05780424
0000f0 fa b7 2b be e3 2c 1f 3c 51 48 d1 3c d6 99 25 b9
       -0.167694 0.009715292 0.025547178 -0.00015792935
000100 49 08 27 3f f6 73 28 3c 74 12 0b 3e 03 de 78 3d
       0.6524702 0.0102815535 0.13581258 0.060758602
000110 8b 74 b4 3e 06 45 20 be 01 75 13 be e9 a9 d7 3d
       0.35245165 -0.1565133 -0.14400102 0.10530455
000120 0f 08 45 3d 49 a4 75 be 9d 63 f2 3d 2d fd 95 bd
       0.04810339 -0.23988451 0.11835406 -0.0732368
000130 f0 8d 4d bd 6c ae b2 3e e3 fe c2 bc 58 a5 2d 3e
       -0.05018419 0.34898698 -0.02380318 0.16957605
000140 30 8d 22 3a c5 c7 9a bc 29 67 29 3d 9d 0c 2c bf
       0.0006200848 -0.018894086 0.041358147 -0.67206746
000150 e6 38 03 3e c7 4d 25 3e d4 ab 41 3d e2 e8 0d 3c
       0.12814674 0.16142951 0.04728301 0.008661481
000160 91 5c 68 be 68 4b dc be 70 0f 38 be 41 38 18 be
       -0.22691561 -0.4302628 -0.17974639 -0.14865209
000170 7f 83 4d 3d 96 83 dc 3c 23 cb 74 3e fc e4 29 3e
       0.050174233 0.026918214 0.23905616 0.16591257
000180 7c 43 1d 3e 06 dc ae bb 9c f6 0f bd cd 10 81 3c
       0.15357774 -0.0053362874 -0.035147294 0.015755082
000190 13 8b e1 be 84 d2 39 3d 25 d9 c8 3d 0e be de 3d
       -0.44051418 0.04536678 0.09807042 0.10876094
0001a0 48 29 12 bd 61 bd 39 3d 8c 6a 12 bf b4 c4 c5 bd
       -0.0356839 0.04534662 -0.5719383 -0.09656659
0001b0 87 21 86 bd d5 a2 a0 3d 4c eb 01 bc e2 f3 5d 3d
       -0.065493636 0.07843558 -0.007929634 0.054187663
0001c0 f4 38 e2 3e 0b 31 14 be fd cb 01 3e 3a d7 00 bc
       0.44184077 -0.14471833 0.12675472 -0.007863814
0001d0 09 0b 79 3c 81 df 32 3c 3f 97 27 bf 63 6c b4 bb
       0.015200385 0.010917545 -0.6546516 -0.0055060848
0001e0 ec 09 07 3e 0d 80 4a be ec b4 45 3d 51 0e 29 3e
       0.13187379 -0.1977541 0.048268244 0.16509368
0001f0 2e dc 4d be 42 25 a6 3e 1c 4e bd 3c 3b 13 29 3e
       -0.20103523 0.324503 0.023108535 0.16511242
000200 da 60 a4 3c 2c e5 05 ba 67 bc 89 bc 00 73 10 bf
       0.020065714 -0.00051076966 -0.01681347 -0.56425476
000210 8b 5d bf bd d7 3d b0 bd e4 2e 6b bd 7e 90 f8 bd
       -0.09344014 -0.08605545 -0.057417765 -0.12136935
000220 62 c6 ad 3d fc 19 5f 3e 59 f6 ba bd 10 c8 db bd
       0.08485104 0.21787256 -0.09129018 -0.10731518
000230 07 ae 26 3b d8 0e 78 3d 81 32 6b 3e d4 d0 ad 3e
       0.0025433318 0.06056103 0.22968484 0.33948386
000240 85 83 a7 bc 59 08 a7 bc 15 6f f5 3d 4b d1 2d 3e
       -0.020448456 -0.020389723 0.11984078 0.1697437
000250 a2 e3 43 bd 5a 7f 09 3e f1 00 05 be 33 bc 1e 3c
       -0.04782451 0.13427487 -0.1298864 0.009688425
000260 0a c2 0c 3c 7d 4c f8 bb 8e 1c 0c 3f 47 94 3c 3c
       0.008591184 -0.0075774775 0.5473107 0.011509961
000270 d9 f1 b7 bd 5d 10 e3 3a 6d f2 a9 bd 41 09 2d 3d
       -0.08981676 0.0017323602 -0.08298192 0.042245153
000280 0d bf b3 3e 9f 9e d5 3c 3e 29 02 3e 92 43 0d 3e
       0.35106698 0.026076613 0.12711045 0.13795307
000290 bd 4d ef bc ae d4 86 3d 88 e6 5a be 88 a1 76 be
       -0.029211873 0.06583534 -0.21377003 -0.24085057
0002a0 72 dd 2e 3e d4 9a 1f 3b 61 53 be 3b 81 30 a5 3b
       0.17076662 0.002435376 0.0058082794 0.0050411825
0002b0 3a f3 75 bf ad 35 9f 3c a9 5b dc bd ac 2b 83 3e
       -0.9607426 0.019434774 -0.1075967 0.25619256
0002c0 60 64 94 3e 4d c8 d4 bd 24 0b 62 3e 02 9c a8 be
       0.2898283 -0.10389767 0.22074562 -0.32931525
0002d0 74 03 60 bc dc 21 11 be 4d 86 c8 bc 53 fd 5d bc
       -0.013672698 -0.14173073 -0.024478102 -0.013549167
0002e0 f4 11 80 bd 3f c6 6a 3f f7 00 0b bd 84 dd 0f 3e
       -0.06253424 0.9170875 -0.033936467 0.14049345
0002f0 4d 89 d8 3d db ba 51 be ce cf 74 3d 3d 5a 1f be
       0.10573063 -0.20481436 0.05976849 -0.15561767
000300 4a d9 79 bc 40 2d 84 3d 1f 6d b8 b9 25 f3 28 bd
       -0.01524956 0.06453943 -0.00035176516 -0.041247506
000310 1d 49 9b 3c 7c b1 94 bd 96 f9 ff bd 10 0d c0 3d
       0.018955762 -0.07260415 -0.124987766 0.093774915
000320 d8 ff a5 bc 3c 5e ae 3d c4 0a f5 3d 3e 0e a7 bd
       -0.020263597 0.085140675 0.11964944 -0.08157013
000330 d1 53 2b bd d8 c0 9a bc d2 25 9c bd f9 dc 3c be
       -0.04182798 -0.018890783 -0.07624401 -0.1844367
000340 6f 4a a4 bd a0 32 17 bd a4 13 d4 bc 41 6e 1e 3d
       -0.080220096 -0.036913514 -0.025888272 0.038679365
000350 16 69 84 3d bf 5d 94 bd da 4c 5b 3d e6 23 65 bc
       0.06465356 -0.07244443 0.05354009 -0.01398561
000360 69 8d 61 bd c3 f0 e6 3c 8f fd 45 3c b0 fb b6 3c
       -0.0550665 0.028190976 0.012084379 0.02233681
000370 00 19 37 3f f3 37 d7 3d 2c 15 e7 bd 67 fb 97 bd
       0.7152252 0.10508718 -0.11283335 -0.07420998
000380 a8 ba 3e 3d 19 f0 35 bd d7 13 86 3e e0 50 8a 3e
       0.046564728 -0.044418428 0.26187012 0.27014828
000390 d9 ec 47 bd 41 87 a3 bb 68 1f 6d bd de 28 f3 bc
       -0.04880986 -0.0049904888 -0.05789128 -0.029682573
0003a0 b5 16 36 3e 23 73 5e 3e d7 fa 78 bd 11 df 94 be
       0.177821 0.21723609 -0.060786095 -0.29076436
0003b0 fa 74 0c be dd 28 ad 3d 97 85 0e bc 85 3d 94 3d
       -0.13716498 0.0845506 -0.0086988425 0.072382964
0003c0 da a0 44 bb 2b 75 18 3e e9 56 5a bc 15 7e f6 bb
       -0.0030003102 0.14888446 -0.013326385 -0.0075223544
0003d0 f8 bd 51 ba d6 10 6b bf 86 9d c9 3d 25 37 35 be
       -0.0008001025 -0.91822565 0.09844498 -0.17696817
0003e0 14 8e 3c 3d 43 30 1c be 47 2e 07 be 55 e6 86 3d
       0.046033934 -0.15252785 -0.13201247 0.06586901
0003f0 aa 5c 6f 3d 27 8e 10 be ca 39 05 3a 74 6d f5 bc
       0.05843798 -0.14116727 0.00050821586 -0.029959418

linears.0.bias f4 [64]
000000 ca f9 e2 be 49 fe d2 bc e6 c8 fe be e1 b1 b8 be
       -0.443312 -0.025756018 -0.49762648 -0.3607321
000010 05 7a 31 be 5e ba 48 bf 04 bc 92 be 14 19 d8 be
       -0.17331703 -0.78409374 -0.2865907 -0.42206633
000020 03 1f de 3e 51 1b cf 3e 1d d5 a1 be 10 c6 0a bf
       0.43383035 0.40450528 -0.31607905 -0.5420847
000030 d7 31 3c bf 3d 73 7c be e1 da e0 3e 27 a1 28 bf
       -0.7351355 -0.24653335 0.4391699 -0.658709
000040 78 f3 ce 3e 77 c6 42 bf 10 7d 17 3f 00 6d 89 3d
       0.40420127 -0.76084083 0.59175205 0.06710243
000050 20 8e dc 3e eb a6 07 3e 9b 43 ff 3e 7d f7 7f 3e
       0.43077183 0.13247268 0.49856266 0.24996753
000060 8a 5f b2 3e e5 83 87 3e 09 49 07 bf 77 74 a4 be
       0.34838516 0.26467815 -0.5284582 -0.32120106
000070 cb 77 34 bd 03 6b 17 bf 2a 6c 10 be 59 5e aa be
       -0.044059556 -0.5914766 -0.14103761 -0.33275107
000080 6d 8a e1 bd 65 18 9f 3e 91 6c a5 be 56 32 1d be
       -0.11012731 0.310733 -0.32309392 -0.15351233
000090 da 52 23 bd eb 38 f5 be 98 b8 39 be e5 89 1d bf
       -0.039873935 -0.47894987 -0.18136823 -0.61538535
0000a0 33 25 b7 bd 2c f2 e8 be a9 36 03 3f f9 32 26 bf
       -0.08942642 -0.45497262 0.5125528 -0.6492153
0000b0 3f c6 b6 be 91 c7 f0 be 1f 0a 3a 3f a3 3e db 3e
       -0.35698125 -0.47027257 0.72671694 0.42821226
0000c0 14 59 01 bf 91 87 7e be 41 af 89 be 62 9d 70 3e
       -0.5052655 -0.24856402 -0.2689152 0.23497537
0000d0 34 51 ea 3c d7 3f cd 3e e4 4f 55 3e 85 40 f7 be
       0.028603174 0.40087768 0.20831257 -0.48291412
0000e0 2d 7b 26 bf 46 3d 8e be 7d 0e c1 3e 07 1f 03 bf
       -0.650317 -0.27781123 0.37706366 -0.5121922
0000f0 9e 4b 63 ba a7 e9 35 be b6 d6 9d 3e 3d 4f 08 bf
       -0.00086706306 -0.17764913 0.30827874 -0.5324591

linears.1.weight f4 [64, 64]
000000 77 19 c5 bd 9b 45 21 bd 78 39 20 ba e0 6d c5 bd
       -0.09623998 -0.03937302 -0.0006112079 -0.096400976
000010 4c 70 cc bd 16 ee 58 3d 67 d4 6d 3c ee ca 57 be
       -0.099823564 0.05296143 0.014515973 -0.21073505
000020 b7 35 34 bc c2 9e 24 bb 3f 36 aa 3d 33 99 b1 3b
       -0.010999135 -0.002511904 0.08311128 0.005419874
000030 41 a3 03 be 24 41 0f bc a4 4d ec bd ef 1b ce bc
       -0.12855245 -0.008743558 -0.11538246 -0.025159804
000040 9d 97 0f 3d bb 2e 13 bd d9 b5 84 bc 86 7e 9c 3e
       0.0350567 -0.035933238 -0.016199993 0.3056528
000050 a7 38 8d bd d7 fc 5b be aa 57 cb bd 11 10 ff 3c
       -0.06895571 -0.2148317 -0.0992883 0.03113559
000060 ed 9f 1a 3e 20 72 0b 3d e4 13 04 bd 64 cb 2b 3e
       0.1510007 0.034044385 -0.03224553 0.16776806
000070 cc e4 4e bc a1 de 97 3d 56 3f 14 bd 17 90 6d bd
       -0.012627792 0.0741551 -0.036193214 -0.057998743
000080 4e de ae 3d 70 d2 66 bc 97 a9 18 3d f6 36 9a 3d
       0.08538495 -0.014088258 0.03727111 0.07530014
000090 0e d5 10 3e ef 60 29 be 1d c6 a1 bc 97 5b 0e bc
       0.14143774 -0.16540883 -0.019747788 -0.008688829
0000a0 93 2f a2 3d 09 ac fc bd 4c ff b0 b8 32 d2 cf 3c
       0.0791923 -0.123375006 -8.439887e-05 0.025368784
0000b0 d4 d4 46 be f7 01 de bd 60 15 a8 bd 07 18 b6 bd
       -0.19417125 -0.108402185 -0.08207202 -0.088913016
0000c0 a9 d4 11 bd 19 d6 df 3c ff 7e 0b 3d bd b3 0c be
       -0.0356032 0.02732377 0.03405666 -0.1374044
0000d0 63 b4 38 3d 27 ab d4 bc 66 88 75 3c 6b 52 fa bd
       0.045093905 -0.025960518 0.014986133 -0.12222751
0000e0 52 10 e5 3d a6 1c 2b be 1d 52 ce 3d 17 7d 64 3d
       0.111847535 -0.16710147 0.100742556 0.055783357
0000f0 d7 0b c1 bb 64 b1 7f bd 66 3c 12 be 50 14 3c 3a
       -0.005891304 -0.062425032 -0.14280853 0.00071746577
000100 e2 30 2f bd 33 e3 79 3d 12 5a ec bd e8 ff b7 3d
       -0.042771228 0.06100769 -0.11540617 0.08984357
000110 0a 82 d7 bd b2 27 ec 3d c8 67 2e 3c e7 34 ff ba
       -0.1052285 0.11531009 0.010644861 -0.0019470722
000120 70 46 c0 bd 18 c0 bf 3c cb df 2b be 42 a5 6e 3d
       -0.09388435 0.023407027 -0.16784589 0.05826307
000130 ac 6f 48 3d 44 8a 48 3e 1c a7 5a 3c 0e 92 9a 3b
       0.048934624 0.19583994 0.013345506 0.004717118
000140 b5 37 18 bd 9d e4 80 3d 69 e2 a5 be cb 67 19 bd
       -0.0371625 0.062936045 -0.323993 -0.0374525
000150 5e da 3d bd 7c d8 e9 3d 00 89 9f bd a6 bb f3 b9
       -0.04635083 0.11418244 -0.077898026 -0.0004648838
000160 10 73 9e 3c 32 ad 28 bd ec 91 98 3e 58 7e f7 bd
       0.019341975 -0.041180797 0.2979883 -0.12084645
000170 83 19 b4 3b ce 7b c4 bd 12 f4 9a be 20 02 be 3d
       0.0054962053 -0.09593926 -0.30264336 0.09277749
000180 ae 9b 1e 3e 35 4b dd 3c 0a 59 0e bb 46 cf 99 bd
       0.15489075 0.0270134 -0.0021720552 -0.075102374
000190 05 20 66 be be fa 2c bc c2 92 cf 3d f4 2e 23 bc
       -0.22473152 -0.0105578285 0.10135414 -0.009959925
0001a0 09 74 86 be b7 a4 03 3d 6e 99 46 be 90 4c 1c 3e
       -0.26260403 0.032139506 -0.19394466 0.15263581
0001b0 e4 a1 ec 3d aa 86 24 bd 13 41 1d be a9 3c 41 3d
       0.11554316 -0.04016749 -0.15356855 0.04717699
0001c0 2b 29 f3 3c 1b 56 69 3d e7 ed 25 3c ed b9 19 be
       0.029682716 0.056966882 0.010127521 -0.15012331
0001d0 bd f2 0c be 77 06 92 bd 78 d5 b3 bc 03 5c ba 3d
       -0.13764472 -0.07130139 -0.021952376 0.09099581
0001e0 dc 17 4d be 40 37 5f bd 24 3a 2c bc 7d d0 48 3e
       -0.20028633 -0.05449605 -0.010511909 0.19610782
0001f0 4c cf c9 bd 5f 55 4e bb 4b 73 d2 3d 83 5f 92 3e
       -0.09853992 -0.003148399 0.10275897 0.28588495
000200 10 48 03 3e 68 6b 05 bd 0f e0 33 3e 6b 78 7d bd
       0.12820458 -0.032573134 0.1756594 -0.061882418
000210 97 20 d7 bc a2 db 34 3e 16 55 97 3d 50 a6 bf 3d
       -0.026260657 0.17661908 0.07389276 0.093578935
000220 dc 88 27 3d d2 cd cb bc 0f 6d 3e bc 81 56 ca 3c
       0.040902004 -0.024878416 -0.011622681 0.024699451
000230 e4 af 1e be a8 96 23 3e 5c d2 cd bd d0 57 b3 bd
       -0.15496784 0.1597544 -0.100498885 -0.08756983
000240 ef f4 95 bd 58 21 8a bd eb e8 17 be 79 2c ea bb
       -0.07322108 -0.06744641 -0.14834945 -0.007146415
000250 6b 2b 54 bd 69 22 18 3e f9 68 98 bd 9b 69 54 bd
       -0.05179922 0.14856876 -0.07441897 -0.051858526
000260 e1 fe d5 bd 96 4c cf bd 72 5e 0e 3e 0b 21 f8 bc
       -0.10449005 -0.101220295 0.13903216 -0.030289194
000270 0e d9 03 3e 6d 94 12 bd c3 ed c8 bd 38 45 6f 3d
       0.12875769 -0.03578608 -0.098109744 0.05841562
000280 10 03 0f 3e f5 f9 0f bd 89 32 b7 bc 39 70 ce 3d
       0.13966012 -0.035150487 -0.022362964 0.100799985
000290 07 4e 26 3d f7 e2 41 3d ed 3c 84 be a2 a2 b4 3d
       0.040601756 0.04733559 -0.25827733 0.08820082
0002a0 56 65 44 bd e6 64 29 bb a7 18 6b 3c 2b f8 95 3d
       -0.047948204 -0.0025847494 0.014349139 0.07322725
0002b0 15 3e 29 3e e7 09 cb 3c 4c b3 bc bd 6b 70 e7 bc
       0.16527589 0.024784995 -0.09213886 -0.028251847
0002c0 3d c5 41 3e f0 aa fa bd 1b e8 df bd bd 3b 07 be
       0.18922897 -0.12239635 -0.109329425 -0.13206382
0002d0 9d cf 84 3b dc fc 07 3d d2 23 11 3d 8d d2 31 bc
       0.0040530697 0.03320013 0.03543455 -0.010853422
0002e0 5e 9b 20 be b8 a3 21 be 05 da cd 3c 67 f1 ee bc
       -0.15684268 -0.1578511 0.025128374 -0.029167844
0002f0 2e 0d 85 bc 99 f2 01 3c c9 0b 04 be 38 dc 78 3d
       -0.016241636 0.007931375 -0.1289512 0.060756892
000300 23 5b 41 3d f8 67 fd bd 2d e1 33 3e ec 58 9a 3d
       0.047206055 -0.12373346 0.17566366 0.07536492
000310 a1 4c 1d 3e 06 21 51 3e 61 14 d8 3d 1a a3 dd bc
       0.15361263 0.20422754 0.10550762 -0.027055312
000320 98 19 f5 bc bc 61 25 bd 75 ee 4d be 2e 9f aa bc
       -0.02991943 -0.04037641 -0.20110495 -0.020827856
000330 20 cb 7e bd 9b ac 8c 3e 56 8a 6c bd a3 e5 04 be
       -0.062205434 0.27475438 -0.057749115 -0.12978224
000340 91 27 06 3e c5 bb bf bd ef c7 3c be 13 ef d8 bd
       0.13101031 -0.09361986 -0.18435644 -0.10592475
000350 5f 7d 00 3d 91 87 27 3e ff bf fe ba 73 b7 51 bd
       0.031369563 0.16360308 -0.0019435881 -0.05120034
000360 94 49 c2 bd 9a 6b ab 3d 2e 2c e8 3d f1 90 80 bd
       -0.0948669 0.08370133 0.113365516 -0.062776454
000370 29 a2 0a bd 50 83 06 3e 30 2f ad 3d 54 10 0d be
       -0.033846054 0.13136029 0.08456266 -0.1377576
000380 9b 4c 3e 3e e3 5b 25 be a7 39 b9 bc db d3 01 3d
       0.1858391 -0.16148333 -0.022610499 0.03169618
000390 00 13 02 3e 31 8a b6 3d 43 88 2d 3e 69 75 a8 bc
       0.1270256 0.08913077 0.16946511 -0.020563798
0003a0 51 b8 35 be 93 c1 49 3e 15 a8 c4 bd 54 f6 b3 bd
       -0.17746092 0.19702749 -0.096023716 -0.08787218
0003b0 49 b9 4f be 55 2f d8 bd ee 3a 88 be 80 d9 63 bd
       -0.20285524 -0.10555903 -0.2660746 -0.055627346
0003c0 ee b2 9e 3d 6c 86 ad 3d 56 c0 8b bd 53 a7 07 3d
       0.07748972 0.084729046 -0.068237945 0.033118557
0003d0 2e 48 16 bc b6 87 b5 bd 97 44 1a 3e ec 3c ac bd
       -0.009172482 -0.088637754 0.15065227 -0.084100574
0003e0 72 97 06 3d 5d 52 4d bd 74 de 96 bd 3a b2 df 3d
       0.032859273 -0.050127376 -0.07366648 0.10922666
0003f0 0c 7d a5 3d 70 8f 96 3d 09 52 4c 3c 65 51 0e 3e
       0.080804914 0.07351577 0.012470731 0.13898237

linears.1.bias f4 [64]
000000 a2 a2 57 3e c9 59 23 3f 45 68 d8 3e f9 d6 e2 3e
       0.21058133 0.63808876 0.4226705 0.44304636
000010 38 72 b4 bd 59 4d f5 3e 29 08 19 be aa 34 24 3e
       -0.08810848 0.47910574 -0.14944519 0.16035715
000020 90 0d af be 5b d3 0c 3f 65 ec ba 3d 95 f4 32 bc
       -0.34190035 0.5501 0.0912712 -0.010922571
000030 7e 27 2d 3f d6 1e 05 3f 40 d5 4e 3e 7b 30 84 3e
       0.67638385 0.52000177 0.20198536 0.25818238
000040 2f cc b4 3e 83 74 f5 3c 6a 18 cf be 95 51 e7 3e
       0.3531203 0.029962784 -0.40448314 0.4517943
000050 30 a8 d2 3e ae 12 f9 3e 82 7d e5 3e ab 7f 20 3e
       0.41143942 0.48647064 0.44822317 0.15673701
000060 6a fc 2c be 1a fd dc 3c 63 32 eb 3e b7 cc 41 be
       -0.16893163 0.026976157 0.4593688 -0.18925749
000070 79 28 a3 3e 95 4c 6d 3d fc 43 44 be 3e a1 54 3e
       0.31866816 0.057934362 -0.19166559 0.20764634
000080 3c 8c de 3e ad 27 12 3f a5 5b 94 bd b7 8c 51 be
       0.43466365 0.5709179 -0.07244042 -0.20463835
000090 9b 43 23 3c c5 8a f5 3d 24 09 0a 3f 88 83 b3 3d
       0.009964849 0.11989359 0.539202 0.08765322
0000a0 db 12 ee 3d 0e 0d d3 3e fe e9 b4 be 75 cf ec 3d
       0.1162469 0.41220897 -0.35334772 0.11563007
0000b0 ad 27 bb 3e de e9 7c 3e 6c bb fc be 80 05 05 3f
       0.36553708 0.24698588 -0.49361742 0.5196152
0000c0 0f eb d9 3e 45 4e 1b 3f 60 cd b1 3d 37 47 e9 3e
       0.42562148 0.60666305 0.0868175 0.45562145
0000d0 9e 69 78 be c6 25 6a be 45 a1 cc bc 90 d4 53 3e
       -0.2425904 -0.22865972 -0.024979243 0.20686555
0000e0 c9 72 8a be 4c 95 8b 3e 26 fb 90 be 95 c6 bd 3e
       -0.270407 0.27262342 -0.2831661 0.3706557
0000f0 fe dd 1c 3f e8 f6 ad 3d da 4a e2 3e f8 8a 03 3f
       0.61276233 0.08494359 0.44197732 0.51383924

linears.2.weight f4 [5, 64]
000000 07 8d a1 bc 2a bc 50 be 9c ad ee bd e3 c9 2a be
       -0.019720567 -0.20384279 -0.11654207 -0.16678576
000010 e2 f4 88 3d a7 99 1c be ef 75 a9 bd 37 ce 1f 3b
       0.06687333 -0.15292989 -0.08274447 0.0024384388
000020 3e db 55 be ab f0 2a bd 8a 08 b5 3d 65 75 00 bd
       -0.20884416 -0.041733425 0.08839519 -0.031361956
000030 8c fc 38 be 3d 68 ae bd 3f 03 08 3d d4 49 16 be
       -0.18065089 -0.085159756 0.03320622 -0.146766
000040 6e 5d 79 be 34 a2 5d 3d 6b a9 7d be 3f 1a d1 bd
       -0.24352047 0.054109767 -0.24771659 -0.10210084
000050 10 e6 85 be 8b 83 04 be 24 56 1c bd 34 b4 09 bd
       -0.26152086 -0.12940805 -0.038168088 -0.03361912
000060 14 2f 4c 3d 9d 21 38 bd 4f d0 98 be f8 69 22 be
       0.049849585 -0.04495393 -0.29846427 -0.15860736
000070 b9 13 c9 bd d4 c0 96 3c 7b 7d f0 bd c3 85 a8 3b
       -0.09818215 0.018402494 -0.117426835 0.0051428988
000080 6e b1 01 3c 8b e0 57 bd b9 20 c0 bd db 2e 37 be
       0.007915838 -0.052704375 -0.09381241 -0.17888968
000090 c8 90 3d be 42 7e 66 3e 75 b5 41 be b0 95 18 3b
       -0.18512261 0.22509101 -0.18916877 0.002328258
0000a0 5f c6 6c bc 92 fd 3f be 05 65 9f bc 7a 57 e0 3d
       -0.014451592 -0.18749073 -0.01945735 0.10954185
0000b0 a3 5f 34 be 05 75 c6 3d 28 e6 7c 3d 7c 2b 37 be
       -0.17614608 0.096902885 0.06174293 -0.17887682
0000c0 c0 03 12 be 35 47 01 be 86 d2 80 3d 3c 85 ed bd
       -0.14259243 -0.1262482 0.06290154 -0.11597678
0000d0 5b 28 84 be 17 57 1e 3d e0 98 27 3b bc 29 54 3d
       -0.2581204 0.038657274 0.0025573298 0.051797614
0000e0 d0 a7 cd bd b3 56 eb bd f3 87 32 3d fa fc 99 3c
       -0.10041773 -0.11491146 0.043586683 0.018797386
0000f0 97 a8 4e be 91 17 12 bb 55 ce 1e be 19 2c 00 3e
       -0.201815 -0.0022291879 -0.15508397 0.12516822
000100 a5 37 ef 3c e3 02 57 be 8f 01 30 be f6 fe 0f be
       0.029201338 -0.20997195 -0.17188095 -0.14062104
000110 15 98 38 3d c5 76 3e be 56 5d c4 3c 24 0a 12 3c
       0.04506691 -0.18599994 0.023970287 0.0089135505
000120 93 ee 07 bd 60 14 12 be 93 e6 a9 3d 36 88 0d 3d
       -0.033186506 -0.14265585 0.08295932 0.03455373
000130 bb 13 4a be 93 19 90 3d 68 c6 b8 3b b3 0e bf be
       -0.19734089 0.07036128 0.0056388862 -0.37315902
000140 18 fd 4e be d3 0a 78 bd 01 3c f7 bd 16 66 e8 bd
       -0.20213735 -0.060557198 -0.12071992 -0.11347596
000150 6b a9 18 be 62 ef 49 be 4f da 04 be 05 dd 97 bc
       -0.14908378 -0.19720224 -0.12973903 -0.018538008
000160 9d 65 a5 3d 57 32 b3 bb b2 5b 26 be 99 e0 9d 3c
       0.08076022 -0.0054686475 -0.16245916 0.019272136
000170 7c fd 18 be 59 10 63 3c 55 5c e9 37 03 0f 94 3b
       -0.14940447 0.013858878 2.781876e-05 0.004518391
000180 03 f7 71 3d 95 69 35 be 33 08 6f 3d 11 bf eb bd
       0.05907346 -0.17716058 0.05835743 -0.115110524
000190 58 d9 97 be 11 a4 bf 3d 9e ea ca bd 40 ce 93 bd
       -0.29658008 0.09357465 -0.09908031 -0.072170734
0001a0 1a 36 f5 bb 3f b0 61 bd 56 52 56 bd f2 62 0e be
       -0.007483256 -0.055099722 -0.052324615 -0.13904932
0001b0 69 1d 4c be f1 a1 88 3d 57 49 f9 3d 60 c0 14 be
       -0.19933094 0.06671513 0.121721916 -0.1452651
0001c0 07 82 44 be ee 89 30 be 73 ba 49 bd b3 f9 1d be
       -0.19190226 -0.17240116 -0.049250077 -0.15427284
0001d0 9c a5 7f bd 30 b4 92 3d b4 75 2c 3d 50 67 c9 bc
       -0.062413797 0.07163274 0.042104438 -0.024585396
0001e0 ce 41 a3 bd c1 1f f1 bc 91 f9 88 3d 80 04 2f bd
       -0.079715356 -0.029434087 0.06688226 -0.0427289
0001f0 c6 c0 15 be 17 34 f9 3c a6 e3 f9 bd c3 bb ad bd
       -0.14624318 0.030420346 -0.122016236 -0.08483078
000200 8c 16 aa bc 1f 8a 6e be d0 db c5 bb e6 d1 05 be
       -0.020762704 -0.23294877 -0.0060381666 -0.13068351
000210 d0 d7 41 3d 19 93 60 be b7 d9 4a be 0f c2 8c bc
       0.047324955 -0.21931113 -0.19809614 -0.017182378
000220 ed bb 95 be 4e bd 36 bd 22 c8 0c bc ac d0 75 3d
       -0.29244938 -0.04461413 -0.008592637 0.060013458
000230 41 15 5e be 51 f9 43 3e cb 1c 7b 3c 0c ad 56 3e
       -0.21687795 0.19138075 0.015326689 0.2096445
000240 c0 33 89 be 80 e4 29 3e ae 00 a4 be d6 f3 7e bc
       -0.26797295 0.16591072 -0.3203177 -0.015561065
000250 f7 16 7d be 92 b3 d9 bd 5f 33 64 bd 4a 4a 1d bc
       -0.24715792 -0.106299534 -0.055713054 -0.009600231
000260 b7 50 ef bd 1a bd 33 be f1 df c3 be e7 33 4d be
       -0.11685317 -0.17552605 -0.3825679 -0.2003933
000270 f4 70 98 bc 7d 9b 55 3d 5a 50 a8 bd c8 79 62 ba
       -0.018608548 0.05215024 -0.08218451 -0.00086393626
000280 2c 21 0b bd d5 d6 24 be 45 4a 32 be 4e e6 5b bd
       -0.033967182 -0.16097577 -0.17411144 -0.053686433
000290 17 ae ac be b5 93 4f 3d 16 43 74 be 18 b0 6f 3e
       -0.3372657 0.050677974 -0.23853716 0.23407018
0002a0 9f e1 82 bd 0a b6 ac be 39 63 a2 3b 8a ee c9 3d
       -0.0639069 -0.33732635 0.004955676 0.09859951
0002b0 5e 98 c9 bd e2 e5 ae 3e b7 1c 9f bc 0e 6b 1c bb
       -0.09843515 0.34159762 -0.019422872 -0.002386752
0002c0 64 2d 4b be 93 05 35 be 57 54 57 be 72 6b eb bd
       -0.19841534 -0.17677908 -0.21028267 -0.11495103
0002d0 e4 98 80 be 6b 9d f8 bc 5a c6 66 be a1 34 15 3c
       -0.25116646 -0.0303485 -0.22536603 0.009106786
0002e0 ee a8 c4 bd 4e 1b 92 bd 2e 4f 26 3d e0 38 30 bd
       -0.09602533 -0.07134114 0.040602855 -0.04302299
0002f0 b5 12 1e be b8 37 84 bd 66 6c 4e be 65 3f 6c 3e
       -0.15436824 -0.0645594 -0.20158538 0.23071058
000300 f9 a4 b3 bc e1 5a da bd 9c 2b 62 be 82 47 8c bd
       -0.021929251 -0.10661865 -0.22086948 -0.068495765
000310 2d 84 d6 bb a6 e2 01 be 9f ca 93 ba 1b 2c cd 3c
       -0.0065465183 -0.12684116 -0.0011275596 0.025045445
000320 f8 e4 5e 3d b8 cf 38 be d3 08 85 bd 41 8a 21 3d
       0.05441758 -0.18047988 -0.06495824 0.03943849
000330 cb a9 0e be 0e bf 1f 3a cc 06 e6 bc e2 8c 1b be
       -0.13931958 0.0006093838 -0.028079413 -0.15190461
000340 a6 8a ac be 18 e2 b0 bc 24 ed 7a 3c a4 1c b8 bd
       -0.3369953 -0.021592185 0.015315328 -0.08989838
000350 26 6a c5 bd f6 1e 99 be d1 4d a0 bd bc 99 ad bc
       -0.09639387 -0.29906434 -0.07827342 -0.02119147
000360 3e fd b7 3d a5 71 a4 bd 6e 12 8a be 65 84 05 3d
       0.08983849 -0.080294885 -0.26967186 0.032596964
000370 1a 72 3d be d2 4b ff bd 7a 98 9b bd da d2 6b bb
       -0.18500558 -0.124656335 -0.07597442 -0.0035983832
000380 67 6d 5e 3c 81 f7 58 be 9e 54 67 bd ac 7d 0a 3e
       0.013575888 -0.21188165 -0.05647718 0.13524503
000390 06 2b 70 3b 53 29 92 3e d5 ce 60 be 0e 49 a7 bd
       0.0036646738 0.28547153 -0.219539 -0.08168231
0003a0 1d e4 04 3d e6 f8 9e be 4f 84 eb bd ae de 99 bc
       0.03244411 -0.3104927 -0.11499845 -0.01878294
0003b0 53 f1 b2 bd 65 cf 14 3e 37 97 96 3c 75 72 6e be
       -0.08737435 0.1453224 0.018382652 -0.2328585
0003c0 f3 37 1f 3c ba 95 33 bd 55 4d 72 bd 3d da aa bd
       0.009717929 -0.043843962 -0.05915578 -0.08342407
0003d0 da 7a 97 3c df d0 13 3e 86 7b da bd ef ef db bc
       0.018491197 0.14435147 -0.106680915 -0.026847808
0003e0 c3 d2 da 3d 06 63 66 bd ff e6 a1 3d a1 25 89 3b
       0.10684731 -0.05624678 0.07905387 0.004185394
0003f0 14 98 7a be eb 06 a3 bd cb c3 66 bd 60 01 89 3d
       -0.24472076 -0.07960304 -0.056339066 0.066897154

linears.2.bias f4 [5]
000000 ee f7 c9 be ba 3d 13 bf 50 60 0c bf f7 20 13 bf
       -0.39446968 -0.5751606 -0.5483446 -0.57472175
000010 09 56 2b bf
       -0.66928154
