dqn-exp/savedir/student-test/checkpoint700--model.pth (torch_old, 20763 bytes, 6 tensors)

linears.0.weight f4 [64, 6]
000000 21 db 06 3d 54 71 38 3e 03 54 f4 be 07 33 93 3d
       0.03292382 0.18011981 -0.47720346 0.07187467
000010 04 f7 9d be 3b aa 70 3d f6 f1 60 3c 3d 60 30 be
       -0.3085252 0.058756094 0.013729563 -0.17224212
000020 b7 72 27 3b 23 ad 12 bc 21 83 31 3d 21 9a 07 3f
       0.0025550553 -0.008952412 0.043337945 0.5296956
000030 bc 81 dc 3e 58 ae 92 3e bc f8 c5 3c 27 80 3f bd
       0.4306773 0.2864864 0.024166457 -0.046753075
000040 19 5c bb bd 17 99 7c 3c d9 1c 8e 3e 05 68 52 be
       -0.091484256 0.015417359 0.27756384 -0.20547493
000050 8f c7 69 be 39 e3 24 bd e8 13 11 be 77 79 c9 3b
       -0.22830032 -0.04025576 -0.1416775 0.006148513
000060 99 5e bf 3d 87 e3 e9 3d e5 39 4f be d1 6e 2c be
       0.09344215 0.114203505 -0.20236929 -0.16839148
000070 7c 2f 6a be 9f 52 2c be a8 b3 4b 3e fd b1 54 bd
       -0.22869676 -0.16828392 0.19892752 -0.051927555
000080 fb 63 7b be 58 a9 9f 3e f0 aa 64 3e 86 0f 5e 3c
       -0.24549858 0.31183887 0.22330832 0.013553506
000090 9c 57 bb bc 73 57 4e 3c 44 29 e4 3e 66 36 6c bd
       -0.022868924 0.012594092 0.44562733 -0.057669066
0000a0 ab cf 2f 3e f7 d3 2b bd de 6d 83 be d5 f3 70 bc
       0.17169063 -0.041950192 -0.2566976 -0.014706572
0000b0 45 b3 7c 3e 82 d8 68 3d 67 2d c8 3d 32 fc 36 3d
       0.24677761 0.056847103 0.09774285 0.044674106
0000c0 5a 1f b2 bd 25 ef 56 bd 82 e9 61 bd 9c 86 97 3e
       -0.08697386 -0.05247416 -0.05515433 0.29594886
0000d0 80 a7 ce 3e 92 ee 94 3e 4b 55 65 be 1b a0 dc 3d
       0.40362167 0.29088265 -0.22395818 0.10772725
0000e0 14 61 90 bd cb 55 0a be 54 2a e0 bc 43 1f 5b 3c
       -0.07049766 -0.1350929 -0.027363934 0.013374153
0000f0 9c 33 07 be 11 1e 1f 3c 3a 61 0e be ea de 24 bd
       -0.13203281 0.009711758 -0.13904276 -0.04025165
000100 79 59 fd 3e 0a 51 98 bc 61 b1 f5 bd f7 20 4f 3e
       0.49482325 -0.01859333 -0.11996723 0.20227419
000110 39 ef bd 3e 60 be 66 bb 9d 68 bd bd eb 80 ee bc
       0.37096575 -0.0035208687 -0.09248469 -0.029114207
000120 77 1d 9d bb d3 58 89 bd 4a 8b e3 3c a2 b7 1c be
       -0.0047947722 -0.06706395 0.02777638 -0.15304425
000130 97 e2 ac 3d 6d fc e0 3e a0 b4 c6 3b a5 2d 15 3e
       0.08441656 0.43942586 0.0060640126 0.14568193
000140 8e d3 84 3c e1 77 c2 3c e4 c9 a3 3c 47 68 12 bf
       0.016214158 0.023738803 0.01999373 -0.57190365
000150 f6 16 44 3e e7 b7 2a 3e 79 5a 94 3d fc 74 9f bd
       0.19149384 0.16671716 0.07243819 -0.07785985
000160 c2 7b 94 be 38 fb c0 be 38 59 3f be cb c4 d5 bd
       -0.2900067 -0.37691665 -0.18686378 -0.10437926
000170 7a df 3a 3d 35 8d 29 bd 8c 1e 92 3e 61 9e 81 3e
       0.04562328 -0.04139443 0.2853893 0.25316146
000180 14 54 24 3e 55 e2 46 bc f4 13 1b be 71 10 b3 3c
       0.16047698 -0.012138923 -0.1514433 0.021858426
000190 f3 3a 03 bf f9 b1 08 3e 40 55 41 3e 74 f5 06 3e
       -0.51261824 0.13349141 0.18880177 0.1317957
0001a0 a0 87 f2 bd 55 d8 03 3d 65 eb 04 bf a3 f1 a1 be
       -0.11842275 0.032188732 -0.51921684 -0.31629667
0001b0 62 a9 31 3d 1e 78 10 3d a9 f0 1d 3d 4d f8 4e 3d
       0.043374427 0.035270803 0.03855959 0.050529767
0001c0 4e c6 e6 3e 66 27 1d be 99 97 86 3d a8 ca b3 3d
       0.4507317 -0.1534706 0.06571884 0.08778888
0001d0 50 8f 19 3d 32 26 63 bd c2 df 19 bf 84 0f 80 be
       0.03749019 -0.055456348 -0.6010705 -0.25011837
0001e0 17 35 18 3e 14 e8 8e be 17 a9 ab 3d 95 bf 1f 3e
       0.14864002 -0.27911437 0.08381861 0.15600426
0001f0 ba 91 55 be 69 d0 a6 3e 7d 82 d8 bc a1 2e 8a 3e
       -0.20856372 0.3258088 -0.02642941 0.269887
000200 b4 6c ad 3c 48 c9 ae 3d 70 ac 51 3d 67 92 ea be
       0.021169998 0.08534485 0.05118984 -0.4581482
000210 2c d2 0e be b9 4b ca bd 83 e8 04 be e6 6f 36 be
       -0.13947362 -0.09877724 -0.12979321 -0.17816123
000220 52 b5 21 3e c6 53 5c 3e 96 ea 5a 3b fb 7f 45 bd
       0.15791824 0.21516332 0.0033403984 -0.048217755
000230 b8 25 e9 3d 0a 5b 15 3c 1b b8 32 3e 71 58 ce 3e
       0.113841474 0.009115944 0.17453043 0.4030185
000240 d4 7c 75 3d b0 1d 7e 3d f1 82 18 3e a1 cd 75 3e
       0.0599335 0.06204003 0.148937 0.24004222
000250 c7 95 00 3d f6 20 ed 3d d0 23 22 be 13 ae 1f 3d
       0.03139284 0.115785524 -0.15833974 0.03898437
000260 39 20 bf bd e3 df f9 bd 19 26 01 3f e2 57 17 be
       -0.09332318 -0.12200906 0.5044876 -0.14779618
000270 29 a0 7c bd 6c e8 58 bd 00 03 31 be 60 f0 0f 3d
       -0.061676178 -0.05295603 -0.172863 0.03514135
000280 8f 60 af 3e 9d 43 8a 3d ac c2 91 bd 3f 7f 86 3d
       0.34253356 0.067511775 -0.07117209 0.06567239
000290 27 85 04 be 30 fb 19 3e 35 20 1a be 39 53 0d be
       -0.12941419 0.15037227 -0.15051349 -0.13801278
0002a0 72 ce 96 3d fa b5 ed bc 5e d2 86 3b c5 4a ae 3c
       0.07363595 -0.029017437 0.004114433 0.021275887
0002b0 61 e0 4f bf 37 07 da 3d 84 14 eb bb 81 89 4f 3e
       -0.8120175 0.10645907 -0.0071740765 0.20267297
0002c0 ff 96 c2 3e d4 5c 96 bd 30 ae 8f 3e 25 d9 c7 be
       0.38005826 -0.07341924 0.28062582 -0.39032856
0002d0 68 73 95 3c 57 1b b4 bd 86 08 a7 bc 91 81 96 bc
       0.018243507 -0.08794277 -0.020389806 -0.018372329
0002e0 2e d5 93 3b c5 21 45 3f 9d b2 bf bd 75 16 9f 3d
       0.004511497 0.77004653 -0.0936024 0.07767955
0002f0 b5 6c 2f 3e b0 b0 52 be 74 e7 ff 3d d1 74 c0 be
       0.17131312 -0.20575213 0.12495318 -0.37589124
000300 d8 b7 81 bc 14 14 63 3d ab b4 27 bd 78 0b cb bc
       -0.015834734 0.05543907 -0.040943783 -0.024785742
000310 51 a4 21 3d 3f e5 c3 bd 6b 87 28 be 5b a0 60 3d
       0.039463345 -0.095652096 -0.16457908 0.054840427
000320 2a 57 99 bd 69 4e 40 3e e8 26 11 3e 72 71 35 be
       -0.07487328 0.18779911 0.14174998 -0.17719057
000330 0f c6 35 3e cb e7 af 3d c3 21 4f 3c 62 fb 83 bd
       0.17751335 0.08589133 0.012642327 -0.06444432
000340 04 fc 5f be bd 1a 45 be cf d9 d3 bd c6 a9 f6 bb
       -0.2187348 -0.19248481 -0.10344278 -0.007527563
000350 c6 57 e0 3c 0e 3c 80 ba 9e 14 29 3e 97 1a 84 be
       0.027385604 -0.0009783523 0.16511771 -0.25801536
000360 0a cb 4c 3d c7 5e fa 3d ef 18 dc bd 2b 5b 61 bc
       0.04999832 0.122251086 -0.10746943 -0.013754646
000370 f6 7a b0 3e a1 24 d6 3d fb 4b 28 bd 81 51 3e 3c
       0.34468812 0.10456205 -0.041088086 0.011616112
000380 7f d5 f4 3d ca aa 75 3e 71 fa 6d 3e fa b7 df 3d
       0.11954784 0.23990932 0.23240067 0.109237626
000390 7f b6 48 be a2 f8 e1 3d 6f 75 1b be 5d 7f be bd
       -0.19600867 0.11033751 -0.15181516 -0.09301636
0003a0 cd 4b 92 3e ac fe 0d bd fd d0 80 be e7 a0 f5 be
       0.28573456 -0.034666702 -0.25159445 -0.4797432
0003b0 fd 9b 39 be 94 30 39 3d 98 c6 5e be 30 b6 26 3a
       -0.18125911 0.045212343 -0.21755445 0.00063595455
0003c0 3d d7 7f bc 0d 7c b7 3d db 07 05 3c 7d ee da 3b
       -0.015615282 0.08959208 0.008119549 0.006681262
0003d0 ab ae 5d bd 4a bd 3f bf da f1 21 3e cd b3 f0 bd
       -0.054121654 -0.7489821 0.15814915 -0.11753044
0003e0 e9 8f f5 bb 15 4a e0 bd fe ab 23 bd b7 18 5a bc
       -0.007493962 -0.1095163 -0.039958946 -0.013311557
0003f0 18 fd 27 3d b3 92 5b be 3f d1 3d 3d 9d ed b8 bd
       0.041012853 -0.2144268 0.04634213 -0.09029696

linears.0.bias f4 [64]
000000 6d 58 33 be 46 ec 83 bb 8a 37 cb be 49 6a 6e be
       -0.175142 -0.0040259687 -0.3969081 -0.23282732
000010 bc 10 fc 3d 45 69 34 bf fc 63 34 be df 34 96 be
       0.12307879 -0.7047313 -0.17616266 -0.29337212
000020 ac bb c5 3e 90 6f ed 3e 64 82 6f be 29 53 c5 be
       0.38619745 0.46374178 -0.23389584 -0.3854001
000030 7d 5a ec be ce 07 40 be e1 3f d1 3e be f7 0b bf
       -0.46162787 -0.18752977 0.40869048 -0.546749
000040 97 49 ac 3e de f1 12 bf 1b 4b f9 3e 2a b0 08 3e
       0.33649895 -0.5740031 0.48690113 0.13348451
000050 1f 3e e6 3e 59 89 90 3e 88 6a f7 3e f5 89 85 3e
       0.4496927 0.28229788 0.48323464 0.26081815
000060 0a 93 d3 3e 81 05 1e 3e 42 16 c8 be 18 6b 2c bd
       0.4132312 0.15431787 -0.3907948 -0.04209432
000070 fb ca 23 3d b2 25 cc be b1 f2 91 bd 8b 75 ae bd
       0.0399885 -0.3987251 -0.07126368 -0.08518513
000080 3e e4 7b bd 77 83 d2 3e b6 60 ef bc af a0 a2 3d
       -0.061496966 0.41115925 -0.02922092 0.07940804
000090 25 a7 38 bc b8 7e 8d be 3f 98 80 3e a6 6b d5 be
       -0.011270319 -0.2763574 0.25116155 -0.41683692
0000a0 b2 39 94 bd b7 66 d0 be 88 34 ed 3e 26 f0 13 bf
       -0.07237567 -0.40703365 0.4632914 -0.5778831
0000b0 63 a8 40 be a4 59 bc be 88 4a 0c 3f bc 40 d7 3e
       -0.18814234 -0.3678714 0.54801226 0.42041576
0000c0 b0 e1 89 be 51 f8 59 3d 41 5b 83 be a9 e3 96 3e
       -0.26929998 0.05321533 -0.2565556 0.29470566
0000d0 d0 e4 fb 3c cb 38 c2 3e 1f 8c b9 3e 09 80 ab be
       0.030748755 0.37933955 0.36239716 -0.3349612
0000e0 40 86 ba be 73 de d4 bd e4 a7 b1 3e 54 d1 93 be
       -0.3643055 -0.10393991 0.34698403 -0.28870642
0000f0 4f e3 b1 3d bd 1d c4 bd c0 a5 c5 3e 4b 3c cd be
       0.08685934 -0.095759846 0.3860302 -0.40085062

linears.1.weight f4 [64, 64]
000000 ff 48 38 bd 9a 6a 8e bc 55 12 97 bb 99 21 a1 3c
       -0.04499149 -0.017384816 -0.0046103396 0.01966934
000010 2b ea d7 bd fa 7d 30 3e 16 69 4f 3d ec c2 9c 3a
       -0.10542711 0.17235556 0.050637327 0.0011959947
000020 d8 8d b9 bd da 16 43 bb ec fb cf 3d 44 f7 80 bd
       -0.09060258 -0.002976826 0.10155472 -0.06297162
000030 19 e1 47 bd 87 65 81 3d fd 84 f5 bd d8 53 80 3d
       -0.048798654 0.06318193 -0.11988256 0.06265992
000040 77 f1 ed 3d b2 33 89 bc 09 74 be bd 35 61 28 bd
       0.116183214 -0.016748283 -0.09299476 -0.04110833
000050 0c 33 6f 3d 96 de c5 bd 0e 56 8e bd d7 97 7f 3d
       0.05839829 -0.096615955 -0.069500074 0.062400665
000060 57 58 d4 3d ef 21 2b bc a4 d8 5e 3d 2d 80 08 3d
       0.10368412 -0.010445102 0.054405823 0.033325363
000070 9c 08 82 bd 67 1e f6 bc 95 6d 7b bd aa ca 96 bd
       -0.06349298 -0.030043794 -0.061383802 -0.07362874
000080 b6 da 37 3e dd e5 c8 bc d5 64 fd 3d 94 63 f7 3d
       0.17954525 -0.02452367 0.12372748 0.1207954
000090 a2 84 70 3d 61 a6 6a bd ce 23 23 bd 04 2d 99 3c
       0.05872024 -0.057287578 -0.039829068 0.018698223
0000a0 f2 e1 47 bc 53 46 2b bd 64 d0 18 bd d4 02 01 3e
       -0.012199866 -0.041815113 -0.03730811 0.12598735
0000b0 3a f5 0a be 49 c5 d8 bc c2 e5 1f be 3b 8f 16 bd
       -0.13570109 -0.02646126 -0.1561499 -0.03675769
0000c0 0b 1f 8f 3d 8b 14 83 3e 05 8d 78 3d 7d 2c 3a bd
       0.06988343 0.2560161 0.06068136 -0.045452584
0000d0 b1 b1 91 3c ad 80 0c be 12 6f 2a bd 98 76 2b be
       0.017784925 -0.13720961 -0.04160983 -0.16744459
0000e0 62 e2 51 3c 6f fd d7 bc 2f 55 01 3e f7 8b 12 3e
       0.0128103215 -0.026365964 0.12630151 0.14311205
0000f0 e0 83 4d 3e 1f 4f fb bc 35 c2 d0 bd cb 57 a4 3d
       0.20069838 -0.030677376 -0.10193292 0.08024558
000100 7e a6 99 bd a0 a1 a2 3d c5 94 ec bc 2a 26 c6 bc
       -0.07502459 0.07940984 -0.028879533 -0.02418812
000110 2a c6 2a be 72 39 05 3e 40 ea 0d bc 2a e3 aa bb
       -0.16677156 0.13010195 -0.008661807 -0.0052150683
000120 50 aa b2 bd a5 d1 34 3d b0 12 dd bd 12 2e d1 3d
       -0.08723891 0.044145245 -0.1079458 0.10213865
000130 c7 79 67 3d ee 7c 17 3e e4 8f 53 3d a5 6c b3 3d
       0.05651262 0.1479375 0.051650897 0.08760957
000140 2e 66 2f bc 76 3d e4 3d 8e ce 89 be ae 04 fa bc
       -0.010705514 0.11144535 -0.269154 -0.03051981
000150 52 bc b7 bc 10 c4 00 3e be 2b be bd 02 6d 26 3d
       -0.022428665 0.12574792 -0.09285687 0.0406313
000160 ca 07 44 3d 3f 75 a5 bd 8d c3 83 3e 78 ec f9 bd
       0.04785899 -0.080790035 0.2573513 -0.12203306
000170 d6 9e 2a bc 22 04 a4 bd f3 7e 3f be 6e b5 0d 3e
       -0.010413846 -0.08008601 -0.18700771 0.13838741
000180 b6 15 37 3e ec 49 8c 3c 1b 1e ff bb f8 f6 c1 bd
       0.17879376 0.017125092 -0.0077855713 -0.09470934
000190 f2 9c 02 be f2 62 60 3d d0 2f 5a 3d 2d 42 a9 bc
       -0.12755182 0.05478186 0.053268254 -0.020661438
0001a0 2a 26 26 be 6a 05 1b 3c 37 fa 33 be 58 ba b5 3d
       -0.16225496 0.00946174 -0.17575918 0.08873433
0001b0 e6 b3 ec 3d 2b ab 47 3d 1a 88 b0 bd 27 88 45 3d
       0.115577504 0.048747223 -0.08619709 0.048225548
0001c0 1b 00 27 3c ae cc 76 bd 9e 46 6a bc 6c 77 47 be
       0.010192896 -0.06025379 -0.014299063 -0.1947915
0001d0 83 35 43 be 3f ac 83 bd 35 5f b9 bc 5c 9d c2 3d
       -0.19063382 -0.06429338 -0.022628406 0.0950267
0001e0 f3 e1 7b be c3 a9 4f bd 99 3c 06 bb 1e f7 4a 3e
       -0.24597912 -0.050699007 -0.0020482896 0.1982083
0001f0 41 be a2 bd ff 29 cf 3c bb 29 10 3e 01 9f 82 3e
       -0.07946444 0.02528858 0.14078419 0.25511935
000200 7b b5 ba 3d a6 cd 93 bc 99 91 cb 3d 39 b5 75 bd
       0.09116646 -0.018042397 0.0993988 -0.05998728
000210 22 74 ea bd a5 11 72 3e ed eb 3a 3d b3 1d 11 3c
       -0.11447932 0.23639543 0.045635153 0.0088571785
000220 9e a8 c8 3a c5 ed f6 3c 08 cb 84 bd 93 ab 85 3b
       0.0015309041 0.030142674 -0.06484038 0.004079291
000230 f0 d1 e4 bd 1f 18 1d 3e 90 28 1c be 74 8e 03 bd
       -0.11172855 0.15341233 -0.15249848 -0.032118276
000240 f4 ae 48 bd 91 c8 8b bd 78 fc 2d be 4c dd a8 bd
       -0.048994973 -0.068253644 -0.1699084 -0.08245334
000250 bd 87 09 3d 38 48 4c 3e e9 5e d1 bb 23 82 22 3d
       0.033576716 0.19949424 -0.006389488 0.03967489
000260 95 e3 4f be 3f c7 d5 bd ca 4c 0b 3e fd 8f cf bd
       -0.2030166 -0.10438394 0.13603511 -0.101348855
000270 3b 7f 2a bd 51 c3 d7 bd 3a af 90 bd 2b b1 85 3d
       -0.041625243 -0.105353005 -0.07064672 0.06527933
000280 42 09 2c 3e 97 20 41 3c f2 5b a1 bc ad 37 a8 3d
       0.16800407 0.011787555 -0.019697163 0.08213744
000290 23 6b fc bc 45 01 06 3e fc 23 3f be bc 2b 7e 3e
       -0.030812806 0.13086422 -0.1866607 0.24821371
0002a0 fe f5 11 bd 96 5a de 3b cc 91 c4 bc 98 eb f3 3d
       -0.035634987 0.006785701 -0.023995303 0.1191017
0002b0 bb 13 40 3e 7f b1 e3 3d 61 a4 a2 bd 63 0c df bb
       0.18757527 0.11117839 -0.07941509 -0.0068068965
0002c0 19 f5 4b 3e 63 bf d1 bc fd b1 ec bc 08 3c 9d bd
       0.19917716 -0.025603956 -0.028893465 -0.07677466
0002d0 4f 2f f9 bd ca fa d7 bb a2 b2 0f 3d 10 a7 35 3c
       -0.121672265 -0.0065911757 0.035082467 0.011087194
0002e0 1f 5b 58 be 74 7d c8 bd 67 86 14 3c 73 bf 3a 3b
       -0.2112851 -0.09789553 0.009065247 0.002849546
0002f0 e9 1a 0e 3e c2 0e 16 bd 37 56 56 bd e4 80 87 3d
       0.13877453 -0.036635168 -0.052328315 0.06616381
000300 45 dc 9b 3d db 23 c1 bd 15 1d 47 3e 5c 12 98 3b
       0.076103725 -0.09430667 0.19444688 0.0046408605
000310 66 f5 cd 3d 45 c2 74 3e 21 1a 99 3d d2 b6 e0 bc
       0.10056572 0.23902233 0.07475687 -0.027430926
000320 26 fc 82 bd e5 0b 53 3b fe f0 2e be a7 d9 0d 3c
       -0.0639575 0.0032203135 -0.17084119 0.008657849
000330 f5 c2 00 bd 5b 43 83 3e 53 2a ce bd 92 3d 17 bd
       -0.031435926 0.25637326 -0.100666665 -0.036923952
000340 2f 4b 39 3e 3e 63 7a bd 82 73 21 be 94 bf bb bd
       0.18095087 -0.0611298 -0.15766719 -0.091674
000350 9a cd b4 3d d2 48 41 3e 2a fa 85 bd 30 ee ea 3b
       0.08828278 0.18875435 -0.06541856 0.0071695074
000360 20 d3 d7 bd 2e 85 c9 3b 0d 54 c9 3d 25 0c 2a bd
       -0.10538316 0.0061499095 0.098304845 -0.04151549
000370 ed e4 03 bc f9 a7 2c 3e 88 22 6f 3d c3 e0 50 bd
       -0.008050186 0.16860951 0.05838254 -0.0509956
000380 57 a1 72 3e 4a 36 f8 bd fc 79 14 bd 27 a4 30 bc
       0.23694359 -0.1211973 -0.036249146 -0.0107813245
000390 92 9d 2c 3d d3 72 32 3e d7 ff f5 3d c7 23 26 bd
       0.04214246 0.17426614 0.12011688 -0.040561464
0003a0 d3 0b b5 bd 62 e3 4c 3e 91 6e 98 bd 94 01 02 be
       -0.08840146 0.20008615 -0.07442964 -0.12695915
0003b0 e1 ea 3d be ba b0 06 3d 19 e3 69 be 12 fa 6c bd
       -0.1854663 0.032883383 -0.22840537 -0.057855673
0003c0 7d 56 b1 3d 48 8f 80 bc 89 96 44 bd 70 28 3b bd
       0.086590745 -0.015693322 -0.047995124 -0.04569286
0003d0 6e be 2f be dc ee da bd 76 82 c4 3d cd f5 af bd
       -0.17162487 -0.1069009 0.09595196 -0.08591805
0003e0 bc 98 02 bd aa f9 82 bd 8f b3 8c bd 9e 2b 0b 3e
       -0.03188394 -0.06395276 -0.068701856 0.13590857
0003f0 f1 c3 8b 3d 39 bc 9a 3c f2 76 e2 3d c3 37 0b 3e
       0.06824482 0.01888858 0.11057843 0.1359549

linears.1.bias f4 [64]
000000 fe 6d 76 3e 94 45 fc 3e 98 d5 ad 3e 46 01 a6 3e
       0.24065396 0.49271834 0.33952022 0.32422847
000010 d1 8e 55 bd 9e 09 bf 3e 85 2b 14 be bd 49 07 3e
       -0.052138153 0.37312025 -0.14469726 0.13211723
000020 e5 90 7e be 3e 6c e4 3e 47 bb 94 3d 73 6c 0e bd
       -0.2485996 0.44613832 0.07262283 -0.034771394
000030 cf 30 05 3f 48 91 b5 3e 85 6a 94 3e 3e 7f 6e 3e
       0.520276 0.35462403 0.28987518 0.23290727
000040 01 4f 62 3e 6d ee 17 3d 91 6a 9e be 99 18 ca 3e
       0.2210045 0.037092615 -0.3094068 0.39471892
000050 62 89 99 3e 55 98 b2 3e 78 f9 be 3e a2 9e 64 3e
       0.29987627 0.34881845 0.37299705 0.22326139
000060 7e 2b c9 bd 8a ca 13 3d de 39 92 3e 1a 15 46 be
       -0.098227486 0.03608183 0.28559774 -0.19343987
000070 d6 15 51 3e 8e 8b f2 3c 78 c7 61 be 81 72 83 3e
       0.20418486 0.02960756 -0.22048748 0.25673297
000080 14 98 b5 3e 17 c6 e6 3e 5c 63 9a bd 4d c6 3b be
       0.3546759 0.45073006 -0.075384825 -0.18337364
000090 eb 97 1e bd e3 89 e6 3d 58 79 cf 3e 2f 40 4a 3d
       -0.0387191 0.112567686 0.40522265 0.049377616
0000a0 2d 8f 77 3d 03 53 7b 3e 90 69 5d be 90 6b fa 3d
       0.060439277 0.24543385 -0.216223 0.12227547
0000b0 cf ea 80 3e 2d ea 63 3e ee 5b ac be 09 7d d4 3e
       0.25179145 0.222573 -0.33663887 0.41501644
0000c0 53 95 8e 3e 4b 02 fa 3e 77 64 7b 3d 21 29 bc 3e
       0.278483 0.48829874 0.061375108 0.3675013
0000d0 ff 88 63 be a5 80 1b be 63 ae d1 3b 98 a3 4b 3e
       -0.22220229 -0.15185793 0.0063989623 0.19886625
0000e0 3e 54 66 be 63 81 8c 3e 88 b4 2f be c9 33 8a 3e
       -0.22493073 0.27442464 -0.17158711 0.26992634
0000f0 34 8d ee 3e b1 c5 11 3d 32 2f b4 3e df 84 bf 3e
       0.46592104 0.035588924 0.35192257 0.3740606

linears.2.weight f4 [5, 64]
000000 1a 5b e5 bd 0c f9 3f be 9b 41 db bd d9 c2 1d be
       -0.11199017 -0.18747348 -0.107058726 -0.1540636
000010 d3 5e 47 bd 02 cc f4 bd ef 75 a9 bd 44 85 de 3b
       -0.048674416 -0.11952974 -0.08274447 0.006790789
000020 3e db 55 be e2 be 32 bd 96 57 d2 3d 65 75 00 bd
       -0.20884416 -0.04363907 0.10270612 -0.031361956
000030 81 5b 1f be 2c 4e 95 bd c1 e5 86 3a d4 49 16 be
       -0.1556225 -0.07290301 0.0010291861 -0.146766
000040 cb ad 0f be 34 a2 5d 3d 6b a9 7d be 20 50 f1 bd
       -0.1403114 0.054109767 -0.24771659 -0.11782861
000050 b0 17 75 be b2 53 8f bd 9b 93 5e bd 21 83 28 bd
       -0.23934817 -0.069983855 -0.054339986 -0.04114068
000060 14 2f 4c 3d 9d 21 38 bd 50 b1 45 be f8 69 22 be
       0.049849585 -0.04495393 -0.1930592 -0.15860736
000070 6b 3f a6 bd d4 c0 96 3c 7b 7d f0 bd 4f c0 4b bd
       -0.08117565 0.018402494 -0.117426835 -0.049743947
000080 6e b1 01 3c 22 12 11 bd b9 20 c0 bd db 2e 37 be
       0.007915838 -0.035417683 -0.09381241 -0.17888968
000090 c8 90 3d be fd 84 4e 3e 3b fa 23 be 65 4c fe 3c
       -0.18512261 0.20167919 -0.16013424 0.031042287
0000a0 5f c6 6c bc fe 99 d7 bd 53 7e 39 bd 7a 57 e0 3d
       -0.014451592 -0.105274186 -0.045286488 0.10954185
0000b0 9d f9 2a be 05 75 c6 3d 3f 0d 46 bd f2 41 2b be
       -0.16696782 0.096902885 -0.048352476 -0.16724375
0000c0 d8 4d bd bd de 82 ec bd 86 d2 80 3d 7e a3 e1 bd
       -0.09243363 -0.115483984 0.06290154 -0.11017512
0000d0 5b 28 84 be 17 57 1e 3d e0 98 27 3b a0 ea 8e 3d
       -0.2581204 0.038657274 0.0025573298 0.06978345
0000e0 d0 a7 cd bd 05 23 d3 bd 8c 3f 0d bd fa fc 99 3c
       -0.10041773 -0.10309414 -0.03448443 0.018797386
0000f0 d0 63 32 be 91 17 12 bb e0 03 13 be 18 e3 4f 3e
       -0.17420888 -0.0022291879 -0.14356947 0.20301473
000100 d9 f0 c8 bc d8 85 34 be fb 89 23 be d6 24 fb bd
       -0.024528908 -0.17629182 -0.15970604 -0.12262885
000110 88 55 92 bc b7 dd 1c be 56 5d c4 3c 3d 9b cc 3c
       -0.01786305 -0.15318953 0.023970287 0.024976367
000120 93 ee 07 bd 9f 94 1a be 9e 33 b7 3d 36 88 0d 3d
       -0.033186506 -0.15095757 0.08945392 0.03455373
000130 a0 0a 22 be 39 5e 06 3e b4 2b 06 bb b3 0e bf be
       -0.15824366 0.1312188 -0.0020472826 -0.37315902
000140 06 c0 be bd d3 0a 78 bd 01 3c f7 bd 57 6e 06 be
       -0.09313969 -0.060557198 -0.12071992 -0.13128029
000150 be 6c 03 be c6 da 16 be 45 c8 18 be 68 6f f1 bc
       -0.1283445 -0.14731893 -0.14920147 -0.029472068
000160 9d 65 a5 3d 57 32 b3 bb c9 8c 97 bd 99 e0 9d 3c
       0.08076022 -0.0054686475 -0.073998995 0.019272136
000170 d4 10 29 be 59 10 63 3c 55 5c e9 37 02 4e 6b bd
       -0.16510326 0.013858878 2.781876e-05 -0.05744744
000180 03 f7 71 3d 29 b2 27 be 3a b0 e9 3c 11 bf eb bd
       0.05907346 -0.16376556 0.028526414 -0.115110524
000190 3f 07 88 be 44 16 21 3e e5 4a 87 bd 5a dd 96 bd
       -0.26568028 0.1573115 -0.06606082 -0.07366438
0001a0 1a 36 f5 bb ad 2b 27 3d 35 a4 eb 3c 13 d1 db bd
       -0.007483256 0.040813137 0.028764823 -0.10733237
0001b0 e4 b6 3c be f1 a1 88 3d 5a 8d 9d bd 6f 48 f6 bd
       -0.18429142 0.06671513 -0.07692976 -0.12025534
0001c0 ed 1a 89 bd e4 41 13 be 73 ba 49 bd 32 d6 17 be
       -0.06694589 -0.14380604 -0.049250077 -0.14827803
0001d0 9c a5 7f bd a2 bb 92 3d b4 75 2c 3d 5b 29 b8 bd
       -0.062413797 0.07164694 0.042104438 -0.08992263
0001e0 ce 41 a3 bd d1 94 c8 bc 26 62 a7 39 80 04 2f bd
       -0.079715356 -0.024485024 0.00031925848 -0.0427289
0001f0 85 21 f0 bd 17 34 f9 3c bb 3a e6 bd 9d 16 97 bb
       -0.11725143 0.030420346 -0.11241671 -0.00461085
000200 e1 4d 6d bd 2a 30 5e be 07 ae 51 3c 75 d3 f1 bd
       -0.0579356 -0.2169806 0.012797839 -0.1180791
000210 cc 80 cc bc a7 5b 52 be b7 d9 4a be 6e 04 78 bd
       -0.024963759 -0.20542775 -0.19809614 -0.0605511
000220 ed bb 95 be 28 33 62 bd 22 c8 0c bc ac d0 75 3d
       -0.29244938 -0.055224568 -0.008592637 0.060013458
000230 0c 47 4e be 4f ae 44 3e c4 ba 14 3c 0c ad 56 3e
       -0.2014429 0.19207118 0.0090777315 0.2096445
000240 28 d0 7d be 80 e4 29 3e ae 00 a4 be 04 0d ac 3b
       -0.24786437 0.16591072 -0.3203177 0.005250575
000250 2d cf 6d be 72 b9 52 bd 9b 48 a7 bd ae f8 95 3c
       -0.23223563 -0.051446386 -0.08168145 0.018307056
000260 b7 50 ef bd 1a bd 33 be 13 ba a1 be e7 33 4d be
       -0.11685317 -0.17552605 -0.31587276 -0.2003933
000270 bd ea 84 3c 7d 9b 55 3d 5a 50 a8 bd 95 b3 40 bd
       0.016225213 0.05215024 -0.08218451 -0.047046263
000280 2c 21 0b bd 18 ff 2a be 45 4a 32 be d5 11 ae bd
       -0.033967182 -0.16698873 -0.17411144 -0.08499495
000290 98 ed ae be b5 93 4f 3d e2 5f 68 be 30 8a 83 3e
       -0.34165645 0.050677974 -0.22692826 0.25691366
0002a0 95 e1 82 bd b6 12 6b be c4 42 05 bc 9b 51 21 3e
       -0.063906826 -0.22956356 -0.008133594 0.15753786
0002b0 c1 70 a1 bd e2 e5 ae 3e 69 3a 03 be b0 fb 7e 3c
       -0.07882834 0.34159762 -0.1281525 0.015562937
0002c0 76 d4 1a be 71 0f 30 be 57 54 57 be ea fd f4 bd
       -0.1512011 -0.1719339 -0.21028267 -0.11962493
0002d0 e4 98 80 be e2 5e f5 bc 5a c6 66 be c5 96 53 bd
       -0.25116646 -0.02995247 -0.22536603 -0.051657457
0002e0 ee a8 c4 bd 5f 2e a2 3b 4e 84 9e bc e0 38 30 bd
       -0.09602533 0.0049493755 -0.019350197 -0.04302299
0002f0 ee f9 00 be b8 37 84 bd 98 26 4e be 88 de 7a 3e
       -0.1259534 -0.0645594 -0.2013191 0.24498951
000300 b6 7a 26 be e3 2b 8c bd 74 e4 6d be 76 98 2c bd
       -0.16257748 -0.06844308 -0.23231679 -0.042137586
000310 22 c8 fa bc 53 68 b4 bd fb b4 13 bd 1b 2c cd 3c
       -0.030613009 -0.08808961 -0.03606127 0.025045445
000320 f8 e4 5e 3d 79 30 4f be c5 69 7f bd 41 8a 21 3d
       0.05441758 -0.20233335 -0.06235673 0.03943849
000330 26 af df bd 1a b7 a2 bd 9c 91 f2 bd e2 8c 1b be
       -0.10922079 -0.0794508 -0.11844179 -0.15190461
000340 c3 fd a9 be 18 e2 b0 bc 24 ed 7a 3c 14 3e cb bd
       -0.33201417 -0.021592185 0.015315328 -0.0992395
000350 e1 f3 5a bd 63 ff 83 be 31 37 e2 bd c5 b6 84 bd
       -0.053455237 -0.25780782 -0.11045683 -0.06480173
000360 3e fd b7 3d a5 71 a4 bd 03 31 32 be 65 84 05 3d
       0.08983849 -0.080294885 -0.17401509 0.032596964
000370 f3 dc 28 be d2 4b ff bd 7a 98 9b bd ce 9f a6 bd
       -0.16490535 -0.124656335 -0.07597442 -0.08135949
000380 67 6d 5e 3c d8 4e 60 be 9e 54 67 bd a8 b2 2a 3e
       0.013575888 -0.21905077 -0.05647718 0.16669714
000390 06 2b 70 3b b4 3e 8b 3e aa 4e 40 be e9 65 ca bd
       0.0036646738 0.27196276 -0.18780008 -0.09882719
0003a0 1d e4 04 3d eb 77 8f be 0b d3 5f be 44 66 64 3d
       0.03244411 -0.28021178 -0.2185785 0.05576159
0003b0 51 72 8b bd 65 cf 14 3e 93 97 fc bc 60 90 63 be
       -0.068089135 0.1453224 -0.030833995 -0.22223043
0003c0 ee 59 89 3d d1 8f 6e bc 55 4d 72 bd f9 e1 aa bd
       0.06706606 -0.014560656 -0.05915578 -0.08343882
0003d0 da 7a 97 3c db af 13 3e 86 7b da bd ab 5d e9 bd
       0.018491197 0.14422552 -0.106680915 -0.11394819
0003e0 c3 d2 da 3d 54 84 25 be 86 aa 50 3d a1 25 89 3b
       0.10684731 -0.1616376 0.050943874 0.004185394
0003f0 ec f4 57 be eb 06 a3 bd 6a 96 fb bc 7a 07 bc 3d
       -0.21089524 -0.07960304 -0.030711371 0.091811135

linears.2.bias f4 [5]
000000 54 06 7a be 4b dc a5 be 62 d5 d1 be 74 da d3 be
       -0.24416476 -0.32394633 -0.4098311 -0.41377604
000010 e3 a8 e5 be
       -0.44855413
