dqn-exp/savedir/student-test/checkpoint1700--model.pth (torch_old, 20763 bytes, 6 tensors)

linears.0.weight f4 [64, 6]
000000 e3 be c5 3d 10 ea 02 be 23 20 e4 bd 8e f5 0b be
       0.096555494 -0.127846 -0.11138942 -0.1366789
000010 e6 a3 d3 be 40 ca 18 3e a7 d0 61 3d d8 46 22 be
       -0.41335982 0.14920902 0.055130627 -0.15847337
000020 15 9f 89 3a 34 b0 7d bb 54 18 03 3e ab 5e 06 3f
       0.0010499681 -0.0038709762 0.12802249 0.524882
000030 9c c9 1a 3e 78 d2 13 3e d9 d6 ac bd 57 93 99 bd
       0.1511597 0.14435756 -0.084394164 -0.07498806
000040 72 0a 28 be 5e 8c bf 3e 4a 31 54 3e d7 77 8a bd
       -0.16410235 0.3741178 0.20721927 -0.06761139
000050 fa 6c 15 bc 16 2e f0 3d a4 6d 62 be f8 5a 17 3e
       -0.00912022 0.1172754 -0.22112137 0.14780796
000060 21 9d f0 3b a0 23 b3 3b dc 01 d7 bd 66 bc 62 bd
       0.00734295 0.0054668933 -0.104984015 -0.055355452
000070 f1 8d 59 bd 4c 7e 8f bd f5 c8 92 3d c9 e2 09 3c
       -0.05311388 -0.07006511 0.07167236 0.008415886
000080 1d 47 5b be 34 f3 7f 3e 7f 54 2a 3e 5f 56 0f 3d
       -0.21413846 0.24995118 0.16633795 0.03499448
000090 09 69 01 3d 43 f9 d9 3b 1b 4d d6 3e 00 96 74 3e
       0.03159431 0.0066520288 0.41855702 0.23885345
0000a0 b8 8f a3 3e 7f 53 13 3e 04 9b 12 be d9 2b 4d bc
       0.31945586 0.1438732 -0.14316946 -0.012522661
0000b0 80 d8 80 3e 39 d5 9f 3d 04 8d 3f 3d 06 34 93 3d
       0.25165176 0.07804341 0.046765342 0.07187657
0000c0 44 87 08 be f3 43 7d bd 17 48 bf bb 5d 34 2b 3e
       -0.1333285 -0.06183238 -0.005837451 0.16719194
0000d0 2a 97 99 3e 20 fa 9d 3e df 54 bd bd 13 e9 80 3d
       0.29998142 0.30854893 -0.092447035 0.062944554
0000e0 49 7a ec 3c 19 d6 2c be 21 df c8 bd 74 83 69 3d
       0.028866904 -0.16878547 -0.098081835 0.05701013
0000f0 45 e4 33 be 15 65 5e 3c ee e8 c4 3c 49 66 1a bb
       -0.17567547 0.0135739045 0.02403685 -0.0023559502
000100 b6 17 26 3f 19 f5 2d bc ac 78 1c 3e 03 17 7d 3d
       0.6487993 -0.010617518 0.15280408 0.061789524
000110 1b 6d b1 3e c3 d2 1e be db 0f 16 be 7e 2b 02 3e
       0.34653553 -0.15510087 -0.14654486 0.12711903
000120 0f 08 45 3d 49 a4 75 be 70 f2 f8 3d 4b 93 95 bd
       0.04810339 -0.23988451 0.12155616 -0.073034845
000130 d8 ec 3c bd d5 24 b2 3e 27 73 b2 bc 13 0e 2b 3e
       -0.04612431 0.34793726 -0.021783425 0.16704588
000140 b9 44 ab bb b6 8c 4f bb 31 99 2f 3d a0 b2 2b bf
       -0.0052266982 -0.0031669564 0.042870704 -0.67069435
000150 26 bf f3 3d 06 32 21 3e 04 c8 18 3d 9a a9 09 3c
       0.11901693 0.15741739 0.037300125 0.008402253
000160 aa f8 71 be ce a4 dd be 70 0f 38 be 41 38 18 be
       -0.23630014 -0.43289798 -0.17974639 -0.14865209
000170 7f 83 4d 3d 96 83 dc 3c 23 cb 74 3e fc e4 29 3e
       0.050174233 0.026918214 0.23905616 0.16591257
000180 24 fe 10 3e d3 e3 c1 bb 08 39 3e bd a2 a3 73 3c
       0.14159447 -0.0059170513 -0.046441108 0.014870556
000190 5f c4 df be 45 b5 27 3d a7 2a d2 3d a0 ee e8 3d
       -0.43704507 0.040944356 0.102620415 0.11373639
0001a0 a4 6c a4 bc 6a 45 b1 3c 18 37 16 bf db 07 c6 bd
       -0.020071335 0.021639545 -0.58677816 -0.09669467
0001b0 f2 bf 98 bd 4c 99 95 3d 43 bc 7e bc c1 85 4b 3d
       -0.07458486 0.0730463 -0.015547815 0.049688105
0001c0 5f db e4 3e 21 1e 1b be 19 a9 fb 3d 8a a0 83 3b
       0.44698617 -0.15148212 0.12288112 0.0040169405
0001d0 01 db 1f bc c4 d7 ba 3b 62 e7 28 bf c0 51 0e bc
       -0.009756804 0.005701991 -0.6597806 -0.008686483
0001e0 c7 d1 fa 3d ea 5a 49 be 94 5d e4 3c c7 36 27 3e
       0.12247043 -0.19663587 0.027876653 0.1632949
0001f0 e2 b9 46 be e0 73 a3 3e 78 24 c9 3c 73 1c 25 3e
       -0.19406846 0.31924343 0.024553522 0.16124134
000200 e7 7d 83 3c 50 8f 00 ba 8e 87 34 bb 5a fe 0f bf
       0.016051246 -0.0004904168 -0.0027546617 -0.56247485
000210 91 9a cd bd 5f ea aa bd c1 6b 8c bd 61 6b f3 bd
       -0.10039247 -0.08345484 -0.0685649 -0.11885715
000220 14 30 b1 3d 85 2a 5d 3e 5a bb b7 bd b7 41 dc bd
       0.08651748 0.21598251 -0.08971281 -0.107547216
000230 15 0f 2e bc ed 01 4e 3d 6d 49 78 3e a1 f0 af 3e
       -0.010623713 0.050294805 0.2424676 0.34363273
000240 2d f3 e2 bc e9 7f c4 bc 5e db cf 3d fc a0 23 3e
       -0.027703846 -0.023986774 0.10149263 0.1597938
000250 34 4e 41 bd 45 20 07 3e 4f 92 09 be 6b 52 0a 3c
       -0.04719372 0.13195904 -0.13434719 0.008442502
000260 be 20 de 3b ab 7f cb 3b 26 96 0d 3f ee fa f0 3b
       0.0067788055 0.0062102876 0.55307233 0.007354132
000270 79 a6 e1 bd f4 77 c4 3b b0 52 96 bd 85 2a 4a 3c
       -0.1101808 0.005995745 -0.0733999 0.012339239
000280 17 74 b5 3e c2 35 12 bb 77 b4 c3 3d 50 ae 07 3e
       0.35440132 -0.0022309874 0.09555905 0.13250089
000290 92 c5 40 bd cd 5d 81 3d 96 47 6c be d8 79 7c be
       -0.047063418 0.06316719 -0.23074183 -0.24655855
0002a0 08 95 36 3e ae f9 23 3c c1 86 67 3a 6a a4 80 bb
       0.17830288 0.010008259 0.00088320306 -0.0039258497
0002b0 21 25 75 bf dc cc dc 3c a9 5b dc bd b7 36 60 3e
       -0.9575978 0.026953153 -0.1075967 0.21895872
0002c0 1c f7 8b 3e 42 39 99 bd 8b 42 89 3e 08 7d b8 be
       0.27336967 -0.07481624 0.2680858 -0.3603289
0002d0 75 db 80 bc 90 74 18 be 26 bc 25 bc e5 0c ec 3b
       -0.015729645 -0.14888215 -0.010115659 0.0072036856
0002e0 04 ec 8e bd 26 4e 69 3f fd b4 08 bd 24 15 0e 3e
       -0.0697861 0.9113487 -0.03337573 0.13875252
0002f0 c5 d0 d3 3d d3 0e 50 be 52 33 74 3d 0f 49 1f be
       0.10342554 -0.20318155 0.059619255 -0.15555213
000300 4a d9 79 bc 40 2d 84 3d 1f 6d b8 b9 25 f3 28 bd
       -0.01524956 0.06453943 -0.00035176516 -0.041247506
000310 1d 49 9b 3c 7c b1 94 bd d7 8c 06 be 8f 56 ac 3d
       0.018955762 -0.07260415 -0.13139664 0.08414947
000320 d2 98 f9 bc cf 56 96 3d 01 85 f7 3d 83 f6 a1 bd
       -0.030468378 0.07340776 0.12085915 -0.079083465
000330 c4 b8 12 bd d1 c0 9a bc d5 3a 98 bd ef 47 3b be
       -0.035820737 -0.01889077 -0.07433096 -0.18289159
000340 a2 25 a3 bd cc d7 17 bd a4 13 d4 bc 41 6e 1e 3d
       -0.07966162 -0.037071034 -0.025888272 0.038679365
000350 16 69 84 3d bf 5d 94 bd da 4c 5b 3d e6 23 65 bc
       0.06465356 -0.07244443 0.05354009 -0.01398561
000360 bc 84 83 bd 57 e0 9f 3c 13 a9 2d 3c ce 0b 39 bb
       -0.064218014 0.019516153 0.0105993925 -0.0028235796
000370 c9 22 37 3f 84 3d c7 3d aa ea d5 bd bb 08 01 be
       0.7153745 0.0972853 -0.10445149 -0.12600987
000380 5e af 33 3d 6f 4b 04 bd 64 92 7c 3e c0 38 82 3e
       0.043868415 -0.0322985 0.24665219 0.25433922
000390 5e 3b bb bd ec 7a 9c 3c b0 09 99 bd b5 8f e6 bc
       -0.09142183 0.019101582 -0.07472551 -0.028144697
0003a0 76 4c 36 3e d2 13 66 3e d7 fa 78 bd 11 df 94 be
       0.17802605 0.22468498 -0.060786095 -0.29076436
0003b0 fa 74 0c be dd 28 ad 3d 97 85 0e bc 85 3d 94 3d
       -0.13716498 0.0845506 -0.0086988425 0.072382964
0003c0 eb 3a 06 3b 44 c1 0d 3e 51 3a 40 bc 87 d4 0a 3b
       0.0020481895 0.13843256 -0.011732654 0.0021183805
0003d0 c4 92 28 3c 63 4d 6b bf 86 9d c9 3d 25 37 35 be
       0.010288898 -0.9191496 0.09844498 -0.17696817
0003e0 14 8e 3c 3d 43 30 1c be 47 2e 07 be 55 e6 86 3d
       0.046033934 -0.15252785 -0.13201247 0.06586901
0003f0 e8 28 60 3d b0 4d 0e be e2 5c 11 bc 0a 69 f4 bc
       0.05472651 -0.13896823 -0.008872243 -0.029835243

linears.0.bias f4 [64]
000000 a2 da e2 be 47 98 f5 bc 83 e7 f1 be 36 46 c2 be
       -0.4430743 -0.029979838 -0.47246942 -0.37944192
000010 05 7a 31 be 5e ba 48 bf 6c 70 90 be 14 19 d8 be
       -0.17331703 -0.78409374 -0.2821077 -0.42206633
000020 55 f2 de 3e 78 f0 cd 3e ea 59 a9 be 55 ff 0b bf
       0.4354426 0.40222526 -0.3307641 -0.5468648
000030 fc 93 3c bf ba ca 7e be bc 85 e2 3e 27 a1 28 bf
       -0.73663306 -0.24882022 0.44242656 -0.658709
000040 1e b9 d0 3e d0 62 40 bf 09 b9 18 3f 46 ad 99 3d
       0.40766233 -0.75150776 0.5965734 0.075037524
000050 ec 1e dd 3e db a2 11 3e 32 16 00 3f 73 39 7d 3e
       0.43187654 0.1422228 0.5003387 0.24728946
000060 fe 40 b1 3e 85 68 89 3e ce d4 08 bf 53 9b a7 be
       0.34619898 0.26837555 -0.53449714 -0.3273569
000070 59 83 34 bd 67 4b 11 bf d3 80 19 be 18 4e ab be
       -0.044070575 -0.5675568 -0.14990549 -0.33458018
000080 6d 8a e1 bd 93 dc 9b 3e 53 cc a6 be 56 32 1d be
       -0.11012731 0.30441722 -0.32577762 -0.15351233
000090 eb a8 10 bd e2 12 00 bf be 24 4c be e5 89 1d bf
       -0.035317343 -0.5002881 -0.19935891 -0.61538535
0000a0 47 d4 cb bd 2c f2 e8 be 2e e8 03 3f ad d4 25 bf
       -0.09952598 -0.45497262 0.51526153 -0.6477764
0000b0 29 2b c7 be 83 e3 f4 be 89 21 3d 3f 38 1c dd 3e
       -0.38900116 -0.47829828 0.73879296 0.43185592
0000c0 7e b7 02 bf 71 1d 8a be a5 15 8b be fd e2 6e 3e
       -0.51061237 -0.26975587 -0.2716495 0.23328777
0000d0 4f 18 f8 3c a4 37 cd 3e 63 89 45 3e 85 40 f7 be
       0.030285029 0.40081513 0.1929069 -0.48291412
0000e0 97 09 26 bf 21 72 95 be 0e 02 c0 3e 07 1f 03 bf
       -0.6485838 -0.29188636 0.37501568 -0.5121922
0000f0 fe a2 08 bc 54 10 3f be 37 43 9d 3e 3d 4f 08 bf
       -0.008339642 -0.18658572 0.30715343 -0.5324591

linears.1.weight f4 [64, 64]
000000 a0 08 d3 bd 85 e7 6a bd 0a 00 71 bc b9 61 bb bd
       -0.103043795 -0.0573497 -0.014709482 -0.091494985
000010 43 ae d0 bd 79 e1 56 3d f3 7f 27 3a 0a 5b 52 be
       -0.10189488 0.05246112 0.00063896104 -0.20542541
000020 bd 6d 34 bc 69 ed df bb 5a 6a bc 3d e5 fd 89 bb
       -0.011012492 -0.0068337214 0.091999725 -0.004211175
000030 9c a1 03 be 5a 28 32 bc 1e 9b dc bd c3 a8 d2 bc
       -0.12854618 -0.010873878 -0.10771774 -0.025715237
000040 39 06 09 3d 65 71 29 bd 23 80 4a bc c1 a1 99 3e
       0.0334532 -0.041367907 -0.012359652 0.3000622
000050 47 e3 96 bd ed 72 58 be 9a a7 cf bd 21 51 d8 3c
       -0.073675685 -0.2113759 -0.10139389 0.026405873
000060 9d 3e 16 3e 9b 03 00 3d 3a 7b 0e bd 35 57 36 3e
       0.14672323 0.03125344 -0.034785487 0.17806704
000070 63 f5 0d bd 90 43 99 3d f6 52 20 bd c6 2c 6b bd
       -0.034657847 0.0748359 -0.039141618 -0.057415746
000080 81 d1 a7 3d 93 25 e2 bb ea 7e 21 3d b4 91 96 3d
       0.081942566 -0.006901452 0.039427675 0.073520094
000090 ad b3 fa 3d c0 bc 27 be 37 97 c3 bc e1 ee 4d bc
       0.12241302 -0.16380596 -0.023875816 -0.01256916
0000a0 d1 b0 c2 3d 35 e5 00 be 45 31 a9 bb a4 39 b1 3b
       0.09506381 -0.12587436 -0.005163344 0.0054084826
0000b0 5b 8b 39 be 96 8c af bd 08 0e a5 bd a4 3c b7 bd
       -0.18119566 -0.085717365 -0.08059317 -0.08947113
0000c0 b8 00 1e bd f8 30 b6 3c 63 1a cc 3c e7 62 0d be
       -0.038574904 0.022240147 0.024914926 -0.1380726
0000d0 cb d6 13 3d 59 9f a2 bc 20 52 2b 3b fc 67 fb bd
       0.036093514 -0.019851374 0.002614148 -0.12275693
0000e0 21 10 ef 3d 8c 7b 44 be 03 51 ca 3d 8e 34 59 3d
       0.11672998 -0.19187754 0.09878733 0.053028636
0000f0 a7 7e 8a bb 56 f3 91 bd f8 c8 0f be ef a1 13 bb
       -0.004226524 -0.07126491 -0.14041507 -0.002252694
000100 44 20 21 bd 2f b7 81 3d c6 22 fb bd 76 b6 b4 3d
       -0.03933741 0.063337676 -0.12262492 0.08823864
000110 7c d4 d3 bd 70 8e ee 3d 89 10 99 bb ed 2c 23 3c
       -0.103432626 0.116482615 -0.0046711606 0.009959442
000120 af ff be bd 84 64 d9 3c 93 55 1d be 38 7c 4a 3d
       -0.093261115 0.026537187 -0.15364675 0.04943487
000130 d1 e9 5a 3d 6b 72 48 3e 08 2f 68 3c f2 a0 b7 3a
       0.05344564 0.19574897 0.014171369 0.0014009757
000140 37 0b 22 bd b7 2b 7e 3d 66 89 a6 be a7 9e 3e bd
       -0.039561477 0.06205341 -0.32526702 -0.04653802
000150 68 98 31 bd c8 45 ea 3d 9b 8a 92 bd c2 f0 31 b9
       -0.043358237 0.11439091 -0.07155343 -0.00016969725
000160 62 c4 7b 3c 64 30 26 bd 69 b3 98 3e a2 71 f6 bd
       0.0153666455 -0.040573493 0.2982438 -0.120333925
000170 e0 2b 01 bb f4 de d4 bd 90 a6 a2 be db b3 c9 3d
       -0.001970999 -0.103940874 -0.31767702 0.09848758
000180 2d 26 1b 3e e4 3b 00 3d 13 47 6b bb e4 13 9c bd
       0.15151282 0.031307116 -0.0035900518 -0.07620981
000190 38 7f 67 be 28 ce 86 bc 53 7d db 3d c7 5e 68 bc
       -0.22607124 -0.016455725 0.10717263 -0.014182753
0001a0 df 0f 88 be b1 c1 01 3d 59 ab 48 be 40 98 28 3e
       -0.2657461 0.03167886 -0.19596614 0.16464329
0001b0 d1 cc e6 3d 08 67 c6 bc f3 f2 1d be e9 0d 52 3d
       0.112695344 -0.024219051 -0.15424709 0.051282797
0001c0 dc a6 eb 3c b6 d0 84 3d fc cc 09 3b e4 ca 15 be
       0.028766088 0.06485121 0.0021026721 -0.14628178
0001d0 fd 27 0f be 99 64 89 bd e8 45 de bc 6e 61 b6 3d
       -0.13980098 -0.067086406 -0.027132943 0.08905302
0001e0 46 3c 47 be ea 7c 78 bd 32 b9 35 bc ae 06 47 3e
       -0.19456586 -0.060666002 -0.011091517 0.19436142
0001f0 d5 15 bf bd 57 a0 9e 3a 13 05 d7 3d 5f 34 92 3e
       -0.09330336 0.0012102228 0.10499015 0.2855558
000200 21 df cf 3d ab 72 15 bd 46 b6 42 3e 35 c1 46 bd
       0.1014998 -0.03648631 0.19014844 -0.0485241
000210 f9 ef 0d bd ca 9d 35 3e 6a d5 49 3d b5 f0 b6 3d
       -0.034652684 0.17735973 0.049275793 0.0893263
000220 11 57 1c 3d 07 67 c3 bc 41 f7 8c bc 0b f1 d3 3c
       0.03816897 -0.023852838 -0.017207744 0.025871774
000230 ca fe 20 be 73 a9 21 3e 88 b5 c3 bd f4 72 94 bd
       -0.15722194 0.15787296 -0.09556109 -0.07248488
000240 cf 6d 9d bd 01 10 8b bd 0c c4 17 be cd 98 5f bb
       -0.0768696 -0.06790162 -0.1482088 -0.0034118176
000250 92 13 7c bd d3 cd 16 3e 32 ed a7 bd 1e 46 6b bd
       -0.0615421 0.14726953 -0.08199538 -0.057439916
000260 ee 95 de bd 2b a5 d0 bd 59 61 0d 3e 21 d6 11 bd
       -0.108684406 -0.10187753 0.13806666 -0.0356046
000270 1c e1 0a 3e 45 ce 1b bd 9f 71 ec bd ca 00 75 3d
       0.13562435 -0.03803851 -0.11545109 0.059815206
000280 3c 51 0b 3e c9 fe 18 bd 8c eb c9 bc 19 dd bb 3d
       0.13605207 -0.037352357 -0.02464845 0.091730304
000290 2d 1f d7 3c ab 44 4c 3d 87 f2 83 be 55 23 9c 3d
       0.026259983 0.049870174 -0.2577097 0.076239266
0002a0 d8 f4 8b bd c4 4a 91 bb 22 e0 5e 3c de 0b b0 3d
       -0.068338096 -0.0044339616 0.013603242 0.085960135
0002b0 6f df 28 3e e9 b5 e9 3c aa a9 bf bd ee 65 e4 bc
       0.16491483 0.028529124 -0.09358533 -0.027880635
0002c0 61 ee 3f 3e cd 56 f5 bd 12 ec df bd 88 e2 06 be
       0.18743278 -0.119794466 -0.10933699 -0.13172352
0002d0 c2 9a 04 bb 62 37 0e 3d 24 f5 f4 3c 7e 6d 4f bc
       -0.0020233844 0.034720786 0.029902048 -0.012660382
0002e0 43 2a 1c be 54 5e 2b be 4b 17 c7 3c 05 7a 03 bd
       -0.15250497 -0.16735202 0.0243031 -0.03209879
0002f0 a8 36 84 bc 71 2e 4d bc 44 97 04 be e7 a6 70 3d
       -0.016139343 -0.0125232795 -0.12948328 0.05875292
000300 10 33 7a 3d 1c f0 f9 bd 3c 83 31 3e fa 57 a7 3d
       0.061083853 -0.12204 0.17335218 0.08171077
000310 64 6e 1c 3e 0f 1f 51 3e 8a 5a c0 3d db c6 85 bc
       0.15276486 0.20422004 0.09392269 -0.016330173
000320 1c 3e e2 bc 51 35 0a bd 52 99 3f be 39 fc e4 bc
       -0.027617507 -0.033742253 -0.18710831 -0.0279523
000330 29 f4 6c bd 33 16 8c 3e e0 0d 8f bd ff a0 0a be
       -0.057850037 0.27360687 -0.06985068 -0.13537978
000340 64 a3 02 3e c8 ff ba bd 94 dc 40 be ad 00 d9 bd
       0.12757641 -0.09130818 -0.18834144 -0.10595832
000350 37 5a 0b 3d 86 ed 26 3e aa ae 2a 3c e5 13 2d bd
       0.034021582 0.16301546 0.01041762 -0.0422553
000360 48 0a ca bd 3e d6 ad 3d 65 ca e6 3d ff a1 80 bd
       -0.09865242 0.08488129 0.112690724 -0.06280898
000370 e4 9f 08 bd a3 d6 fb 3d 5f 21 bc 3d 7f 18 0b be
       -0.03335561 0.12296798 0.091860525 -0.13583563
000380 1b 88 39 3e 33 3f 22 be 26 b2 9e bc fe 37 f4 3c
       0.18118326 -0.15844421 -0.019372057 0.029811855
000390 00 d9 fc 3d f8 08 a6 3d e7 32 35 3e ae 5f ad bc
       0.12346077 0.081071794 0.17695199 -0.021163788
0003a0 14 9f 41 be 55 60 48 3e 3a 40 ca bd d4 a6 b6 bd
       -0.1890834 0.19567998 -0.098755315 -0.08918539
0003b0 8d a1 4d be bd 57 cf bd 58 9a 88 be a1 ac 57 bd
       -0.20081158 -0.101241566 -0.26680255 -0.052654866
0003c0 f2 a9 9a 3d a6 e0 be 3d 9d d6 91 bd 46 b0 2b 3d
       0.07551946 0.09320192 -0.07121012 0.041916154
0003d0 f5 2a 86 bc 88 a2 b1 bd 8e 8b 1b 3e 64 83 a9 bd
       -0.016377905 -0.086735785 0.15189955 -0.08277014
0003e0 4d 2b 22 3d ee dd 31 bd 76 9d 90 bd c0 f7 d9 3d
       0.039592076 -0.04342454 -0.07061283 0.10642958
0003f0 93 fb a9 3d 2b bf ab 3d 2c b5 5b 3c 53 e8 0c 3e
       0.08299937 0.08386072 0.013409894 0.137605

linears.1.bias f4 [64]
000000 0d 15 5a 3e 52 fb 24 3f 4d 7c da 3e 16 22 e5 3e
       0.21297093 0.64445984 0.4267296 0.44752568
000010 c1 b5 b6 bd f0 2c f7 3e cf 5d 18 be 4e 89 25 3e
       -0.089213856 0.48276472 -0.14879535 0.16165659
000020 4c 25 b2 be 74 f5 0d 3f ad 9e bf 3d 2a 7e 30 bc
       -0.3479408 0.55452657 0.09356437 -0.010772267
000030 b9 cb 2e 3f e7 eb 06 3f c1 62 4d 3e 59 2e 85 3e
       0.68279606 0.5270371 0.20057203 0.26011923
000040 bf 4d b8 3e b4 ea ee 3c 3e 34 d1 be 59 5d e8 3e
       0.35996816 0.02916465 -0.4086017 0.4538372
000050 61 ce d4 3e e7 f9 fb 3e ec 7d e6 3e ff 1d 21 3e
       0.41563705 0.49214098 0.45017946 0.15734099
000060 23 be 30 be b3 cb e0 3c dc 0e ef 3e 28 6b 42 be
       -0.17260031 0.027440881 0.46691024 -0.1898619
000070 e6 b0 a5 3e 62 3a 75 3d 70 f5 3e be 59 25 57 3e
       0.32361525 0.05987013 -0.18648314 0.21010341
000080 aa 47 e0 3e 01 95 13 3f f2 42 95 bd 41 dc 52 be
       0.43804675 0.57649237 -0.072881594 -0.20591833
000090 38 e0 80 3c 26 9b e9 3d ee 91 0b 3f ba 4d b4 3d
       0.015731916 0.11406545 0.54519546 0.08803888
0000a0 c3 5d f5 3d d1 c4 d6 3e 0c bb b7 be c5 8e e9 3d
       0.11980774 0.41947034 -0.35884893 0.11404184
0000b0 a3 72 bd 3e e7 a6 7f 3e 14 f3 ff be 59 4b 06 3f
       0.37001523 0.24966012 -0.4999014 0.5245872
0000c0 cc 54 dd 3e b7 6b 1c 3f 00 4b b6 3d 86 e9 ea 3e
       0.43228757 0.6110186 0.08901024 0.4588129
0000d0 37 4b 77 be de ed 70 be fa 8d ad bc 98 c9 55 3e
       -0.24149786 -0.23528239 -0.021185864 0.20877683
0000e0 4f 71 89 be 4d 5e 8d 3e 62 29 93 be 8b de bf 3e
       -0.2684426 0.27611008 -0.2874251 0.37474474
0000f0 b4 9f 1e 3f dd 24 b9 3d b0 1c e4 3e a7 2b 05 3f
       0.6196244 0.09040234 0.44553137 0.52019733

linears.2.weight f4 [5, 64]
000000 18 8e a1 bc c8 9e 51 be ea b8 ed bd 1d 26 2b be
       -0.019721076 -0.20470726 -0.11607535 -0.16713758
000010 e2 f4 88 3d 12 43 1e be ef 75 a9 bd 37 ce 1f 3b
       0.06687333 -0.15455273 -0.08274447 0.0024384388
000020 3e db 55 be fb 94 28 bd 8a 08 b5 3d 65 75 00 bd
       -0.20884416 -0.041157704 0.08839519 -0.031361956
000030 4b 31 3a be 3d 68 ae bd 3f 03 08 3d d4 49 16 be
       -0.18182866 -0.085159756 0.03320622 -0.146766
000040 b7 5c 7e be 34 a2 5d 3d 6b a9 7d be 9d 8e cd bd
       -0.24840055 0.054109767 -0.24771659 -0.10036967
000050 d7 18 86 be 7e 69 07 be 6c c7 14 bd 01 ff 06 bd
       -0.26190826 -0.13223836 -0.036322996 -0.032958034
000060 14 2f 4c 3d 9d 21 38 bd 59 6d 9c be f8 69 22 be
       0.049849585 -0.04495393 -0.30552176 -0.15860736
000070 0a 66 c9 bd d4 c0 96 3c 7b 7d f0 bd c3 85 a8 3b
       -0.098339155 0.018402494 -0.117426835 0.0051428988
000080 6e b1 01 3c f8 72 59 bd b9 20 c0 bd db 2e 37 be
       0.007915838 -0.05308816 -0.09381241 -0.17888968
000090 c8 90 3d be 42 7e 66 3e 64 8f 42 be b0 95 18 3b
       -0.18512261 0.22509101 -0.19000012 0.002328258
0000a0 5f c6 6c bc 5d 7a 45 be d7 5f 21 bd 7a 57 e0 3d
       -0.014451592 -0.19284959 -0.03939804 0.10954185
0000b0 06 06 35 be 05 75 c6 3d 91 1e 9e 3d f3 54 37 be
       -0.17678079 0.096902885 0.07720674 -0.179035
0000c0 d1 9f 17 be 86 2a 02 be 86 d2 80 3d dd f8 ec bd
       -0.14807059 -0.12711534 0.06290154 -0.115709044
0000d0 5b 28 84 be 17 57 1e 3d e0 98 27 3b bc 29 54 3d
       -0.2581204 0.038657274 0.0025573298 0.051797614
0000e0 d0 a7 cd bd b4 13 e7 bd f3 87 32 3d fa fc 99 3c
       -0.10041773 -0.11283055 0.043586683 0.018797386
0000f0 e0 b1 4f be 91 17 12 bb f8 f0 1e be 19 2c 00 3e
       -0.20282698 -0.0022291879 -0.1552161 0.12516822
000100 a7 ce ee 3c 7b 95 58 be 7d 7e 30 be f1 de 10 be
       0.029151274 -0.21150772 -0.17235751 -0.14147545
000110 15 98 38 3d 86 ca 3f be 56 5d c4 3c 24 0a 12 3c
       0.04506691 -0.187296 0.023970287 0.0089135505
000120 93 ee 07 bd 6b 21 12 be 93 e6 a9 3d 36 88 0d 3d
       -0.033186506 -0.1427056 0.08295932 0.03455373
000130 4b e8 4b be 93 19 90 3d 68 c6 b8 3b b3 0e bf be
       -0.19912831 0.07036128 0.0056388862 -0.37315902
000140 4c eb 52 be d3 0a 78 bd 01 3c f7 bd 5a c9 e5 bd
       -0.20597571 -0.060557198 -0.12071992 -0.112200454
000150 bb 94 19 be 12 23 4c be 62 c1 03 be 05 dd 97 bc
       -0.14998142 -0.19935253 -0.12866738 -0.018538008
000160 9d 65 a5 3d 57 32 b3 bb f0 23 2b be 99 e0 9d 3c
       0.08076022 -0.0054686475 -0.16712928 0.019272136
000170 9f 43 18 be 59 10 63 3c 55 5c e9 37 03 0f 94 3b
       -0.14869545 0.013858878 2.781876e-05 0.004518391
000180 03 f7 71 3d f6 4c 36 be 33 08 6f 3d 11 bf eb bd
       0.05907346 -0.17802796 0.05835743 -0.115110524
000190 58 d9 97 be 11 a4 bf 3d 3d 16 cf bd 40 ce 93 bd
       -0.29658008 0.09357465 -0.101116635 -0.072170734
0001a0 1a 36 f5 bb 28 6c 76 bd 5f cd 6b bd f2 62 0e be
       -0.007483256 -0.06016174 -0.057568904 -0.13904932
0001b0 91 cc 4c be f1 a1 88 3d ba 85 05 3e bc 15 16 be
       -0.19999911 0.06671513 0.13039294 -0.14656729
0001c0 4e 4f 49 be a3 d6 31 be 73 ba 49 bd af 6c 1e be
       -0.19659159 -0.17367034 -0.049250077 -0.15471147
0001d0 9c a5 7f bd 30 b4 92 3d b4 75 2c 3d 50 67 c9 bc
       -0.062413797 0.07163274 0.042104438 -0.024585396
0001e0 ce 41 a3 bd 5d 89 f9 bc 91 f9 88 3d 80 04 2f bd
       -0.079715356 -0.030461008 0.06688226 -0.0427289
0001f0 ce 18 17 be 17 34 f9 3c 4d 36 fa bd c3 bb ad bd
       -0.14755556 0.030420346 -0.12217388 -0.08483078
000200 8c 16 aa bc 1d 90 6e be 25 57 ec bb ee 0d 06 be
       -0.020762704 -0.23297162 -0.007212537 -0.13091251
000210 d0 d7 41 3d b5 12 60 be b7 d9 4a be 0f c2 8c bc
       0.047324955 -0.21882136 -0.19809614 -0.017182378
000220 ed bb 95 be 41 3c 37 bd 22 c8 0c bc ac d0 75 3d
       -0.29244938 -0.044735197 -0.008592637 0.060013458
000230 10 af 5e be 51 f9 43 3e cb 1c 7b 3c 0c ad 56 3e
       -0.21746469 0.19138075 0.015326689 0.2096445
000240 a8 76 89 be 80 e4 29 3e ae 00 a4 be d3 25 8f bc
       -0.2684834 0.16591072 -0.3203177 -0.01747409
000250 04 9b 7c be e4 76 dd bd c6 c8 60 bd 2a bb b0 bb
       -0.24668509 -0.10813692 -0.054878972 -0.0053934054
000260 b7 50 ef bd 1a bd 33 be ff 62 c5 be e7 33 4d be
       -0.11685317 -0.17552605 -0.3855209 -0.2003933
000270 eb 39 a5 bc 7d 9b 55 3d 5a 50 a8 bd c8 79 62 ba
       -0.020169219 0.05215024 -0.08218451 -0.00086393626
000280 2c 21 0b bd 9b 61 24 be 45 4a 32 be 4e e6 5b bd
       -0.033967182 -0.16052859 -0.17411144 -0.053686433
000290 17 ae ac be b5 93 4f 3d 2f af 74 be 18 b0 6f 3e
       -0.3372657 0.050677974 -0.23894952 0.23407018
0002a0 9f e1 82 bd 7a 1a af be 39 63 a2 3b 8a ee c9 3d
       -0.0639069 -0.34199888 0.004955676 0.09859951
0002b0 ca 3f cb bd e2 e5 ae 3e b1 00 2a bc 9c 63 49 bb
       -0.09924276 0.34159762 -0.010376141 -0.0030729538
0002c0 60 80 4e be 17 d3 34 be 57 54 57 be 52 61 e9 bd
       -0.20166159 -0.1765865 -0.21028267 -0.113955155
0002d0 e4 98 80 be 6b 9d f8 bc 5a c6 66 be a1 34 15 3c
       -0.25116646 -0.0303485 -0.22536603 0.009106786
0002e0 ee a8 c4 bd d4 12 85 bd 2e 4f 26 3d e0 38 30 bd
       -0.09602533 -0.06497732 0.040602855 -0.04302299
0002f0 1e 04 1f be b8 37 84 bd fc 02 4e be 65 3f 6c 3e
       -0.15528914 -0.0645594 -0.20118326 0.23071058
000300 f9 a4 b3 bc 26 9d dd bd e2 39 62 be 20 d1 8d bd
       -0.021929251 -0.10820989 -0.22092393 -0.06924653
000310 2d 84 d6 bb c8 a0 02 be 9f ca 93 ba 1b 2c cd 3c
       -0.0065465183 -0.12756646 -0.0011275596 0.025045445
000320 f8 e4 5e 3d fc 3f 39 be d3 08 85 bd 41 8a 21 3d
       0.05441758 -0.18090814 -0.06495824 0.03943849
000330 4c 3a 10 be 0e bf 1f 3a cc 06 e6 bc e2 8c 1b be
       -0.14084738 0.0006093838 -0.028079413 -0.15190461
000340 d1 81 ad be 18 e2 b0 bc 24 ed 7a 3c fe e3 b6 bd
       -0.33888105 -0.021592185 0.015315328 -0.08930205
000350 58 b9 c6 bd 31 61 99 be 9f 94 a0 bd bc 99 ad bc
       -0.0970332 -0.29956964 -0.07840847 -0.02119147
000360 3e fd b7 3d a5 71 a4 bd 25 df 8b be 65 84 05 3d
       0.08983849 -0.080294885 -0.27318683 0.032596964
000370 61 47 3c be d2 4b ff bd 7a 98 9b bd da d2 6b bb
       -0.18386604 -0.124656335 -0.07597442 -0.0035983832
000380 67 6d 5e 3c c4 22 59 be 9e 54 67 bd ac 7d 0a 3e
       0.013575888 -0.21204668 -0.05647718 0.13524503
000390 06 2b 70 3b 53 29 92 3e 96 db 61 be 0e 49 a7 bd
       0.0036646738 0.28547153 -0.22056422 -0.08168231
0003a0 1d e4 04 3d 6e d0 a0 be 4f 84 eb bd ae de 99 bc
       0.03244411 -0.3140902 -0.11499845 -0.01878294
0003b0 ed b7 b5 bd 65 cf 14 3e 85 aa 0c 3d c9 71 6f be
       -0.08872972 0.1453224 0.034342308 -0.2338325
0003c0 a3 19 94 3b 43 d7 39 bd 55 4d 72 bd 1a 22 ac bd
       0.0045196577 -0.045371305 -0.05915578 -0.08404942
0003d0 da 7a 97 3c df d0 13 3e 86 7b da bd ef ef db bc
       0.018491197 0.14435147 -0.106680915 -0.026847808
0003e0 c3 d2 da 3d 06 63 66 bd ff e6 a1 3d a1 25 89 3b
       0.10684731 -0.05624678 0.07905387 0.004185394
0003f0 24 5e 7b be eb 06 a3 bd b3 10 67 bd 60 01 89 3d
       -0.2454763 -0.07960304 -0.05641241 0.066897154

linears.2.bias f4 [5]
000000 03 70 cc be 1e fb 14 bf bc 65 0d bf 8f 2e 15 bf
       -0.39929208 -0.58195674 -0.5523336 -0.5827417
000010 58 19 2d bf
       -0.67616796
