dqn-exp/savedir/student-test/checkpoint1900--model.pth (torch_old, 20763 bytes, 6 tensors)

linears.0.weight f4 [64, 6]
0.071042016 -0.1321189 -0.18319626 -0.085074835 -0.40872762 0.18513632 0.052287858 -0.15427858
0.0048843157 -0.0059221964 0.0996813 0.5217325 0.06489919 0.104359776 -0.027781028 -0.139816
-0.124996886 0.44378042 0.16098505 -0.02909727 -0.0035501737 0.09321422 -0.22073771 0.1555825
0.00734295 0.0054668933 -0.104984015 -0.055355452 -0.05311388 -0.07006511 0.07167236 0.008415886
-0.21413846 0.24995118 0.16633795 0.03499448 -0.005325928 0.0034540254 0.38068637 0.22048904
0.274086 0.056337424 -0.14316946 -0.012522661 0.25165176 0.07804341 0.046765342 0.07187657
-0.14415532 -0.07012156 -0.00017393634 0.15682626 0.2925619 0.30188996 -0.07790276 0.07805863
0.055522118 -0.1703906 -0.119525164 0.07722345 -0.15775646 0.011201956 -0.004230398 -0.0012573667
0.6718433 -0.015527489 0.1323928 -0.07738873 0.34196773 -0.15846619 -0.06849296 0.16935146
0.04810339 -0.23988451 0.11041677 -0.066135876 -0.04996048 0.3396382 0.004624126 0.16751048
-0.0029500353 0.012368448 0.044796478 -0.6957278 0.11682363 0.15183066 0.043986153 0.015779622
-0.24841696 -0.42325312 -0.17974639 -0.14865209 0.050174233 0.026918214 0.23905616 0.16591257
0.12594014 -0.0001785939 -0.0014852802 0.013105486 -0.4681243 0.017915377 0.08563486 0.0540564
-0.036398135 0.041752554 -0.5970556 -0.11799136 -0.08323444 0.0505755 -0.0020270492 0.05778382
0.43761075 -0.18427631 0.112216935 0.007109092 0.00016813853 0.0113347275 -0.71565706 0.0025464038
0.11503458 -0.18512169 0.023158194 0.1504535 -0.19975302 0.3342965 0.022838289 0.1596771
0.004162769 -0.0069347695 -0.0133299045 -0.5955853 -0.098313294 -0.06511917 -0.04918121 -0.09892887
0.098276444 0.23268074 -0.08878022 -0.12742582 -0.014079876 0.03379785 0.23427537 0.32606262
-0.023408009 -0.02997338 0.08703133 0.15927398 -0.044574514 0.11762974 -0.13785881 -0.00986846
0.00094055675 0.018196275 0.551215 0.024253326 -0.11282161 0.04012722 -0.050806988 0.00087456533
0.40028265 -0.026876803 0.14183943 0.13726936 -0.020880925 0.072407 -0.22516972 -0.2612267
0.18989038 0.013576257 0.01074917 0.008543373 -0.97300446 0.026025768 -0.12111392 0.19439244
0.21556574 -0.030475173 0.3369365 -0.3599085 -0.009627496 -0.17034328 -0.0030409482 0.0047006863
-0.04526265 0.941943 -0.03337573 0.13875252 0.10342554 -0.20318155 0.059619255 -0.15555213
-0.01524956 0.06453943 -0.00035176516 -0.041247506 0.018955762 -0.07260415 -0.12942246 0.07597969
-0.013721128 0.05135463 0.1273213 -0.05785018 -0.035820737 -0.01889077 -0.07433096 -0.18289159
-0.07966162 -0.037071034 -0.025888272 0.038679365 0.06465356 -0.07244443 0.05354009 -0.01398561
-0.065532275 0.005919574 -0.0020632239 -0.0032570073 0.7714138 0.08694867 -0.12640397 -0.15935193
0.035403777 -0.018880941 0.22142379 0.27396584 -0.1003084 0.040826064 -0.07691093 -0.011676248
0.24901007 0.21640706 -0.060786095 -0.29076436 -0.13716498 0.0845506 -0.0086988425 0.072382964
-0.008177713 0.13740113 0.0053325873 -0.0012464295 0.018496908 -0.93957126 0.09844498 -0.17696817
0.046033934 -0.15252785 -0.13201247 0.06586901 0.047785107 -0.13843864 0.002634977 -0.008326265
00000000: 7a7e 913d 2d4a 07be cd97 3bbe b73b aebd
00000010: bf44 d1be 6094 3d3e cb2b 563d 34fb 1dbe
00000020: 9c0c a03b fc0e c2bb b625 cc3d 4390 053f
00000030: dee9 843d 94ba d53d 0a95 e3bc ed2b 0fbe
00000040: 5efe ffbd 3037 e33e 44d9 243e 665d eebc
00000050: 08aa 68bb 19e7 be3d 1109 62be 0551 1f3e
00000060: 219d f03b a023 b33b dc01 d7bd 66bc 62bd
00000070: f18d 59bd 4c7e 8fbd f5c8 923d c9e2 093c
00000080: 1d47 5bbe 34f3 7f3e 7f54 2a3e 5f56 0f3d
00000090: 1f85 aebb ee5c 623b 53e9 c23e e1c7 613e
000000a0: 0055 8c3e 12c2 663d 049b 12be d92b 4dbc
000000b0: 80d8 803e 39d5 9f3d 048d 3f3d 0634 933d
000000c0: 749d 13be e49b 8fbd ae62 36b9 1097 203e
000000d0: acca 953e 5291 9a3e 7b8b 9fbd 34dd 9f3d
000000e0: 296b 633d e07a 2ebe 9cc9 f4bd 5427 9e3d
000000f0: e98a 21be 6988 373c 279f 8abb 3ace a4ba
00000100: ecfd 2b3f 0267 7ebc fa91 073e fc7d 9ebd
00000110: 6516 af3e f644 22be 0946 8cbd 786a 2d3e
00000120: 0f08 453d 49a4 75be 3022 e23d 3f72 87bd
00000130: 5ca3 4cbd 0fe5 ad3e fb85 973b de87 2b3e
00000140: 6155 41bb 08a5 4a3c 837c 373d 381b 32bf
00000150: 3a41 ef3d 7f79 1b3e d32a 343d 4444 813c
00000160: 0461 7ebe a2b4 d8be 700f 38be 4138 18be
00000170: 7f83 4d3d 9683 dc3c 23cb 743e fce4 293e
00000180: 74f6 003e ef44 3bb9 bcad c2ba 64b8 563c
00000190: fdad efbe 45c3 923c 5461 af3d 3e6a 5d3d
000001a0: 3616 15bd ba04 2b3d a3d8 18bf 74a5 f1bd
000001b0: d176 aabd 4128 4f3d 3ed8 04bb baae 6c3d
000001c0: 840e e03e eeb2 3cbe fed1 e53d 63f3 e83b
000001d0: 584e 3039 4bb5 393c 4d35 37bf 91e1 263b
000001e0: 4097 eb3d 8a90 3dbe 41b6 bd3c 7b10 1a3e
000001f0: 0e8c 4cbe e928 ab3e 5d17 bb3c 6582 233e
00000200: d667 883b 103d e3bb ac65 5abc 4778 18bf
00000210: 7b58 c9bd 335d 85bd 3d72 49bd 389b cabd
00000220: 2945 c93d dc43 6e3e 67d2 b5bd ea7b 02be
00000230: 48af 66bc 9d6f 0a3d e2e5 6f3e aef1 a63e
00000240: 27c2 bfbc bc8a f5bc 7b3d b23d b818 233e
00000250: c493 36bd dce7 f03d dc2a 0dbe 52af 21bc
00000260: b28f 763a 5b10 953c 6d1c 0d3f e9ae c63c
00000270: 040f e7bd 715c 243d fd1a 50bd 1643 653a
00000280: d9f1 cc3e be2c dcbc 5b3e 113e 5790 0c3e
00000290: 790e abbc 1f4a 943d e492 66be 82bf 85be
000002a0: a072 423e f36e 5e3c 491d 303c 81f9 0b3c
000002b0: d216 79bf fe33 d53c 930a f8bd d00e 473e
000002c0: 44bd 5c3e 12a7 f9bc f182 ac3e ed45 b8be
000002d0: a5bc 1dbc 786e 2ebe a54a 47bb 3708 9a3b
000002e0: 5465 39bd 2d23 713f fdb4 08bd 2415 0e3e
000002f0: c5d0 d33d d30e 50be 5233 743d 0f49 1fbe
00000300: 4ad9 79bc 402d 843d 1f6d b8b9 25f3 28bd
00000310: 1d49 9b3c 7cb1 94bd 5287 04be 3d9b 9b3d
00000320: 95ce 60bc 3c59 523d 8460 023e 4ff4 6cbd
00000330: c4b8 12bd d1c0 9abc d53a 98bd ef47 3bbe
00000340: a225 a3bd ccd7 17bd a413 d4bc 416e 1e3d
00000350: 1669 843d bf5d 94bd da4c 5b3d e623 65bc
00000360: c935 86bd fcf8 c13b 2737 07bb 8473 55bb
00000370: 607b 453f 2512 b23d 0b70 01be 272d 23be
00000380: 8d03 113d 34ac 9abc ebbc 623e 4045 8c3e
00000390: 7e6e cdbd 3b39 273d 7a83 9dbd bc4d 3fbc
000003a0: 7ffc 7e3e d099 5d3e d7fa 78bd 11df 94be
000003b0: fa74 0cbe dd28 ad3d 9785 0ebc 853d 943d
000003c0: d0fb 05bc e2b2 0c3e fcbc ae3b 3c5f a3ba
000003d0: d486 973c be87 70bf 869d c93d 2537 35be
000003e0: 148e 3c3d 4330 1cbe 472e 07be 55e6 863d
000003f0: 51ba 433d dcc2 0dbe 94af 2c3b e36a 08bc

linears.0.bias f4 [64]
-0.48370773 -0.03112069 -0.4597022 -0.4254413 -0.17331703 -0.78409374 -0.32525927 -0.42206633
0.43286103 0.36620328 -0.3555158 -0.5642872 -0.7456696 -0.23623736 0.44881505 -0.658709
0.4042545 -0.77001095 0.6093518 0.0664183 0.41617924 0.14484489 0.49068484 0.22519198
0.3073337 0.2709308 -0.540037 -0.369189 -0.068481535 -0.566626 -0.12736574 -0.33458018
-0.11012731 0.23996685 -0.32577762 -0.15351233 -0.01732665 -0.53482515 -0.2645632 -0.61538535
-0.09674382 -0.45497262 0.5179901 -0.6255192 -0.38223138 -0.4734784 0.8018032 0.43191922
-0.51103026 -0.2856662 -0.3160152 0.19500844 0.020850116 0.3800308 0.055069353 -0.48291412
-0.63383377 -0.3117689 0.35503566 -0.5121922 -0.008396562 -0.20314394 0.28737393 -0.5324591
00000000: 8aa8 f7be d1f0 febc 165e ebbe 71d3 d9be
00000010: 057a 31be 5eba 48bf 6288 a6be 1419 d8be
00000020: f69f dd3e ff7e bb3e 2b06 b6be 2075 10bf
00000030: 34e4 3ebf 35e8 71be 16cb e53e 27a1 28bf
00000040: 72fa ce3e 701f 45bf 7bfe 1b3f 5106 883d
00000050: 7215 d53e 3852 143e 0b3b fb3e ba98 663e
00000060: d85a 9d3e 71b7 8a3e dd3f 0abf 5706 bdbe
00000070: 0c40 8cbd 670e 11bf 2a6c 02be 184e abbe
00000080: 6d8a e1bd dfb9 753e 53cc a6be 5632 1dbe
00000090: 9ef0 8dbc 4dea 08bf d474 87be e589 1dbf
000000a0: a021 c6bd 2cf2 e8be 009b 043f 0722 20bf
000000b0: d5b3 c3be c36b f2be f942 4d3f 8424 dd3e
000000c0: e1d2 02bf d742 92be bfcc a1be 4bb0 473e
000000d0: ddcd aa3c 6693 c23e 6790 613d 8540 f7be
000000e0: ee42 22bf 2ca0 9fbe 3cc7 b53e 071f 03bf
000000f0: bc91 09bc f704 50be ad22 933e 3d4f 08bf

linears.1.weight f4 [64, 64]
-0.13926414 -0.06359531 0.05170655 -0.1279482 -0.10546006 0.023869697 0.037225176 -0.14537925
-0.012502715 -0.025304046 0.1664035 -0.00472246 -0.14631398 -0.0030153627 -0.06728643 -0.007227806
0.041264474 -0.017442737 -0.0011354442 0.30484676 -0.076869555 -0.19913292 -0.12640347 -0.0034880452
0.14992554 0.021090163 -0.055708434 0.22102736 -0.045989305 0.15820475 -0.020011632 -0.0362258
0.0741905 -0.010882723 0.0677493 0.059609544 0.12251952 -0.15286334 -0.0261094 -0.026232475
0.14926407 -0.15828198 -0.0057025617 -0.044577256 -0.05317614 0.049431946 -0.071940415 -0.096611105
-0.06053299 -0.008980288 -0.08801125 -0.15059611 0.018902274 -0.02956059 -0.01965019 -0.1337181
0.13934003 -0.20188648 0.08626558 0.027426876 -0.03812596 -0.09792845 -0.10900547 -0.031178964
-0.04322951 0.049487274 -0.15707685 0.096815765 -0.111891545 0.11398558 0.003034022 0.017244326
-0.09279816 0.0109692495 -0.15315224 0.051166292 0.052045643 0.19628142 0.022102771 0.010000171
-0.050478123 0.07988505 -0.33346844 -0.07417907 -0.04822921 0.111426346 -0.07978862 -0.01881917
0.011114285 -0.03614016 0.29771516 -0.11715344 -0.024356384 -0.098510295 -0.42058092 0.11444282
0.13219868 0.03498876 -0.0001858543 -0.086689316 -0.23723717 -0.028152991 0.10969853 -0.030502055
-0.27371547 0.028216682 -0.21765335 0.18583915 0.09493241 -0.008247248 -0.16683859 0.04672288
0.024810657 0.07422976 0.00342516 -0.1373942 -0.11929892 -0.07065941 -0.038908515 0.08796439
-0.16446981 -0.09530175 -0.005374454 0.18340689 -0.0799855 -0.012738672 0.10141646 0.28470987
0.08277926 -0.05205028 0.19578287 -0.072117284 -0.053974193 0.1733149 0.04621039 0.09083639
0.039037302 -0.031994544 -0.024037573 0.027610749 -0.17062198 0.15013643 -0.0705945 -0.06751161
-0.089879215 -0.059708584 -0.13980128 -0.031808063 -0.089340016 0.13620341 -0.11619539 -0.06138257
-0.09797018 -0.0892505 0.13092476 -0.04172384 0.14407967 -0.035928912 -0.15522465 0.053643305
0.11963398 -0.043535776 -0.023301763 0.086689964 0.027794404 0.08347217 -0.26715118 0.042049505
-0.10908787 -0.0141680585 0.0049565523 0.08700791 0.16842148 0.03257417 -0.09742425 -0.03428566
0.17877668 -0.13046308 -0.086119816 -0.13878421 -0.0051000933 0.0580218 0.03810613 -0.007023073
-0.13789836 -0.21049066 0.03664559 -0.047477044 -0.023348061 -0.036292296 -0.13261232 0.05012076
0.083103195 -0.12606545 0.1556472 0.10870122 0.1415727 0.19338262 0.084897235 0.009155659
-0.025749167 -0.035189673 -0.19146785 -0.032486595 -0.062211867 0.26964104 -0.07227384 -0.13186853
0.1135861 -0.10113524 -0.20426102 -0.105703264 0.037478313 0.15790507 0.028481036 -0.016699715
-0.07013444 0.090763785 0.10753058 -0.07361197 -0.033927962 0.12407515 0.10538538 -0.121361695
0.15767367 -0.16118203 -0.01095873 0.016310824 0.07368632 0.052687436 0.17602395 -0.029894073
-0.19092585 0.18786076 -0.10616718 -0.088468805 -0.23111677 -0.08995795 -0.2685922 -0.06127347
0.067216516 0.09067895 -0.071815945 0.057496388 0.008306041 -0.07558177 0.163934 -0.083633654
0.07373548 -0.01296741 -0.030269327 0.091058485 0.096895285 0.09845032 0.00704638 0.13192217
00000000: 429b 0ebe 423e 82bd 3fca 533d da04 03be
00000010: 72fb d7bd 628a c33c 6d79 183d 4cde 14be
00000020: 30d8 4cbc 6e4a cfbc ae65 2a3e debe 9abb
00000030: 55d3 15be 649d 45bb 78cd 89bd 3bd7 ecbb
00000040: f004 293d 12e4 8ebc 2fd3 94ba e014 9c3e
00000050: c96d 9dbd 80e9 4bbe e96f 01be b097 64bb
00000060: 1586 193e 47c5 ac3c 872e 64bd ff54 623e
00000070: 485f 3cbd 6d00 223e 6fef a3bc 8161 14bd
00000080: 30f1 973d 734d 32bc 25c0 8a3d 2329 743d
00000090: 84eb fa3d 3588 1cbe 61e3 d5bc 7de5 d6bc
000000a0: aed8 183e ac14 22be 8edc babb a496 36bd
000000b0: 39cf 59bd 2779 4a3d 7f55 93bd 0bdc c5bd
000000c0: 71f1 77bd 0f22 13bc 3e3f b4bd de35 1abe
000000d0: f1d8 9a3c 0d29 f2bc 6ff9 a0bc 66ed 08be
000000e0: 27af 0e3e 54bb 4ebe 02ac b03d 54ae e03c
000000f0: f729 1cbd b68e c8bd 433e dfbd 076b ffbc
00000100: 6d11 31bd 2bb3 4a3d c1d8 20be 5847 c63d
00000110: 6527 e5bd 4671 e93d 71d6 463b f943 8d3c
00000120: f60c bebd 5eb8 333c f1d3 1cbe bf93 513d
00000130: d02d 553d fffd 483e df10 b53c c2d7 233c
00000140: 26c2 4ebd c69a a33d 60bc aabe 32eb 97bd
00000150: fe8b 45bd 7f33 e43d 3768 a3bd a92a 9abc
00000160: b118 363c b407 14bd 1f6e 983e 25ee efbd
00000170: 0a87 c7bc c4bf c9bd 6256 d7be ff60 ea3d
00000180: 175f 073e 6050 0f3d e2e1 42b9 2b8a b1bd
00000190: 4dee 72be 1aa1 e6bc 9fa9 e03d 72df f9bc
000001a0: 6f24 8cbe ac26 e73c 85e0 5ebe 9e4c 3e3e
000001b0: ec6b c23d 771f 07bc bcd7 2abe 7e60 3f3d
000001c0: b83f cb3c c605 983d a678 603b 11b1 0cbe
000001d0: fe52 f4bd e1b5 90bd 895e 1fbd ad26 b43d
000001e0: c66a 28be 902d c3bd 301c b0bb 04cf 3b3e
000001f0: 70cf a3bd ddb5 50bc 6fb3 cf3d 7ec5 913e
00000200: 2c88 a93d ad32 55bd 4e7b 483e 3ab2 93bd
00000210: 0b14 5dbd 7679 313e 1b47 3d3d 6e08 ba3d
00000220: 94e5 1f3d b60c 03bd 72ea c4bc f02f e23c
00000230: 87b7 2ebe 5dbd 193e d993 90bd 8743 8abd
00000240: 9812 b8bd fd90 74bd 1128 0fbe 2c49 02bd
00000250: e6f7 b6bd e878 0b3e d9f7 edbd 4a6c 7bbd
00000260: 97a4 c8bd f7c8 b6bd 2411 063e 9ee6 2abd
00000270: 9f89 133e 322a 13bd 36f3 1ebe 15b9 5b3d
00000280: a902 f53d 9252 32bd 57e3 bebc 828a b13d
00000290: 17b1 e33c 75f3 aa3d 0ac8 88be 1a3c 2c3d
000002a0: 7669 dfbd 2521 68bc 936a a23b 3431 b23d
000002b0: ae76 2c3e 7e6c 053d 5d86 c7bd 1f6f 0cbd
000002c0: 3c11 373e 1d98 05be 965f b0bd 731d 0ebe
000002d0: af1e a7bb 44a8 6d3d 2c15 1c3d ce21 e6bb
000002e0: 3a35 0dbe dd8a 57be b019 163d 4a77 42bd
000002f0: 6f44 bfbc 3ba7 14bd 86cb 07be 6d4b 4d3d
00000300: 0232 aa3d 4d17 01be fb61 1f3e bf9e de3d
00000310: 6ff8 103e 1806 463e 9ade ad3d 9e01 163c
00000320: ebef d2bc 0c23 10bd 2610 44be aa10 05bd
00000330: dfd1 7ebd 640e 8a3e 4f04 94bd 8b08 07be
00000340: d49f e83d fe1f cfbd cd29 51be f47a d8bd
00000350: dc82 193d deb1 213e 1051 e93c d7cd 88bc
00000360: a5a2 8fbd 5de2 b93d fe38 dc3d dfc1 96bd
00000370: 0cf8 0abd 1d1b fe3d 4ad4 d73d 7b8c f8bd
00000380: 3575 213e e70c 25be 3f8c 33bc 479e 853c
00000390: dae8 963d c8ce 573d 9f3f 343e 6ae4 f4bc
000003a0: 1182 43be 925e 403e 2e6e d9bd 222f b5bd
000003b0: e0a9 6cbe e03b b8bd eb84 89be e4f9 7abd
000003c0: d0a8 893d e3b5 b93d 3d14 93bd 5581 6b3d
000003d0: 1016 083c 9dca 9abd 51de 273e 1f48 abbd
000003e0: a102 973d 4275 54bc 61f7 f7bc df7c ba3d
000003f0: 0971 c63d 52a0 c93d 52e5 e63b 9b16 073e

linears.1.bias f4 [64]
0.22074191 0.6613408 0.4380514 0.4597321 -0.08750956 0.48895815 -0.15138 0.1657206
-0.37147635 0.5622633 0.09670064 -0.007684202 0.7014293 0.54753023 0.18577045 0.2627733
0.38019252 0.027313024 -0.42241073 0.45330453 0.42488262 0.506963 0.44092277 0.15035018
-0.18564376 0.017752571 0.49116468 -0.19009525 0.33359182 0.059886634 -0.18673205 0.20848347
0.43689713 0.5908966 -0.06987578 -0.21337453 0.0058280574 0.115468025 0.56261873 0.10220893
0.12417457 0.4431967 -0.38763794 0.114983186 0.38039166 0.2615513 -0.52161646 0.5368861
0.44948623 0.6219469 0.09176314 0.46206355 -0.24895449 -0.2567426 -0.0076261084 0.20365115
-0.25117314 0.28252488 -0.30311775 0.37916577 0.63933766 0.09811676 0.4508888 0.5374167
00000000: 2b0a 623e a14d 293f 4648 e03e 0162 eb3e
00000010: 3638 b3bd b958 fa3e 5c03 1bbe a9b2 293e
00000020: 2632 bebe 7df0 0f3f fc0a c63d c2cb fbbb
00000030: df90 333f f12a 0c3f 9c3a 3e3e 398a 863e
00000040: 98a8 c23e 90bf df3c 3846 d8be 8817 e83e
00000050: 378a d93e 54c8 013f a1c0 e13e 66f5 193e
00000060: 6619 3ebe d76d 913c f079 fb3e 54a8 42be
00000070: 8ccc aa3e b04b 753d b036 3fbe b17c 553e
00000080: fbb0 df3e 0045 173f 081b 8fbd da7e 5abe
00000090: 4af9 be3b 807a ec3d c807 103f ea52 d13d
000000a0: 3d4f fe3d aeea e23e 7b78 c6be 4e7c eb3d
000000b0: b2c2 c23e 0dea 853e a888 05bf 5e71 093f
000000c0: 0f23 e63e e937 1f3f 50ee bb3d 9893 ec3e
000000d0: eded 7ebe c473 83be 6fe4 f9bb ed89 503e
000000e0: c499 80be 1aa7 903e 4032 9bbe 0422 c23e
000000f0: a2ab 233f 71f1 c83d e6da e63e 2494 093f

linears.2.weight f4 [5, 64]
-0.024860233 -0.2081334 -0.11621636 -0.16782962 0.06687333 -0.1571161 -0.08274447 0.0024384388
-0.20884416 -0.04078461 0.08839519 -0.031361956 -0.18673387 -0.07960834 0.054380365 -0.146766
-0.25919735 0.054109767 -0.24771659 -0.093783066 -0.26283705 -0.1395825 -0.029096361 -0.032958034
0.049849585 -0.04495393 -0.32221764 -0.15860736 -0.09965352 0.018402494 -0.117426835 -0.028550418
0.007915838 -0.05469192 -0.09381241 -0.17888968 -0.18512261 0.22509101 -0.1941818 0.002328258
-0.014451592 -0.20786773 -0.10360823 0.10954185 -0.17743067 0.096902885 0.10631519 -0.17999801
-0.16026324 -0.12979332 0.06290154 -0.113411486 -0.2581204 0.038657274 0.0025573298 0.034764055
-0.10041773 -0.08581301 0.043586683 0.018797386 -0.20708688 -0.0022291879 -0.15470941 0.061379753
0.02465917 -0.21466939 -0.17002565 -0.1427259 0.04506691 -0.18921207 -0.0065310737 0.0089135505
-0.033186506 -0.13623986 0.08295932 0.03455373 -0.20390752 -0.11624506 0.018057477 -0.37315902
-0.22143626 -0.060557198 -0.12071992 -0.10712837 -0.15142909 -0.2090947 -0.113594465 -0.018538008
0.08076022 -0.0054686475 -0.19136094 0.019272136 -0.14549762 0.013858878 0.024043553 -0.005810252
0.05907346 -0.17640252 0.05835743 -0.115110524 -0.28345984 0.09357465 -0.10833796 -0.072170734
-0.007483256 -0.080358185 -0.07796898 -0.13904932 -0.20027937 0.06671513 0.15829904 -0.14741632
-0.20857137 -0.17529128 -0.049250077 -0.15034053 -0.062413797 0.07163274 0.042104438 0.040047005
-0.079715356 -0.04497828 0.06688226 -0.0427289 -0.15132761 0.030420346 -0.11977323 -0.08540401
-0.007555506 -0.23537245 -0.00945479 -0.13151038 0.047324955 -0.21512985 -0.19809614 -0.017182378
-0.29244938 -0.042781018 -0.008592637 0.060013458 -0.21954878 0.12941422 -0.011577488 0.2096445
-0.26698792 0.16591072 -0.3203177 -0.024442075 -0.24545187 -0.112595946 -0.045295637 -0.01734094
-0.11685317 -0.17552605 -0.39536378 -0.2003933 -0.026287686 0.05215024 -0.08218451 -0.012044115
-0.033967182 -0.15959527 -0.17411144 -0.053686433 -0.32439682 0.050677974 -0.24004485 0.23407018
-0.0639069 -0.3396716 0.05351565 0.067764066 -0.10380451 0.34159762 0.011757723 -0.0034155226
-0.20980653 -0.176651 -0.21028267 -0.1115033 -0.25116646 -0.0303485 -0.22536603 0.03701453
-0.09602533 -0.0649567 0.026999803 -0.04302299 -0.16142835 -0.0645594 -0.20036687 0.22524205
-0.025829904 -0.113567546 -0.21915612 -0.07126854 -0.0065465183 -0.12874618 -0.0011275596 0.025045445
0.05441758 -0.17643811 -0.06495824 0.03943849 -0.14596789 -0.03964379 -0.034035224 -0.15190461
-0.34692165 -0.021592185 0.015315328 -0.08227679 -0.09860667 -0.30292848 -0.07043503 -0.02119147
0.08983849 -0.080294885 -0.29447907 0.032596964 -0.17861128 -0.124656335 -0.07597442 -0.033192553
0.013575888 -0.20995696 -0.05647718 0.110544145 0.04536773 0.28547153 -0.22356282 -0.08168231
0.03244411 -0.3320178 -0.11499845 -0.01878294 -0.08966055 0.1453224 0.10073 -0.23426051
-0.014444087 -0.049884964 -0.05915578 -0.08139334 0.018491197 0.14435147 -0.106680915 -0.0072460133
0.10684731 -0.05624678 0.07905387 0.004185394 -0.2476665 -0.07960304 -0.055414587 0.016885106
00000000: b0a7 cbbc ec20 55be d802 eebd 87db 2bbe
00000010: e2f4 883d 0be3 20be ef75 a9bd 37ce 1f3b
00000020: 3edb 55be c30d 27bd 8a08 b53d 6575 00bd
00000030: 2a37 3fbe b309 a3bd f2bd 5e3d d449 16be
00000040: 84b5 84be 34a2 5d3d 6ba9 7dbe 5611 c0bd
00000050: 9492 86be b7ee 0ebe 7e5b eebc 01ff 06bd
00000060: 142f 4c3d 9d21 38bd b6f9 a4be f869 22be
00000070: 2517 ccbd d4c0 963c 7b7d f0bd 91e2 e9bc
00000080: 6eb1 013c a204 60bd b920 c0bd db2e 37be
00000090: c890 3dbe 427e 663e 98d7 46be b095 183b
000000a0: 5fc6 6cbc 47db 54be 8d30 d4bd 7a57 e03d
000000b0: 63b0 35be 0575 c63d c7bb d93d 6651 38be
000000c0: 0c1c 24be 8ae8 04be 86d2 803d 4844 e8bd
000000d0: 5b28 84be 1757 1e3d e098 273b c164 0e3d
000000e0: d0a7 cdbd bbbe afbd f387 323d fafc 993c
000000f0: 950e 54be 9117 12bb 256c 1ebe 5669 7b3d
00000100: 0702 ca3c 4bd2 5bbe 341b 2ebe bd26 12be
00000110: 1598 383d cfc0 41be 9e02 d6bb 240a 123c
00000120: 93ee 07bd 7682 0bbe 93e6 a93d 3688 0d3d
00000130: 22cd 50be e411 eebd 46ed 933c b30e bfbe
00000140: 30c0 62be d30a 78bd 013c f7bd 1e66 dbbd
00000150: 3a10 1bbe ec1c 56be 37a4 e8bd 05dd 97bc
00000160: 9d65 a53d 5732 b3bb 1ff4 43be 99e0 9d3c
00000170: 54fd 14be 5910 633c fcf6 c43c ed63 bebb
00000180: 03f7 713d dda2 34be 3308 6f3d 11bf ebbd
00000190: a621 91be 11a4 bf3d 4be0 ddbd 40ce 93bd
000001a0: 1a36 f5bb d592 a4bd 33ae 9fbd f262 0ebe
000001b0: 0916 4dbe f1a1 883d 2519 223e 4ef4 16be
000001c0: bc93 55be 8f7f 33be 73ba 49bd def2 19be
000001d0: 9ca5 7fbd 30b4 923d b475 2c3d 5408 243d
000001e0: ce41 a3bd 253b 38bd 91f9 883d 8004 2fbd
000001f0: a0f5 1abe 1734 f93c ab4b f5bd 4ce8 aebd
00000200: 2e94 f7bb 7a05 71be 43e8 1abc a8aa 06be
00000210: d0d7 413d 004b 5cbe b7d9 4abe 0fc2 8cbc
00000220: edbb 95be 263b 2fbd 22c8 0cbc acd0 753d
00000230: 65d1 60be 2985 043e 81af 3dbc 0cad 563e
00000240: a4b2 88be 80e4 293e ae00 a4be bf3a c8bc
00000250: bc57 7bbe b498 e6bd eb87 39bd 960e 8ebc
00000260: b750 efbd 1abd 33be 1f6d cabe e733 4dbe
00000270: 4659 d7bc 7d9b 553d 5a50 a8bd ae54 45bc
00000280: 2c21 0bbd f16c 23be 454a 32be 4ee6 5bbd
00000290: 5717 a6be b593 4f3d 51ce 75be 18b0 6f3e
000002a0: 9fe1 82bd 70e9 adbe 3a33 5b3d e3c7 8a3d
000002b0: 7597 d4bd e2e5 ae3e 77a3 403c f6d6 5fbb
000002c0: 86d7 56be 00e4 34be 5754 57be d85b e4bd
000002d0: e498 80be 6b9d f8bc 5ac6 66be 8c9c 173d
000002e0: eea8 c4bd 0508 85bd b12e dd3c e038 30bd
000002f0: 794d 25be b837 84bd f92c 4dbe daa5 663e
00000300: 3c99 d3bc 1a96 e8bd 766a 60be 3ef5 91bd
00000310: 2d84 d6bb 0ad6 03be 9fca 93ba 1b2c cd3c
00000320: f8e4 5e3d 31ac 34be d308 85bd 418a 213d
00000330: 9b78 15be 8761 22bd 8568 0bbd e28c 1bbe
00000340: b79f b1be 18e2 b0bc 24ed 7a3c bc80 a8bd
00000350: 4bf2 c9bd 7119 9bbe 3e40 90bd bc99 adbc
00000360: 3efd b73d a571 a4bd f6c5 96be 6584 053d
00000370: e0e5 36be d24b ffbd 7a98 9bbd eaf4 07bd
00000380: 676d 5e3c f5fe 56be 9e54 67bd f864 e23d
00000390: 83d3 393d 5329 923e a7ed 64be 0e49 a7bd
000003a0: 1de4 043d 3dfe a9be 4f84 ebbd aede 99bc
000003b0: f39f b7bd 65cf 143e 884b ce3d fde1 6fbe
000003c0: e4a6 6cbc 2d54 4cbd 554d 72bd 8db1 a6bd
000003d0: da7a 973c dfd0 133e 867b dabd f76f edbb
000003e0: c3d2 da3d 0663 66bd ffe6 a13d a125 893b
000003f0: 499c 7dbe eb06 a3bd 68fa 62bd a252 8a3c

linears.2.bias f4 [5]
-0.42048317 -0.6091265 -0.5685832 -0.61420196 -0.7036013
00000000: 9249 d7be b7ef 1bbf ab8e 11bf 573c 1dbf
00000010: 371f 34bf
