dqn-exp/savedir/student-test/checkpoint300--model.pth (torch_old, 20763 bytes, 6 tensors)

linears.0.weight f4 [64, 6]
0	0x3cf6dc74	0.030134417
1	0x3ea86014	0.32885802
2	0xbef8bfa6	-0.48583716
3	0x3e38bf2c	0.18041676
4	0xbed0aea2	-0.40758234
5	0x3d030023	0.031982552
6	0x3c6ff6b3	0.01464622
7	0xbe3fb664	-0.1872192
8	0x3d66f23c	0.056383356
9	0xbd168f01	-0.036757473
10	0xbc7a05f8	-0.015260212
11	0x3f09f2c3	0.5388605
12	0x3f0c35a3	0.54769343
13	0x3ed58c64	0.41708672
14	0x3e2ae37e	0.16688344
15	0xbd14ac0d	-0.036296893
16	0xbe4d62d4	-0.20057231
17	0x3defc4d6	0.11707465
18	0x3ed3b032	0.41345364
19	0xbe887e48	-0.26658845
20	0xbe5c5dea	-0.215202
21	0xbd7f7bea	-0.062374033
22	0xbe050f52	-0.12994125
23	0x3cdbc268	0.026826099
24	0x3cf5d056	0.030006569
25	0x3e7b87f3	0.2456358
26	0xbe714a43	-0.23563485
27	0xbd947aa1	-0.07249952
28	0xbe9234a0	-0.28555775
29	0xbea6500e	-0.32482952
30	0x3f06e6ae	0.5269574
31	0xbee9f19d	-0.4569215
32	0xbe2b51c4	-0.1673041
33	0x3e06c5ff	0.13161467
34	0x3e49f7ff	0.19723509
35	0xbdf3aaef	-0.11897837
36	0x3e50871f	0.20364045
37	0xbd335a04	-0.043787017
38	0x3ef62f69	0.48083046
39	0xbe6acf09	-0.2293054
40	0x3e25610e	0.16150305
41	0xbd5b7ad6	-0.053583942
42	0xbea15a5f	-0.3151426
43	0x3d84e593	0.064891
44	0x3e9805e2	0.29691988
45	0xbd56b6ec	-0.05242054
46	0x3db7f422	0.089821115
47	0x3c1566e4	0.009118769
48	0x3d7f8f7b	0.062392693
49	0xbd819bf1	-0.063285716
50	0xbe10d535	-0.14143832
51	0x3ebf8d10	0.3741231
52	0x3ef1b6f6	0.472099
53	0x3e9aeab2	0.30257183
54	0xbeacc05d	-0.33740512
55	0x3e50988e	0.20370695
56	0xbe0c549b	-0.1370415
57	0xbe2a0554	-0.16603595
58	0xbce45a64	-0.027875133
59	0x3d0202ef	0.03174108
60	0xbd23b342	-0.039965875
61	0x3e11ba40	0.14231205
62	0xbe91d985	-0.28486267
63	0xbe29ccd9	-0.1658205
64	0x3ec72867	0.38898012
65	0xbc5e93fb	-0.013585086
66	0xbe80391a	-0.25043565
67	0x3e32e1a9	0.17468895
68	0x3f0fb870	0.56140804
69	0x3df09290	0.117467046
70	0xbe2cfdab	-0.16893642
71	0xbda7d49e	-0.081948504
72	0x3e021cfd	0.1270637
73	0xbdf2f33a	-0.11862798
74	0x3dd9a944	0.10627988
75	0xbe6394f1	-0.22224785
76	0x3dec13e9	0.11527235
77	0x3f096803	0.53674334
78	0x3db503fd	0.08838651
79	0x3e451f02	0.1925011
80	0x3de4db27	0.111746125
81	0x3df3324e	0.11874829
82	0xbe1d2cb2	-0.15349081
83	0xbef00f2b	-0.46886572
84	0x3e5ca974	0.21549016
85	0x3e3e4dc2	0.1858435
86	0x3de4f0ca	0.11178739
87	0xbd7bdcc0	-0.06148982
88	0xbe9a55ad	-0.3014349
89	0xbef36476	-0.47537583
90	0xbb9337a4	-0.004492717
91	0xbd8c1b1c	-0.06841108
92	0x3dde2216	0.10846345
93	0xbdda706e	-0.106659755
94	0x3e824e97	0.25450584
95	0x3e9111a6	0.28333777
96	0x3e166ca1	0.14689876
97	0x3d2b8e8d	0.041883994
98	0xbe6d3b7e	-0.23167226
99	0x3d9d9820	0.07695031
100	0xbf2a0002	-0.6640626
101	0x3dfb9ad9	0.12285394
102	0x3e359f08	0.17736447
103	0x3e95b2e8	0.29238057
104	0x3dd46a98	0.10371894
105	0x3e5d99aa	0.2164065
106	0xbf0c5630	-0.5481901
107	0xbe8a48f1	-0.27008775
108	0x3e277ded	0.1635663
109	0xbd89af04	-0.06722835
110	0x3d90efd6	0.07076995
111	0x3d59cee8	0.053175837
112	0x3edc72a5	0.43056217
113	0xbe1d2c4a	-0.15348926
114	0x3d0a5b63	0.03377856
115	0x3d3097a2	0.04311336
116	0xbd3f1ccf	-0.046658333
117	0xbc062281	-0.008186937
118	0xbf0c9f5f	-0.5493068
119	0xbebd02e4	-0.36916268
120	0x3e0809b9	0.13284959
121	0xbea4719c	-0.32117927
122	0x3e5350b0	0.20636249
123	0x3e2474af	0.16060136
124	0xbe69a0f2	-0.22815302
125	0x3eb67b67	0.35641024
126	0x3c468090	0.012115613
127	0x3ebdfd58	0.37107348
128	0x3d1205fa	0.03565023
129	0x3e15b3ec	0.14619416
130	0x3d15538d	0.036456633
131	0xbefcd74f	-0.49383017
132	0xbe092be8	-0.13395655
133	0xbdb3abe3	-0.08773019
134	0xbe2b4bef	-0.16728185
135	0xbe7c45d6	-0.24636015
136	0x3e0b1048	0.1358043
137	0x3e6166d6	0.22011885
138	0xba1ac784	-0.0005904364
139	0x3d84b695	0.06480137
140	0x3e8388a7	0.25690195
141	0xbdef08fd	-0.11671636
142	0x3dfff955	0.12498728
143	0x3ee1be35	0.4409043
144	0x3dd314fd	0.103067376
145	0x3dc9c223	0.09851482
146	0x3e3e0fea	0.18560758
147	0x3e949f92	0.29027992
148	0x3d3fe078	0.04684493
149	0x3df8fc4c	0.12157497
150	0xbd8b915c	-0.068148345
151	0xbd538803	-0.051643383
152	0xbe26d6ed	-0.16292925
153	0xbe16edf5	-0.14739211
154	0x3f05293b	0.5201604
155	0xbe4ef0f6	-0.20209107
156	0xbe2b92de	-0.16755244
157	0xbe02365d	-0.1271605
158	0xbe9df925	-0.30854145
159	0xbe148aff	-0.14506148
160	0x3ec38a57	0.38191482
161	0xbc982234	-0.018570997
162	0xbe85e98a	-0.2615474
163	0x3e2034de	0.15645167
164	0xbe3204ab	-0.17384593
165	0x3dede95f	0.11616778
166	0x3d3bbcef	0.045834478
167	0xbe73d42d	-0.23811407
168	0x3cb57fd2	0.022155676
169	0xbd9ee126	-0.077577874
170	0x3d941598	0.07230681
171	0x3d083ba5	0.033260006
172	0xbf2be6f7	-0.671493
173	0x3edff427	0.4374096
174	0xbd737ccd	-0.05944519
175	0x3e690d55	0.22758992
176	0x3ef3a143	0.4758397
177	0xbd1bc15c	-0.0380262
178	0x3e1ae179	0.15125073
179	0xbeb5a9b4	-0.35481036
180	0x3d2cacac	0.04215686
181	0xbdbe21b1	-0.0928377
182	0xbd8c4db4	-0.06850758
183	0x3dd842bc	0.105596036
184	0xbde29694	-0.11063877
185	0x3f32c1b7	0.69826835
186	0xbe792b6d	-0.24332972
187	0xbe3adef8	-0.18249118
188	0x3ea08729	0.3135312
189	0xbeb7f86a	-0.35931712
190	0x3e3191c4	0.17340761
191	0xbee2d6b1	-0.44304422
192	0x3e3d1057	0.18463264
193	0xbdf6cc07	-0.12050634
194	0x3c708d2d	0.014682096
195	0xbe75e064	-0.2401138
196	0xbd4060fb	-0.046967488
197	0xbdcbe7da	-0.099563316
198	0xbe7198f5	-0.23593505
199	0x3d13e298	0.03610477
200	0xbe32922c	-0.17438573
201	0x3e80b583	0.25138482
202	0x3e034c04	0.12821966
203	0xbe143916	-0.14474902
204	0x3e9e0205	0.30860916
205	0xbdd534ea	-0.10410483
206	0x3dbd8cf1	0.09255398
207	0xbe920ae3	-0.2852393
208	0xbf03e581	-0.5152207
209	0xbe577738	-0.21041572
210	0xbe8336df	-0.256278
211	0xbd8198de	-0.06327985
212	0xbc8435ea	-0.01613899
213	0xbd98f367	-0.074683
214	0x3e8533ed	0.2601618
215	0xbe864df3	-0.26231346
216	0x3e807c35	0.25094762
217	0x3ea0f4fa	0.31436902
218	0xbe117d28	-0.142079
219	0x3e00db10	0.12583566
220	0x3e42d072	0.19024828
221	0xbda5b9b3	-0.0809206
222	0x3e3a5ba9	0.18199028
223	0xbc71abf9	-0.014750474
224	0x3e3a2955	0.1817983
225	0x3ea6945f	0.32535073
226	0x3e5b153a	0.21394816
227	0x3e18402c	0.1486823
228	0xbe6ec3cc	-0.23316878
229	0x3e224a22	0.15848592
230	0xbe5e286e	-0.2169511
231	0xbce5b424	-0.02804
232	0x3ead92bb	0.3390101
233	0xbdd047d8	-0.10169953
234	0xbeb6793a	-0.35639364
235	0xbf09e72f	-0.53868383
236	0xbe445c08	-0.19175732
237	0xbd052cee	-0.03251355
238	0xbea586ce	-0.3232941
239	0xbdd588ac	-0.10426459
240	0xbd22b192	-0.039720125
241	0x3d7a7f9d	0.061156858
242	0xbdae8f84	-0.08523467
243	0x3d910c8f	0.070824735
244	0xbe026add	-0.12736078
245	0xbf20aee6	-0.62766874
246	0x3e21f1da	0.15814915
247	0xbdf0b3cd	-0.11753044
248	0xbbf58fe9	-0.007493962
249	0xbde04a15	-0.1095163
250	0xbd23abfe	-0.039958946
251	0xbc5a18b7	-0.013311557
252	0x3ce8b8dd	0.028408462
253	0xbe873db3	-0.2641426
254	0x3e5281fb	0.20557396
255	0xbe6eb900	-0.2331276

linears.0.bias f4 [64]
0	0xbdb55e4a	-0.08855875
1	0x3c9e2ac0	0.019307494
2	0xbe7d2fb2	-0.24725226
3	0xbe2566f9	-0.16152562
4	0x3e5898e2	0.2115207
5	0xbf000336	-0.500049
6	0xbd8f3387	-0.0699225
7	0xbe2ad6e9	-0.16683544
8	0x3e9a4d33	0.30137023
9	0x3eebc265	0.4604675
10	0xbe44fea7	-0.19237767
11	0xbe7049db	-0.23465674
12	0xbe637d70	-0.2221582
13	0xbdc31e3b	-0.095272504
14	0x3eb62e03	0.3558198
15	0xbec36f61	-0.38170913
16	0x3e6001b8	0.21875656
17	0xbed01e95	-0.40648332
18	0x3ee43bff	0.44577023
19	0x3e17c9cc	0.14823073
20	0x3ee43759	0.44573477
21	0x3e8bdde4	0.27317727
22	0x3eee6c9b	0.46567234
23	0x3e62b4e5	0.22139318
24	0x3ed8f92f	0.42377612
25	0x3db31e82	0.08746053
26	0xbe68596e	-0.22690365
27	0x3b4adb83	0.0030953593
28	0x3ccc8183	0.0249641
29	0xbeb49097	-0.35266563
30	0xbc6e6762	-0.014551016
31	0x3e0ebd3e	0.13939378
32	0x3e74cd30	0.23906398
33	0x3eceb75a	0.4037426
34	0x3e011431	0.12605359
35	0x3e0616c2	0.13094619
36	0x3d7a0c94	0.06104715
37	0x3bcd3efa	0.006263611
38	0x3e914006	0.28369159
39	0xbecd75c7	-0.4012892
40	0xbd657c78	-0.056026906
41	0xbed066b7	-0.40703365
42	0x3ed1c02c	0.40966928
43	0xbf0ceb50	-0.5504656
44	0xbb95c335	-0.0045703896
45	0xbe8362bf	-0.25661275
46	0x3f057fed	0.52148324
47	0x3ec6c021	0.38818458
48	0x3c9ed958	0.019390747
49	0x3dcef714	0.1010572
50	0xbd8df518	-0.069315135
51	0x3e966659	0.2937496
52	0x3c97216d	0.018448556
53	0x3ea72d4a	0.3265174
54	0x3ebdcb4a	0.3706916
55	0xbdd2a5b7	-0.10285514
56	0xbe10263a	-0.14077082
57	0xbd4fdca3	-0.050747525
58	0x3e8f3a99	0.27974394
59	0xbe758471	-0.23976304
60	0x3d2b3972	0.04180283
61	0x3c2f65bb	0.010705407
62	0x3ede7f72	0.43456608
63	0xbe83b7f1	-0.25726274

linears.1.weight f4 [64, 64]
0	0xbda77a5d	-0.08177636
1	0xbdab1173	-0.083529375
2	0xbd685288	-0.056719333
3	0xbd38bbb3	-0.04510088
4	0xbe2b21f8	-0.16712177
5	0x3e4ac3c1	0.19801237
6	0x3dd19fa2	0.10235526
7	0x3d1c68df	0.03818595
8	0xbe10e5b5	-0.14150126
9	0xbd800f70	-0.062529445
10	0x3d23b8c4	0.039971128
11	0xbdc80537	-0.0976662
12	0xbd9c0a34	-0.076191336
13	0x3d3298ee	0.043602876
14	0xbe2bd057	-0.16778694
15	0x3dcdf82e	0.10057102
16	0x3dcf0247	0.10107856
17	0x3d6842f9	0.056704495
18	0xbde8e8bb	-0.11372515
19	0xbda3aacc	-0.07991561
20	0x3d243799	0.040092085
21	0xbdcccdba	-0.10000177
22	0xbe05ed7d	-0.13078876
23	0x3da102bb	0.07861849
24	0x3d49f74d	0.04930811
25	0xbd758aa9	-0.05994669
26	0x3cc10eb1	0.023566576
27	0xbc71e4b3	-0.014763999
28	0xbe0fa91b	-0.14029352
29	0xbdb2088c	-0.086930364
30	0xbdc42e35	-0.09579126
31	0xbc8cd0bd	-0.017189378
32	0x3e3961b7	0.18103682
33	0xbdbf70d1	-0.0934769
34	0x3d775e0e	0.060392432
35	0x3d6eea61	0.05832899
36	0xba0a38a1	-0.00052727206
37	0xbd164524	-0.03668703
38	0xbdecb24f	-0.11557447
39	0xbc2f3b25	-0.0106952535
40	0xbd5014d6	-0.05080112
41	0xbd23f158	-0.040025085
42	0xbd97199d	-0.07377932
43	0x3e418639	0.18898858
44	0xbd990672	-0.074719325
45	0x3c22dbbf	0.009940087
46	0xbe26a87c	-0.16275209
47	0xbdf4e673	-0.11958017
48	0x3d8a1a1b	0.067432605
49	0x3e013560	0.12618017
50	0x3dbe8665	0.093029775
51	0xbde5dbb9	-0.112235494
52	0xbc96bbed	-0.018400157
53	0xbe1dc804	-0.15408331
54	0xbdb9cfa2	-0.09072806
55	0xbe03da33	-0.12876205
56	0xbb3a77a1	-0.0028452652
57	0xbc9b98c5	-0.018993745
58	0x3dd0dd33	0.101984404
59	0x3e20f69c	0.15719074
60	0x3d5b25f1	0.05350298
61	0xbda922f2	-0.082586184
62	0xbd7db440	-0.061939478
63	0x3db5ec32	0.08882941
64	0xbdf6dea3	-0.12054183
65	0x3d8ab881	0.067734726
66	0xbdb3e42a	-0.08783753
67	0xbda6c84b	-0.081436716
68	0xbe388e20	-0.18022966
69	0x3dd5649d	0.10419581
70	0xbd4d3122	-0.050095685
71	0xba6d6f82	-0.00090574485
72	0xbd5b7320	-0.05357659
73	0x3cce98d8	0.025219366
74	0xbd980e17	-0.074245624
75	0x3d6bf35b	0.05760513
76	0x3d3dc92f	0.04633444
77	0x3dba602f	0.09100377
78	0x3d91c183	0.071169876
79	0x3dae27f2	0.08503713
80	0xbc9c83eb	-0.019105872
81	0x3e16f943	0.14743523
82	0xbe5d33d3	-0.216018
83	0x3bc3c394	0.0059742425
84	0xbbe6eeed	-0.007047525
85	0x3dde97fe	0.10868834
86	0xbdb375d3	-0.087627076
87	0x3d608f27	0.05482402
88	0x3d92c864	0.07167128
89	0xbc38d168	-0.011280395
90	0x3e517a02	0.20456699
91	0xbe09178c	-0.13387889
92	0xbd88cbd7	-0.06679504
93	0xbd9c0d6d	-0.07619748
94	0xbe545cce	-0.20738527
95	0x3e14bebe	0.14525887
96	0x3e26dfb5	0.16296275
97	0x3b272882	0.0025506322
98	0xbd1bf004	-0.038070694
99	0xbddd403d	-0.10803268
100	0xbe191a99	-0.14951552
101	0x3d015e4f	0.03158408
102	0x3d83a866	0.06428604
103	0x3bc1ae30	0.0059106573
104	0xbe4a0172	-0.19727114
105	0xbcb0bbb5	-0.02157388
106	0xbe10a8d6	-0.14126906
107	0x3e0b4b70	0.13602996
108	0x3e190831	0.14944531
109	0x3d34c4aa	0.044132866
110	0xbcc64f47	-0.024207724
111	0x3d587009	0.05284122
112	0xbc9c601d	-0.0190888
113	0xbd70683b	-0.058693152
114	0x3d09d541	0.03365064
115	0xbe23009b	-0.159182
116	0xbe36282d	-0.17788763
117	0xbcda1df5	-0.026625613
118	0xbc4aa876	-0.012369266
119	0x3dc6615c	0.096865386
120	0xbe61181d	-0.21981855
121	0xbd4455e9	-0.047933493
122	0x3d178cd6	0.036999546
123	0x3e2bfadb	0.16794913
124	0xbda75ce7	-0.081720166
125	0x3cd523ba	0.026018012
126	0x3e29c490	0.16578889
127	0x3e61dd40	0.22057056
128	0x3d870e3d	0.065945126
129	0xbd2f41c5	-0.042787332
130	0x3d8c60a3	0.068543695
131	0xbe2663ec	-0.16249055
132	0xbdff07fd	-0.124526955
133	0x3e692d78	0.22771251
134	0x3d1f247f	0.038853165
135	0x3c2e7b5b	0.010649527
136	0x3b3dbfa0	0.0028953329
137	0xbc39b2f9	-0.011334174
138	0xbd913e0c	-0.070919126
139	0x3da6872f	0.08131253
140	0xbdee1134	-0.11624375
141	0x3df9c1c8	0.12195164
142	0xbd5cfb07	-0.053950336
143	0xbc78465e	-0.015153496
144	0xbd48dda0	-0.049039483
145	0xbc92a16d	-0.01789924
146	0xbe214ea5	-0.15752657
147	0xbdcacd73	-0.099024676
148	0x3d8546f4	0.06507674
149	0x3e470fdb	0.19439642
150	0xbd6e8c67	-0.058239367
151	0x3d5ec1d4	0.054384068
152	0xbe1d2567	-0.15346299
153	0xbdefe376	-0.117133066
154	0x3ddd50ac	0.108064026
155	0xbe043463	-0.12910609
156	0xbe1dacef	-0.15398
157	0xbe1b8bb4	-0.15190011
158	0xbdfa53c0	-0.12223005
159	0x3dcfb671	0.1014222
160	0x3e2e2138	0.1700486
161	0x3cd4914b	0.025948187
162	0xbd78bdee	-0.060728006
163	0x3d229956	0.039697014
164	0xbd81e034	-0.063415915
165	0x3e0f27c7	0.13980018
166	0xbe02fd0d	-0.12791844
167	0x3e5397c7	0.20663367
168	0xbd9dbc3e	-0.0770192
169	0xbabb1df8	-0.0014275899
170	0xbd4fc198	-0.050721735
171	0x3e1c3431	0.15254284
172	0x3e436547	0.19081603
173	0x3e119d73	0.14220218
174	0xbd5a5ea3	-0.05331291
175	0xbcb632a7	-0.02224095
176	0x3e3e584f	0.18588375
177	0xbda384bf	-0.07984304
178	0x3c6a32e2	0.014294358
179	0xbdb613b9	-0.088904805
180	0xbe02730b	-0.12739198
181	0x3c2650a5	0.010151063
182	0x3d49c339	0.049258444
183	0x3daa34ad	0.08310828
184	0xbe56378c	-0.20919627
185	0xbe057a2e	-0.13034889
186	0x3d8154a2	0.063149706
187	0x3b81a27c	0.003956137
188	0xbba94df4	-0.0051667634
189	0xbd193533	-0.03740425
190	0x3be4e094	0.0069847796
191	0x3d700a38	0.058603495
192	0x3d1ca34a	0.038241662
193	0xbe050dfd	-0.12993617
194	0x3dcf692d	0.101274826
195	0xbd8cc695	-0.06873814
196	0x3d61f79a	0.055167772
197	0x3e6a0542	0.22853568
198	0x3d6fd893	0.05855615
199	0xbd4efd5d	-0.050534595
200	0xbd9cfcda	-0.07665415
201	0xbd035ed7	-0.03207287
202	0xbe29f497	-0.1659721
203	0xbb6f382b	-0.0036501985
204	0xbd6e67af	-0.05820435
205	0x3e613216	0.21991763
206	0xbe038152	-0.128423
207	0xbc7ecedf	-0.015552252
208	0x3e2f702b	0.17132632
209	0xbac13ce2	-0.0014742876
210	0xbe18528d	-0.1487524
211	0xbd5dff37	-0.05419847
212	0x3d919b14	0.07109657
213	0x3e2d4e31	0.16924359
214	0xbdc1e89a	-0.09468193
215	0x3d0776f5	0.03307243
216	0xbe07ec3f	-0.13273714
217	0xbd36279d	-0.044471372
218	0x3d64b8c3	0.055840265
219	0xbd9f4014	-0.07775894
220	0xbd820abf	-0.06349706
221	0x3de9f844	0.11424306
222	0x3cb613cd	0.022226239
223	0xbd2a65c3	-0.041600954
224	0x3e5f6a58	0.2181791
225	0xbe1e6ce9	-0.15471233
226	0xbde176e0	-0.11009002
227	0xbd89aec7	-0.06722789
228	0xbbb41e28	-0.005496759
229	0x3e2c8448	0.16847336
230	0x3d685739	0.056723807
231	0x3bd3313e	0.006445079
232	0xbdf5bcf1	-0.11998928
233	0x3e4135b1	0.18868138
234	0xbdaf81bd	-0.085696675
235	0xbd8911e6	-0.06692867
236	0xbe1ca8f2	-0.15298823
237	0x3d530678	0.05151984
238	0xbe58075b	-0.21096556
239	0xbd7e1307	-0.062029865
240	0x3d8f6844	0.07002309
241	0xbdb75739	-0.08952183
242	0xbbd11b5f	-0.0063814367
243	0xbda699f2	-0.081348315
244	0xbe478d1a	-0.1948742
245	0xbdf369db	-0.11885425
246	0x3d4a7a4b	0.049433034
247	0xbd393328	-0.045214802
248	0xbcbd24a1	-0.023088755
249	0xbd4ac928	-0.049508244
250	0xbd977278	-0.0739488
251	0x3dfe6634	0.124218374
252	0x3ce7cb8f	0.028295306
253	0xbc5380ee	-0.012909157
254	0x3ddec6eb	0.10877784
255	0x3df32c0f	0.11873638

linears.1.bias f4 [64]
0	0x3df1c11f	0.11804413
1	0x3ebbf821	0.36712745
2	0x3e7d53e2	0.2473903
3	0x3dbbb0ae	0.09164558
4	0xbdc3e9c8	-0.095660746
5	0x3e8943fb	0.26809677
6	0xbe1395d8	-0.1441263
7	0x3dc76cf9	0.09737582
8	0xbe4afcbb	-0.19822972
9	0x3e8324b2	0.25613934
10	0x3d473515	0.048634607
11	0xbaddccc3	-0.0016921986
12	0x3ec9046d	0.3926119
13	0x3e6d6a1c	0.23185009
14	0x3e815a40	0.25264168
15	0x3e29a634	0.16567308
16	0x3ded6354	0.11591211
17	0x3c48811f	0.012237816
18	0xbe750025	-0.23925836
19	0x3ea75864	0.32684624
20	0x3e3b76d8	0.18307054
21	0x3e73e5c5	0.23818119
22	0x3e2411c0	0.16022396
23	0x3e3b8fe3	0.18316607
24	0xbd64a908	-0.055825263
25	0x3c8e7e5f	0.017394243
26	0x3e1a0d28	0.15044081
27	0xbe3861e5	-0.18006094
28	0x3d88bc79	0.06676573
29	0x3d18d48d	0.03731208
30	0xbe856c44	-0.26059163
31	0x3e4f26f7	0.20229708
32	0x3e8bf770	0.27337217
33	0x3ea67ab9	0.32515505
34	0xbdce98c2	-0.1008773
35	0xbe4e2a46	-0.20133314
36	0xbd028c5a	-0.03187213
37	0x3d1bb66c	0.038015768
38	0x3e8c496e	0.27399772
39	0x3d8b0843	0.06788685
40	0x3d31c937	0.043404784
41	0x3e05e328	0.13074934
42	0xbe2cfc8b	-0.16893212
43	0x3e10c5a1	0.1413789
44	0x3e273cde	0.16331813
45	0x3e1ee260	0.15516043
46	0xbe7b0d99	-0.24516906
47	0x3ea236d4	0.31682456
48	0x3e288624	0.1645742
49	0x3ebe7c8a	0.3720439
50	0x3dec88e8	0.1154955
51	0x3e4dd81d	0.20101972
52	0xbe380e79	-0.17974271
53	0xbde63b9c	-0.11241838
54	0x3c9d9c31	0.019239517
55	0x3e31ca85	0.17362411
56	0xbe0fa3b4	-0.14027292
57	0x3e765f87	0.24059878
58	0xbe3d5d0c	-0.18492526
59	0x3e3db8af	0.18527482
60	0x3e96d5ba	0.29459935
61	0xbcfe1238	-0.031014547
62	0x3e7fbd84	0.24974638
63	0x3e88eaa0	0.26741505

linears.2.weight f4 [5, 64]
0	0xbe188525	-0.1489454
1	0xbe39c5b9	-0.18141831
2	0xbdd2847b	-0.10279175
3	0xbe141301	-0.14460374
4	0xbdb93cdb	-0.090448104
5	0xbdf3798f	-0.1188842
6	0xbda975ef	-0.08274447
7	0xbd3e2193	-0.046418738
8	0xbe58b262	-0.21161798
9	0xbd580806	-0.052742027
10	0x3d7de4e0	0.06198585
11	0xbd007565	-0.031361956
12	0xbe176fe7	-0.14788781
13	0xbd954e2c	-0.07290301
14	0xbd300d22	-0.042981274
15	0xbe013b08	-0.12620175
16	0xbdc8ca2c	-0.09804186
17	0x3d5da234	0.054109767
18	0xbe7da96b	-0.24771659
19	0xbdf97d92	-0.12182154
20	0xbe6700be	-0.22558877
21	0xbd4d2eac	-0.050093338
22	0xbd788218	-0.060670942
23	0xbd9ecfb9	-0.07754464
24	0x3d92e39a	0.07172318
25	0xbd5fa236	-0.054598056
26	0xbe26f20d	-0.16303273
27	0xbe2269f8	-0.15860736
28	0xbd9f08f7	-0.07765382
29	0x3c96c0d4	0.018402494
30	0xbdd2e4eb	-0.10297569
31	0xbd814f1b	-0.06313916
32	0x3c01b16e	0.007915838
33	0xbd042961	-0.032266025
34	0xbe119b19	-0.14219321
35	0xbe372edb	-0.17888968
36	0xbe3d90c8	-0.18512261
37	0x3e4e84fd	0.20167919
38	0xbe17aa7d	-0.1481113
39	0x3e76c6be	0.24099252
40	0xbd822985	-0.063555755
41	0x3d1a2505	0.03763296
42	0xbd2d9f6b	-0.04238836
43	0x3de0577a	0.10954185
44	0xbe29e965	-0.16592939
45	0x3dc67505	0.096902885
46	0xbd887f40	-0.06664896
47	0xbe250121	-0.16113712
48	0xbc8c9eb8	-0.017165527
49	0xbdec3b41	-0.11534739
50	0x3d80d286	0.06290154
51	0xbdd9a15e	-0.106264815
52	0xbe2e6cbf	-0.17033671
53	0x3ce7e8d0	0.028309256
54	0x3b2798e0	0.0025573298
55	0x3d09f19e	0.03367769
56	0xbdf47004	-0.11935428
57	0xbe0696a6	-0.13143405
58	0xbd68611d	-0.05673324
59	0x3c99fcfa	0.018797386
60	0xbe25e40f	-0.16200279
61	0xbb121791	-0.0022291879
62	0xbe0d6966	-0.13809738
63	0x3e4fe318	0.20301473
64	0xbd3e7d90	-0.046506464
65	0xbe281cc2	-0.1641722
66	0xbe1fa757	-0.15591179
67	0xbde7dffd	-0.11322019
68	0xbd372825	-0.04471602
69	0xbe177298	-0.14789808
70	0x3cc45d56	0.023970287
71	0x3b9a3ea6	0.0047071753
72	0xbd0764b0	-0.033055007
73	0xbe239539	-0.15974893
74	0x3d777ae4	0.060419932
75	0x3d0d8836	0.03455373
76	0xbe14afa7	-0.14520131
77	0x3e065e39	0.1312188
78	0xbd2aa06c	-0.041656896
79	0xbec3483a	-0.38141042
80	0xbd83507e	-0.06411837
81	0xbd780ad3	-0.060557198
82	0xbdf73c01	-0.12071992
83	0xbe0acfc2	-0.13555816
84	0xbddd466c	-0.108044475
85	0xbe023844	-0.12716776
86	0xbe21842f	-0.1577308
87	0xbd7c422e	-0.06158655
88	0x3d5b1654	0.05348809
89	0xbc534cd1	-0.012896732
90	0xbd125ef4	-0.035735086
91	0x3c9c9f10	0.019118816
92	0xbe2a381a	-0.16622964
93	0x3c631059	0.013858878
94	0x3c19a355	0.00937732
95	0xbd947db2	-0.07250537
96	0x3d71f703	0.05907346
97	0xbe2b0b55	-0.16703542
98	0x3da351c6	0.079745814
99	0xbdebbf11	-0.115110524
100	0xbe88073f	-0.26568028
101	0x3e211644	0.1573115
102	0xbd54e1fa	-0.05197332
103	0xbd131faa	-0.03591887
104	0xbd7fb5c5	-0.06242921
105	0x3e0d6786	0.13809022
106	0xbcb01571	-0.021494599
107	0xbddbd113	-0.10733237
108	0xbe353eee	-0.17699787
109	0x3d88a1f1	0.06671513
110	0xbdcf288f	-0.10115158
111	0xbde2d4d8	-0.11075753
112	0x3b551544	0.0032513896
113	0xbe0c64ae	-0.13710281
114	0xbd49ba73	-0.049250077
115	0xbe14357e	-0.1447353
116	0xbcafc94f	-0.021458296
117	0x3cb1bd30	0.021696657
118	0x3d2c75b4	0.042104438
119	0xbe0c714b	-0.13715093
120	0xbdbbb453	-0.091652535
121	0xbd251bf2	-0.040309854
122	0x3c3c32e1	0.01148674
123	0xbd2f0480	-0.0427289
124	0xbdce129a	-0.10062142
125	0x3cf93417	0.030420346
126	0xbdd17481	-0.102272995
127	0xbb97169d	-0.00461085
128	0xbdb61b66	-0.088919446
129	0xbe5783fd	-0.21046443
130	0x3c9bfe55	0.019042173
131	0xbdef861a	-0.116955
132	0xbd7a2a88	-0.061075717
133	0xbe5600dc	-0.20898765
134	0xbe4ad9b7	-0.19809614
135	0xbe114e00	-0.14189911
136	0xbe959b13	-0.29219875
137	0xbd77f104	-0.060532585
138	0xbd835534	-0.064127356
139	0x3d75d0ac	0.060013458
140	0xbe47efbf	-0.1952505
141	0x3e44ae4f	0.19207118
142	0xbc69df6a	-0.0142744575
143	0x3e63d985	0.22250946
144	0xbe836eb1	-0.25670388
145	0x3e29e480	0.16591072
146	0xbea400ae	-0.3203177
147	0x3c18c56a	0.009324411
148	0xbe624fc5	-0.22100742
149	0xbd1161c6	-0.035493635
150	0xbdbeb2c5	-0.09311441
151	0x3d16295f	0.03666055
152	0xbc318618	-0.010835193
153	0xbe43fdff	-0.1913986
154	0xbe9fbf69	-0.31200722
155	0xbe4da33d	-0.20081802
156	0x3cb60264	0.022217937
157	0x3d559b7d	0.05215024
158	0xbdbff5c2	-0.093730465
159	0xbd7a8eb5	-0.061171252
160	0xbd0b212c	-0.033967182
161	0xbe2eb707	-0.17062007
162	0xbe4905e4	-0.19631153
163	0xbdae11d5	-0.08499495
164	0xbeaeed98	-0.34165645
165	0x3d4f93b5	0.050677974
166	0xbe61aab7	-0.22037779
167	0x3e6c0acb	0.23050992
168	0xbe0e0d92	-0.13872364
169	0x3d815f46	0.06317
170	0xbd73a910	-0.059487402
171	0x3e21519b	0.15753786
172	0xbd964918	-0.0733816
173	0x3eaee5e2	0.34159762
174	0xbe1c2f86	-0.15252504
175	0x3ce7595a	0.028240848
176	0xbddd9c4c	-0.10820827
177	0xbe32de27	-0.17467557
178	0xbe575457	-0.21028267
179	0xbdf3ebd6	-0.119102165
180	0xbe4d69b5	-0.20059855
181	0xbde55c76	-0.11199276
182	0xbe66c65a	-0.22536603
183	0xbdbe5830	-0.09294164
184	0xbdfc4e87	-0.123196654
185	0xbba05c8a	-0.004893844
186	0x3bccfcb8	0.0062557124
187	0xbd3038e0	-0.04302299
188	0xbdef8eb7	-0.116971426
189	0xbd8919a5	-0.066943444
190	0xbe4c3ea7	-0.19945775
191	0x3e7ade88	0.24498951
192	0xbe461818	-0.19345129
193	0xbd643eac	-0.05572383
194	0xbe6af1f3	-0.22943859
195	0xbcfacdda	-0.030615736
196	0xbd852aa6	-0.06502275
197	0xbd98980f	-0.07450878
198	0xbd13b4fb	-0.03606127
199	0xbd6114e3	-0.05495156
200	0x3d5ee4f8	0.05441758
201	0xbe56cd3a	-0.20976725
202	0xbda499f8	-0.0803718
203	0x3d218a41	0.03943849
204	0xbdc31826	-0.0952609
205	0xbda2b71a	-0.0794508
206	0xbe2a6b9a	-0.16642609
207	0xbe1f0650	-0.15529752
208	0xbe899620	-0.2687235
209	0xbcb0e218	-0.021592185
210	0x3c7aed24	0.015315328
211	0xbdbc1318	-0.09183329
212	0xbcfdd3b0	-0.03098473
213	0xbe73b58c	-0.23799723
214	0xbde5012f	-0.111818664
215	0xbd857bc0	-0.06517744
216	0x3d500867	0.050789263
217	0xbdbbdb67	-0.09172707
218	0xbe011db8	-0.12608993
219	0x3d058465	0.032596964
220	0xbe2547bf	-0.1614065
221	0xbdff4bd2	-0.124656335
222	0xbd8f666b	-0.070019566
223	0xbdaeb97f	-0.08531474
224	0x3c5e6d67	0.013575888
225	0xbe5cfb8f	-0.21580337
226	0xbde0833d	-0.10962532
227	0x3e2ab2a8	0.16669714
228	0x3b702b06	0.0036646738
229	0x3e8b3eb4	0.27196276
230	0xbe357566	-0.17720565
231	0x3cc64440	0.024202466
232	0xbcb30b01	-0.021855833
233	0xbe6bbd2b	-0.2302138
234	0xbe998e06	-0.29991168
235	0x3d646644	0.05576159
236	0xbd651ae9	-0.055933867
237	0x3e14cf65	0.1453224
238	0xbd366bfe	-0.044536583
239	0xbe571870	-0.21005416
240	0x3e26a0bb	0.16272251
241	0xbb309f49	-0.002695041
242	0xbd724d55	-0.05915578
243	0xbd98f02d	-0.07467685
244	0x3cb0b2d6	0.02156965
245	0x3e2f420e	0.17115042
246	0xbdda7b86	-0.106680915
247	0xbe1f3d74	-0.15550786
248	0x3dd5f223	0.104465745
249	0xbe385fcb	-0.18005292
250	0xbc43f153	-0.011959392
251	0x3b8925a1	0.004185394
252	0xbe4945e3	-0.19655566
253	0xbda306eb	-0.07960304
254	0xbc7c5c35	-0.015402843
255	0x3dbc077a	0.091811135

linears.2.bias f4 [5]
0	0xbdc32377	-0.09528249
1	0xbe21fe03	-0.15819554
2	0xbe91ce96	-0.28477925
3	0xbe907618	-0.28215098
4	0xbe92958b	-0.28629717
