dqn-exp/savedir/student-test/checkpoint850--model.pth (torch_old, 20763 bytes, 6 tensors)

linears.0.weight f4 [64, 6]
00000000: 3b36 dd3b b624 e83d 53cd acbe 6b78 cb3b
00000010: 5bed a9be 5817 9a3d d832 ce3c 1854 24be
00000020: b9f3 b1ba 100f b43b d59b 893d 8797 0a3f
00000030: 7cdb bb3e b056 823e cfc1 ebbd 336f f53c
00000040: 8c5d c0bd 8fa6 4a3d 7d75 683e ab0a 30be
00000050: 600e 8dbe 4172 a63c 68e3 dabd f22c b83c
00000060: 599d ee3d 111f 8b3d 7f13 47be 7a60 3abe
00000070: 5bf1 12be 4f2a 41bd 8878 093e 93a8 21ba
00000080: 4b56 8abe 2741 9f3e f828 643e af53 353d
00000090: d69f 82bb 6f1e 1ebc 58bd c33e 202f fcbc
000000a0: d86c 533e 75b2 f73b 9455 75be 2a8b a6bd
000000b0: 8fac 7e3e 2649 a63d ae3d 693d 6c48 f43c
000000c0: 26d7 bcbd 7712 5ebd 4356 ccbc 58b0 883e
000000d0: a1af bf3e 25b3 8b3e 151c 47be 457e bb3d
000000e0: 2e66 4fbd 6210 12be 0163 1ebd c387 183c
000000f0: 50ec 10be aa7b 1b3c f349 b7bd a637 eebc
00000100: 1d94 073f 9dc1 833c 3cf0 8fbd 588c 753e
00000110: 4b3b b43e 4621 d4bd 6986 50bc 3d8e 5d3b
00000120: b446 2bbc 6660 bdbd 844a 523c cd70 dcbd
00000130: eabd 0dbb 79fd cd3e 95b4 803c b88e 1c3e
00000140: 5d83 b13c d1c4 2a3c a35f c43c 8696 18bf
00000150: 0bc8 3d3e a87b 253e 1461 5a3d b3c3 85bd
00000160: c1e1 8bbe c60d c4be b7c4 2bbe 29a9 37be
00000170: 93b0 913d d64f 02bd 8f63 793e 5e29 753e
00000180: 54bd 2b3e d2d7 b5bc df39 f2bd 9bba 773c
00000190: 7745 febe 478d 043e 5669 e93d c3c4 013e
000001a0: 248f bdbd 120d 2a3d 4461 08bf db68 6fbe
000001b0: 4cea 053b 274e 3b3d 6de9 6a3c 2439 fb3c
000001c0: c908 e03e 2902 1bbe 3786 a53d aae0 c73d
000001d0: f0df abbb 4b8e a4bd ed97 1fbf dd41 3dbe
000001e0: 4d9f 193e 3f98 87be 860f 8a3d 7b51 193e
000001f0: dade 4fbe 861a a73e 755a f3bc 6bfd 5e3e
00000200: 7f38 023b 2e9e 853d f222 5c3d b78b fdbe
00000210: 31d3 fcbd c1c4 d1bd 9191 dfbd 2011 2cbe
00000220: 16c2 193e de52 4b3e 72f1 96bc 13ff 8abd
00000230: 232d a93d b6d9 ab3c 7eed 493e 29b9 cc3e
00000240: 378e 413d 097b 523d 7195 083e c39e 633e
00000250: c625 873c 2abd fb3d f34d 1abe 3d69 383d
00000260: 27d0 91bc 7ab7 14bd 1ced 043f 61f5 cdbd
00000270: ec33 aabd 055c 20bd aa1c 27be 7f6d 883d
00000280: 1cbf b03e 80da b03d 8dd8 123d bc7b ac3d
00000290: 810c febd f81d 703d 5d5e 43be e033 0dbd
000002a0: e683 e63d cc3d 893b 8d0e 8e3a 9486 1dba
000002b0: 2563 5abf 1e2e 763d 6282 90bd e274 413e
000002c0: cf00 ae3e 60c4 fcbd dec5 833e ad3e bebe
000002d0: ed3b 86bc 3183 dfbd 50f8 a9bb 8e9c 8d3b
000002e0: b0d2 123c c0ec 483f b2ff debd cb71 c43d
000002f0: b1ba b33d 3730 5abe 40b9 a23d 981b 62be
00000300: 4ad9 79bc 402d 843d 1f6d b8b9 25f3 28bd
00000310: 1d49 9b3c 7cb1 94bd 3e24 25be f24a 563d
00000320: b559 a8bd 96d7 303e 6d64 173e 0a6d 3cbe
00000330: 02eb fc3d 35c7 bc3d 0b8f 7fbd e907 edbd
00000340: 1859 04be 0102 09be f9ec 12bd 924f a43c
00000350: 4adb 9b3d 2cb5 26bd 3f59 fc3d d56f 33be
00000360: 73ba 143d 501a 1d3d 1b06 86bb 6f5c 4839
00000370: ae11 e53e a580 1f3e 024c 1c3d 734f adbc
00000380: e367 f03d 94f6 763e addc 533e 32cc c33d
00000390: 6e70 45be 7c73 863d be60 01be db51 d3bd
000003a0: 4978 8b3e 4d11 83bd b517 4abe 6ad0 cfbe
000003b0: 8c84 3bbe 4dfd 9e3d 7d36 2bbe f318 183d
000003c0: c3f2 84bb d926 c63d 416e e53b 4beb 8c3c
000003d0: e05f 9bbc bfb7 4bbf daf1 213e cdb3 f0bd
000003e0: e98f f5bb 154a e0bd feab 23bd b718 5abc
000003f0: 6603 373d 511b 45be e03f 523c d5b6 84bd
0.0067508495 0.11335127 -0.337504 0.0062094233 -0.331889 0.07523984 0.025170729 -0.16047704
-0.0013576663 0.0054949597 0.06719176 0.5413746 0.3669089 0.25456762 -0.115115754 0.02996025
-0.09392843 0.04947525 0.22701068 -0.1719157 -0.2755003 0.020318152 -0.106879056 0.02248237
0.116511054 0.06793035 -0.19441031 -0.18200865 -0.14349882 -0.04715949 0.13424885 -0.0006166782
-0.2701896 0.31104395 0.22281253 0.04426926 -0.003986339 -0.009650811 0.38230395 -0.03078419
0.2064699 0.0075591155 -0.23958427 -0.08132012 0.24870513 0.08119421 0.056943588 0.02981969
-0.09220724 -0.05421683 -0.024943477 0.2669704 0.37438682 0.27285114 -0.19444306 0.091549434
-0.050634556 -0.14264062 -0.038668636 0.009309712 -0.14152646 0.009489933 -0.089496516 -0.02907927
0.5296038 0.016083533 -0.07028243 0.23979318 0.35201487 -0.10357909 -0.012727358 0.0033806704
-0.010453869 -0.09246902 0.012835149 -0.107637025 -0.002162809 0.40232447 0.015711108 0.15288818
0.021669084 0.010422901 0.023971384 -0.5960468 0.18533342 0.16160452 0.053315237 -0.06531467
-0.27320674 -0.38291758 -0.1677426 -0.17935623 0.07113757 -0.03181442 0.24354385 0.23941562
0.16771442 -0.022197638 -0.11827444 0.015120174 -0.49662372 0.12944518 0.11397044 0.12672715
-0.092558175 0.04151637 -0.53273416 -0.23379843 0.0020433841 0.04572883 0.01433788 0.030666895
0.43756703 -0.15137543 0.0808224 0.09759648 -0.0052452013 -0.08034953 -0.62341195 -0.18482156
0.15002175 -0.26483342 0.06741242 0.14972489 -0.20299855 0.32637423 -0.02970622 0.21776359
0.00198701 0.06524311 0.053744264 -0.49520656 -0.12344969 -0.10242606 -0.109164365 -0.16803408
0.15015444 0.1985583 -0.018425677 -0.06786933 0.08260562 0.020977836 0.19719502 0.39985016
0.047254767 0.051386867 0.13338257 0.22228532 0.016497504 0.122919396 -0.15068798 0.045022238
-0.01779945 -0.03630779 0.519243 -0.10056568 -0.083106846 -0.039150257 -0.16319528 0.0666151
0.34520805 0.086354256 0.03585105 0.08422038 -0.12404729 0.05862233 -0.19078965 -0.0344733
0.112556264 0.004188275 0.0010838077 -0.00060091284 -0.8530753 0.060102575 -0.070561185 0.18892244
0.33984992 -0.12342143 0.25736898 -0.37157193 -0.016385997 -0.10913695 -0.005187072 0.0043216413
0.008961365 0.7848625 -0.10888614 0.09592017 0.08775843 -0.21307455 0.0794549 -0.22080839
-0.01524956 0.06453943 -0.00035176516 -0.041247506 0.018955762 -0.07260415 -0.16127107 0.052317567
-0.08220235 0.1726974 0.14784403 -0.1840097 0.12349512 0.09217683 -0.062392276 -0.11573774
-0.12924612 -0.1337967 -0.035870526 0.020057473 0.076101854 -0.040700123 0.1232171 -0.1752313
0.036310624 0.03835517 -0.0040900833 0.0001910792 0.4474005 0.15576418 0.038158424 -0.021156048
0.11738565 0.241175 0.2068965 0.095604315 -0.1928117 0.06564996 -0.1263456 -0.10318347
0.27240208 -0.06399784 -0.19735606 -0.40588695 -0.18312281 0.07763157 -0.16720004 0.03713317
-0.0040572598 0.09675378 0.0070016687 0.01720204 -0.018966615 -0.7957725 0.15814915 -0.11753044
-0.007493962 -0.1095163 -0.039958946 -0.013311557 0.044680975 -0.19248702 0.012832612 -0.06480185

linears.0.bias f4 [64]
00000000: 45cf 87be be12 c4bc 3701 e4be b6b4 91be
00000010: 48db c93c 70b0 39bf 9fcb 6ebe 980f adbe
00000020: cd52 d23e 3998 ed3e f50a 85be ab04 c6be
00000030: 5daa 0cbf ceff 56be 528e d73e 5b83 16bf
00000040: 781f b53e 37b5 25bf e4d5 023f 8e8d 013e
00000050: 5dc8 e83e ab0f 883e 7a27 fe3e ce99 8a3e
00000060: abb1 d43e 4f40 423e ec28 d5be 3a43 90bd
00000070: bc52 1c39 12b5 edbe ff05 a4bd c9b7 3abe
00000080: 6d8a e1bd ba97 d13e d9ae f9bd a57c f93c
00000090: 2a1b 7cbc c375 96be 68ba 693e 5f6e f1be
000000a0: 1c73 aabd b766 d0be b6f1 f63e 1f76 1cbf
000000b0: 29fd 6ebe 1784 d2be bdb5 133f 3eab dc3e
000000c0: c855 b0be 6f06 b9bc f112 82be 84b4 973e
000000d0: e4a7 e13c a165 c83e d732 ba3e 02e8 c6be
000000e0: 4473 d4be 248a 2fbe 5d2d be3e 6c75 9bbe
000000f0: 03e8 3a3d 8fb2 ecbd 7542 c43e de18 e1be
-0.26525322 -0.023934718 -0.44532177 -0.28458184 0.024640694 -0.7253485 -0.23319863 -0.3380096
0.41078797 0.464052 -0.25984922 -0.38675436 -0.54947454 -0.20996019 0.4210077 -0.5879418
0.3537557 -0.64729637 0.5110762 0.12651655 0.45465365 0.26574454 0.49639493 0.2707047
0.415418 0.18969844 -0.41632783 -0.070440724 0.0001490814 -0.46427208 -0.08008956 -0.18234171
-0.11012731 0.4093607 -0.12191553 0.030454943 -0.015387336 -0.2938672 0.22825015 -0.4715452
-0.083227366 -0.40703365 0.48231286 -0.6111774 -0.2333876 -0.41116402 0.57699186 0.43099397
-0.34440446 -0.022586076 -0.25405076 0.2962991 0.027545877 0.39140037 0.36366913 -0.38848883
-0.4149419 -0.1714254 0.37143984 -0.30363023 0.04563142 -0.11557495 0.38331953 -0.43964285

linears.1.weight f4 [64, 64]
00000000: 8798 60bd da3e 3dbc 9905 0ebc 860c c83b
00000010: 8e07 87bd 7f6c 213e cf4a 3b3c e3af 17bd
00000020: c9b3 a1bd e574 4dbc 7f7f 983d 487a 2c3b
00000030: 65c3 31bd be7d 713d 896e c6bd 43b7 413d
00000040: da0d dc3d b853 34bd 018c abbd f13d 6cbd
00000050: 25c3 1b3d 4dde e4bd de6c 4cbd a5b4 0f3d
00000060: c36a 003e 84dd 9a3c 0c92 473d 2148 833d
00000070: 1b15 a0bd 4f81 73bc 85e4 cebd dcbb bdbd
00000080: 1588 2d3e d207 c0bc 27de a93d d965 ff3d
00000090: 3253 903d 638f 96bd f0bd 42bd be9f 553c
000000a0: 050e 34bb 4544 47bd 6226 14bd df1e a23d
000000b0: 35ae 1fbe 7bc2 39bd 8e99 1cbe ec74 29bd
000000c0: db0a 7a3d ec19 893e 4e70 9b3d 280b bdbc
000000d0: 3921 3d3d baf0 f8bd 7165 a1bc 1c6f 29be
000000e0: fa42 c03c 9a58 1bbd 3f4c 023e 0378 083e
000000f0: 67a5 243e 4045 85bd 310a ffbd f909 933d
00000100: cf7b 8abd 8e2f a03d 8dc6 f5bc 6c72 5ebc
00000110: 858b 0ebe fd2a 063e c65e 26bc 18e1 a3bc
00000120: e8f2 b7bd 5d8f 473d a2df fcbd 976b fd3d
00000130: 5bf6 593d 1567 233e 2e09 4b3d fa6d aa3d
00000140: 01ee 2abc 4d0d c23d c467 8fbe 5db1 02bd
00000150: 44b4 dfbc a986 fc3d fdd9 a7bd 67bd c33c
00000160: dd11 373d 398a 9ebd 20e6 883e 55b1 c3bd
00000170: c97e 073d 7165 c2bd c0a9 46be 7b83 013e
00000180: 9b96 393e 345d 663c 00ff e938 5965 b0bd
00000190: cad0 e3bd 4a99 603d cf02 383d 0050 c9bb
000001a0: cd04 1fbe e6bc 8c3c 55dd 2cbe 482d ef3d
000001b0: 4d9d d43d 8642 353d 4ef7 c3bd 2f13 3c3d
000001c0: 05bd 8c3c 62dd 83bd b0c2 1ebc 2513 42be
000001d0: f250 3dbe 1aa4 88bd 7aff c2bc b7e7 b13d
000001e0: 0108 7dbe 2700 4bbd 3abc 26bc 6669 503e
000001f0: 981a 97bd ea1d 0d3d b598 093e aa80 863e
00000200: 60b3 bc3d 7dc2 a6bc 459c ba3d cb0e 4abd
00000210: ad22 c4bd c48c 6d3e 3e7f 123d 592c 373d
00000220: 543d a339 e98f 153c d4f5 6cbd 922c 8fbc
00000230: 3ce4 eabd c86f 1f3e 3fef 03be 3ebd 25bd
00000240: 9ec1 59bd 387a c0bd 4fa8 2bbe 08dd b4bd
00000250: 6e0c a53c aa57 473e 47d6 da3a e8ce c93c
00000260: b21c 3fbe c638 c8bd 7dd7 0e3e fad6 9fbd
00000270: 69e4 e1ba 4fa0 bbbd 4ef3 83bd 2e50 703d
00000280: 83ee 273e 14cb 703b 83c1 43bd e4e9 b93d
00000290: a9f7 c5bb e657 f93d 2c4a 51be 6495 573e
000002a0: ee3d afbc 0023 e23b b1b3 a3bc 1743 ea3d
000002b0: 74ae 343e 0fb2 c13d 48e6 a7bd 2cd1 dcba
000002c0: af47 4c3e a58e cbbc ba03 85bd d811 b7bd
000002d0: f863 d8bd 9a42 7ebb be93 193d 41ab 60bb
000002e0: b889 54be d31f c6bd 4db7 603b b814 26bb
000002f0: 4e4f 0a3e d27c b1bc f379 99bd 79fa 863d
00000300: 33ec 9a3d a6fa c3bd 3028 443e 7483 5c3c
00000310: f7e7 093e b584 713e 85dc a73d d75c 25bd
00000320: 1074 75bd 3837 e8bb bc95 39be 49ee 513c
00000330: 90af 01bd 4fa1 863e b9a1 cabd f6e7 36bd
00000340: 50b9 363e 1bec a7bd 6e61 24be 30bf fcbd
00000350: 74b8 9f3d 1668 3c3e 9067 5abd f3b5 4cbc
00000360: 145b c6bd cc0f b03c 1fc8 d33d bb17 aabc
00000370: 51a7 0d3c 5337 253e 89ec 843d 31b4 8abd
00000380: c6d9 703e ad0e 0cbe 76da bcbc 9e9d 10bb
00000390: 7da4 753d 124f 2e3e 2281 e43d e86d 51bd
000003a0: 5d22 cabd fc4a 503e 85d9 8abd a790 dcbd
000003b0: 1cbc 4bbe 297e bd3c d897 6fbe 1aa2 80bd
000003c0: 2f4b b53d 0d0b 8bbc 1694 89bd 421c 30bd
000003d0: da85 1fbe 96a3 d5bd cd16 d23d 6b7c d4bd
000003e0: e354 eabc c254 8cbd 6760 9ebd 6c31 0b3e
000003f0: 22e2 613d b75c 003d a59e b33d 9d8f 0e3e
-0.05483296 -0.0115506295 -0.008668327 0.0061050085 -0.06593238 0.15764044 0.01143141 -0.037032973
-0.078956194 -0.012540077 0.07446193 0.0026318002 -0.043399233 0.058957808 -0.09689052 0.047293913
0.107448295 -0.044025153 -0.08376313 -0.05767626 0.0380279 -0.11175213 -0.04990851 0.035084385
0.12540726 0.018904455 0.048723266 0.06410242 -0.078165255 -0.014862373 -0.101021804 -0.09264347
0.16946442 -0.023441229 0.08294325 0.12470598 0.07047118 -0.073515676 -0.04754442 0.013038574
-0.0027474177 -0.04864909 -0.036169417 0.079160444 -0.15593798 -0.045351487 -0.15292951 -0.04137127
0.06104551 0.2677759 0.0758978 -0.023076609 0.04617426 -0.1215529 -0.019701691 -0.16546291
0.023469437 -0.037926294 0.12724398 0.13327031 0.16078721 -0.06507349 -0.12453116 0.071796365
-0.06761896 0.0782157 -0.030001903 -0.013577085 -0.1392041 0.13102336 -0.010154432 -0.020004794
-0.089818776 0.048720706 -0.12347342 0.12374037 0.05321346 0.15957291 0.0495693 0.083217576
-0.010432721 0.09475193 -0.28008854 -0.031907428 -0.027307637 0.12330372 -0.08195875 0.023894025
0.04469477 -0.07741208 0.2673807 -0.09555308 0.033079896 -0.09492005 -0.19400692 0.12647812
0.18123858 0.014060307 0.00011157803 -0.086130805 -0.11123808 0.054833688 0.044924553 -0.00614357
-0.15529175 0.017179918 -0.16881306 0.116785586 0.10381565 0.044252895 -0.09568654 0.045916732
0.017179975 -0.0643871 -0.009689972 -0.18952616 -0.1848791 -0.06671925 -0.023803461 0.08686774
-0.24710084 -0.049560692 -0.010176713 0.20352706 -0.07378119 0.034452356 0.1343716 0.26270038
0.092139006 -0.020356411 0.09111837 -0.049330514 -0.095769264 0.23198229 0.03576588 0.044720028
0.00031135476 0.009128549 -0.057851627 -0.017477307 -0.114693135 0.15569985 -0.12884234 -0.04046368
-0.053163163 -0.093983114 -0.16763423 -0.08831221 0.020147528 0.19467035 0.001669594 0.024634793
-0.1866329 -0.09776454 0.1394939 -0.078046754 -0.0017234209 -0.09161436 -0.06442891 0.058670215
0.16399579 0.0036742138 -0.04779197 0.09077814 -0.0060414863 0.121749684 -0.2043845 0.21053082
-0.021391835 0.006901145 -0.019983144 0.114385776 0.17644674 0.0945779 -0.081982195 -0.0016847006
0.1994922 -0.024848292 -0.064948514 -0.0893895 -0.105659425 -0.0038797022 0.037494414 -0.0034281763
-0.2075566 -0.09674039 0.0034288943 -0.002534194 0.13506815 -0.021665964 -0.07493963 0.065907426
0.07564583 -0.09569292 0.19155955 0.013459075 0.13467394 0.2358578 0.08196358 -0.040371742
-0.05992514 -0.0070866607 -0.18123525 0.012813159 -0.03166157 0.26294944 -0.098941274 -0.04465481
0.17844129 -0.081993304 -0.16052791 -0.123411536 0.077988535 0.1839908 -0.05332142 -0.012494552
-0.096853405 0.021491908 0.103409044 -0.020763269 0.008645848 0.16134386 0.06490428 -0.0677265
0.23520574 -0.13677473 -0.023053389 -0.0022066603 0.05997132 0.1702235 0.11157443 -0.051130205
-0.098698355 0.20341104 -0.0677977 -0.10769778 -0.19895977 0.023131447 -0.23397768 -0.062809184
0.08852231 -0.016973043 -0.06717698 -0.0429957 -0.15578404 -0.10431592 0.10258255 -0.10375293
-0.02860493 -0.06852104 -0.07733231 0.13593072 0.055147298 0.03133842 0.087704934 0.13921972

linears.1.bias f4 [64]
00000000: 3d54 813e 1430 063f 2797 b83e bbba b23e
00000010: ec7b 1fbd 98d5 cc3e 13fd 10be edd4 0f3e
00000020: 4e3a 88be 9954 f33e 60a4 9d3d ea05 21bd
00000030: f431 0d3f de20 c73e 15d6 923e 2ef2 7e3e
00000040: c7df 7e3e c3c4 9a3c 03dc a8be 06ca d23e
00000050: 2723 a63e eaa9 c23e 0448 cd3e 191d 613e
00000060: f702 e6bd b4b4 053d b655 a43e 4b7c 34be
00000070: 4b93 773e d477 db3c b945 53be af0a 863e
00000080: c9f2 c03e fbd5 f43e 936d 94bd 6ceb 36be
00000090: ddd9 8ebb 7e70 063e 9bb6 db3e e4ea 733d
000000a0: 7dac c43d 7dbc 8e3e 3c59 70be 2eec 013e
000000b0: 6d5c 8b3e 9247 753e 6b17 bcbe be40 e03e
000000c0: 4894 9d3e 374b 043f 2e94 6a3d 6b2d c83e
000000d0: b1e6 65be d2fd 2dbe 84c4 a3bb 3015 503e
000000e0: a153 7dbe fa2e 913e 36c9 34be 7492 963e
000000f0: 00f4 fe3e 7a13 443d 58f6 bd3e 86ab ce3e
0.2525958 0.5241711 0.3605282 0.3490809 -0.03893654 0.4000671 -0.1415904 0.14046068
-0.26606983 0.4752548 0.07697368 -0.03931228 0.5515435 0.38892263 0.28678957 0.24897072
0.24890052 0.018892651 -0.32980356 0.41169757 0.32448694 0.3802026 0.40094006 0.21983756
-0.11231034 0.032643035 0.32096642 -0.17625539 0.24177282 0.026790537 -0.20632066 0.26180026
0.3768523 0.47819504 -0.07247462 -0.17863244 -0.0043594674 0.1312885 0.42912754 0.05955018
0.09603212 0.2787818 -0.2347154 0.12687752 0.27218953 0.23953083 -0.36736616 0.43799394
0.30777192 0.5167727 0.05727022 0.3909715 -0.22451283 -0.16991356 -0.0049977917 0.20320582
-0.24738933 0.28356153 -0.17654881 0.2940861 0.49795532 0.047870137 0.37102008 0.40365237

linears.2.weight f4 [5, 64]
00000000: 1b60 d8bd ae54 42be 6d47 debd 205f 21be
00000010: 5576 f1bc bdcf febd ef75 a9bd 4485 de3b
00000020: 3edb 55be 2366 29bd 8a08 b53d 6575 00bd
00000030: b356 22be 3d68 aebd 4dae 723c d449 16be
00000040: 589e 24be 34a2 5d3d 6ba9 7dbe 1e9a eebd
00000050: fa9d 7abe 9230 a1bd d533 52bd 822a 93bc
00000060: 142f 4c3d 9d21 38bd b452 59be f869 22be
00000070: 3f8d abbd d4c0 963c 7b7d f0bd 6471 50bd
00000080: 6eb1 013c f921 1cbd b920 c0bd db2e 37be
00000090: c890 3dbe 427e 663e 473c 29be 654c fe3c
000000a0: 5fc6 6cbc 5119 07be 0bef a8bd 7a57 e03d
000000b0: 923c 2cbe 0575 c63d 0d55 32bd 64d9 2cbe
000000c0: 76c1 c9bd 2af4 eebd 86d2 803d 0098 e6bd
000000d0: 5b28 84be 1757 1e3d e098 273b 78eb a33d
000000e0: d0a7 cdbd 7628 d2bd 0ee7 a1bc fafc 993c
000000f0: 548c 36be 9117 12bb 58d5 16be 18e3 4f3e
00000100: 1668 bbbc 632d 38be a924 27be 92da 00be
00000110: b51f dfbb 5451 20be 565d c43c 3d9b cc3c
00000120: 93ee 07bd a5d4 18be 93e6 a93d 3688 0d3d
00000130: 7457 27be ed36 a23d 600b db3b b30e bfbe
00000140: 22e6 e9bd d30a 78bd 013c f7bd 1a7d 05be
00000150: 13cd 07be 1109 22be 642f 17be 3499 e2bc
00000160: 9d65 a53d 5732 b3bb 1ef0 babd 99e0 9d3c
00000170: 36a2 29be 5910 633c 555c e937 01e2 62bd
00000180: 03f7 713d 481b 29be 3ab0 e93c 11bf ebbd
00000190: 3f07 88be 11a4 bf3d e256 91bd 5add 96bd
000001a0: 1a36 f5bb 0e5d 873c daa6 12bc 13d1 dbbd
000001b0: e94b 3ebe f1a1 883d eca0 82bd 5716 00be
000001c0: bb6e b2bd 7ad5 16be 73ba 49bd 81a9 18be
000001d0: 9ca5 7fbd 30b4 923d b475 2c3d a2ac 97bd
000001e0: ce41 a3bd 94fe f4bc 7e14 473c 8004 2fbd
000001f0: 6e14 fabd 1734 f93c bb10 ecbd 84ea 6938
00000200: d637 4abd 461e 60be e9f2 0f3c 0a41 f6bd
00000210: 0a62 fbbb b797 53be b7d9 4abe 6e04 78bd
00000220: edbb 95be 15f9 5abd 22c8 0cbc acd0 753d
00000230: d343 50be 51f9 433e 73cb 6f3c 0cad 563e
00000240: 6877 7dbe 80e4 293e ae00 a4be b22b 843b
00000250: 13d1 70be 62e8 75bd 6343 9fbd 46a6 f33b
00000260: b750 efbd 1abd 33be b0b4 a6be e733 4dbe
00000270: 8d2b 503c 7d9b 553d 5a50 a8bd 925a 28bd
00000280: 2c21 0bbd 7b93 2abe 454a 32be d511 aebd
00000290: 98ed aebe b593 4f3d 8369 6abe 308a 833e
000002a0: 9fe1 82bd 2cc4 88be bd88 0ebc 9b51 213e
000002b0: 571f a5bd e2e5 ae3e 3af2 f4bd 5280 3e3c
000002c0: 13a3 23be bc54 2fbe 5754 57be 987d f5bd
000002d0: e498 80be 6b9d f8bc 5ac6 66be a8f0 0cbd
000002e0: eea8 c4bd 10ef 86ba a2cc c5bb e038 30bd
000002f0: 5937 04be b837 84bd 0178 4fbe 88de 7a3e
00000300: 20cd 1bbe 2ab4 98bd 498e 6ebe e8fe 3dbd
00000310: cfa1 a2bc ec0e c5bd fbb4 13bd 1b2c cd3c
00000320: f8e4 5e3d 25f8 4cbe d308 85bd 418a 213d
00000330: 3780 eabd 0ebf 1f3a d830 c9bd e28c 1bbe
00000340: 17ba abbe 18e2 b0bc 24ed 7a3c feb5 ccbd
00000350: dc16 78bd d104 87be feb1 e0bd 55f2 a6bc
00000360: 3efd b73d a571 a4bd 9a45 3dbe 6584 053d
00000370: df1c 2bbe d24b ffbd 7a98 9bbd b225 a1bd
00000380: 676d 5e3c 5032 61be 9e54 67bd a8b2 2a3e
00000390: 062b 703b 5329 923e e8bf 44be e965 cabd
000003a0: 1de4 043d 13f2 8fbe 12af 8ebe 4466 643d
000003b0: 00a6 95bd 65cf 143e bf8c babc 5737 67be
000003c0: 53f8 443d d157 a5bc 554d 72bd 67e4 afbd
000003d0: da7a 973c dfd0 133e 867b dabd 5bc4 bbbd
000003e0: c3d2 da3d e550 19be 97e9 7d3d a125 893b
000003f0: 98ae 5cbe eb06 a3bd 7cde 13bd 7a07 bc3d
-0.10565206 -0.18977615 -0.10853467 -0.15758944 -0.02947537 -0.12441967 -0.08274447 0.006790789
-0.20884416 -0.04135717 0.08839519 -0.031361956 -0.15853386 -0.085159756 0.014812064 -0.146766
-0.16076028 0.054109767 -0.24771659 -0.11650489 -0.24474326 -0.07870592 -0.051318962 -0.017964605
0.049849585 -0.04495393 -0.21222955 -0.15860736 -0.0837655 0.018402494 -0.117426835 -0.050889388
0.007915838 -0.038118336 -0.09381241 -0.17888968 -0.18512261 0.22509101 -0.165269 0.031042287
-0.014451592 -0.13193251 -0.08248719 0.10954185 -0.1681998 0.096902885 -0.043538142 -0.16879803
-0.09851353 -0.11667664 0.06290154 -0.112594604 -0.2581204 0.038657274 0.0025573298 0.080038965
-0.10041773 -0.102616236 -0.019763496 0.018797386 -0.17826968 -0.0022291879 -0.14729822 0.20301473
-0.02287678 -0.17986064 -0.16322578 -0.12583378 -0.0068091997 -0.15656024 0.023970287 0.024976367
-0.033186506 -0.14924867 0.08295932 0.03455373 -0.16341954 0.079206325 0.0066847056 -0.37315902
-0.114208475 -0.060557198 -0.12071992 -0.13036004 -0.13261823 -0.15823771 -0.14764172 -0.027660944
0.08076022 -0.0054686475 -0.0912783 0.019272136 -0.16565785 0.013858878 2.781876e-05 -0.055391315
0.05907346 -0.16514313 0.028526414 -0.115110524 -0.26568028 0.09357465 -0.0709665 -0.07366438
-0.007483256 0.016523864 -0.008950913 -0.10733237 -0.18583645 0.06671513 -0.0637835 -0.12508522
-0.087125264 -0.14729872 -0.049250077 -0.1490841 -0.062413797 0.07163274 0.042104438 -0.07405974
-0.079715356 -0.029906549 0.012150882 -0.0427289 -0.12210928 0.030420346 -0.115266286 5.576994e-05
-0.049369656 -0.21886548 0.008785942 -0.12024124 -0.0076715993 -0.20663343 -0.19809614 -0.0605511
-0.29244938 -0.0534602 -0.008592637 0.060013458 -0.20338373 0.19138075 0.014635908 0.2096445
-0.24752581 0.16591072 -0.3203177 0.004033529 -0.23517255 -0.06003607 -0.07776525 0.007435593
-0.11685317 -0.17552605 -0.3255973 -0.2003933 0.012705696 0.05215024 -0.08218451 -0.041102
-0.033967182 -0.16657822 -0.17411144 -0.08499495 -0.34165645 0.050677974 -0.22891812 0.25691366
-0.0639069 -0.26712167 -0.008699593 0.15753786 -0.08062618 0.34159762 -0.119602636 0.011627274
-0.15980177 -0.17122167 -0.21028267 -0.11986846 -0.25116646 -0.0303485 -0.22536603 -0.034409195
-0.09602533 -0.0010294635 -0.006036357 -0.04302299 -0.12911738 -0.0645594 -0.20260622 0.24498951
-0.15214968 -0.074562386 -0.23296465 -0.046385676 -0.019852547 -0.09621987 -0.03606127 0.025045445
0.05441758 -0.20016535 -0.06495824 0.03943849 -0.11450236 0.0006093838 -0.09823769 -0.15190461
-0.33540413 -0.021592185 0.015315328 -0.0999565 -0.060568675 -0.26370862 -0.10971449 -0.020379225
0.08983849 -0.080294885 -0.18483582 0.032596964 -0.16710232 -0.124656335 -0.07597442 -0.07868518
0.013575888 -0.21991849 -0.05647718 0.16669714 0.0036646738 0.28547153 -0.19213831 -0.09882719
0.03244411 -0.28114375 -0.27867943 0.05576159 -0.073070526 0.1453224 -0.022772191 -0.22579704
0.048088383 -0.020183476 -0.05915578 -0.08588486 0.018491197 0.14435147 -0.106680915 -0.09168311
0.10684731 -0.14972265 0.061990347 0.004185394 -0.21550977 -0.07960304 -0.03610085 0.091811135

linears.2.bias f4 [5]
00000000: cc09 8abe 6e2a bcbe 9516 dfbe 7a2d e6be
00000010: d711 f8be
-0.269606 -0.3675112 -0.43571916 -0.4495657 -0.4845111
