dqn-exp/savedir/student-test/checkpoint1100--model.pth (torch_old, 20763 bytes, 6 tensors)

linears.0.weight f4 [64, 6]
0.09267696 0.030888993 -0.31085643 -0.13777675 -0.30408016 0.12926397 0.011723703 -0.15659823
0.0057045217 0.023136718 0.0714987 0.53287655 0.3265905 0.18555407 -0.11525588 0.13365737
-0.06871507 0.021466382 0.26058772 -0.1535503 -0.16724296 0.07294881 -0.10540224 0.13662453
0.04881102 0.037243295 -0.13445337 -0.14358003 -0.09926457 -0.061101638 0.10278595 0.008415886
-0.24522594 0.27986294 0.19776553 0.0657979 0.012626423 -0.015116561 0.42709124 0.0154105285
0.28606573 0.0083332 -0.19939819 0.01639171 0.30745527 0.1291 0.03616278 0.026854916
-0.106810525 -0.060514368 -0.036615536 0.23566209 0.36600965 0.2253704 -0.16269761 0.0818888
-0.02360326 -0.15221345 -0.049193032 0.0036627916 -0.15315646 -0.022115752 -0.033112336 0.015776007
0.58435464 0.012706119 -0.1516389 0.23309107 0.3203992 -0.039105646 0.037657414 -0.0630863
0.0005963597 -0.11016228 0.020918017 -0.0664186 0.05747071 0.38365066 -0.005296514 0.1624866
-0.02839184 -0.0060755215 0.02047191 -0.6494576 0.16371575 0.17473625 0.048029687 -0.05423398
-0.2536679 -0.3694918 -0.17974639 -0.18041417 0.0817708 -0.0048300894 0.20744435 0.19763565
0.16197136 -0.033138946 -0.07697918 0.021717334 -0.46917683 0.09613987 0.10850573 0.025912521
-0.050323013 0.12010491 -0.55760556 -0.13092038 -0.03223124 0.034629 0.0013642348 0.043537844
0.4276374 -0.17411467 0.112520084 0.10480352 -0.013797608 -0.066190585 -0.6167289 -0.030528398
0.15934199 -0.23949757 0.0610056 0.14539124 -0.19500673 0.33042234 -0.023544809 0.20092072
-0.0064936285 0.023842456 0.04509243 -0.52057195 -0.107751235 -0.099710375 -0.09384093 -0.14512184
0.13808416 0.1683104 -0.059927586 -0.09626534 0.02529382 0.032730702 0.24005908 0.33732614
0.020724772 0.030276986 0.12725748 0.1927684 -0.0017641124 0.121435694 -0.13804439 0.009364566
-0.027543452 0.011900966 0.5484833 -0.025012644 -0.092617124 -0.06325061 -0.14137617 0.11221117
0.30167538 0.04998859 0.040919326 0.11266236 -0.07133914 0.024321973 -0.19930002 -0.074230514
0.15614794 0.0026655642 0.009188697 -0.003958792 -0.89285886 0.02494035 -0.0883355 0.17642477
0.34672022 -0.16461474 0.2450402 -0.3183838 -0.012478915 -0.121630155 -0.005416913 0.0013093805
-0.037622046 0.8203262 -0.073797174 0.1579114 0.09986496 -0.16654842 0.014592921 -0.16434875
-0.01524956 0.06453943 -0.00035176516 -0.041247506 0.018955762 -0.07260415 -0.15627302 0.07170828
-0.08363573 0.15487045 0.17242393 -0.19136368 0.009931364 -0.0255511 -0.107387826 -0.18758893
-0.106958516 -0.11993615 -0.0986128 0.052452546 0.07949246 -0.031839915 0.0798419 -0.073426045
0.014118153 -0.00867587 -0.007053295 -0.006681727 0.5838826 0.09708058 -0.026507892 0.029408267
-0.021849394 0.10066522 0.24047968 0.17721929 -0.18071313 0.058072265 -0.00027273805 -0.08189421
0.24365559 -0.015307712 -0.060227096 -0.32905084 -0.15801163 0.13600421 -0.02563643 0.07066157
0.007096628 0.120813474 -0.0054290197 -0.0112120155 -0.009071765 -0.83378386 0.15814915 -0.11753044
-0.007493962 -0.1095163 -0.039958946 -0.013311557 0.056640774 -0.16245049 -0.0062839556 -0.0650365
00000000: 6bcd bd3d ea0a fd3c 9328 9fbe 5915 0dbe
00000010: 65b0 9bbe c65d 043e c614 403c 495b 20be
00000020: ffec ba3b 3789 bd3c e96d 923d 996a 083f
00000030: df36 a73e e301 3e3e 460b ecbd 7add 083e
00000040: 7dba 8cbd 44da af3c c16b 853e 4a3c 1dbe
00000050: bd41 2bbe 3066 953d 21dd d7bd 4de7 0b3e
00000060: 10ee 473d 6d8c 183d 25ae 09be a506 13be
00000070: 394b cbbd b645 7abd 7181 d23d c9e2 093c
00000080: 821c 7bbe 324a 8f3e 0c83 4a3e 0dc1 863d
00000090: 0edf 4e3c 74ab 77bc b4ab da3e 717c 7c3c
000000a0: 3577 923e f987 083c 0a2f 4cbe e847 863c
000000b0: c76a 9d3e ca32 043e 6c1f 143d d7fe db3c
000000c0: 7abf dabd eadd 77bd 2cfa 15bd 6751 713e
000000d0: 9e65 bb3e 80c7 663e 349a 26be 51b5 a73d
000000e0: a05b c1bc d8dd 1bbe a27e 49bd 720b 703b
000000f0: 0cd5 1cbe 182c b5bc cda0 07bd af3c 813c
00000100: 4498 153f 532d 503c 3a47 1bbe 6daf 6e3e
00000110: 5d0b a43e 3e2d 20bd a93e 1a3d 6433 81bd
00000120: 0655 1c3a c39c e1bd 435c ab3c 7a06 88bd
00000130: 6866 6b3d dc6d c43e 618e adbb e362 263e
00000140: 0196 e8bc 2b15 c7bb b5b4 a73c da42 26bf
00000150: 1aa5 273e 0fee 323e c7ba 443d 7324 5ebd
00000160: c2e0 81be 072e bdbe 700f 38be 7ebe 38be
00000170: 7377 a73d ba45 9ebb 4b6c 543e 0061 4a3e
00000180: d2db 253e b4bc 07bd 43a7 9dbd 8de8 b13c
00000190: f237 f0be fbe4 c43d 4138 de3d 7f46 d43c
000001a0: 811f 4ebd 90f9 f53d 3dbf 0ebf fe0f 06be
000001b0: e804 04bd 23d7 0d3d 20d0 b23a bd54 323d
000001c0: 4af3 da3e 1e4b 32be ee70 e63d 3aa3 d63d
000001d0: 5d0f 62bc ee8e 87bd f2e1 1dbf b116 fabc
000001e0: 8c2a 233e da3e 75be 02e1 793d 71e1 143e
000001f0: d8af 47be 1e2d a93e 0be1 c0bc 29be 4d3e
00000200: 81c8 d4bb 4151 c33c d7b2 383d 3444 05bf
00000210: aeac dcbd f434 ccbd ac2f c0bd d29a 14be
00000220: ef65 0d3e 9059 2c3e a176 75bd c326 c5bd
00000230: fc34 cf3c a110 063d 0cd2 753e 03b6 ac3e
00000240: ffc6 a93c 7107 f83c c94f 023e 1465 453e
00000250: ca39 e7ba 47b3 f83d 825b 0dbe d66d 193c
00000260: cea2 e1bc 45fc 423c 6769 0c3f 51e7 ccbc
00000270: 0cae bdbd 8989 81bd eac4 10be f8ce e53d
00000280: 3275 9a3e d6c0 4c3d 069b 273d 86bb e63d
00000290: 411a 92bd e03e c73c 4e15 4cbe 2b06 98bd
000002a0: 3fe5 1f3e bfb0 2e3b 308c 163c c1b8 81bb
000002b0: 6692 64bf b44f cc3c 3ee9 b4bd b2a8 343e
000002c0: 5085 b13e c490 28be d1eb 7a3e 3403 a3be
000002d0: 5d74 4cbc 3b19 f9bd 5c80 b1bb 859f ab3a
000002e0: 9319 1abd e600 523f f922 97bd 87b3 213e
000002f0: 0086 cc3d ab8b 2abe 2617 6f3c 0a4b 28be
00000300: 4ad9 79bc 402d 843d 1f6d b8b9 25f3 28bd
00000310: 1d49 9b3c 7cb1 94bd 0906 20be cadb 923d
00000320: 3649 abbd 5c96 1e3e e68f 303e d7f4 43be
00000330: 29b7 223c 8a50 d1bc 26ee dbbd 5017 40be
00000340: 110d dbbd 16a1 f5bd 82f5 c9bd 7bd8 563d
00000350: f1cc a23d 926a 02bd 2684 a33d 6560 96bd
00000360: d34f 673c 3c25 0ebc 541f e7bb 63f2 dabb
00000370: 5479 153f 2fd2 c63d 1427 d9bc 9be9 f03c
00000380: 80fd b2bc 9129 ce3d 4e40 763e f978 353e
00000390: dd0c 39be 2fdd 6d3d 48fe 8eb9 27b8 a7bd
000003a0: da80 793e 33cd 7abc b0b0 76bd 5a79 a8be
000003b0: cdcd 21be b044 0b3e 7e03 d2bc 03b7 903d
000003c0: d58a e83b 0e6d f73d ebe5 b1bb 9ab2 37bc
000003d0: bda1 14bc dc72 55bf daf1 213e cdb3 f0bd
000003e0: e98f f5bb 154a e0bd feab 23bd b718 5abc
000003f0: 2800 683d 6c59 26be a4e9 cdbb db31 85bd

linears.0.bias f4 [64]
-0.35468245 -0.016273294 -0.5167165 -0.3083044 -0.0967575 -0.7529003 -0.2692056 -0.3622519
0.42734393 0.45279217 -0.2773295 -0.4239216 -0.60310316 -0.22733708 0.43633378 -0.62716746
0.37277144 -0.6997121 0.5425467 0.121648565 0.44990742 0.23173164 0.505288 0.2809845
0.40365908 0.2304962 -0.49231592 -0.15090102 -0.009849609 -0.5244245 -0.10595927 -0.2805631
-0.11012731 0.38434634 -0.17145893 -0.05801173 -0.023413217 -0.40126055 0.1433133 -0.56787497
-0.099110514 -0.40703365 0.49416128 -0.646385 -0.2719998 -0.44450027 0.62447846 0.4357897
-0.42691496 -0.12586357 -0.2457519 0.27856392 0.021153545 0.40316972 0.34492686 -0.4291442
-0.47449595 -0.22210065 0.3865869 -0.36917788 -0.021548415 -0.12807782 0.37001118 -0.4884599
00000000: f098 b5be 924f 85bc 8847 04bf 13da 9dbe
00000010: cc28 c6bd 13be 40bf 51d5 89be 1579 b9be
00000020: d3cc da3e 60d4 e73e 22fe 8dbe 410c d9be
00000030: f864 1abf 0dcb 68be 2467 df3e 0c8e 20bf
00000040: e6db be3e 5520 33bf 57e4 0a3f e222 f93d
00000050: 445a e63e 0f4b 6d3e 8e5a 013f 33dd 8f3e
00000060: 67ac ce3e 3207 6c3e d510 fcbe cc85 1abe
00000070: 4160 21bc af40 06bf 2c01 d9bd f7a5 8fbe
00000080: 6d8a e1bd 0bc9 c43e ee92 2fbe b59d 6dbd
00000090: 13cd bfbc 0672 cdbe b9c0 123e 4160 11bf
000000a0: 74fa cabd b766 d0be b502 fd3e 7d79 25bf
000000b0: 8f43 8bbe 8a95 e3be d2dd 1f3f d41f df3e
000000c0: 9994 dabe 61e2 00be 63a6 7bbe ee9f 8e3e
000000d0: 334a ad3c 436c ce3e 419a b03e cab8 dbbe
000000e0: 22f1 f2be 5a6e 63be b8ee c53e e204 bdbe
000000f0: 4d86 b0bc d526 03be 1b72 bd3e 6a17 fabe

linears.1.weight f4 [64, 64]
-0.024798306 0.012005747 0.0012298243 -0.02370755 -0.004349196 0.12188483 -0.05368827 -0.09688056
-0.04999906 6.254873e-05 0.013734181 0.004974868 -0.048131373 0.0410392 -0.07869996 0.011577023
0.08098068 -0.091324806 -0.0697502 0.057737403 -0.019471169 -0.14568292 -0.034334823 -0.0013951418
0.13834177 0.021769425 0.028053202 0.09186212 -0.061854616 -0.0117013175 -0.10567631 -0.09989935
0.1424348 -0.023516677 0.07002958 0.12911612 0.08220111 -0.11028957 -0.02688112 0.042180013
-0.024845982 -0.070970684 -0.018056596 0.036379766 -0.18150622 -0.089971215 -0.14146909 -0.061192863
0.033446845 0.27223954 -0.0019245661 -0.0130451685 0.09528533 -0.085892595 -0.024067577 -0.18149489
0.050820205 -0.030182833 0.1129533 0.10521197 0.11670758 -0.08824825 -0.1679344 0.04785448
-0.08856111 0.053076398 -0.03930603 0.016461885 -0.14158504 0.12803283 0.0018613742 -0.014815517
-0.093135186 0.047684446 -0.13568678 0.10735033 0.04659949 0.17705165 0.048179626 0.06894237
-0.016169762 0.096504346 -0.2994964 -0.0415169 -0.04033967 0.1206808 -0.0831825 -0.0096469335
0.038639914 -0.0642203 0.28075254 -0.088181786 0.032315888 -0.08415384 -0.2749084 0.10493297
0.18103036 0.01512333 0.010307596 -0.06832607 -0.109369494 0.049820956 0.047066335 -0.0071661007
-0.17466323 0.0261314 -0.16668835 0.12478707 0.08128477 0.024338778 -0.11544263 0.03782905
0.026279168 -0.065171346 0.018058918 -0.18681112 -0.16152109 -0.07026604 -0.02642492 0.09199235
-0.2444603 -0.048424684 -0.018622069 0.20731659 -0.059486583 0.01896659 0.12588269 0.27301124
0.123149216 -0.022635095 0.10098188 -0.06206093 -0.03414361 0.22291395 0.032452624 0.04645557
0.0035577263 -0.0013446943 -0.043185994 -0.00024429243 -0.119417645 0.1563409 -0.10527038 -0.062622346
-0.06540587 -0.08422273 -0.1684875 -0.04139237 -0.011091637 0.18517984 -0.0059743775 -0.014559181
-0.15808555 -0.09208792 0.14034005 -0.0383625 0.038309608 -0.09430113 -0.057759747 0.07293619
0.15266249 -0.013762444 -0.031930692 0.08645779 0.011390673 0.10404653 -0.2125878 0.15996906
-0.035660688 0.0023286736 -0.01233765 0.118995994 0.17387907 0.06214692 -0.08509074 -3.7038146e-05
0.195336 -0.028915808 -0.0975832 -0.10617353 -0.06908393 0.0037494178 0.040525265 -0.0046326616
-0.19888481 -0.110216394 -0.00835899 -0.0132678235 0.07635923 -0.0118948035 -0.103290275 0.06221466
0.07961969 -0.11002546 0.17322324 0.034225833 0.13800408 0.22713183 0.11205099 -0.037825614
-0.05489962 -0.014233828 -0.18328704 -0.004282157 -0.043896098 0.27254745 -0.07547298 -0.06435297
0.16818418 -0.07452151 -0.16625592 -0.13162215 0.061682235 0.17773525 -0.03587758 -0.051286034
-0.07873268 0.052640203 0.110263035 -0.022939634 -0.00042157152 0.16354068 0.07256076 -0.09736288
0.22858693 -0.15351771 -0.0032131216 0.016855406 0.079483315 0.15972348 0.11672476 -0.05179257
-0.13741808 0.20577009 -0.050417483 -0.09962038 -0.20794483 -0.0035387385 -0.24187994 -0.06744325
0.09011239 0.0010365595 -0.06560995 -0.024339113 -0.09779041 -0.09628669 0.12485067 -0.0966485
-0.018310936 -0.07322226 -0.061043005 0.13330853 0.049334258 0.053694155 0.061050024 0.14278659
00000000: d125 cbbc c1b3 443c 0e32 a13a 5636 c2bc
00000010: b383 8ebb c19e f93d 3be8 5bbd 5169 c6bd
00000020: d0cb 4cbd 982c 8338 5505 613c 3804 a33b
00000030: 6725 45bd b818 283d 722d a1bd 8ead 3d3c
00000040: 33d9 a53d 8008 bbbd 31d9 8ebd 0e7e 6c3d
00000050: 0082 9fbc e72d 15be aca2 0cbd 31dd b6ba
00000060: 77a9 0d3e cb55 b23c d4cf e53c 3522 bc3d
00000070: 445b 7dbd e2b6 3fbc d26c d8bd 0898 ccbd
00000080: 6eda 113e 0ca6 c0bc ab6b 8f3d 0437 043e
00000090: 0e59 a83d 80df e1bd cb35 dcbc f3c4 2c3d
000000a0: cd89 cbbc 1459 91bd 6deb 93bc f302 153d
000000b0: c4dc 39be d442 b8bd 46dd 10be 5ea5 7abd
000000c0: 8fff 083d fb62 8b3e b941 fcba 67bb 55bc
000000d0: f524 c33d 75e8 afbd 5e29 c5bc ccd9 39be
000000e0: d928 503d fd41 f7bc 0f54 e73d 6079 d73d
000000f0: 6204 ef3d 80bb b4bd fff6 2bbe 0f03 443d
00000100: 875f b5bd a366 593d 5cff 20bd 13db 863c
00000110: abfb 10be 0a1b 033e 5bf9 f33a c8bc 72bc
00000120: a9bd bebd c450 433d 7af1 0abe 7dda db3d
00000130: 1bdf 3e3d 074d 353e 0058 453d a831 8d3d
00000140: 7376 84bc 12a4 c53d 9857 99be a00d 2abd
00000150: 363b 25bd 7f27 f73d 965b aabd 2c0e 1ebc
00000160: e344 1e3d ef85 83bd ccbe 8f3e a798 b4bd
00000170: aa5d 043d d958 acbd cbc0 8cbe 19e7 d63d
00000180: 0660 393e d8c7 773c 31e1 283c 8aee 8bbd
00000190: 1dfd dfbd 0f11 4c3d a1c8 403d 9cd1 eabb
000001a0: ebda 32be 8511 d63c 5ab0 2abe 5d90 ff3d
000001b0: a178 a63d 1e62 c73c 306d ecbd a2f2 1a3d
000001c0: 6947 d73c 8e78 85bd 4cf0 933c 6a4b 3fbe
000001d0: c965 25be a4e7 8fbd 1379 d8bc 7c66 bc3d
000001e0: cd53 7abe f658 46bd 4f8d 98bc cd4a 543e
000001f0: 34a8 73bd d25f 9b3c 64e7 003e 21c8 8b3e
00000200: a835 fc3d 3c6d b9bc 97cf ce3d 9a33 7ebd
00000210: 2cda 0bbd 8e43 643e 0bed 043d 3248 3e3d
00000220: be28 693b 7440 b0ba cce3 30bd 6014 80b9
00000230: 3d91 f4bd d417 203e ff97 d7bd 2540 80bd
00000240: 83f3 85bd f77c acbd fd87 2cbe 0c8b 29bd
00000250: b3b9 35bc c99f 3d3e b6c4 c3bb a289 6ebc
00000260: 2ee1 21be 9798 bcbd 4db5 0f3e ff21 1dbd
00000270: 89ea 1c3d f320 c1bd 7c95 6cbd 925f 953d
00000280: 8e53 1c3e e07b 61bc c2c9 02bd c810 b13d
00000290: f29f 3a3c 5916 d53d 9eb0 59be eece 233e
000002a0: f110 12bd a99c 183b db23 4abc 2cb4 f33d
000002b0: 5b0d 323e c58d 7e3d 0e44 aebd 6859 1bb8
000002c0: 2906 483e d8e0 ecbc b3d9 c7bd 8271 d9bd
000002d0: e07b 8dbd cbb8 753b d2fd 253d 95cd 97bb
000002e0: 76a8 4bbe 22b9 e1bd 25f4 08bc 4961 59bc
000002f0: 3a62 9c3d 6ce2 42bc da89 d3bd cdd4 7e3d
00000300: a60f a33d 0755 e1bd 6f61 313e 6330 0c3d
00000310: f150 0d3e 3f95 683e fd7a e53d 08ef 1abd
00000320: 6dde 60bd 0035 69bc 99af 3bbe 5651 8cbb
00000330: 65cc 33bd 578b 8b3e 9491 9abd 7dcb 83bd
00000340: 7938 2c3e bc9e 98bd fe3e 2abe f5c7 06be
00000350: 83a6 7c3d 3b00 363e 5ff4 12bd 4e11 52bd
00000360: 993e a1bd 419d 573d 96d1 e13d e6eb bbbc
00000370: 5f06 ddb9 3577 273e bc9a 943d 3166 c7bd
00000380: b112 6a3e bf33 1dbe 3c93 52bb 5914 8a3c
00000390: 26c8 a23d 8d8e 233e 640d ef3d 7224 54bd
000003a0: 53b7 0cbe 65b5 523e 9082 4ebd c505 ccbd
000003b0: 7def 54be 2eea 67bb 60af 77be b01f 8abd
000003c0: d88c b83d 2add 873a 825e 86bd d262 c7bc
000003d0: 5746 c8bd f531 c5bd b5b1 ff3d a6ef c5bd
000003e0: d100 96bc 8df5 95bd 3b08 7abd 0882 083e
000003f0: b812 4a3d 67ee 5b3d 970f 7a3d a636 123e

linears.1.bias f4 [64]
0.24999775 0.565726 0.38745126 0.38376662 -0.05046506 0.43350607 -0.13995315 0.14809898
-0.29073486 0.5124807 0.084179655 -0.038560826 0.59583133 0.43780702 0.24426486 0.2606672
0.28809103 0.028554797 -0.35802263 0.43161532 0.35741606 0.424044 0.42971444 0.16881788
-0.13152675 0.023296535 0.3704721 -0.17839664 0.27535096 0.0329334 -0.20302245 0.25530457
0.40229592 0.5159715 -0.06914853 -0.18630536 0.0091392165 0.14954227 0.46649766 0.07218384
0.10620848 0.32996535 -0.25768209 0.12285111 0.3031419 0.25237665 -0.4134966 0.47074816
0.35012358 0.5504778 0.06320384 0.4213332 -0.21530251 -0.19120364 -0.024131417 0.21086584
-0.27061942 0.2816385 -0.21152934 0.32475054 0.54457206 0.055613343 0.39612818 0.443155
00000000: 69ff 7f3e 6bd3 103f 0360 c63e 0f7d c43e
00000010: 73b4 4ebd 82f4 dd3e e14f 0fbe 42a7 173e
00000020: 33db 94be ef31 033f 6266 ac3d f5f1 1dbd
00000030: 6788 183f 3e28 e03e 9120 7a3e 2c76 853e
00000040: ab80 933e c0eb e93c be4e b7be affc dc3e
00000050: 3dff b63e 4c1c d93e 8803 dc3e 98de 2c3e
00000060: f3ae 06be 60d8 be3c 85ae bd3e 9cad 36be
00000070: cdfa 8c3e 2ce5 063d 1ee5 4fbe 48b7 823e
00000080: bbf9 cd3e b516 043f bf9d 8dbd d5c6 3ebe
00000090: a7bc 153c 9c21 193e c8d8 ee3e 1fd5 933d
000000a0: d583 d93d 38f1 a83e e8ee 83be 5d99 fb3d
000000b0: 6a35 9b3e 8337 813e d4b5 d3be e705 f13e
000000c0: 6643 b33e 1dec 0c3f 0471 813d fcb8 d73e
000000d0: 4378 5cbe e3ca 43be 40af c5bc 37ed 573e
000000e0: a18e 8abe ec32 903e 269b 58be b445 a63e
000000f0: 1369 0b3f d1ca 633d 50d1 ca3e 36e5 e23e

linears.2.weight f4 [5, 64]
-0.08802756 -0.19503722 -0.108808495 -0.16167593 0.019004663 -0.13861406 -0.08274447 0.006790789
-0.20884416 -0.037153956 0.08839519 -0.031361956 -0.16406415 -0.085159756 0.053611994 -0.146766
-0.19311874 0.054109767 -0.24771659 -0.11152313 -0.25540414 -0.09603936 -0.043280963 0.012509947
0.049849585 -0.04495393 -0.24465148 -0.15860736 -0.09029493 0.018402494 -0.117426835 -0.037788384
0.007915838 -0.042104833 -0.09381241 -0.17888968 -0.18512261 0.22509101 -0.17399056 0.002328258
-0.014451592 -0.1484704 -0.10697955 0.10954185 -0.16938868 0.096902885 -0.034389496 -0.16975726
-0.10197804 -0.11840177 0.06290154 -0.11399 -0.2581204 0.038657274 0.0025573298 0.072116196
-0.10041773 -0.08352627 0.020536792 0.018797386 -0.1867407 -0.0022291879 -0.15294981 0.14794588
-0.011536742 -0.18969153 -0.16851923 -0.1317577 0.017396258 -0.16719921 0.023970287 0.026139542
-0.033186506 -0.14841233 0.08295932 0.03455373 -0.17478068 0.07036128 0.043149948 -0.37315902
-0.14660454 -0.060557198 -0.12071992 -0.12801756 -0.14064135 -0.17448014 -0.14495504 -0.0077645485
0.08076022 -0.0054686475 -0.11596928 0.019272136 -0.16496426 0.013858878 2.781876e-05 -0.03935806
0.05907346 -0.16917922 0.028526414 -0.115110524 -0.26568028 0.09357465 -0.08105737 -0.072170734
-0.007483256 -0.004569953 -0.035614435 -0.10733237 -0.19010077 0.06671513 -0.031356644 -0.13325538
-0.11299334 -0.15544483 -0.049250077 -0.15059726 -0.062413797 0.07163274 0.042104438 -0.037271727
-0.079715356 -0.014186828 0.047496624 -0.0427289 -0.13094425 0.030420346 -0.11965881 -0.08875425
-0.037016246 -0.22250225 0.0019379429 -0.12361844 0.020074414 -0.20955896 -0.19809614 -0.053511042
-0.29244938 -0.051589295 -0.008592637 0.060013458 -0.20711073 0.19138075 0.017595787 0.2096445
-0.24780342 0.16591072 -0.3203177 -0.00022418614 -0.23929362 -0.072832026 -0.07307844 0.0020288636
-0.11685317 -0.17552605 -0.33274963 -0.2003933 0.004136688 0.05215024 -0.08218451 -0.026566707
-0.033967182 -0.16503647 -0.17411144 -0.053686433 -0.34165645 0.050677974 -0.23120941 0.23407018
-0.0639069 -0.29673412 -0.0147889275 0.15753786 -0.08484773 0.34159762 -0.100481264 0.006485603
-0.16424237 -0.1714368 -0.21028267 -0.11974084 -0.25116646 -0.0303485 -0.22536603 -0.010491286
-0.09602533 -0.0178038 0.035185795 -0.04302299 -0.13664135 -0.0645594 -0.20421529 0.23071058
-0.12447919 -0.085140124 -0.23402223 -0.053523634 -0.00082296855 -0.10584368 -0.03606127 0.025045445
0.05441758 -0.19831222 -0.06495824 0.03943849 -0.12339472 0.0006093838 -0.048065696 -0.15190461
-0.33778688 -0.021592185 0.015315328 -0.098654255 -0.070958115 -0.27193356 -0.10681508 -0.014124434
0.08983849 -0.080294885 -0.20198433 0.032596964 -0.17048088 -0.124656335 -0.07597442 -0.06263899
0.013575888 -0.22086632 -0.05647718 0.13524503 0.0036646738 0.28547153 -0.1984815 -0.08168231
0.03244411 -0.283383 -0.11905658 0.05576159 -0.08012786 0.1453224 -0.0013317793 -0.230501
0.023077093 -0.029965853 -0.05915578 -0.088655785 0.018491197 0.14435147 -0.106680915 -0.044799138
0.10684731 -0.106220216 0.08109984 0.004185394 -0.22493094 -0.07960304 -0.04386331 0.066897154
00000000: cb47 b4bd d6b7 47be fdd6 debd 608e 25be
00000010: abaf 9b3c d8f0 0dbe ef75 a9bd 4485 de3b
00000020: 3edb 55be bf2e 18bd 8a08 b53d 6575 00bd
00000030: 6f00 28be 3d68 aebd 4098 5b3d d449 16be
00000040: ebc0 45be 34a2 5d3d 6ba9 7dbe 3d66 e4bd
00000050: 55c4 82be 49b0 c4bd 6147 31bd 85f6 4c3c
00000060: 142f 4c3d 9d21 38bd eb85 7abe f869 22be
00000070: 8cec b8bd d4c0 963c 7b7d f0bd fec7 1abd
00000080: 6eb1 013c 1e76 2cbd b920 c0bd db2e 37be
00000090: c890 3dbe 427e 663e 952a 32be b095 183b
000000a0: 5fc6 6cbc a008 18be 1818 dbbd 7a57 e03d
000000b0: 3a74 2dbe 0575 c63d 00dc 0cbd d9d4 2dbe
000000c0: ddd9 d0bd a17c f2bd 86d2 803d 9773 e9bd
000000d0: 5b28 84be 1757 1e3d e098 273b a8b1 933d
000000e0: d0a7 cdbd d20f abbd c63c a83c fafc 993c
000000f0: f438 3fbe 9117 12bb e09e 1cbe 207f 173e
00000100: 9a04 3dbc 7f3e 42be 4e90 2cbe 7eeb 06be
00000110: 9982 8e3c 4536 2bbe 565d c43c 9822 d63c
00000120: 93ee 07bd 67f9 17be 93e6 a93d 3688 0d3d
00000130: b5f9 32be 9319 903d 00be 303d b30e bfbe
00000140: 801f 16be d30a 78bd 013c f7bd 0917 03be
00000150: 4904 10be ecaa 32be 186f 14be c16d febb
00000160: 9d65 a53d 5732 b3bb 4d81 edbd 99e0 9d3c
00000170: 64ec 28be 5910 633c 555c e937 eb35 21bd
00000180: 03f7 713d 513d 2dbe 3ab0 e93c 11bf ebbd
00000190: 3f07 88be 11a4 bf3d 6801 a6bd 40ce 93bd
000001a0: 1a36 f5bb 8bbf 95bb 71e0 11bd 13d1 dbbd
000001b0: c7a9 42be f1a1 883d d36f 00bd 1974 08be
000001c0: 0d69 e7bd ee2c 1fbe 73ba 49bd 2b36 1abe
000001d0: 9ca5 7fbd 30b4 923d b475 2c3d 3daa 18bd
000001e0: ce41 a3bd df6f 68bc d28b 423d 8004 2fbd
000001f0: 4016 06be 1734 f93c ae0f f5bd cac4 b5bd
00000200: 599e 17bd a1d7 63be 9302 fe3a aa2b fdbd
00000210: 1973 a43c a096 56be b7d9 4abe 652e 5bbd
00000220: edbb 95be 4c4f 53bd 22c8 0cbc acd0 753d
00000230: d614 54be 51f9 433e 0a25 903c 0cad 563e
00000240: 2ec0 7dbe 80e4 293e ae00 a4be 8213 6bb9
00000250: 6309 75be f528 95bd 26aa 95bd aff6 043b
00000260: b750 efbd 1abd 33be 295e aabe e733 4dbe
00000270: 0e8d 873b 7d9b 553d 5a50 a8bd 6ca2 d9bc
00000280: 2c21 0bbd 52ff 28be 454a 32be 4ee6 5bbd
00000290: 98ed aebe b593 4f3d 29c2 6cbe 18b0 6f3e
000002a0: 9fe1 82bd 89ed 97be 424d 72bc 9b51 213e
000002b0: a6c4 adbd e2e5 ae3e 1fc9 cdbd 2e85 d43b
000002c0: 272f 28be 218d 2fbe 5754 57be af3a f5bd
000002d0: e498 80be 6b9d f8bc 5ac6 66be a5e3 2bbc
000002e0: eea8 c4bd 46d9 91bc fb1e 103d e038 30bd
000002f0: b6eb 0bbe b837 84bd d01d 51be 653f 6c3e
00000300: f2ee febd f25d aebd 86a3 6fbe 993b 5bbd
00000310: 7cbc 57ba 92c4 d8bd fbb4 13bd 1b2c cd3c
00000320: f8e4 5e3d 5c12 4bbe d308 85bd 418a 213d
00000330: 5fb6 fcbd 0ebf 1f3a 89e0 44bd e28c 1bbe
00000340: 67f2 acbe 18e2 b0bc 24ed 7a3c 3e0b cabd
00000350: 7d52 91bd e03a 8bbe ddc1 dabd 2c6a 67bc
00000360: 3efd b73d a571 a4bd fbd4 4ebe 6584 053d
00000370: 8a92 2ebe d24b ffbd 7a98 9bbd df48 80bd
00000380: 676d 5e3c c82a 62be 9e54 67bd ac7d 0a3e
00000390: 062b 703b 5329 923e bc3e 4bbe 0e49 a7bd
000003a0: 1de4 043d 9417 91be f0d3 f3bd 4466 643d
000003b0: 131a a4bd 65cf 143e 198f aeba 7408 6cbe
000003c0: 2c0c bd3c f37a f5bc 554d 72bd 2a91 b5bd
000003d0: da7a 973c dfd0 133e 867b dabd 4d7f 37bd
000003e0: c3d2 da3d fc89 d9bd ac17 a63d a125 893b
000003f0: 4c54 66be eb06 a3bd 04aa 33bd 6001 893d

linears.2.bias f4 [5]
-0.3028566 -0.43801033 -0.4747494 -0.50453544 -0.5472672
00000000: 0510 9bbe e442 e0be 5a12 f3be 3c29 01bf
00000010: b419 0cbf
