dqn-exp/savedir/student-test/checkpoint1000--model.pth (torch_old, 20763 bytes, 6 tensors)

linears.0.weight f4 [64, 6]
000000 f6 9d 8e 3d 83 7d 91 3d cd 58 9a be d2 c6 98 bd
       0.069637224 0.071040176 -0.30145875 -0.07459797
000010 d1 f9 af be e4 2d e2 3d cc d6 a1 3c 43 09 16 be
       -0.34370282 0.11043909 0.019755743 -0.1465197
000020 18 56 2b bc 01 49 a6 b9 f9 da a0 3d ab 29 0c 3f
       -0.010457538 -0.0003171638 0.07854266 0.5475108
000030 8c 1e a2 3e 1e 4e 52 3e d1 5f d6 bd e3 76 e2 3d
       0.3166393 0.20537612 -0.10467494 0.11057832
000040 6e b3 bb bd f0 42 46 3d 9d 79 76 3e dd f6 48 be
       -0.09165083 0.04840368 0.2406983 -0.19625421
000050 60 ee 78 be 1e cd 5f 3d 68 b0 ef bd 77 8e ce 3d
       -0.24309683 0.054638974 -0.11703569 0.10085767
000060 cb 74 85 3d 9f 59 d1 3c 6d 95 17 be 0c de 2f be
       0.06516417 0.02555543 -0.14803095 -0.17174548
000070 68 35 db bd 86 7d 04 bd 20 a0 e9 3d b5 49 21 3c
       -0.10703546 -0.03234627 0.114074945 0.009844233
000080 f5 8b 86 be 2d de 97 3e 49 ff 56 3e a9 7d 65 3d
       -0.26278654 0.29661694 0.20995821 0.056028042
000090 20 62 51 3c 60 f2 00 bc f6 c4 d1 3e f4 3e f8 bc
       0.0127797425 -0.007870287 0.40970582 -0.030303456
0000a0 f8 41 8d 3e 8d f8 18 bd 1f 4d 59 be 1d 59 96 bc
       0.27589393 -0.03734641 -0.21220826 -0.01835304
0000b0 e8 e5 95 3e 5b eb 10 3e 41 47 0a 3d 73 8c 68 3c
       0.29276967 0.14152281 0.03375936 0.014193642
0000c0 66 d5 dd bd 79 2a 62 bd f3 ec ee bc 3f e6 6c 3e
       -0.10831718 -0.055216286 -0.02916572 0.23134707
0000d0 26 c6 b9 3e 2f 75 7c 3e 1f 55 2d be 69 5d b2 3d
       0.36283988 0.24654077 -0.16927002 0.08709223
0000e0 69 47 ff bc 9b 32 1f be d7 17 3a bd f9 49 90 3b
       -0.03116198 -0.15546648 -0.04543289 0.0044033495
0000f0 49 ab 15 be 57 1b ca bb cd 50 2b bd ed 19 ef 3b
       -0.14616121 -0.00616781 -0.041825105 0.0072967918
000100 e9 08 14 3f 11 c4 f9 3c 45 0a 9d bd 08 fb 67 3e
       0.57826096 0.030489 -0.076679744 0.22654355
000110 84 42 9e 3e 25 05 a9 bd 99 4e 1d 3d ea d9 06 bd
       0.30910122 -0.08252934 0.038405035 -0.032922663
000120 c4 fe 8e bc e5 b9 36 bd 23 e8 07 3c 6d fe e2 bd
       -0.017455466 -0.044610877 0.008295092 -0.11083684
000130 5c f7 93 3c 61 6f d0 3e 78 0c 0f b9 24 dd 1f 3e
       0.018062286 0.40709975 -0.00013642188 0.15611702
000140 c7 db 96 bc 96 f1 89 3c 47 65 cc 3c 3f d4 22 bf
       -0.018415345 0.01683883 0.024950637 -0.6360511
000150 f7 15 37 3e 13 21 32 3e 00 36 2c 3d 42 a0 8d bd
       0.17879473 0.1739543 0.042043686 -0.069153324
000160 93 f6 7c be b9 d0 bc be 70 0f 38 be 7e be 38 be
       -0.24703436 -0.36877993 -0.17974639 -0.18041417
000170 db f6 8a 3d f5 e0 83 bc f9 82 62 3e 92 a4 58 3e
       0.06785365 -0.016098479 0.22120275 0.21156529
000180 f8 e8 34 3e a3 66 fd bc 57 d4 b9 bd 4a e5 a5 3b
       0.17666996 -0.03093273 -0.09073704 0.005062734
000190 33 fa f3 be 07 63 e4 3d e5 30 c5 3d 27 b5 34 3d
       -0.47651824 0.111517005 0.096284665 0.044118073
0001a0 0c 0e 79 bd 85 67 c5 3d df cb 0c bf e7 80 2f be
       -0.06080441 0.096388854 -0.5499858 -0.17139016
0001b0 a0 e0 ab bc c4 18 13 3d 48 17 11 3b 1e f5 09 3d
       -0.020981133 0.03591229 0.002213912 0.033681028
0001c0 24 f5 d9 3e 91 60 2d be 34 50 d3 3d 72 3c ed 3d
       0.4256984 -0.16931368 0.10318032 0.11583795
0001d0 97 89 80 bc 66 eb 9b bd 43 47 21 bf 64 96 b1 bd
       -0.015690608 -0.07613258 -0.6299936 -0.08671263
0001e0 1c 1e 26 3e 33 3b 7c be 4b f5 87 3d 8c ff 0b 3e
       0.16222423 -0.24631958 0.06638583 0.13671702
0001f0 d2 52 49 be c0 8e ae 3e ad ac bb bc af 2b 5d 3e
       -0.196605 0.34093285 -0.022909487 0.21598695
000200 ce 38 60 bb 37 bb 16 3d e7 6c 81 3d fb 01 ff be
       -0.0034213546 0.036799636 0.063195996 -0.49806198
000210 11 15 dd bd 4d 07 cc bd 02 a0 c7 bd 28 4c 22 be
       -0.10795034 -0.0996233 -0.09747316 -0.15849364
000220 9b 12 11 3e 0f 50 30 3e 49 b5 1e bd fe 4f b7 bd
       0.14167254 0.1721804 -0.038747106 -0.08950804
000230 2f 59 3f 3d f6 a5 c4 3c 05 57 67 3e 3f 5c b7 3e
       0.04671591 0.024004918 0.22591789 0.35812566
000240 80 e5 ff 3c 8b d3 27 3d 5c 63 07 3e c9 24 43 3e
       0.031237364 0.040973227 0.13221496 0.19057001
000250 16 09 07 3b ba 5f 02 3e 53 a8 16 be 06 48 eb 3c
       0.002060478 0.1273183 -0.14712648 0.028720867
000260 64 76 2e bc f6 59 6f 3b 0d 59 08 3f ab 8b 15 bd
       -0.010648344 0.0036522127 0.5326088 -0.03651015
000270 87 8a 88 bd 49 3f b0 bd 58 14 1c be 48 dc 90 3d
       -0.06667047 -0.08605821 -0.15242136 0.07073265
000280 c7 6f a1 3e a3 0b 8a 3d a5 c3 df 3c 6b 62 e7 3d
       0.31530592 0.06740501 0.02731497 0.112980686
000290 fd 10 9c bd 17 b3 ea 3c 44 de 35 be 9d 83 58 bd
       -0.07620428 0.02864985 -0.17760569 -0.05285989
0002a0 d9 24 0f 3e ef 6a bf 3b eb 18 49 3c 99 3f 90 39
       0.139789 0.005841605 0.012274007 0.00027513204
0002b0 9d d7 61 bf 11 1f f5 3c 19 7b ca bd 07 43 49 3e
       -0.88219625 0.02992204 -0.0988676 0.19654475
0002c0 e2 31 b7 3e 33 a9 38 be 79 ca 88 3e 72 27 ac be
       0.35780245 -0.18033294 0.26716974 -0.33623844
0002d0 7b 7f aa bc e8 db dc bd 90 63 34 bc 09 ec 0a 3b
       -0.02081274 -0.10784131 -0.011010066 0.0021197817
0002e0 d0 4f e3 bc 14 3f 51 3f 5e c3 fa bd 1f 62 f2 3d
       -0.027748019 0.81736875 -0.122442946 0.11835121
0002f0 40 f8 d4 3d e0 17 4d be 64 bf d6 3c 18 06 3f be
       0.103989124 -0.20028639 0.026214309 -0.18654668
000300 4a d9 79 bc 40 2d 84 3d 1f 6d b8 b9 25 f3 28 bd
       -0.01524956 0.06453943 -0.00035176516 -0.041247506
000310 1d 49 9b 3c 7c b1 94 bd ee 7e 20 be b5 36 66 3d
       0.018955762 -0.07260415 -0.1567342 0.056204516
000320 71 bc 9b bd 12 21 14 3e 30 1c 23 3e ec a1 36 be
       -0.07604302 0.1446574 0.15928721 -0.17835206
000330 7c c1 18 3d 6b 9f bf 3d be 76 a9 bd 67 71 38 be
       0.037293896 0.093565784 -0.082746014 -0.1801201
000340 a1 d4 c9 bd 00 cc e6 bd b2 b8 4b bd 3b 87 09 3d
       -0.09855009 -0.11269379 -0.049736686 0.03357623
000350 13 5b 58 3d de 06 6a bd a4 b8 b7 3d 9d 7a b5 bd
       0.05282123 -0.057135455 0.08970764 -0.08861277
000360 9b 9f ba 3c d4 80 54 bb a7 c9 ff bb 82 3e e9 bb
       0.022781184 -0.003242542 -0.0078060213 -0.007118047
000370 35 6a 0c 3f 68 83 e7 3d 21 23 12 bc e4 8e 7c 3d
       0.5484956 0.11304361 -0.008919508 0.06165971
000380 ee 63 7e 3d 51 cf 1c 3e cc 63 5e 3e 0f fb 2a 3e
       0.06210702 0.1531346 0.21717757 0.16697334
000390 17 9c 3d be dc c5 63 3d bd 13 79 bd 07 57 bc bd
       -0.18516575 0.055608615 -0.06080984 -0.09196287
0003a0 0b f0 85 3e 01 78 38 bd 50 be e4 bd 9b f3 c4 be
       0.261597 -0.04503632 -0.11169112 -0.38467106
0003b0 7d 32 28 be cc db 15 3e 23 52 c8 bd 1f 61 b1 3c
       -0.1642551 0.14634627 -0.09781291 0.021652756
0003c0 1e 3e 59 3a da 90 ea 3d 48 c4 f1 bb f2 f6 bf ba
       0.0008287149 0.114534095 -0.007378135 -0.0014645739
0003d0 3b 2f 7e bc a1 d4 52 bf da f1 21 3e cd b3 f0 bd
       -0.01551419 -0.82355696 0.15814915 -0.11753044
0003e0 e9 8f f5 bb 15 4a e0 bd fe ab 23 bd b7 18 5a bc
       -0.007493962 -0.1095163 -0.039958946 -0.013311557
0003f0 c6 bb 71 3d 71 6e 2d be 09 7e 03 3c be 73 90 bd
       0.059016965 -0.16936661 0.008025655 -0.07053326

linears.0.bias f4 [64]
000000 2b f3 9b be 29 44 a4 bc 19 35 02 bf 23 59 92 be
       -0.3045896 -0.020052033 -0.5086227 -0.2858363
000010 70 eb 80 bd 88 0a 3d bf cc 81 84 be 56 b4 b6 be
       -0.06294906 -0.73844194 -0.25880277 -0.3568446
000020 e5 40 d9 3e c4 01 ec 3e 10 d5 7c be 47 9a da be
       0.42432323 0.46095097 -0.24690652 -0.4269583
000030 bb 61 13 bf e5 77 58 be c8 8e de 3e 23 1e 1d bf
       -0.57571 -0.21139486 0.43468308 -0.6137411
000040 d4 3c bc 3e 7f 9a 30 bf 89 41 08 3f 98 42 ff 3d
       0.36765158 -0.6898574 0.53225 0.124638736
000050 48 ee e7 3e 6d 54 80 3e 8a 8c 01 3f 12 c3 90 3e
       0.45298982 0.25064412 0.5060507 0.28273827
000060 77 a2 d2 3e 1e 61 60 3e 10 bf ee be 97 a7 0c be
       0.41139576 0.21912047 -0.46630144 -0.13735805
000070 bf 22 80 bc bb 96 f1 be 5f 48 b0 bd dc 3c 5b be
       -0.015641568 -0.4718531 -0.08607554 -0.21409935
000080 6d 8a e1 bd 5f 0d cd 3e d2 90 13 be 69 b6 19 bd
       -0.11012731 0.40049264 -0.14410713 -0.037527476
000090 78 4d 1c bb 0f 1a b4 be d3 f4 42 3e 1b 27 03 bf
       -0.0023849886 -0.3517613 0.19038706 -0.51231545
0000a0 bb ff ae bd b7 66 d0 be b0 49 fc 3e f3 2d 21 bf
       -0.085448705 -0.40703365 0.4927497 -0.6296074
0000b0 47 98 6b be b3 f9 e0 be 89 be 1b 3f 9d bb df 3e
       -0.23007308 -0.43940505 0.6083761 0.43697825
0000c0 2b 6c cf be 8b b7 a9 bd 9c 9c 63 be 8a 6f 94 3e
       -0.40512213 -0.08286961 -0.2222771 0.28991348
0000d0 b8 a9 0c 3d a3 cc cd 3e 2f f5 b6 3e f3 09 cc be
       0.034341544 0.40195188 0.35733935 -0.3985134
0000e0 17 dc e8 be da 55 60 be 61 d7 c6 3e 76 76 a4 be
       -0.45480415 -0.2190775 0.38836196 -0.3212163
0000f0 9c 72 18 3c e8 92 ee bd 84 a0 c0 3e af 24 e6 be
       0.009304669 -0.11649114 0.37622464 -0.44949862

linears.1.weight f4 [64, 64]
000000 9b be 0d bd 37 5b 1f 3c 36 b8 02 3c 29 81 17 bc
       -0.034605604 0.009726337 0.00797849 -0.009247103
000010 88 3a dd bc aa e6 0d 3e 9a 90 10 bd 16 34 9e bd
       -0.027005449 0.13857523 -0.035294153 -0.07724778
000020 88 df 85 bd 07 27 51 3b 4f d8 28 3d b8 85 c2 3b
       -0.06536776 0.0031914131 0.041221913 0.0059363507
000030 6f 5f 16 bd da 88 4c 3d 61 bb b0 bd dc 97 ed 3c
       -0.036712106 0.0499352 -0.0862949 0.029003076
000040 37 7a c0 3d dc 2d 93 bd 2a 80 9f bd 4b 0b 39 3c
       0.09398311 -0.07186481 -0.07788117 0.011294196
000050 02 80 be 3b 2e 14 06 be ac 51 d2 bc 17 f7 05 3c
       0.0058135996 -0.13093635 -0.02567371 0.008176587
000060 4d 68 08 3e 10 e8 8b 3c 63 ea 1c 3d fc 57 9a 3d
       0.13321038 0.01707843 0.038309466 0.07536313
000070 44 bc 81 bd 55 b9 bb bc 85 82 b4 bd 9b e4 d2 bd
       -0.06334737 -0.022915522 -0.08813957 -0.10297509
000080 5a 0b 1f 3e d0 27 e4 bc 41 73 8d 3d ae 4e e4 3d
       0.15531674 -0.027851015 0.069067486 0.111478195
000090 99 16 96 3d 06 4e bf bd 82 28 11 bd de 07 01 3d
       0.07328529 -0.09341054 -0.035439022 0.031501643
0000a0 08 3b eb bb b3 fb 75 bd 18 42 bf bc 2d ed 86 3d
       -0.007178668 -0.060054492 -0.023346946 0.065882064
0000b0 6d 77 27 be 0c e6 8b bd 3d c5 15 be e6 09 52 bd
       -0.16354151 -0.06830987 -0.14626022 -0.05127897
0000c0 7c 5e 3e 3d b3 a7 8f 3e ec f4 68 3d 58 a4 ba bc
       0.046476826 0.28057632 0.0568742 -0.022783443
0000d0 47 ce 91 3d 1e 9b d3 bd 83 33 9f bc 17 91 33 be
       0.071194224 -0.10332321 -0.019433742 -0.17535816
0000e0 08 e5 19 3d 47 90 0c bd 92 f7 ee 3d 62 4b f3 3d
       0.037571937 -0.03431728 0.11668314 0.118796125
0000f0 a3 90 0e 3e 80 1c cf bd 1a f8 17 be 22 ae 73 3d
       0.13922362 -0.10112858 -0.14840737 0.059492238
000100 49 eb 96 bd bf ff 88 3d a2 17 06 bd db 6b 54 3b
       -0.07369096 0.06689405 -0.03273738 0.003241292
000110 d2 64 0a be 4c 3f 05 3e c3 bb 3c 3b 44 ee 82 bc
       -0.13515022 0.13012427 0.0028798438 -0.015982755
000120 80 cf c3 bd 31 70 54 3d 98 37 fe bd a4 06 ed 3d
       -0.09561062 0.051864807 -0.124129474 0.11573532
000130 25 e6 5d 3d d3 c7 2f 3e 23 93 5e 3d fd 68 9f 3d
       0.05417456 0.1716607 0.05433954 0.07783697
000140 2d b1 4c bc 89 35 c7 3d f9 67 95 be f5 22 0f bd
       -0.012493414 0.09727008 -0.29180887 -0.034945447
000150 00 bc 16 bd 27 02 fb 3d e4 2e a5 bd 5b 09 e4 39
       -0.036800385 0.1225627 -0.08065584 0.0004349452
000160 52 4c 26 3d dc 8b 7e bd b8 7e 8d 3e d0 41 c1 bd
       0.04060013 -0.0621451 0.2763574 -0.09436381
000170 06 8d 31 3d ab 98 b2 bd 5c 54 5d be a0 d5 df 3d
       0.04334738 -0.08720525 -0.21614212 0.109294176
000180 84 73 3b 3e 34 bf 67 3c 1d 9b 2c 3c db 8a 9c bd
       0.18305784 0.0141447075 0.010535029 -0.07643672
000190 7e 66 c6 bd 73 a6 5a 3d 7a 7c 23 3d cc 95 02 3b
       -0.096875176 0.053381395 0.039913632 0.0019925712
0001a0 af 0e 23 be 50 d6 c4 3c 60 5a 2e be 51 c3 fd 3d
       -0.1592357 0.024027973 -0.17026663 0.12390769
0001b0 c8 43 c1 3d a5 58 18 3d 38 0f dc bd bf e1 30 3d
       0.09436756 0.037193913 -0.1074509 0.04318404
0001c0 23 ae c4 3c 78 a4 7f bd 16 96 38 3c 94 ed 42 be
       0.024008816 -0.06241271 0.011266252 -0.19035941
0001d0 1d 4c 2c be 42 e7 8d bd 5d ff e9 bc 99 eb d2 3d
       -0.1682591 -0.069288746 -0.02856415 0.10298843
0001e0 71 5d 7d be f5 f9 1d bd 32 e7 42 bc 90 63 54 3e
       -0.24742676 -0.038568456 -0.011895942 0.20741105
0001f0 86 2a 83 bd a2 75 10 3d 50 28 04 3e 48 9e 8a 3e
       -0.06404595 0.035268433 0.12906003 0.27073884
000200 d6 40 df 3d 46 3e 9e bc 76 c7 ce 3d d2 b1 75 bd
       0.10901038 -0.019316804 0.10096638 -0.059984036
000210 d9 61 86 bd ff 7f 68 3e d3 bd 18 3d a2 2d 56 3d
       -0.06561632 0.22705077 0.037290405 0.052289613
000220 b7 00 a1 3a c4 a4 07 3b 1a 00 49 bd 5c c5 e2 bc
       0.0012283538 0.0020697573 -0.049072362 -0.027681999
000230 77 b4 e1 bd d2 20 20 3e 45 72 d8 bd 2c cd 50 bd
       -0.11020749 0.1563752 -0.1056867 -0.050976917
000240 55 70 77 bd 28 5d c6 bd 43 09 2b be 40 e7 9c bd
       -0.060409863 -0.09685737 -0.16702752 -0.07661295
000250 07 b9 86 3a 7e 8c 42 3e eb 55 80 3b 2a 35 90 3b
       0.0010278531 0.18998906 0.003916492 0.004400869
000260 a9 37 2b be 90 9a b6 bd 74 15 10 3e 54 4d 59 bd
       -0.16720451 -0.08916199 0.14070684 -0.05305226
000270 94 ba c0 3c 2a 9d c3 bd c8 23 7e bd 03 ed 7f 3d
       0.023526467 -0.09551461 -0.062045842 0.06248189
000280 1c db 21 3e d3 cb d9 bb fb c0 36 bd 89 46 b0 3d
       0.1580624 -0.006646612 -0.044617634 0.086072035
000290 68 96 16 3c 8b 15 e5 3d 65 93 57 be f8 2f 39 3e
       0.009191133 0.111857496 -0.2105232 0.18084705
0002a0 72 ae bd bc 61 91 a6 3b 96 14 77 bc f1 e0 f8 3d
       -0.023154471 0.0050832485 -0.015080592 0.12152279
0002b0 4c 07 34 3e f5 95 9d 3d 23 68 ab bd 50 26 b9 3b
       0.17580909 0.07694618 -0.08369472 0.005650319
0002c0 09 7c 4a 3e 85 12 9e ba f9 22 ab bd d1 a4 cf bd
       0.19773878 -0.0012059963 -0.0835628 -0.10138858
0002d0 27 f2 b0 bd f4 12 79 39 c1 6b 21 3d ee df 48 bb
       -0.08639937 0.00023753551 0.039409403 -0.003065105
0002e0 7d f4 4f be 68 39 d5 bd 5c 93 33 3b 99 73 0c bc
       -0.20308109 -0.1041134 0.0027401065 -0.0085724825
0002f0 c4 67 c8 3d 6a 88 9b bc 95 8a c0 bd a1 09 84 3d
       0.09785417 -0.018985946 -0.094014324 0.06447149
000300 27 23 a5 3d 8d 9e d2 bd e8 21 40 3e 4c 5d cb 3c
       0.080633454 -0.102841474 0.18762934 0.02482476
000310 16 c8 18 3e 8a df 6c 3e 8b 81 d8 3d 0b c7 0b bd
       0.14920077 0.23132148 0.10571583 -0.03412537
000320 32 d4 70 bd 79 c9 1a bc 4e 3e 33 be 09 7e 0e 3b
       -0.058796115 -0.009447449 -0.17504236 0.0021742603
000330 2e b9 0b bd ab 39 8a 3e cb 51 a7 bd ff 03 5b bd
       -0.034112148 0.26997122 -0.08169898 -0.053470608
000340 e8 9d 31 3e 1c 89 99 bd 04 34 27 be 2c b8 11 be
       0.17345393 -0.07496855 -0.16328436 -0.14230412
000350 22 4f 87 3d 16 1b 39 3e ff 11 1e bd f2 1b 1f bd
       0.0660689 0.18076739 -0.03859138 -0.03884501
000360 f0 17 b0 bd f9 89 49 3d 5d d6 dd 3d 04 35 c6 bc
       -0.08598316 0.049203847 0.10831902 -0.024195202
000370 6c 28 4a 3b c3 b2 29 3e c8 22 8c 3d f7 c2 b6 bd
       0.0030846847 0.16572098 0.068425715 -0.08923905
000380 de aa 6e 3e fa e5 18 be 52 0f 1a bc 07 2f 13 3c
       0.23307368 -0.14931479 -0.009403067 0.00898338
000390 eb 84 8c 3d 99 36 29 3e f7 2b da 3d a8 bf 35 bd
       0.068612896 0.16524734 0.10652917 -0.04437223
0003a0 ab 1f 02 be 60 01 53 3e 52 be 78 bd ae b3 ce bd
       -0.12707393 0.20605993 -0.06072838 -0.10092865
0003b0 5d f9 4b be 3e ec 35 3c e0 0c 75 be 58 7b 7f bd
       -0.19919343 0.011103688 -0.23930693 -0.06237349
0003c0 27 9e b9 3d 50 aa fa b9 cd 31 7e bd 43 bf 12 bd
       0.09063368 -0.00047810609 -0.062059212 -0.035826933
0003d0 7c 56 05 be 54 49 d1 bd 1d 8c e9 3d 44 1e ae bd
       -0.13021272 -0.10219064 0.114036776 -0.085018665
0003e0 4c 84 c3 bc 75 11 84 bd c4 20 8a bd e6 2e 0b 3e
       -0.023866795 -0.06448642 -0.06744531 0.13592109
0003f0 0f c9 3a 3d 1f c1 44 3d ae 72 8e 3d 62 5c 12 3e
       0.0456019 0.048035737 0.06955467 0.14293054

linears.1.bias f4 [64]
000000 1a cd 82 3e c2 4d 0d 3f cc c5 c2 3e 4e 99 be 3e
       0.25547105 0.55196774 0.38041532 0.37226337
000010 71 b7 31 bd bc a1 d8 3e f4 a5 0f be 3e d6 16 3e
       -0.043387834 0.42310894 -0.1402815 0.14730164
000020 80 f6 90 be 5b 26 00 3f d4 2e a6 3d e5 f3 2e bd
       -0.28313065 0.50058526 0.081144005 -0.042713065
000030 d4 80 14 3f dc 76 d7 3e cc 00 87 3e a2 25 85 3e
       0.58009076 0.4208287 0.26367795 0.26005274
000040 e5 ec 8c 3e 02 94 c0 3c b7 a0 b2 be 12 67 da 3e
       0.27524486 0.023508076 -0.3488824 0.4265676
000050 55 41 b1 3e be 76 d1 3e 31 c0 d8 3e 25 21 43 3e
       0.34620157 0.40910906 0.4233413 0.19055612
000060 6e ea fc bd f9 fb f8 3c 85 d5 b4 3e 06 38 37 be
       -0.123494014 0.030393587 0.35319152 -0.17892465
000070 2f 74 87 3e 38 ba dc 3c bc 87 50 be 41 42 84 3e
       0.2645583 0.026944265 -0.20364279 0.25831798
000080 4f 5d ca 3e 03 d4 00 3f 75 2e 96 bd 14 bc 3a be
       0.39524314 0.50323504 -0.0733308 -0.18235809
000090 55 50 c2 3b 43 d9 14 3e d0 b8 e7 3e b7 cb 8e 3d
       0.0059299865 0.14536004 0.45258188 0.06972449
0000a0 4f 33 cc 3d 33 4b 9f 3e c0 ea 79 be 74 6e 02 3e
       0.09970724 0.3111206 -0.24405956 0.12737447
0000b0 dc e0 95 3e 7f 98 80 3e c4 85 cb be 56 9f eb 3e
       0.29273117 0.25116345 -0.39750493 0.4602
0000c0 6e d8 ab 3e f5 2e 0a 3f c5 b1 66 3d 07 b6 d3 3e
       0.3356356 0.539779 0.056321878 0.41349813
0000d0 09 30 62 be f3 d6 3e be f9 e7 89 bc 61 86 54 3e
       -0.22088636 -0.18636684 -0.016834246 0.20754386
0000e0 26 94 87 be 43 39 92 3e 99 b5 43 be 77 67 a1 3e
       -0.26480216 0.28559312 -0.19112243 0.3152425
0000f0 b9 4d 07 3f 5d 6e 54 3d 8b 87 c6 3e 31 f6 db 3e
       0.5285297 0.051863063 0.38775286 0.42961267

linears.2.weight f4 [5, 64]
000000 61 5f c6 bd 8c e7 45 be ae 97 e0 bd 9c 3c 24 be
       -0.09686161 -0.1932661 -0.109664306 -0.16038746
000010 b3 3a f2 3b 9d 67 09 be ef 75 a9 bd 44 85 de 3b
       0.0073922514 -0.13418432 -0.08274447 0.006790789
000020 3e db 55 be a6 b3 21 bd 8a 08 b5 3d 65 75 00 bd
       -0.20884416 -0.039477967 0.08839519 -0.031361956
000030 78 4e 26 be 3d 68 ae bd 13 60 29 3d d4 49 16 be
       -0.16240871 -0.085159756 0.04135139 -0.146766
000040 06 13 3d be 34 a2 5d 3d 6b a9 7d be be d9 e9 bd
       -0.18464288 0.054109767 -0.24771659 -0.11418484
000050 8c bd 80 be 1e 22 ba bd e0 4a 41 bd 22 f2 c7 3b
       -0.25144613 -0.090885386 -0.047190547 0.0061018625
000060 14 2f 4c 3d 9d 21 38 bd bf da 6f be f8 69 22 be
       0.049849585 -0.04495393 -0.23423289 -0.15860736
000070 96 53 b3 bd d4 c0 96 3c 7b 7d f0 bd 78 0d 39 bd
       -0.08756177 0.018402494 -0.117426835 -0.04517886
000080 6e b1 01 3c 58 0a 2a bd b9 20 c0 bd db 2e 37 be
       0.007915838 -0.04151377 -0.09381241 -0.17888968
000090 c8 90 3d be 42 7e 66 3e 97 16 2f be 65 4c fe 3c
       -0.18512261 0.22509101 -0.17098461 0.031042287
0000a0 5f c6 6c bc 8e 93 15 be a8 5a b9 bd 7a 57 e0 3d
       -0.014451592 -0.14607069 -0.090504944 0.10954185
0000b0 76 40 2d be 05 75 c6 3d bb 30 17 bd c1 87 2e be
       -0.16919121 0.096902885 -0.036911707 -0.17043974
0000c0 3e 45 d3 bd 75 e9 f1 bd 86 d2 80 3d 65 51 e9 bd
       -0.10315941 -0.118121065 0.06290154 -0.11392478
0000d0 5b 28 84 be 17 57 1e 3d e0 98 27 3b 69 94 a9 3d
       -0.2581204 0.038657274 0.0025573298 0.0828026
0000e0 d0 a7 cd bd 09 6b bd bd ad a4 ce 3a fa fc 99 3c
       -0.10041773 -0.09248931 0.001576563 0.018797386
0000f0 e7 d6 3b be 91 17 12 bb a1 6e 1a be 58 22 18 3e
       -0.18343697 -0.0022291879 -0.15081264 0.14856851
000100 73 46 98 bc ff 78 3e be ba bd 2a be 28 c3 04 be
       -0.01858828 -0.18600844 -0.16673937 -0.12965071
000110 69 ce 29 3c 8b 8f 27 be 56 5d c4 3c 98 22 d6 3c
       0.010364153 -0.16363351 0.023970287 0.026139542
000120 93 ee 07 bd b2 7b 18 be 93 e6 a9 3d 36 88 0d 3d
       -0.033186506 -0.14890936 0.08295932 0.03455373
000130 5a bc 2e be ed 36 a2 3d bf f8 b4 3c b3 0e bf be
       -0.17064038 0.079206325 0.022091268 -0.37315902
000140 92 bd 0b be d3 0a 78 bd 01 3c f7 bd f3 de 04 be
       -0.13646534 -0.060557198 -0.12071992 -0.12975673
000150 53 36 0d be 56 32 2d be d2 58 16 be b8 09 53 bc
       -0.13790254 -0.16913733 -0.1468232 -0.012880735
000160 9d 65 a5 3d 57 32 b3 bb 7d 15 dc bd 99 e0 9d 3c
       0.08076022 -0.0054686475 -0.10746286 0.019272136
000170 89 e5 29 be 59 10 63 3c 55 5c e9 37 c0 dd 48 bd
       -0.16591467 0.013858878 2.781876e-05 -0.049039602
000180 03 f7 71 3d 20 d3 2b be 3a b0 e9 3c 11 bf eb bd
       0.05907346 -0.16779757 0.028526414 -0.115110524
000190 3f 07 88 be 11 a4 bf 3d bb 83 9e bd 40 ce 93 bd
       -0.26568028 0.09357465 -0.07739969 -0.072170734
0001a0 1a 36 f5 bb 58 a4 48 39 45 5f 9a bc 13 d1 db bd
       -0.007483256 0.00019134709 -0.018844256 -0.10733237
0001b0 28 22 41 be f1 a1 88 3d 96 c4 3d bd 54 71 05 be
       -0.18860686 0.06671513 -0.046330057 -0.13031512
0001c0 8a 43 d4 bd 99 68 1c be 73 ba 49 bd 37 65 1a be
       -0.103644446 -0.15274276 -0.049250077 -0.15077673
0001d0 9c a5 7f bd 30 b4 92 3d b4 75 2c 3d 0d 65 5d bd
       -0.062413797 0.07163274 0.042104438 -0.054051448
0001e0 ce 41 a3 bd 95 7a cd bc 68 82 fa 3c 80 04 2f bd
       -0.079715356 -0.025082866 0.03057976 -0.0427289
0001f0 b8 a4 02 be 17 34 f9 3c 3b 4c f2 bd ca c4 b5 bd
       -0.12758148 0.030420346 -0.11830946 -0.08875425
000200 75 83 2c bd 5d e5 62 be a2 15 87 3b 33 ab fb bd
       -0.042117555 -0.22157808 0.004122452 -0.12288513
000210 ff 24 52 3c 14 08 56 be b7 d9 4a be 4e 0e 70 bd
       0.012826203 -0.20901519 -0.19809614 -0.058607392
000220 ed bb 95 be ea 29 57 bd 22 c8 0c bc ac d0 75 3d
       -0.29244938 -0.052530207 -0.008592637 0.060013458
000230 c8 1c 53 be 51 f9 43 3e 24 b8 a5 3c 0c ad 56 3e
       -0.20616448 0.19138075 0.020229407 0.2096445
000240 4a 6a 7f be 80 e4 29 3e ae 00 a4 be 69 b7 cb 3a
       -0.2494289 0.16591072 -0.3203177 0.0015542331
000250 87 36 74 be 43 82 8c bd 9f 74 99 bd c7 22 87 bc
       -0.23848926 -0.06860783 -0.07492947 -0.016496075
000260 b7 50 ef bd 1a bd 33 be ca e7 a9 be e7 33 4d be
       -0.11685317 -0.17552605 -0.33184654 -0.2003933
000270 af 8e f9 3b 7d 9b 55 3d 5a 50 a8 bd 22 2a 09 bd
       0.007615886 0.05215024 -0.08218451 -0.033487447
000280 2c 21 0b bd ef 3d 2a be 45 4a 32 be 4e e6 5b bd
       -0.033967182 -0.16625188 -0.17411144 -0.053686433
000290 98 ed ae be b5 93 4f 3d 57 bb 6c be 18 b0 6f 3e
       -0.34165645 0.050677974 -0.2311834 0.23407018
0002a0 9f e1 82 bd 7a 06 90 be 98 b2 ae bc 9b 51 21 3e
       -0.0639069 -0.2812994 -0.021325395 0.15753786
0002b0 f2 d1 aa bd e2 e5 ae 3e 4b 0a e1 bd 0f 18 03 3c
       -0.08340825 0.34159762 -0.10988291 0.0080013415
0002c0 37 86 27 be 04 bb 2f be 57 54 57 be 2c f5 f5 bd
       -0.16359793 -0.17161185 -0.21028267 -0.120096534
0002d0 e4 98 80 be 6b 9d f8 bc 5a c6 66 be df 91 4b bc
       -0.25116646 -0.0303485 -0.22536603 -0.012424915
0002e0 ee a8 c4 bd 0e b5 33 bc 23 71 64 3c e0 38 30 bd
       -0.09602533 -0.01096846 0.0139429895 -0.04302299
0002f0 df ef 08 be b8 37 84 bd 75 40 51 be 65 3f 6c 3e
       -0.13372754 -0.0645594 -0.20434745 0.23071058
000300 d1 02 0d be fa 43 a7 bd 90 a4 6f be 0a 69 51 bd
       -0.13770606 -0.081672624 -0.2340262 -0.051125564
000310 32 2f ab bb b3 6a d2 bd fb b4 13 bd 1b 2c cd 3c
       -0.005224132 -0.102742575 -0.03606127 0.025045445
000320 f8 e4 5e 3d 5f 61 4c be d3 08 85 bd 41 8a 21 3d
       0.05441758 -0.19959019 -0.06495824 0.03943849
000330 33 5d f6 bd 0e bf 1f 3a 49 e0 93 bd e2 8c 1b be
       -0.12029495 0.0006093838 -0.072205134 -0.15190461
000340 a1 cf ab be 18 e2 b0 bc 24 ed 7a 3c 1f eb cc bd
       -0.33556846 -0.021592185 0.015315328 -0.10005783
000350 a9 c0 8a bd 72 84 89 be b7 80 de bd 0e ea 73 bc
       -0.06775028 -0.2685886 -0.10864394 -0.014887346
000360 3e fd b7 3d a5 71 a4 bd d4 89 47 be 65 84 05 3d
       0.08983849 -0.080294885 -0.19486171 0.032596964
000370 0a c3 2d be d2 4b ff bd 7a 98 9b bd f8 96 91 bd
       -0.16968933 -0.124656335 -0.07597442 -0.07108873
000380 67 6d 5e 3c b7 49 62 be 9e 54 67 bd ac 7d 0a 3e
       0.013575888 -0.22098432 -0.05647718 0.13524503
000390 06 2b 70 3b 53 29 92 3e fb 3f 49 be 96 92 e3 bd
       0.0036646738 0.28547153 -0.19653313 -0.111119434
0003a0 1d e4 04 3d 75 d4 8f be 1d b5 22 be 44 66 64 3d
       0.03244411 -0.2809178 -0.15889402 0.05576159
0003b0 d3 8a 9f bd 65 cf 14 3e 20 e4 43 bc 6c aa 6a be
       -0.077901505 0.1453224 -0.011956245 -0.22916573
0003c0 e5 2e 05 3d 06 18 d9 bc 55 4d 72 bd bd f5 b4 bd
       0.032515425 -0.026500713 -0.05915578 -0.08835933
0003d0 da 7a 97 3c df d0 13 3e 86 7b da bd 6e 8f 7a bd
       0.018491197 0.14435147 -0.106680915 -0.06117194
0003e0 c3 d2 da 3d ba f1 04 be d1 d1 90 3d a1 25 89 3b
       0.10684731 -0.12982836 0.07071269 0.004185394
0003f0 11 da 62 be eb 06 a3 bd 1f fa 29 bd 60 01 89 3d
       -0.22153498 -0.07960304 -0.0414983 0.066897154

linears.2.bias f4 [5]
000000 40 d8 95 be 4c 4d d3 be 8d fd eb be 8f bf f7 be
       -0.29266548 -0.4126991 -0.4609188 -0.48388335
000010 24 c8 05 bf
       -0.52258515
