dqn-exp/savedir/teacher/checkpoint2000--model.pth (torch_old, 20763 bytes, 6 tensors)

linears.0.weight f4 [64, 6]
0.14809509 -0.19281241 0.09777518 0.045768287 -0.3095335 0.35598677 -0.060758665 0.1377321
0.058195617 -0.05801071 0.17506279 -0.3915976 -0.004332161 -0.2107581 0.0030837357 0.014777156
-0.017199649 0.83834547 -0.096077904 -0.04793655 -0.0256931 0.0437832 0.08352729 0.114004984
-0.18984188 0.094336115 0.09520339 0.0046066716 -0.29684252 -0.11047912 -0.12383864 -0.16278632
0.06137031 -0.02392015 0.2777917 0.119974114 0.04190007 -0.009469512 -0.04518594 0.03213881
-0.04004209 0.019257482 -0.14081678 -0.0021262572 -0.04122227 0.017244663 0.6611542 -0.018524801
0.026477976 0.11775369 -0.41126272 -0.33091074 -0.056868814 -0.15802853 -0.10466624 0.07774954
0.01183497 -0.0029636153 0.10680505 -0.04500246 -0.15586868 0.008134514 0.002044641 -0.015974863
0.6902457 -0.015079025 0.14063679 -0.09798888 0.014890101 0.011627415 -0.6583781 0.04482901
-0.1733094 0.0074353544 -0.002026521 -0.0021205961 0.68004143 -0.025429733 0.03979235 0.21826506
-0.0032702005 -0.0055225464 0.0975003 -0.7899856 0.11028898 0.15064995 -0.046790484 -0.06788848
-0.17623706 -0.26611853 -0.15941659 0.15043414 -0.011353207 -0.037836134 0.2958854 -0.4003195
0.093098275 0.12721826 -0.01577716 0.05859634 -0.12631565 -0.3813373 0.16291346 0.30142298
-0.08710743 -0.011497576 0.20967886 -0.0035174561 -0.012773108 -0.03522985 0.13725221 0.13363168
0.06107053 0.061356705 0.16465229 0.0019774658 0.0005094422 5.6210236e-05 -0.9751756 -0.013124766
0.22321993 -0.29258955 0.0299108 0.3241235 -0.18121938 0.08122459 0.15774432 0.015328028
-0.038298167 -0.0097333 -0.5395132 0.047505222 -0.09981339 -0.106727175 0.08023409 0.026850054
0.30482018 0.18013425 0.033711683 0.038272478 0.012663146 -0.10726829 0.022485912 -0.07984613
-0.1084058 0.0543919 0.11101683 -0.1363393 0.08004894 -0.14651349 -0.049504183 -0.06245199
0.19478877 0.08882114 0.12233468 0.35432795 -0.008677828 -0.17828977 -0.021953242 0.0014502348
0.12274769 0.38851497 -0.07014387 0.14270854 -0.036083523 -0.18903777 0.014176896 0.36537787
0.039478734 0.01931042 -0.16709052 -0.063520946 -0.047441456 -0.05930072 0.17570685 0.016376104
0.01292004 0.007960107 -0.59283847 0.013745096 -0.066157065 -0.11534941 -0.12595321 -0.04508221
0.21812853 0.09530217 0.07364545 -0.2742674 -0.019157302 -0.073727414 -0.17802578 0.016570268
-0.11496007 -0.0068569924 -0.2590138 -0.0039635985 0.2826985 -0.006432157 -0.09467395 0.077371895
-0.06268546 -0.11227324 -0.060208187 -0.13584466 0.009849472 0.012744512 0.2792797 -0.11801138
-0.008454388 -0.30561635 -0.009607698 -0.0726302 -0.011736456 -0.009754368 -0.018349571 0.8994967
-0.17395009 -0.14529105 0.08742561 0.07052248 0.27587116 0.14883214 -0.0072293533 -0.21462768
0.028883314 -0.012178794 -0.016178796 0.70678395 -0.21627432 0.23757 0.22913976 -0.06428508
0.45690805 -0.41399676 -0.029911526 -0.15275067 -0.028457655 0.10655983 -0.02135321 0.16155301
0.029066183 0.16837022 0.21505408 -0.053157337 0.19830044 -0.2922705 0.036822807 -0.024764705
0.036284488 -0.004597523 0.33615205 -0.06344073 0.18233897 -0.011849309 -0.016215552 -0.0032298346
00000000: 3da6 173e 9e70 45be 5b3e c83d 8777 3b3d
00000010: 2d7b 9ebe e643 b63e 14de 78bd a509 0d3e
00000020: 875e 6e3d a39c 6dbd a943 333e 7b7f c8be
00000030: cdf4 8dbb f9d0 57be 8018 4a3b e21b 723c
00000040: 47e6 8cbc cf9d 563f 7ec4 c4bd 1e59 44bd
00000050: 567a d2bc 0356 333d 5b10 ab3d 727b e93d
00000060: e965 42be 4b33 c13d fff9 c23d 90f3 963b
00000070: befb 97be e042 e2bd 1d9f fdbd 75b1 26be
00000080: 6f5f 7b3d 31f4 c3bc b73a 8e3e fdb4 f53d
00000090: 689f 2b3d 0326 1bbc e414 39bd fca3 033d
000000a0: 2d03 24bd dec1 9d3c 4632 10be ad58 0bbb
000000b0: afd8 28bd ae44 8d3c 6741 293f 53c1 97bc
000000c0: 57e8 d83c d928 f13d 0791 d2be 226d a9be
000000d0: 46ef 68bd 3bd2 21be 415b d6bd 273b 9f3d
000000e0: 76e7 413c 3739 42bb 9bbc da3d 8054 38bd
000000f0: 0a9c 1fbe a046 053c 62ff 053b b7dd 82bc
00000100: f1b3 303f 040e 77bc 1703 103e 65ae c8bd
00000110: 9cf5 733c ea80 3e3c 788b 28bf a09e 373d
00000120: 0578 31be 46a4 f33b 61cf 04bb b3f9 0abb
00000130: 3217 2e3f 0452 d0bc 4efd 223d e080 5f3e
00000140: dc50 56bb 7af6 b4bb 3dae c73d 7f3c 4abf
00000150: 30df e13d fb43 1a3e 61a7 3fbd 1e09 8bbd
00000160: 7d77 34be b040 88be 1a3e 23be 680b 1a3e
00000170: cd02 3abc 10fa 1abd 4b7e 973e adf6 ccbe
00000180: 4faa be3d 8145 023e 1a3f 81bc b702 703d
00000190: e458 01be a53e c3be c9d2 263e 1d54 9a3e
000001a0: 6165 b2bd 5460 3cbc 0eb6 563e 1f85 66bb
000001b0: 4c46 51bc 2d4d 10bd d88b 0c3e bed6 083e
000001c0: 1825 7a3d 2b51 7b3d 9c9a 283e 5f98 013b
000001d0: 168c 053a 48c3 6b38 1ca5 79bf 4209 57bc
000001e0: c493 643e 4cce 95be 7e07 f53c 84f3 a53e
000001f0: 9391 39be 1459 a63d ba87 213e 6922 7b3c
00000200: 8ade 1cbd 6b78 1fbc 891d 0abf d694 423d
00000210: f66a ccbd c793 dabd c551 a43d a5f4 db3c
00000220: 6411 9c3e 1d75 383e 4315 0a3d 9ac3 1c3d
00000230: 1579 4f3c 7aaf dbbd 6034 b83c 5e86 a3bd
00000240: dc03 debd 0aca 5e3d cb5c e33d 889c 0bbe
00000250: b3f0 a33d a207 16be e6c4 4abd a8cd 7fbd
00000260: b576 473e dce7 b53d 9b8a fa3d 796a b53e
00000270: 732d 0ebc 9891 36be 49d7 b3bc ce15 be3a
00000280: 2463 fb3d 6feb c63e 97a7 8fbd 3022 123e
00000290: 51cc 13bd 1e93 41be 3646 683c cf12 bb3e
000002a0: 74b4 213d e330 9e3c c719 2bbe 4517 82bd
000002b0: f951 42bd 50e5 72bd 7fec 333e 2e27 863c
000002c0: 93ae 533c 1c6b 023c 43c4 17bf 1c33 613c
000002d0: 5b7d 87bd 503c ecbd e1f9 00be 20a8 38bd
000002e0: 165d 5f3e c92d c33d 6dd3 963d c76c 8cbe
000002f0: c6ef 9cbc 66fe 96bd 644c 36be 5fbe 873c
00000300: 2f70 ebbd 9fb0 e0bb 759d 84be 13e1 81bb
00000310: dcbd 903e d8c4 d2bb 6ae4 c1bd 2875 9e3d
00000320: 3c61 80bd 83ef e5bd dc9c 76bd dd1a 0bbe
00000330: ae5f 213c 5cce 503c c0fd 8e3e f3af f1bd
00000340: 4684 0abc bf79 9cbe 9b69 1dbc 24bf 94bd
00000350: 444a 40bc c9d0 1fbc d751 96bc 6a45 663f
00000360: f91f 32be 2dc7 14be 330c b33d 176e 903d
00000370: fc3e 8d3e 7467 183e 36e4 ecbb 5cc7 5bbe
00000380: b39c ec3c 9089 47bc 6589 84bc cbef 343f
00000390: 0477 5dbe 8d45 733e 9da3 6a3e e5a7 83bd
000003a0: daef e93e 62f7 d3be 0409 f5bc ac6a 1cbe
000003b0: 0720 e9bc 0a3c da3d edec aebc 276e 253e
000003c0: 341c ee3c 3e69 2c3e 2337 5c3e 82bb 59bd
000003d0: 450f 4b3e 7ba4 95be 83d3 163d 5adf cabc
000003e0: 0b9f 143d d1a6 96bb 1f1c ac3e 37ed 81bd
000003f0: 11b7 3a3e 9b23 42bc 7ad6 84bc a2ab 53bb

linears.0.bias f4 [64]
-0.66874087 0.25202617 0.23999725 0.57225865 -0.32691061 -0.50189614 -0.10229132 -0.39106497
-0.4938852 0.019483522 -0.20860252 0.7321728 0.36980462 -0.006425346 -0.7080343 -0.5694314
-0.6613256 -0.46918693 -0.27934706 -0.12106419 -0.7443122 -0.62885123 0.2162297 -0.080815315
0.24780138 -0.27988532 0.20305753 -0.4603521 0.3672318 -0.5175684 0.50378203 -0.6652938
-0.5523203 -0.2523591 -0.4499149 0.054987423 -0.5956044 -0.27259097 -0.45630094 -0.25941044
0.6716542 0.72832656 -0.25171366 0.33984312 -0.3517509 -0.739903 0.009246399 -0.42434016
-0.710461 0.06896141 -0.4016851 -0.66637677 -0.14751917 -0.48196137 -0.015110772 0.60472
0.10160449 -0.44209343 0.6819154 -0.65403515 0.16338088 0.3975809 0.08685708 0.08346829
00000000: 9a32 2bbf 9309 813e d7c1 753e 8b7f 123f
00000010: d460 a7be 447c 00bf 1d7e d1bd ab39 c8be
00000020: 85de fcbe e89b 9f3c e69b 55be ad6f 3b3f
00000030: 0857 bd3e b58b d2bb bc41 35bf 42c6 11bf
00000040: a24c 29bf 4539 f0be 9406 8fbe 81f0 f7bd
00000050: 3f8b 3ebf 65fc 20bf 526b 5d3e 8082 a5bd
00000060: a5bf 7d3e 214d 8fbe 50ee 4f3e 45b3 ebbe
00000070: ce05 bc3e 5d7f 04bf dcf7 003f b250 2abf
00000080: dd64 0dbf 3635 81be 3f5b e6be 7e3a 613d
00000090: 8879 18bf 0b91 8bbe 47a0 e9be 72d1 84be
000000a0: 88f1 2b3f 9c73 3a3f 9de0 80be ebff ad3e
000000b0: b218 b4be 486a 3dbf 357e 173c 1d43 d9be
000000c0: c6e0 35bf a43b 8d3d aba9 cdbe ab97 2abf
000000d0: 440f 17be a4c3 f6be 2c93 77bc eece 1a3f
000000e0: 0416 d03d 125a e2be 0292 2e3f d96e 27bf
000000f0: 514d 273e b98f cb3e 20e2 b13d 6cf1 aa3d

linears.1.weight f4 [64, 64]
0.14788815 -0.01568742 0.062366504 -0.129586 0.036345165 -0.0206887 -0.026890771 -0.28930742
0.14098814 0.027107012 0.026069216 -0.18990877 0.051502775 0.04511244 0.2705989 -0.104912296
0.10351099 0.064526476 0.05925573 0.08766679 -0.22202997 0.11996579 0.05138337 0.022364797
0.127074 -0.15322739 0.34052676 -0.002953388 -0.14071529 0.024854746 -0.08053132 0.09291785
-0.034195606 0.30513927 -0.03339169 -0.27560583 0.03705413 0.19043532 -0.2227548 -0.026299715
0.027427748 -0.17106622 0.20797922 0.11988398 0.29252046 0.10175794 -0.034844138 -0.026712136
0.3651374 0.023221333 0.1470274 -0.07045033 0.097773775 0.02357467 0.18652397 -0.21031927
0.0120345 -0.026485741 0.034133054 -0.014681144 -0.15970705 -0.04052175 0.031263936 0.056897435
0.03550053 0.076902255 0.17488389 -0.023801953 0.25320232 0.13649684 -0.066526294 -0.060274117
0.4235118 -0.08616163 -0.14297779 0.032927327 0.047794558 -0.056332495 -0.53193384 0.048873283
-0.2108454 0.08588667 0.10739332 -0.00944025 0.2892872 -0.055279423 0.08320005 0.15845683
0.14639822 -0.048229355 0.26999098 -0.0018980247 -0.04183831 0.0117263105 0.007965509 -0.27078176
-0.31024554 0.15708475 0.18979028 0.23441523 0.06419735 0.074758515 -0.17488933 0.22423986
-0.035976294 -0.219089 -0.039737497 0.08295234 -0.01589279 0.18027061 0.10701441 0.13742656
-0.026846573 0.09937722 -0.1362649 -0.16297428 0.16003345 -0.11888382 0.026825365 -0.15026678
0.07026033 -0.13813408 0.066970214 -0.24489856 -0.017471338 0.17817764 -0.32770807 -0.026990328
-0.04557605 0.07354844 -0.0690534 -0.009925201 0.20145996 0.074040495 0.03190181 -0.030638076
-0.114347436 -0.059528407 -0.12772234 -0.05753433 0.120481 0.051590532 0.10702994 0.04460944
-0.24615587 0.076202355 0.027621696 0.1555329 -0.03648189 -0.02239201 0.04297695 -0.13177446
0.016887182 -0.22867206 0.06287426 -0.022010893 -0.03463759 -0.09414282 -0.11534803 0.062335625
-0.019041186 0.16040374 -0.017729819 -0.36861628 -0.008595201 -0.19573261 -0.13011166 0.08080358
0.085251994 -0.10719599 -0.06829384 0.1431519 0.1858331 -0.1294919 -0.16470873 0.11491112
-0.19961907 -0.032076925 0.021000253 -0.09000094 -0.09972207 -0.19334444 0.17756698 -0.21086407
-0.029817468 -0.072600186 -0.08243501 -0.043659024 -0.18665452 -0.07298551 0.24127491 0.061569024
0.2740441 0.0037424222 -0.0783809 -0.008722037 0.1395664 -0.1552662 -0.21376637 -0.33673444
0.28855762 0.06270502 -0.26727894 -0.34456906 -0.19501853 -0.06783533 -0.9444236 -0.30043074
-0.4037676 -0.07329834 0.020351851 -0.2423987 0.287499 -0.115248546 -0.15240164 0.0030296305
0.021010302 0.015271524 -0.08953298 -0.10144223 -0.16822416 -0.2203599 -0.11827953 -0.33127317
-0.22964323 0.1974588 -0.07940937 -0.108783394 -0.067085534 -0.24724816 -0.28432295 0.102621116
-0.17444693 -0.20951636 -0.34263417 -0.08186188 0.008945682 -0.33697715 -0.18332347 -0.13917704
-0.16001835 -0.080480516 -0.29620057 -0.20980212 -0.0072777933 -0.21873942 -0.047000013 -0.018294541
0.09901388 -0.28753296 -0.22039355 -0.5236824 -0.16704643 0.025546169 -0.43276283 -0.06538164
00000000: fe6f 173e e782 80bc 0574 7f3d 31b2 04be
00000010: abde 143d 597b a9bc 094a dcbc 1a20 94be
00000020: 325f 103e 860f de3c 1c8f d53c 7277 42be
00000030: 93f4 523d d2c7 383d f08b 8a3e 42dc d6bd
00000040: 92fd d33d 7526 843d 23b6 723d a58a b33d
00000050: d35b 63be a0b0 f53d 5e77 523d 6136 b73c
00000060: b01f 023e a4e7 1cbe 8659 ae3e a18d 41bb
00000070: ab17 10be 2e9c cb3c 9bed a4bd b74b be3d
00000080: b110 0cbd 373b 9c3e bac5 08bd 351c 8dbe
00000090: 12c6 173d 7a01 433e d619 64be 8072 d7bc
000000a0: 28b0 e03c fc2b 2fbe 81f8 543e bb85 f53d
000000b0: 3ec5 953e 7866 d03d bab8 0ebd 69d3 dabc
000000c0: 4af3 ba3e aa3a be3c 5a8e 163e 4348 90bd
000000d0: 9e3d c83d ab1f c13c 2400 3f3e ef5d 57be
000000e0: 5a2c 453c a0f8 d8bc 1acf 0b3d 2e89 70bc
000000f0: 3f8a 23be 22fa 25bd 9d0e 003d 490d 693d
00000100: 0169 113d ee7e 9d3d c314 333e 50fc c2bc
00000110: bca3 813e d4c5 0b3e f03e 88bd fee1 76bd
00000120: 8ad6 d83e 8275 b0bd c568 12be cede 063d
00000130: 3ac4 433d e7bc 66bd d12c 08bf 5a2f 483d
00000140: dbe7 57be 5ae5 af3d 07f1 db3d 47ab 1abc
00000150: 741d 943e ad6c 62bd ca64 aa3d 8242 223e
00000160: 6ae9 153e 258c 45bd 423c 8a3e 24c7 f8ba
00000170: a65e 2bbd b61f 403c c481 023c e8a3 8abe
00000180: 81d8 9ebe d3da 203e 6258 423e 8c0a 703e
00000190: e679 833d fe1a 993d 3016 33be 229f 653e
000001a0: e15b 13bd de58 60be c9c3 22bd ebe2 a93d
000001b0: 9931 82bc dc98 383e 5f2a db3d 8cb9 0c3e
000001c0: 58ed dbbc 4986 cb3d 0789 0bbe bbe2 26be
000001d0: cfdf 233e 5c79 f3bd dec0 db3c 89df 19be
000001e0: a6e4 8f3d 0573 0dbe ae27 893d b0c6 7abe
000001f0: 0d20 8fbc 3374 363e 5ac9 a7be d21a ddbc
00000200: f4ad 3abd 91a0 963d de6b 8dbd 4f9d 22bc
00000210: 854b 4e3e 8ba2 973d 79ab 023d b4fc fabc
00000220: fd2e eabd 0fd4 73bd a5c9 02be 1ea9 6bbd
00000230: bebe f63d 9850 533d 8332 db3d 63b8 363d
00000240: 4910 7cbe fb0f 9c3d e546 e23c 0444 1f3e
00000250: 096e 15bd 736f b7bc 9908 303d e2ef 06be
00000260: fd56 8a3c 0229 6abe 38c4 803d 3050 b4bc
00000270: 25e0 0dbd f3cd c0bd 973b ecbd a453 7f3d
00000280: 43fc 9bbc e140 243e 203e 91bc 46bb bcbe
00000290: e3d2 0cbc 216e 48be fe3b 05be 597c a53d
000002a0: 9998 ae3d 9289 dbbd a4dd 8bbd 6996 123e
000002b0: 084b 3e3e 8699 04be 68a9 28be 8556 eb3d
000002c0: f168 4cbe 1863 03bd b908 ac3c 6a52 b8bd
000002d0: 163b ccbd 16fc 45be 1ed4 353e c0ec 57be
000002e0: c343 f4bc 68af 94bd b0d3 a8bd ced3 32bd
000002f0: 5d22 3fbe 6d79 95bd c510 773e cd2f 7c3d
00000300: 824f 8c3e 6d43 753b 2a86 a0bd e0e6 0ebc
00000310: 7fea 0e3e 1afe 1ebe 92e5 5abe 7568 acbe
00000320: d3bd 933e 7d6b 803d c9d8 88be 5b6b b0be
00000330: f0b2 47be 40ed 8abd bfc5 71bf 0fd2 99be
00000340: a0ba cebe 711d 96bd edb8 a63c 5d37 78be
00000350: 1233 933e 6e07 ecbd 2d0f 1cbe c48c 463b
00000360: cc1d ac3c 6a35 7a3c 115d b7bd f2c0 cfbd
00000370: f442 2cbe 07a6 61be 8a3c f2bd a39c a9be
00000380: 9827 6bbe a432 4a3e 61a1 a2bd d4c9 debd
00000390: 2464 89bd 9f2e 7dbe c792 91be 052b d23d
000003a0: 37a2 32be 758b 56be bf6d afbe 34a7 a7bd
000003b0: e990 123c 4588 acbe 26b9 3bbe 6d84 0ebe
000003c0: dadb 23be f8d2 a4bd 9aa7 97be 5ed6 56be
000003d0: 8e7a eebb 3afd 5fbe 1683 40bd 6fde 95bc
000003e0: cac7 ca3d 8537 93be d9ae 61be 0d10 06bf
000003f0: 380e 2bbe 3346 d13c 1793 ddbe cfe6 85bd

linears.1.bias f4 [64]
0.4283851 -0.5117626 0.46890208 -0.47514844 0.5377843 0.523643 -0.15044615 -0.038432427
0.46473068 -0.17459266 0.07029118 -0.35695007 0.59910077 0.16838895 0.6357942 -0.20559655
0.09219475 0.28570235 -0.11533392 -0.051060885 -0.5345484 0.43292964 0.18002824 -0.11853178
0.39735222 -0.069385834 0.6671851 -0.1438546 -0.49639082 0.27018273 0.4565686 0.54352486
-0.043600816 0.5083539 -0.28372627 0.25974613 -0.22326304 0.09633923 -0.57737833 -0.16122563
-0.0994583 -0.30623275 0.01568453 -0.16797271 0.5453004 -0.044749822 -0.39635038 0.7047635
0.5695722 -0.21188568 0.55037165 0.5895273 0.2781742 0.006294781 0.65981233 -0.32315856
0.18639208 -0.22701465 0.14485379 0.6038009 -0.69368106 -0.33017737 0.04060739 -0.059882693
00000000: 4b55 db3e e002 03bf ef13 f03e a846 f3be
00000010: 3bac 093f 780d 063f 8e0e 1abe 526b 1dbd
00000020: 2ef1 ed3e 6bc8 32be d2f4 8f3d 29c2 b6be
00000030: ab5e 193f 276e 2c3e 69c3 223f e787 52be
00000040: 9ad0 bc3d 9447 923e 3134 ecbd 3825 51bd
00000050: 2ad8 08bf f4a8 dd3e 5359 383e cac0 f2bd
00000060: c071 cb3e 291a 8ebd a5cc 2a3f 9f4e 13be
00000070: f026 febe 6455 8a3e 5cc3 e93e 7224 0b3f
00000080: c596 32bd 7b23 023f 9244 91be 72fd 843e
00000090: 119f 64be 814d c53d 11cf 13bf 5518 25be
000000a0: cbb0 cbbd 8aca 9cbe d87c 803c 0a01 2cbe
000000b0: cf98 0b3f 974b 37bd 70ee cabe 616b 343f
000000c0: 7ccf 113f 8ff8 58be 28e5 0c3f 43eb 163f
000000d0: d96c 8e3e 7344 ce3b 76e9 283f 0a75 a5be
000000e0: 91dd 3e3e 8776 68be 8d54 143e b292 1a3f
000000f0: 1595 31bf 020d a9be ef53 263d 8e47 75bd

linears.2.weight f4 [5, 64]
-0.19807541 -0.10958473 -0.029531853 -0.06825768 -0.15536156 -0.12986355 -0.10382961 -0.008730663
-0.2289525 -0.10468709 0.057040248 -0.19258523 -0.20789579 0.0043861046 -0.056246173 0.018067041
0.05505357 -0.014661893 -0.03116366 0.059148535 0.030194025 -0.15812671 -0.016736394 -0.022048997
-0.08814524 0.09680935 -0.15823773 0.0838711 -0.08307445 -0.0018450966 -0.11653857 -0.062332317
0.037506707 -0.068208866 -0.13406001 0.008619169 -0.034835726 0.03446769 0.010020066 -0.07367672
-0.031412784 -0.051857304 -0.0008697188 -0.02210967 -0.14856832 0.05304508 0.037949473 -0.1520376
-0.2039589 -0.036541242 -0.13690884 -0.04917438 -0.036973204 0.0072192014 -0.25697455 0.030716944
-0.008150245 -0.0983574 -0.006770973 -0.16254427 0.12849373 0.006216361 -0.007990283 -0.09892194
-0.17793946 0.06859856 -0.17554365 -0.01976311 -0.17132562 0.05720959 0.08791719 0.07270364
-0.22093014 0.013458606 -0.09281164 -0.013286239 -0.2299775 0.0019572582 -0.017143887 -0.09288798
0.040062167 -0.06990001 -0.034023985 -0.02087745 -0.024827154 -0.1429113 -0.07755322 -0.049969077
-0.14037322 -0.056929067 -0.2023036 -0.030402318 0.06635027 -0.018362138 -0.12122889 -0.055042274
-0.03571665 -0.10063408 0.026772825 -0.07550014 -0.0127334 -0.025879735 -0.052963994 -0.059869397
-0.03302266 -0.07649895 0.016625553 -0.09394481 -0.16613796 0.0972878 0.10618661 -0.14682035
-0.20576906 -0.023378577 -0.20254377 -0.09084117 -0.027656246 0.044130225 -0.23481455 0.0062520667
-0.039957576 0.05506677 -0.0023980932 -0.122273 -0.011357395 -0.004514087 -0.047531657 -0.008303902
-0.16113193 -0.0041421494 -0.13268323 0.06609541 -0.21771286 0.15007927 -0.09116259 0.055945814
-0.07837369 0.023635015 0.052408867 -0.23764145 -0.22973135 -0.016798342 -0.24767727 -0.008132157
-0.12221365 -0.05209161 0.03279228 0.04667531 -0.03886351 -0.11067595 -0.014125984 -0.1917487
-0.09467551 0.20839867 -0.2645799 0.008338124 -0.052098263 0.025509335 -0.036370065 -0.09049316
0.007539876 -0.16357078 0.04017265 -0.062920384 0.07683495 -0.027856003 0.12135569 -0.051095575
-0.011464595 -0.09595888 0.075305276 -0.12878138 -0.22673292 -0.032246426 0.06507142 -0.09387984
-0.02207211 -0.04706568 -0.15100051 -0.057744004 -0.009348801 0.05754042 -0.24291906 -0.0044234456
-0.028242627 -0.21025291 0.026902797 -0.16071022 0.034685444 0.009601803 0.020332146 -0.017505303
-0.18351994 -0.057523295 -0.23544402 -0.107028425 -0.2510728 -0.018279687 0.049370557 -0.08833212
-0.13517037 0.0019111097 0.04554655 -0.07234009 -0.12887956 0.01261868 -0.22662091 -0.04999881
0.28866652 -0.02820412 0.013412095 0.12778014 -0.04312574 -0.1479618 0.01130095 -0.01913796
-0.14414842 -0.0239045 -0.06759364 -0.05944954 0.010719243 0.027838089 -0.10881238 -0.11147033
0.08195393 -0.14806125 0.11259095 0.0038474337 0.117321804 -0.011018223 -0.029151082 0.018373132
0.0010443964 -0.04418047 -0.046005674 -0.03333256 -0.2485131 0.084217556 -0.016028345 -0.1934562
-0.09102693 -0.01291771 -0.15120406 -0.12060944 -0.01965232 0.051764987 -0.2720194 -0.07495449
-0.037384864 -0.22624198 0.0074037323 -0.12697735 0.10389395 -0.07555138 -0.052491777 -0.021178953
00000000: 48d4 4abe f56d e0bd c9ec f1bc afca 8bbd
00000010: 1a17 1fbe f3fa 04be 9ea4 d4bd 0e0b 0fbc
00000020: 8672 6abe 2f66 d6bd 09a3 693d 1035 45be
00000030: a2e2 54be 50b9 8f3b 6362 66bd 5501 943c
00000040: da7f 613d 7038 70bc ef4a ffbc bc45 723d
00000050: 7659 f73c f8eb 21be c31a 89bc 19a0 b4bc
00000060: 7e85 b4bd fb43 c63d 1209 22be 9cc4 ab3d
00000070: f022 aabd 2bd7 f1ba c6ab eebd 2c50 7fbd
00000080: a2a0 193d 17b1 8bbd 0747 09be 6a37 0d3c
00000090: e8af 0ebd fe2d 0d3d 342b 243c d2e3 96bd
000000a0: b1aa 00bd 5368 54bd d7fd 63ba 571f b5bc
000000b0: 4b22 18be cc45 593d e870 1b3d bfaf 1bbe
000000c0: 9ada 50be 45ac 15bd d531 0cbe 136b 49bd
000000d0: 3771 17bd 0d8f ec3b 2b92 83be 1aa2 fb3c
000000e0: 9b88 05bc 9b6f c9bd 0adf ddbb 0172 26be
000000f0: dc93 033e 9eb2 cb3b ade9 02bc 9697 cabd
00000100: c335 36be 677d 8c3d b7c1 33be 3fe6 a1bc
00000110: fc6f 2fbe 9a54 6a3d ed0d b43d a5e5 943d
00000120: 833b 62be 7c81 5c3c 0714 bebd 86ae 59bc
00000130: 397f 6bbe 5845 003b 5671 8cbc 0e3c bebd
00000140: 3a18 243d bd27 8fbd bc5c 0bbd 3007 abbc
00000150: 5162 cbbc 5757 12be 39d4 9ebd 60ac 4cbd
00000160: ffbd 0fbe 742e 69bd ad28 4fbe 480e f9bc
00000170: a6e2 873d 326c 96bc da46 f8bd 0274 61bd
00000180: 9f4b 12bd 3e19 cebd af52 db3c d19f 9abd
00000190: c09f 50bc bd01 d4bc c6f0 58bd 9d39 75bd
000001a0: c542 07bd 7bab 9cbd 5032 883c 2366 c0bd
000001b0: 1220 2abe d33e c73d 5e78 d93d 1358 16be
000001c0: 20b5 52be 6e84 bfbc a267 4fbe ef0a babd
000001d0: 5a8f e2bc e5c1 343d 3a73 70be 23de cc3b
000001e0: 8eaa 23bd b28d 613d 5429 1dbb 446a fabd
000001f0: 5e14 3abc e8ea 93bb 8eb0 42bd 170d 08bc
00000200: c5ff 24be deba 87bb 1dde 07be 085d 873d
00000210: 1ff0 5ebe 61ae 193e 74b3 babd 7027 653d
00000220: 6382 a0bd 389e c13c aeaa 563d 4858 73be
00000230: b23e 6bbe ad9c 89bc 1c9f 7dbe bd3c 05bc
00000240: 264b fabd 035e 55bd 3351 063d 9c2e 3f3d
00000250: 582f 1fbd 13aa e2bd ac70 67bc c559 44be
00000260: 3ce5 c1bd 7666 553e 0477 87be a09c 083c
00000270: fd64 55bd f4f8 d03c c7f8 14bd 7a54 b9bd
00000280: 1011 f73b 197f 27be 148c 243d 67dc 80bd
00000290: a45b 9d3d 4632 e4bc 5589 f83d 9849 51bd
000002a0: ffd5 3bbc 1786 c4bd a739 9a3d 44df 03be
000002b0: ad2c 68be d414 04bd 2a44 853d 1344 c0bd
000002c0: 92d0 b4bc f1c7 40bd e19f 1abe fa84 6cbd
000002d0: b72b 19bc 81af 6b3d c6bf 78be 8df2 90bb
000002e0: 155d e7bc 8a4c 57be 4163 dc3c 3891 24be
000002f0: 5312 0e3d e150 1d3c 9a8f a63c 4867 8fbc
00000300: a7ec 3bbe 8c9d 6bbd 3d18 71be b831 dbbd
00000310: 9d8c 80be 48bf 95bc c838 4a3d 78e7 b4bd
00000320: 1a6a 0abe 337e fa3a 058f 3a3d 0b27 94bd
00000330: 01f9 03be 94be 4e3c 500f 68be 8dcb 4cbd
00000340: 19cc 933e 540c e7bc 67be 5b3c ccd8 023e
00000350: 9ea4 30bd 4c83 17be 9f27 393c 36c7 9cbc
00000360: a59b 13be 5fd3 c3bc 896e 8abd 5c81 73bd
00000370: c49f 2f3c b40c e43c 06d9 debd 8e4a e4bd
00000380: 76d7 a73d 5e9d 17be 1696 e63d 3a25 7c3b
00000390: 6a46 f03d c785 34bc 40ce eebc 4083 963c
000003a0: 21e4 883a 95f6 34bd 7270 3cbd b987 08bd
000003b0: 387a 7ebe 417a ac3d e04d 83bc 6219 46be
000003c0: 546c babd cda4 53bc 3dd5 1abe 1502 f7bd
000003d0: e7fd a0bc 8607 543d 2046 8bbe bd81 99bd
000003e0: df20 19bd faab 67be 029b f23b 5a06 02be
000003f0: 5ac6 d43d afba 9abd 9e01 57bd 7c7f adbc

linears.2.bias f4 [5]
-0.549984 -0.493606 -0.5159089 -0.48410296 -0.55832064
00000000: c0cb 0cbf edb9 fcbe 9b12 04bf 58dc f7be
00000010: 1aee 0ebf
