dqn-exp/savedir/teacher/checkpoint1500--model.pth (torch_old, 20763 bytes, 6 tensors)

linears.0.weight f4 [64, 6]
00000000: d531 043e fc24 2dbe 8bb2 bd3d c703 763d
00000010: 8056 96be e652 b23e e9aa 26bd 2647 ff3d
00000020: ef8a c13d c488 ddbc f0c8 033e e298 d9be
00000030: d1cc 80bc 0d5e 3ebe 8648 38bc 1921 57bc
00000040: d6b4 53bd 67dd 4f3f fd6f a0bd 5a41 b4bc
00000050: 59ba 67bd e252 413d f33f fd3d 4415 e53d
00000060: 941f 5ebe 10e2 053e e332 673e 677a 673c
00000070: 0ac3 26be 7696 1abe f773 39be dbd0 adbd
00000080: 573e 2ebd d208 31bd 18b5 ad3e 8b43 b33d
00000090: 689f 2b3d 0326 1bbc e414 39bd fca3 033d
000000a0: 2d03 24bd dec1 9d3c a72d 12be 9f36 48bc
000000b0: 6302 05bb dc4e 3ebd 5840 1f3f 4d43 c73c
000000c0: a8f6 293e 2ec6 9b3e 7757 a8be d9e6 b3be
000000d0: 341c 84be 4d6c a9be 1a9d 00be 478a bc3d
000000e0: 6241 6d3c 3337 7ebc 2c23 9b3e b20a 32be
000000f0: 74e7 17be 562a 2b3c 7674 3a3c 380b f8ba
00000100: 8b94 173f c526 0a3a d43c 193e 1dcb 6abd
00000110: 6310 a6bc 4fa7 e5bb b1d8 24bf 09aa f83d
00000120: eb01 0fbe 465f 233c b43a 303c dca3 bebc
00000130: 92ea 233f 52b6 ddbc f298 5b3c 1e06 403e
00000140: 9508 14bc 1db3 f0bb 5384 e03d ddcc 46bf
00000150: c635 d73d fb43 1a3e 63bf 1dbd 32e0 6bbd
00000160: 7bb2 3ebe 29cb 8dbe fd80 2ebe db3b 353e
00000170: 39f9 a8bc e5b3 833b bfa3 8e3e dfdc d1be
00000180: ee31 573d efee 1d3e f2ee 4dbd 2719 8a3d
00000190: ed44 f5bd 8fba bebe 8d29 da3d df17 a03e
000001a0: f01f 0f3d de47 1bba 5e89 563e 6367 003c
000001b0: 4f0c bbbd 4d5c 3abd 512f ee3d e8be 273e
000001c0: dc7b d63c 70cb 923d 4ae0 133e 9565 ea3b
000001d0: 6a74 6c3b 5045 6738 2886 78bf 5337 24bc
000001e0: 5124 693e 4353 a4be 5502 623d ba7d a93e
000001f0: 45b2 4fbe e2b4 8e3d 105d 243e fa09 cd3c
00000200: d26a 1bbd 30b4 f93a b2a3 09bf e041 063b
00000210: bc1e 00be 417f fdbd 8642 a03d fff0 053d
00000220: 0821 b63e a354 7c3e 5885 45bd c151 da3d
00000230: cd71 70bc 1077 16be e154 2f3e 5458 edbd
00000240: b147 1dbe edae 433d a2c5 fa3c 1eb2 20be
00000250: ec5e f43d d689 0cbe 1423 5dbd f3f3 c9bc
00000260: 0e07 c93d b1fe 413e 7d68 b73c 550c b43e
00000270: 52eb c6bb c72b f8bd 7e53 84bd 12b6 3cbd
00000280: 948a a63d 1336 e43e 6f0c 3c3b 00f1 8e3e
00000290: 1376 a93d 606d 8bbe ae17 05be 0953 783e
000002a0: bee1 683d f7c3 bb3c b72f 86be 6515 11be
000002b0: b7bd babd b882 cdbd a89a 203e 9fdf c33c
000002c0: 332e e03c 3803 523c 19bd 0fbf b79c 8a3c
000002d0: 5484 c2bd 7cca cdbd 2c7c 23be 950f 46bd
000002e0: 91c1 3e3e c082 123e 6dd3 963d c76c 8cbe
000002f0: c6ef 9cbc 66fe 96bd 644c 36be 5fbe 873c
00000300: fb20 903c 2c93 e5bc 081e 96be 6255 7e3c
00000310: 17eb 593e 80ef 813d e594 773c 9a26 d33d
00000320: af8d 01be 24e3 adbd 0904 963c 10a7 91bd
00000330: c83a 83bd 2bfa 9fbd 4e20 4e3e 43fb b7bd
00000340: 8c66 ef3d 777a a5be 74cb b6bb 0690 84bd
00000350: 86ca 9abb e77f 85bb 9c8f f73b e887 503f
00000360: c955 c1bd 7b9a 03be c283 203d c84e c4bb
00000370: e476 9f3e e29c 5a3e 58c0 58bc b9f0 37be
00000380: 9d84 9d3b 1c71 203b 49e1 9fbd 5f55 2c3f
00000390: a4d4 b7bd 760f 10bd f252 e13e fc0e d1bd
000003a0: 6988 ae3e 610e c4be 202e d63a 216f 1abe
000003b0: d576 0abd 925a b73d 0797 61bc fcc2 2d3e
000003c0: 1172 e53c 9abe 3f3e 6eec 6e3e a628 1ebd
000003d0: d8d4 1d3e 801c 87be c0d8 4b3d ecae 46bd
000003e0: 1456 7e3d 6331 df3a 67fb 973e 64fc 40bd
000003f0: 1853 473e 2451 b0bb 0427 8939 654a c7bc
0.12909634 -0.1690864 0.0926257 0.060062196 -0.2936287 0.3482887 -0.040690336 0.12464742
0.094503276 -0.027042754 0.1286962 -0.42499453 -0.015722664 -0.18590565 -0.01124776 -0.01313045
-0.05168613 0.8119721 -0.0783386 -0.022003818 -0.0565742 0.047198184 0.12365713 0.11185697
-0.21691734 0.13074517 0.22578005 0.014128304 -0.16285339 -0.15096459 -0.18110643 -0.08487102
-0.04253992 -0.043221302 0.33927226 0.08753117 0.04190007 -0.009469512 -0.04518594 0.03213881
-0.04004209 0.019257482 -0.14275227 -0.012220054 -0.0020295612 -0.046461925 0.62207556 0.024324084
0.16597998 0.30424637 -0.3287923 -0.3513706 -0.25802767 -0.3309044 -0.1255993 0.09206062
0.0144809205 -0.01551609 0.30300272 -0.17386892 -0.14834386 0.010447105 0.0113803055 -0.0018924242
0.59211034 0.00052700593 0.1496461 -0.05732261 -0.020271486 -0.00700847 -0.64393145 0.12141807
-0.13965575 0.009971445 0.010756183 -0.023271494 0.640298 -0.027064476 0.013403164 0.18752334
-0.009035249 -0.0073455707 0.10962739 -0.77656347 0.10508303 0.15064995 -0.0385126 -0.057586856
-0.18622772 -0.2769406 -0.17041393 0.17698614 -0.020626651 0.004019248 0.27859303 -0.40988824
0.05253785 0.15423177 -0.050276704 0.06743079 -0.11976037 -0.37251708 0.106524564 0.31268212
0.034942567 -0.000592349 0.20950839 0.007837149 -0.09133207 -0.04549818 0.11630119 0.16381419
0.026182108 0.07167709 0.14441028 0.007153223 0.003608013 5.5139244e-05 -0.97079706 -0.010022956
0.2276776 -0.32094774 0.055178005 0.33103734 -0.20282848 0.069680944 0.16051126 0.025029171
-0.03794367 0.0019050892 -0.53765404 0.0020486042 -0.12511724 -0.123777874 0.07825188 0.032700535
0.35572076 0.24641661 -0.04822287 0.106601246 -0.01467557 -0.14693856 0.17122222 -0.11589113
-0.1535938 0.047774244 0.030611817 -0.15692946 0.119321674 -0.13724455 -0.05398853 -0.024652457
0.09815799 0.18944813 0.022388691 0.3516566 -0.006070533 -0.12117725 -0.06461237 -0.046072073
0.081319004 0.44572505 0.0028693934 0.27918243 0.08274474 -0.27231884 -0.12997314 0.24250425
0.05685591 0.022920592 -0.2620828 -0.14168318 -0.091182165 -0.10034698 0.15683997 0.023910342
0.02736578 0.01281815 -0.56147915 0.01692043 -0.09497896 -0.100483865 -0.15965337 -0.048354704
0.18628527 0.1430769 0.07364545 -0.2742674 -0.019157302 -0.073727414 -0.17802578 0.016570268
0.017593851 -0.028024279 -0.29319787 0.015523287 0.21281086 0.06344509 0.015111183 0.10310097
-0.12651704 -0.08490589 0.018312471 -0.07111943 -0.06407696 -0.07811388 0.20129511 -0.08983471
0.11689481 -0.32319996 -0.0055784527 -0.06472783 -0.0047238497 -0.004074085 0.0075549614 0.81457376
-0.0944019 -0.12851898 0.039188154 -0.005990837 0.31145394 0.21348909 -0.013229452 -0.17962922
0.0048070685 0.002448148 -0.078066416 0.67317766 -0.08976105 -0.035170995 0.44008595 -0.10207936
0.34088448 -0.3829222 0.0016340651 -0.15081455 -0.033804733 0.08952822 -0.013768918 0.16968912
0.028008493 0.18725052 0.23332378 -0.038612984 0.15413225 -0.2638893 0.049767256 -0.048506662
0.06209381 0.0017028268 0.29683992 -0.0471157 0.19465292 -0.0053807665 0.00026159745 -0.024327466

linears.0.bias f4 [64]
00000000: a658 21bf cf66 a83e 9f37 3f3e 7523 e53e
00000010: a13e 91be eff6 c3be 1d7e d1bd 91ef cdbe
00000020: e6e9 f0be c218 743e 6af1 23be 6f98 313f
00000030: 8029 c23e b170 27ba f554 32bf b4b7 00bf
00000040: 196f 18bf 8523 ddbe 1c71 33be b44c 80bd
00000050: c4b7 38bf 7cc1 14bf 93aa 9a3e 87e7 f43d
00000060: 5e62 d93e b72d 1dbe c0e0 8d3e f2cb f6be
00000070: 8ba3 f73e 5ce0 f2be 21e1 033f b250 2abf
00000080: e141 02bf 2252 55be cdb1 c6be 3a57 0d3d
00000090: f595 08bf e2b0 81be 5ae5 cfbe 6067 81be
000000a0: e7ff 243f cb6b 333f 53b1 5bbe 03de bc3e
000000b0: c689 8cbe 7d7e 36bf 61f7 633d 8752 ffbe
000000c0: 1e90 28bf 28bb b53e 77de b1be 01f3 1fbf
000000d0: 89df 10be 75a8 f5be c0b0 96bd 42f1 1e3f
000000e0: ad84 b93e 1c27 c5be 4402 283f 3cb6 20bf
000000f0: bb4b 7f3e dfd6 f43e 3adb 8f3d c017 4e3e
-0.6302589 0.32890937 0.18673562 0.44753614 -0.28368095 -0.38274333 -0.10229132 -0.40221837
-0.4705345 0.2383757 -0.16010061 0.6937322 0.37922287 -0.0006387337 -0.69660884 -0.5028031
-0.5954452 -0.43191162 -0.17523617 -0.0626463 -0.72155404 -0.58107734 0.30208263 0.11958223
0.4245786 -0.1534947 0.27710533 -0.48202473 0.4836696 -0.47436798 0.51515394 -0.6652938
-0.50881773 -0.20832112 -0.38807526 0.034507014 -0.53353816 -0.25330263 -0.4060467 -0.2527418
0.64452976 0.70086354 -0.21454363 0.36888131 -0.27448863 -0.71286756 0.05565584 -0.4986765
-0.65844905 0.3549435 -0.3474004 -0.6248017 -0.14147772 -0.47980085 -0.07357931 0.6208688
0.36234036 -0.385064 0.6562846 -0.6277807 0.24931233 0.47820184 0.07024236 0.20126247

linears.1.weight f4 [64, 64]
00000000: 78bd ea3d 8627 29bd f324 5d3d 0eb1 0fbe
00000010: 838b fb3c a052 84bc d99b 933b 4e96 74be
00000020: 1112 023e cfa2 303c c0f3 95bc 2e7e 38be
00000030: 2579 7f3d 3048 3e3c 70fc 883e d53a a4bd
00000040: 1dcf 903d 1fd1 963d cd26 933d 908b ec3d
00000050: 6f0a 6bbe 589d 043e 3eda 333d 0645 7cbc
00000060: 2af4 133e b4db 54be c568 a53e 5d12 febc
00000070: ca24 12be 69f0 8f3c 3330 6dbd c63b bb3d
00000080: cf2c e9bc fe57 863e 11cc 08bc a4c8 a3be
00000090: ba3c 323d 32e7 603e 0c5d 69be fe15 9ebb
000000a0: cf8f 0a3c ecb6 36be 8623 543e 2f10 c53d
000000b0: 3265 8e3e 0c27 063e 1259 bbba 220f e6bc
000000c0: bd84 be3e 0852 c93c ad74 153e fd97 a4bd
000000d0: a498 913d 5122 023d 8723 473e fc29 54be
000000e0: ce18 183b 18e8 2ebd 2ef4 273d b383 033d
000000f0: e229 25be f255 2fbd 1ddd 9c3d f3ab 3c3d
00000100: 4f84 c23d 15ab 4c3d 6bce 273e b485 a5bc
00000110: b4de 323e 2152 1d3e 72fe c0bc 2500 79bd
00000120: 55b0 be3e 3959 87bd b102 56bd 4413 9fbb
00000130: 422c 2a3d 92ef e5bd d727 f5be 5abb 953b
00000140: 83d7 fbbd dfe6 8d3d 2289 f13d 9f0e b5bd
00000150: 6556 6d3e df3e e4bc 42b9 3d3d 26e2 293e
00000160: 69b7 c63d e15f 783d 925d 5d3e 114e 753d
00000170: 3b27 8bbd 3905 873d bb6b c0bc fd56 5cbe
00000180: d9ca 7bbe 1ceb 333e 12ce 263e aed3 813e
00000190: ed9f 443d b8f6 433d 4eb0 f5bd e363 6b3e
000001a0: c3e1 3fbd 5947 6cbe 3c99 aabd 24f3 3a3d
000001b0: 70dc 21bc 2bfe f13d f8f7 913d 86db dbbb
000001c0: 8068 293c 6eb3 643d 6363 32be 42b8 0dbe
000001d0: a10d 1e3e d57f 06be 07b4 73bc 1c6d 2abe
000001e0: 6e36 163d 42da 02be 0363 8a3d bd9f 40be
000001f0: 49b8 8abc ddb7 043e ee70 b3be f97f efbc
00000200: 8af9 80bd c66f 123d ca54 3abd 1969 acbc
00000210: d1d8 373e 4100 b63d a3ed 2a3d ce6e ecbc
00000220: 4454 f2bd 9179 76bd 179e 2dbe 95e2 27bd
00000230: f836 013e 0391 3abc 4dc4 e23d 5c5e 803c
00000240: 5bc7 5dbe a2da 213e b39e c23c a178 203e
00000250: 7b3a 3ebd f580 8bbc 104f a639 955a 08be
00000260: dc4a fa3c 615a a2be 5c2a 7d3d 0545 bdbb
00000270: 3667 26bd 6eaa 30bc aff9 c0bd 19b2 833d
00000280: 3164 37bc 34e3 1d3e f021 6dbc 049f abbe
00000290: 37b0 b03c 52d1 f0bd be8c 0fbe 2486 7f3d
000002a0: f1c8 973d 0c00 febd f41a 0bbc ea8c e33d
000002b0: 4f04 113e 42cf e9bd 5548 32be fc0e 0a3e
000002c0: 5f7f 12be 0824 90bd f4ff a63c 8605 9abd
000002d0: 34dc 9fbd b817 f3bd 8530 263e f399 59be
000002e0: da7e 4fbd fd5c bebd 7b6b 9abd 4ca1 2e3d
000002f0: 551d 43be 2868 91bd 2f0c 1e3e b229 853d
00000300: 4598 913e 1590 c0bc 4d1f afbd 1fe1 f5ba
00000310: 3167 d63d 2599 97bd 6f82 18be 3902 bcbe
00000320: b635 653e 6bdf 543d 2c48 4bbe dbad bcbe
00000330: e1b2 5cbe ed33 afbd e50b 5cbf b526 9fbe
00000340: dbbc a2be 218f a5bd da14 8e3d e4cf 9bbe
00000350: a6e1 633e 675f a0bd 193a 3cbe e913 9e3b
00000360: d5fd f2bc ebf4 113d 46ca 16be dc8f b9bd
00000370: 974e 40be 195f 3cbe ccc7 16be 0fae 7abe
00000380: ea04 bebd 54f7 003e f4bf 89bd 34d2 bfbd
00000390: aed0 1abe 3f94 88be 0a4c 7abe b8f5 153d
000003a0: b81d 3cbe f868 57be b9ba cabe d6a7 ebbd
000003b0: af4d 39bd 8c2f d4be 1e0e 58be 2366 05be
000003c0: ce62 08be 5d11 e8bd 2e75 a8be 622e 61be
000003d0: 5e8a 0c3e 1394 75be cdd1 b3bd 4583 03bd
000003e0: b659 7c3d a5f9 a1be 5987 67be 4c4d 7ebe
000003f0: da21 1cbe bc45 a2bc ad6a e0be 2031 b0bd
0.114619195 -0.041297458 0.053990316 -0.14032385 0.030706173 -0.01615268 0.0045046625 -0.23885462
0.12702204 0.010781004 -0.018304706 -0.18016884 0.06237139 0.0116138905 0.26755095 -0.08019034
0.07070754 0.073641054 0.07185135 0.11550057 -0.22953199 0.12950647 0.043909304 -0.015397316
0.1444861 -0.20786935 0.32306495 -0.031014616 -0.14271846 0.017570691 -0.057907294 0.0914226
-0.02846375 0.26239008 -0.0083494345 -0.31989014 0.043514945 0.21963194 -0.22789401 -0.004824399
0.008457138 -0.17843217 0.20716676 0.096222274 0.2781158 0.13100833 -0.0014293513 -0.028083388
0.37210646 0.024575248 0.1459529 -0.08036802 0.07109192 0.031771008 0.19447146 -0.20719141
0.0023208144 -0.04270181 0.041004352 0.03210802 -0.16129258 -0.042806573 0.076593615 0.04606242
0.09497892 0.049967844 0.16387336 -0.020205356 0.17467767 0.15363361 -0.023558829 -0.060791153
0.37243906 -0.06608815 -0.05224866 -0.0048545916 0.041546114 -0.11227335 -0.47881958 0.004569453
-0.12296965 0.06928801 0.11793734 -0.088406794 0.23177488 -0.02786201 0.046319254 0.16590175
0.097029515 0.060638312 0.21617725 0.059888903 -0.06794592 0.06592793 -0.02348887 -0.21517558
-0.24589099 0.17570156 0.16289547 0.2535681 0.04800408 0.04784271 -0.11996518 0.22987323
-0.046846163 -0.23074092 -0.083300084 0.045642033 -0.009879217 0.11816057 0.071273744 -0.006709519
0.010339856 0.05583518 -0.17420726 -0.1383982 0.15434887 -0.13134702 -0.014874465 -0.16643184
0.036673002 -0.12778571 0.06757166 -0.18810935 -0.016933577 0.12960763 -0.35047096 -0.029235827
-0.06297596 0.035751127 -0.045491017 -0.021046208 0.17953803 0.08886767 0.041730534 -0.02886143
-0.11832479 -0.06017453 -0.16954838 -0.04098757 0.12618625 -0.011387113 0.11072598 0.015669994
-0.2165808 0.15806058 0.023757314 0.15671016 -0.04644249 -0.017029265 0.00031720893 -0.13315804
0.030553274 -0.3170958 0.061807975 -0.00577605 -0.040625773 -0.010782821 -0.09422623 0.06430454
-0.011193321 0.15418702 -0.014473423 -0.33519757 0.0215684 -0.11758675 -0.14018533 0.062383786
0.074113734 -0.12402353 -0.008490313 0.111108616 0.141618 -0.114164844 -0.17410405 0.13482279
-0.143064 -0.070381224 0.02038572 -0.07520585 -0.07805672 -0.11869758 0.16229446 -0.21250133
-0.050658084 -0.0929508 -0.075400315 0.042634293 -0.19054158 -0.07099944 0.15434335 0.065020934
0.28436485 -0.023506204 -0.08550892 -0.0018759108 0.10468901 -0.07402257 -0.14893506 -0.36720446
0.2238377 0.05197088 -0.1985175 -0.3685139 -0.21552612 -0.08554826 -0.8595565 -0.3108422
-0.3178471 -0.0808394 0.06937571 -0.30432045 0.22254047 -0.078306966 -0.18381537 0.004824151
-0.029662052 0.035633963 -0.14725599 -0.09060642 -0.1877998 -0.18395652 -0.14724654 -0.2448046
-0.09278281 0.12594348 -0.06726065 -0.09366265 -0.15118667 -0.26675603 -0.24443069 0.03661129
-0.18370712 -0.21036136 -0.39595583 -0.115066215 -0.0452401 -0.41442525 -0.21099135 -0.13027243
-0.13318941 -0.11331437 -0.329019 -0.2199035 0.13724658 -0.23982267 -0.08780251 -0.03210761
0.061608993 -0.31635776 -0.22610225 -0.24834174 -0.15247288 -0.019808643 -0.43831387 -0.0860312

linears.1.bias f4 [64]
00000000: 992b c23e 3814 efbe 1caa da3e 0e8f d4be
00000010: c7a0 f33e 68aa f13e a2fe 19be 8638 f2bc
00000020: 6906 d43e be35 45be b105 6c3d 170a 97be
00000030: bbae 083f 2729 403e d783 123f 7fa7 52be
00000040: 7e4a ba3d ece8 a43e 6c37 cdbd f2bf 19bd
00000050: d35f f5be e1b9 c53e 9551 333e ef4c 0dbe
00000060: 69b3 bb3e dfe8 8bbd 85b7 183f fa95 0cbe
00000070: ca69 e2be 7d3a 853e a0fd da3e 47b0 fb3e
00000080: 9bef 18bd cac4 f03e 6f7b 86be 0e7b 733e
00000090: 5d13 50be 96ec c93d 9c71 04bf c802 2dbe
000000a0: 7ea5 debc 9334 42be fb5a 623c 1ecc d7bd
000000b0: 0a5e f43e d785 2bbd 923b b8be 9e96 273f
000000c0: 09ec 053f 0310 65be 1c7d fc3e c9fe 0e3f
000000d0: 29aa 943e fe98 583d 5cc5 163f c91c 83be
000000e0: f063 533e c56c 64be d658 7b3e 599a 0b3f
000000f0: aa43 22bf efde 87be 6e9a 603d 0957 85bd
0.37923887 -0.46695113 0.42707908 -0.41515392 0.475836 0.47200322 -0.15038541 -0.029567968
0.4141114 -0.19258782 0.057622615 -0.29499885 0.5339162 0.18765698 0.5723242 -0.20571707
0.090962395 0.32208955 -0.100203365 -0.03753657 -0.4792467 0.38618377 0.1751159 -0.13798879
0.36660317 -0.06831526 0.5965503 -0.13729087 -0.44221336 0.26021186 0.42771626 0.49157926
-0.03733788 0.47025138 -0.26266047 0.2377741 -0.20319887 0.09859578 -0.51735854 -0.16895592
-0.027178522 -0.18965368 0.013815637 -0.10536979 0.47727996 -0.041875686 -0.3598295 0.654642
0.52313286 -0.22369389 0.493142 0.5585752 0.29036072 0.05288028 0.58894897 -0.256079
0.20643592 -0.22307117 0.24545607 0.5453239 -0.633845 -0.26537272 0.054834776 -0.06510741

linears.2.weight f4 [5, 64]
00000000: 5353 45be fd58 03be f0c8 66bc 26b7 a8bc
00000010: b000 13be f3fa 04be 9ea4 d4bd 0e0b 0fbc
00000020: db06 67be 2f66 d6bd 3d5a c23b 6147 47be
00000030: 7140 44be 096d 14bc 6362 66bd 5501 943c
00000040: da7f 613d d80a 1c3c ef4a ffbc bc45 723d
00000050: 845c fc3d 1a3c 19be cd03 843c cbf8 b4bc
00000060: 1083 b0bd fb43 c63d 2d5e 17be 9cc4 ab3d
00000070: e7f1 76bd 1adc 92bb 2e45 f8bd a1f7 1abd
00000080: a2a0 193d 8169 65bd 0747 09be ae6f b23b
00000090: e8af 0ebd fe2d 0d3d 6ad9 183c d2e3 96bd
000000a0: 3117 c0bc 9019 8abd d7fd 63ba 6fc0 afbd
000000b0: c7f2 0dbe cc45 593d e870 1b3d c5b3 0fbe
000000c0: f96b 4cbe 45ac 15bd 8f8d febd 4a63 1ebd
000000d0: dd74 b7bd fbe8 17bd 400c 7abe cb74 cb3c
000000e0: e9a9 5c3c 3a4e bfbd 3364 98ba 790c 20be
000000f0: f1ea bd3d b87e 90b9 75f8 2b3b 17e4 76bd
00000100: 4cf9 25be 1c6d dc3d ae7e 2dbe 3b01 ccbb
00000110: 6a9f 20be 9a54 6a3d ed0d b43d a5e5 943d
00000120: 7334 51be 3561 203d ab2c dbbd eabd d5bc
00000130: a58f 59be e461 e6bc 5671 8cbc 0e3c bebd
00000140: 3a18 243d e886 e2bc bc5c 0bbd 3007 abbc
00000150: 65dd 67bc bf15 03be aa14 01bd 3e8f 94bd
00000160: 420a 16be 592a 1cbc 5a3f 43be 480e f9bc
00000170: a6e2 873d 2aed 65bb 436c f4bd 2a32 6dbd
00000180: 9f4b 12bd 88a5 cbbd af52 db3c 9717 84bc
00000190: c09f 50bc bd01 d4bc 2c6e e5bc 9d39 75bd
000001a0: c542 07bd 1954 bfbd f63c 433d 248a 6ebd
000001b0: 81a7 19be d33e c73d 5e78 d93d 31d5 0fbe
000001c0: 2f93 44be 6e84 bfbc 0ef6 3fbe 77e0 bdbd
000001d0: 456b 99bd 54f8 95bb 3d1e 62be d4ba af3b
000001e0: 2858 89bc de07 233d 00b9 2ebc cbad e0bd
000001f0: e274 3ebd 9ecb eebc 00c0 32bd 0d2a 81bb
00000200: 9447 21be 47bf e2bc 3202 00be 085d 873d
00000210: f8b7 56be 61ae 193e 74b3 babd 7027 653d
00000220: 765b 94bd 389e c13c e5f2 b23b 52b4 77be
00000230: afe5 5abe 43fd 16bc 1c9f 7dbe 30e0 1f3d
00000240: 264b fabd 0c0a 983a 3351 063d 9c2e 3f3d
00000250: 582f 1fbd 735b c0bd 14a5 e6bc c559 44be
00000260: 766e c1bd 7666 553e 8fb6 82be a09c 083c
00000270: f9e0 a53b f4f8 d03c 3f01 04bd 3ace 81bd
00000280: 1011 f73b 1202 23be 148c 243d 9f21 94bd
00000290: a45b 9d3d 4632 e4bc 5589 f83d 9849 51bd
000002a0: ffd5 3bbc ae22 f7bd a739 9a3d e956 2bbe
000002b0: fc16 62be d414 04bd 2a44 853d c067 95bd
000002c0: 40c5 0abc 50c8 acbd a436 12be 12f2 2dbd
000002d0: 8df9 6dbc c706 9a3c 0c49 6dbe 3edc 133d
000002e0: 5cd5 e8bb 4d6a 5ebe 7ec8 f8ba dd94 1bbe
000002f0: 5312 0e3d 4395 8abc 9a8f a63c cfb8 cd3c
00000300: 78c6 34be 415d 29bd 094b 76be 2215 a2bd
00000310: 1e1d 79be 48bf 95bc c838 4a3d 78e7 b4bd
00000320: 03d5 fcbd 337e fa3a c7b9 e73c e7c8 a6bd
00000330: 03b2 c1bd 6ae3 b8bb 500f 68be 8dcb 4cbd
00000340: 19cc 933e 6efc 77bd e78b 7cbc ccd8 023e
00000350: 3580 813b 51ae f8bd 6241 cbbc c33a 22bd
00000360: 9fdd 18be 5fd3 c3bc 47ac 4ebd 5c81 73bd
00000370: da6f 833d b40c e43c 3ab3 ddbd 9a4d bdbd
00000380: d9e0 153e 4d83 14be 1696 e63d 3490 113d
00000390: 6a46 f03d 3246 c8bc 4048 08bd 4083 963c
000003a0: 398d f43c 3a01 6ebd 7270 3cbd 5f5d 6dbd
000003b0: 66ab 73be 417a ac3d e04d 83bc 4515 3bbe
000003c0: 3d93 9fbd cda4 53bc d789 09be bee8 f8bd
000003d0: f5ba cebc 77c6 b3bb 57ad 84be 149c c6bd
000003e0: 8f4c 1abd 8809 83be 59af 95bc 0d47 ecbd
000003f0: 936b e93d 33fe 92bd 9ea4 efbc 18a6 ccbb
-0.19270067 -0.12826915 -0.014085993 -0.020595144 -0.14355731 -0.12986355 -0.10382961 -0.008730663
-0.22561209 -0.10468709 0.0059311674 -0.19460823 -0.19165207 -0.009059199 -0.056246173 0.018067041
0.05505357 0.00952407 -0.03116366 0.059148535 0.123223335 -0.14964333 0.016115094 -0.02209129
-0.08618748 0.09680935 -0.14782019 0.0838711 -0.06028929 -0.0044818046 -0.1212257 -0.037833814
0.037506707 -0.05600882 -0.13406001 0.005445442 -0.034835726 0.03446769 0.009329179 -0.07367672
-0.023448559 -0.06743157 -0.0008697188 -0.08581626 -0.13862143 0.05304508 0.037949473 -0.1403342
-0.19963063 -0.036541242 -0.12429344 -0.03866891 -0.08957837 -0.037087422 -0.24418736 0.024835965
0.013468244 -0.093410924 -0.0011626541 -0.15629758 0.09273327 -0.00027560233 0.0026240621 -0.060276117
-0.1620838 0.107629985 -0.16942856 -0.0062257326 -0.15685812 0.05720959 0.08791719 0.07270364
-0.20430164 0.039155204 -0.10701879 -0.026091535 -0.21246202 -0.02812285 -0.017143887 -0.09288798
0.040062167 -0.027652219 -0.034023985 -0.02087745 -0.014151906 -0.12801264 -0.031513847 -0.07253884
-0.1465235 -0.009531581 -0.19067135 -0.030402318 0.06635027 -0.0035083988 -0.11934712 -0.05790917
-0.03571665 -0.09943682 0.026772825 -0.01612453 -0.0127334 -0.025879735 -0.028006636 -0.059869397
-0.03302266 -0.09342212 0.04766556 -0.05823721 -0.15005304 0.0972878 0.10618661 -0.1404617
-0.19196771 -0.023378577 -0.18746206 -0.09271329 -0.07491163 -0.004576722 -0.22081847 0.005362848
-0.016765669 0.039802425 -0.010664225 -0.109706484 -0.046498187 -0.029149827 -0.043640137 -0.0039417804
-0.15749961 -0.027679099 -0.12500837 0.06609541 -0.20968616 0.15007927 -0.09116259 0.055945814
-0.07244007 0.023635015 0.005461084 -0.2418988 -0.2137668 -0.009215656 -0.24767727 0.03903216
-0.12221365 0.0011599674 0.03279228 0.04667531 -0.03886351 -0.093924426 -0.028154887 -0.1917487
-0.09444897 0.20839867 -0.25529906 0.008338124 0.005062219 0.025509335 -0.03222775 -0.06338163
0.007539876 -0.15918759 0.04017265 -0.07232975 0.07683495 -0.027856003 0.12135569 -0.051095575
-0.011464595 -0.120671615 0.075305276 -0.16732372 -0.2207908 -0.032246426 0.06507142 -0.07295179
-0.00846988 -0.08436644 -0.14278656 -0.042467184 -0.01452483 0.01880206 -0.23172396 0.03609871
-0.0071055125 -0.21720238 -0.001898065 -0.15193506 0.034685444 -0.016916877 0.020332146 0.025112538
-0.17653835 -0.0413487 -0.24052061 -0.07914187 -0.24327514 -0.018279687 0.049370557 -0.08833212
-0.12345316 0.0019111097 0.028286828 -0.08143788 -0.09457781 -0.0056423442 -0.22662091 -0.04999881
0.28866652 -0.06054347 -0.015414215 0.12778014 0.003952051 -0.12142623 -0.02481145 -0.03960682
-0.14928292 -0.0239045 -0.050457265 -0.05944954 0.06417818 0.027838089 -0.108252004 -0.09243317
0.14636554 -0.14503212 0.11259095 0.035537913 0.117321804 -0.024447534 -0.033272028 0.018373132
0.029852496 -0.05810664 -0.046005674 -0.057950374 -0.23795852 0.084217556 -0.016028345 -0.18269832
-0.07791755 -0.01291771 -0.13431488 -0.12153767 -0.025235632 -0.0054863053 -0.25913498 -0.09697738
-0.03767067 -0.2559321 -0.018272089 -0.11536989 0.11397471 -0.07177391 -0.0292533 -0.006245386

linears.2.bias f4 [5]
00000000: f8bf 00bf d645 e5be e41e e9be 50c3 dbbe
00000010: c528 01bf
-0.5029292 -0.44779843 -0.4553138 -0.4292245 -0.50452834
