dqn-exp/savedir/teacher/checkpoint0--model.pth (torch_old, 20763 bytes, 6 tensors)

linears.0.weight f4 [64, 6]
0.098148644 -0.2161649 0.18036377 0.40321714 -0.09319958 0.312151 -0.123519 -0.16685298
0.31710815 0.04244545 0.009604573 -0.22995499 0.097329974 -0.31894672 -0.20293531 -0.022184253
-0.11475459 0.3852471 0.1742881 0.029495507 0.24827862 -0.36989546 -0.10075319 0.022967756
-0.4081835 0.35799193 -0.39120114 -0.26777905 0.016695797 -0.0051213205 -0.025236607 0.08954576
-0.40602884 0.24488991 0.36460888 0.2106896 -0.025731713 -0.19291186 -0.16430385 0.13248283
0.022767335 -0.15077665 -0.031731993 -0.37818745 -0.042551637 0.35478312 0.3792289 -0.02485019
0.29324895 -0.31144372 -0.28156722 -0.21628322 -0.08598471 -0.36139262 -0.3237005 -0.021712184
-0.12965286 0.04255557 0.14353007 -0.25088963 0.33911717 0.018883139 -0.27781352 -0.16112049
0.36779428 0.29402316 0.33727694 -0.1551477 0.22261459 0.21339977 -0.3642861 0.0064891577
0.2339729 -0.16145235 0.15480441 -0.02246803 0.38943017 -0.14881894 0.2868508 -0.38425198
-0.004869908 -0.07209197 0.220545 -0.31492233 0.012676537 0.1034165 0.0021031797 0.0910829
-0.34039646 -0.31040445 0.017311811 -0.36777022 0.063687414 -0.040849805 0.15465963 -0.20753887
-0.0020430386 0.20135564 0.23933405 0.38388836 -0.34523356 -0.17140928 0.3887359 -0.14848205
-0.120587796 0.2467652 0.18046904 -0.027264506 -0.08835983 -0.28029603 -0.35028398 0.21319419
0.36319292 0.3693152 -0.011827916 0.36870068 -0.20955704 -0.029275328 -0.26824793 -0.21001066
-0.16922608 -0.12007165 -0.0069984496 -0.16561805 -0.26702684 0.35142875 -0.120606095 0.20000345
0.05458656 -0.08098742 -0.38473988 0.24924469 0.3823791 0.35048825 0.102363646 0.18627512
0.28720933 0.20822126 0.29124653 0.38848734 -0.26928097 -0.00580433 0.25780863 -0.40021193
-0.34514523 -0.022252053 -0.29085088 -0.3981463 0.18397999 -0.20214155 -0.21754485 0.035102874
0.31600368 0.17984372 0.0944224 0.2473082 0.3017311 0.10157299 -0.055767506 -0.37202945
-0.034186125 0.25948852 -0.35115856 -0.105722815 -0.36480382 0.13772613 -0.36705482 -0.3447256
0.07583597 -0.020787776 -0.28968477 -0.36183864 -0.17595321 -0.050961673 -0.16225298 0.07128298
0.16951698 -0.4063741 -0.34151962 0.08106053 -0.13783002 0.24068856 -0.40042776 -0.21948716
0.12433261 0.27118278 -0.124476254 0.2607243 -0.37717775 -0.34048113 -0.2636991 0.1388287
0.3490023 -0.06754151 -0.18373317 -0.098955125 0.051125318 0.13836056 0.24168193 0.27257353
-0.12786585 -0.39015922 -0.07568857 -0.18966267 -0.10264817 0.064477146 0.12916076 -0.34323472
-0.14049995 -0.2935535 0.25428873 0.06894848 -0.21036229 -0.071537316 -0.03606084 0.3158254
-0.1539425 -0.13245097 -0.04665959 -0.25841367 0.24104297 0.106505275 -0.24080685 0.28839183
0.0630734 -0.056502998 -0.057171255 0.26189053 -0.14685678 0.23052007 0.4020995 -0.24116562
0.080770224 -0.15137893 -0.05258131 0.24585754 0.37810093 -0.028196782 -0.06975448 0.25130904
0.19144666 0.24986213 0.2613687 0.029673338 0.15327394 -0.40094116 0.29429317 -0.17161003
0.21192658 -0.0019032061 0.12267333 -0.16431367 0.1407525 -0.37395388 -0.11815074 0.07494876
00000000: 2802 c93d 555a 5dbe 48b1 383e 7a72 ce3e
00000010: 6cdf bebd 42d2 9f3e 88f7 fcbd 82db 2abe
00000020: 005c a23e 48db 2d3d 805c 1d3c 5279 6bbe
00000030: f054 c73d fc4c a3be 46ce 4fbe c0bb b5bc
00000040: 7404 ebbd 1c3f c53e 9478 323e 90a0 f13c
00000050: c03c 7e3e f062 bdbe b057 cebd e026 bc3c
00000060: 6dfd d0be b84a b73e 844b c8be 561a 89be
00000070: a0c5 883c c0d0 a7bb 00bd cebc c463 b73d
00000080: 03e3 cfbe 6cc4 7a3e 04ae ba3e 04bf 573e
00000090: 50cb d2bc b08a 45be 453f 28be 94a9 073e
000000a0: 9082 ba3c 3265 1abe 68f9 01bd c9a1 c1be
000000b0: a04a 2ebd 22a6 b53e 4a2a c23e a092 cbbc
000000c0: ba24 963e 8d75 9fbe 9429 90be 5979 5dbe
000000d0: c018 b0bd 7408 b9be 12bc a5be c0dd b1bc
000000e0: b8c3 04be c04e 2e3d 8cf9 123e 9b74 80be
000000f0: c4a0 ad3e d0b0 9a3c 933d 8ebe c5fc 24be
00000100: 884f bc3e 348a 963e 90af ac3e 0adf 1ebe
00000110: 14f5 633e 7885 5a3e b583 babe 00a3 d43b
00000120: 9896 6f3e c453 25be 0c85 1e3e e00e b8bc
00000130: 6463 c73e fe63 18be 1cde 923e adbc c4be
00000140: c093 9fbb f4a4 93bd 8cd6 613e 803d a1be
00000150: 40b1 4f3c 08cc d33d 80d5 093b ac89 ba3d
00000160: 7248 aebe 55ed 9ebe 80d1 8d3c 614c bcbe
00000170: 8c6e 823d 2052 27bd 185f 1e3e 1285 54be
00000180: 80e4 05bb 2c30 4e3e fc13 753e 048d c43e
00000190: 74c2 b0be ea85 2fbe 6408 c73e ae0b 18be
000001a0: bcf6 f6bd 04b0 7c3e e0cc 383e d059 dfbc
000001b0: 00f6 b4bd f682 8fbe 6c58 b3be 944f 5a3e
000001c0: 6cf4 b93e e216 bd3e e0c9 41bc 56c6 bc3e
000001d0: 1f96 56be d0d2 efbc cb57 89be 090d 57be
000001e0: 9a49 2dbe 20e8 f5bd 4053 e5bb c797 29be
000001f0: beb7 88be 78ee b33e 5400 f7bd b4cd 4c3e
00000200: 2896 5f3d bcdc a5bd a0fc c4be 003a 7f3e
00000210: 32c7 c33e 3273 b33e 08a4 d13d e8be 3e3e
00000220: 1a0d 933e f437 553e 441e 953e d0e7 c63e
00000230: 32df 89be 4032 bebb 7eff 833e 94e8 ccbe
00000240: e0b6 b0be f049 b6bc 68ea 94be d5d9 cbbe
00000250: 4065 3c3e 32fe 4ebe 14c4 5ebe 08c8 0f3d
00000260: 3ccb a13e f428 383e 8860 c13d 5c3e 7d3e
00000270: 807c 9a3e 8005 d03d 786c 64bd a57a bebe
00000280: c006 0cbd aedb 843e 0ecb b3be 3485 d8bd
00000290: 91c7 babe 1408 0d3e 9cee bbbe e07f b0be
000002a0: e44f 9b3d 204b aabc 9051 94be ea42 b9be
000002b0: 142d 34be 30bd 50bd a525 26be d0fc 913d
000002c0: dc95 2d3e 4410 d0be a9db aebe 1003 a63d
000002d0: 5023 0dbe 1077 763e de04 cdbe 3ec1 60be
000002e0: 18a2 fe3d 78d8 8a3e 68ed febd a87d 853e
000002f0: 711d c1be 8b53 aebe 9203 87be 1c29 0e3e
00000300: 6eb0 b23e 3453 8abd 8c24 3cbe fca8 cabd
00000310: c868 513d 64ae 0d3e 787b 773e c28e 8b3e
00000320: 44ef 02be f3c2 c7be 9c02 9bbd ee36 42be
00000330: 3439 d2bd 980c 843d b842 043e 76bc afbe
00000340: 38df 0fbe a54c 96be 2232 823e dc34 8d3d
00000350: 3669 57be 2882 92bd 88b4 13bd deb3 a13e
00000360: 1aa3 1dbe 3aa1 07be 201e 3fbd cc4e 84be
00000370: f8d3 763e 701f da3d 1296 76be 18a8 933e
00000380: a02c 813d b06f 67bd 682c 6abd 8416 863e
00000390: a061 16be 740d 6c3e fcdf cd3e 1ff4 76be
000003a0: dc6a a53d 1403 1bbe 805f 57bd 14c2 7b3e
000003b0: 7296 c13e f0fc e6bc 70db 8ebd 94ab 803e
000003c0: 980a 443e dcdb 7f3e 1ed2 853e 8015 f33c
000003d0: d8f3 1c3e 2948 cdbe 98ad 963e 8aba 2fbe
000003e0: 4803 593e 0075 f9ba 283c fb3d d841 28be
000003f0: 6c21 103e e276 bfbe 04f9 f1bd bc7e 993d

linears.0.bias f4 [64]
-0.3381 0.2144798 0.18271774 -0.01591152 -0.100664645 -0.09477949 0.023726314 -0.15490347
-0.3420024 0.20540255 -0.10898924 0.26646382 0.16328615 -0.009848058 -0.29644918 -0.1052143
-0.26482844 -0.07833886 0.08192372 -0.084314495 -0.39619145 -0.14637163 0.1597777 0.21724898
0.3502993 0.14683753 0.3319518 -0.09659171 0.38611585 -0.053267837 0.34588337 -0.24380401
-0.098930806 0.2849021 -0.0044265985 0.07022992 -0.23481399 -0.08286178 -0.28996706 0.3960309
0.40626758 0.37421203 -0.34232706 0.19781554 0.16402698 -0.401573 0.042178065 -0.045617133
-0.31177258 0.3663392 0.08315626 -0.34451708 0.11610186 -0.12784162 -0.028128743 0.4013245
0.22442877 -0.30939257 0.3393097 -0.15332463 -0.037699968 0.40142834 0.12878543 0.14452296
00000000: 711b adbe 98a0 5b3e 5c1a 3b3e e058 82bc
00000010: 4429 cebd c01b c2bd b05d c23c 049f 1ebe
00000020: f01a afbe 0c55 523e c035 dfbd f26d 883e
00000030: 7c34 273e c059 21bc 30c8 97be 987a d7bd
00000040: 9897 87be 2070 a0bd a0c7 a73d 14ad acbd
00000050: 9bd9 cabe 72e2 15be c49c 233e 8476 5e3e
00000060: 6e5a b33e 945c 163e 96f5 a93e e0d1 c5bd
00000070: fab0 c53e 602f 5abd a017 b13e c2a7 79be
00000080: 3c9c cabd b0de 913e 000d 91bb b4d4 8f3d
00000090: 1473 70be 70b3 a9bd 9076 94be 90c4 ca3e
000000a0: 4e02 d03e b898 bf3e 7e45 afbe 2890 4a3e
000000b0: b0f6 273e fa9a cdbe e8c2 2c3d 08d9 3abd
000000c0: a8a0 9fbe d090 bb3e d44d aa3d 8b64 b0be
000000d0: d0c6 ed3d eae8 02be 406e e6bc 687a cd3e
000000e0: a8d0 653e b468 9ebe 00ba ad3e 2201 1dbe
000000f0: 486b 1abd 0488 cd3e 54e0 033e d4fd 133e

linears.1.weight f4 [64, 64]
0.12289247 -0.0747648 -0.06591545 -0.07878925 -0.09992266 -0.12380633 0.031940058 0.00969255
0.0067150593 0.04132496 0.080127046 -0.10679409 -0.046649918 0.06072505 0.11933184 -0.08985369
0.0644339 0.0755983 0.11283095 -0.054188043 -0.12295638 0.036641896 0.07834919 0.033912435
0.080490574 -0.11817017 0.09175891 -0.123994455 -0.06507799 -0.06522453 -0.09223287 -0.032563105
0.06590843 0.097967625 0.026197761 -0.117069766 0.026217178 0.10497886 -0.119629666 -0.07748544
-0.026078999 -0.07649629 0.017730191 0.056687802 0.09418714 0.075393245 -0.02996926 0.04558757
0.047675207 -0.08781558 0.018934175 -0.030601755 -0.053476334 -0.0012367368 0.10221623 -0.07790902
0.025766984 0.028460905 0.08489953 -0.09422794 0.0029536486 -0.112211555 0.07882853 0.02903992
-0.03495024 0.102883086 0.05604072 -0.07347827 0.013007104 0.047714144 0.040838107 0.04319264
0.11898276 -0.073671535 -0.0122047365 0.08239859 0.028184414 -0.096053764 -0.036039308 0.12388264
0.023636654 -0.039206117 -0.023043603 -0.008927703 0.0647331 -0.024509817 -0.04370874 0.1066058
0.03572707 -0.016842082 0.06531693 0.11436503 -0.106468365 0.11666329 -0.059063867 -0.103661746
-0.12125094 0.08698134 0.057496086 0.09087081 0.049426764 0.024637908 0.05938308 0.12149458
0.07670309 -0.107088745 -0.010811284 -0.038613304 -0.057025686 0.10240199 0.08085047 0.002501607
-0.11915022 -0.09449367 0.033436835 0.020500302 -0.097427025 -0.0015909374 -0.022917032 -0.11680427
-0.044192746 -0.023149163 0.107087195 -0.10658407 0.07271576 0.024606436 -0.033079147 -0.055908576
-0.09953566 -0.09514405 -0.0034013242 0.005599141 0.1190732 0.06829144 0.11375883 0.11264692
-0.04718502 -0.07243103 -0.018309474 0.008675113 0.038929403 -0.0036091954 -0.0023749769 0.026749983
-0.119118065 0.07670458 0.04082796 -0.12483846 0.03999819 -0.077072114 0.06365006 -0.062466756
0.03393066 -0.11119309 -0.012696117 0.10687682 0.006635204 0.07250269 -0.060486376 0.035041317
-0.0172005 0.08451378 -0.063940495 0.07914743 0.0740305 -0.028382853 -0.09511031 0.11523372
0.074680746 -0.022300377 0.008069918 0.05992101 -0.048835695 -0.009281665 0.0021634847 0.056195483
-0.11187565 -0.06881805 -0.05893621 -0.09372905 0.07191685 -0.08794944 0.04480779 -0.10216302
-0.0012229383 -0.011471912 -0.020761445 0.013178557 -0.047745466 -0.0071267933 -0.044608504 0.038509488
0.122688964 0.09047033 0.048851743 0.10605097 -0.039578184 0.0036560148 -0.033211276 -0.11601266
-0.008130193 0.10964508 -0.005306527 -0.0083467215 -0.09480213 0.03147392 -0.102712095 0.029198334
-0.05612497 -0.0594773 0.114458576 -0.04290922 0.107342005 -0.019037545 -0.1004127 0.049161166
0.017263934 0.092385426 -0.107672304 -0.011683732 -0.11011201 -0.011548072 -0.041034445 0.02167423
0.06635171 0.08180447 -0.07353996 0.01299642 0.022032574 -0.053503484 0.029085144 0.079966635
0.027479306 0.04179831 -0.09612271 -0.034955814 0.042685807 -0.07370359 0.0048060417 -0.012200177
-0.035901397 -0.07011421 -0.094477534 -0.030528575 -0.03122583 0.08391993 -0.0569098 0.10560782
0.1133592 -0.03834121 -0.083542466 -0.04067169 0.05718234 0.07727845 -0.11050722 -0.06991644
00000000: 0caf fb3d 4a1e 99bd aefe 86bd 425c a1bd
00000010: 40a4 ccbd 2c8e fdbd 94d3 023d 80cd 1e3c
00000020: 000a dc3b 5c44 293d a619 a43d dcb6 dabd
00000030: fc13 3fbd d4ba 783d 4064 f43d 3605 b8bd
00000040: ecf5 833d 48d3 9a3d ea13 e73d 48f4 5dbd
00000050: 8ed0 fbbd d015 163d 8a75 a03d c4e7 0a3d
00000060: 3ed8 a43d 3403 f2bd 18ec bb3d cef0 fdbd
00000070: 9c47 85bd 7094 85bd 96e4 bcbd e460 05bd
00000080: 00fb 863d 40a3 c83d b09c d63c 46c2 efbd
00000090: 68c5 d63c 28ff d63d 6600 f5bd b0b0 9ebd
000000a0: a0a3 d5bc 16aa 9cbd e83e 913c 7831 683d
000000b0: 30e5 c03d c667 9a3d 1882 f5bc 08ba 3a3d
000000c0: 1447 433d a8d8 b3bd d81b 9b3c 88b0 fabc
000000d0: 000a 5bbd 001a a2ba be56 d13d c48e 9fbd
000000e0: 4815 d33c d826 e93c cedf ad3d 94fa c0bd
000000f0: 0092 413b 2ccf e5bd da70 a13d 20e5 ed3c
00000100: fc27 0fbd 5eb4 d23d f48a 653d c67b 96bd
00000110: c01b 553c e86f 433d dc45 273d c4ea 303d
00000120: 3cad f33d 1ae1 96bd 60f6 47bc 98c0 a83d
00000130: 00e3 e63c d6b7 c4bd f49d 13bd 2eb6 fd3d
00000140: a8a1 c13c 9896 20bd f0c5 bcbc 8045 12bc
00000150: ca92 843d d0c8 c8bc f007 33bd 2454 da3d
00000160: 8c56 123d 68f8 89bc e2c4 853d 3638 ea3d
00000170: 160c dabd 2aed ee3d f4ec 71bd 9c4c d4bd
00000180: 6a52 f8bd 4623 b23d 0481 6b3d 7a1a ba3d
00000190: b873 4a3d 70d5 c93c ac3b 733d 26d2 f83d
000001a0: 8216 9d3d 5851 dbbd d021 31bc fc28 1ebd
000001b0: c493 69bd 22b8 d13d ee94 a53d 00f2 233b
000001c0: 0805 f4bd e685 c1bd 10f5 083d 40f0 a73c
000001d0: d287 c7bd 0087 d0ba 80bc bbbc 1437 efbd
000001e0: 7403 35bd 50a3 bdbc 8850 db3d c048 dabd
000001f0: 00ec 943d 7093 c93c 007e 07bd 6400 65bd
00000200: 5ad9 cbbd e2da c2bd c0e8 5ebb 0079 b73b
00000210: a6dc f33d 62dc 8b3d 64fa e83d 6eb3 e63d
00000220: 1445 41bd b856 94bd c0fd 95bc 1022 0e3c
00000230: 7074 1f3d 4088 6cbb 80a5 1bbb c822 db3c
00000240: 2cf4 f3bd 4a17 9d3d 383b 273d 4eab ffbd
00000250: 24d5 233d fcd7 9dbd f65a 823d 24dd 7fbd
00000260: e0fa 0a3d 34b9 e3bd 6003 50bc 3ce2 da3d
00000270: 206c d93b 4a7c 943d 90c0 77bd 7c87 0f3d
00000280: 10e8 8cbc 9015 ad3d 3cf3 82bd 0c18 a23d
00000290: 4e9d 973d 2883 e8bc 32c9 c2bd a8ff eb3d
000002a0: 38f2 983d 48af b6bc b037 043c bc6f 753d
000002b0: f007 48bd 2012 18bc 40c9 0d3b 3c2d 663d
000002c0: 101f e5bd 7af0 8cbd 1867 71bd 04f5 bfbd
000002d0: 2449 933d d61e b4bd 6088 373d d83a d1bd
000002e0: 004b a0ba b0f4 3bbc e813 aabc e0ea 573c
000002f0: c090 43bd e087 e9bb 68b7 36bd 20bc 1d3d
00000300: 5a44 fb3d 8248 b93d c418 483d 4031 d93d
00000310: bc1c 22bd c099 6f3b 8c08 08bd 0c98 edbd
00000320: 8034 05bc 9a8d e03d 60e2 adbb b0c0 08bc
00000330: 9e27 c2bd ccea 003d b85a d2bd 5831 ef3c
00000340: 4ce3 65bd 789e 73bd 4269 ea3d 94c1 2fbd
00000350: 20d6 db3d a0f4 9bbc 2ca5 cdbd 385d 493d
00000360: 186d 8d3c 9234 bd3d 4c83 dcbd 206d 3fbc
00000370: 6882 e1bd 2034 3dbc bc13 28bd 288e b13c
00000380: 68e3 873d 1a89 a73d 1e9c 96bd f0ee 543c
00000390: a87d b43c 7826 5bbd f843 ee3c 8cc5 a33d
000003a0: 481c e13c b434 2b3d fcdb c4bd d42d 0fbd
000003b0: 50d7 2e3d e8f1 96bd 007c 9d3b 40e3 47bc
000003c0: 580d 13bd 0a98 8fbd 707d c1bd 1017 fabc
000003d0: 50cd ffbc 36de ab3d 401a 69bd ea48 d83d
000003e0: de28 e83d ac0b 1dbd 5018 abbd 5c97 26bd
000003f0: 0838 6a3d 2a44 9e3d 9c51 e2bd 5a30 8fbd

linears.1.bias f4 [64]
-0.07818514 -0.11835028 0.07495014 0.050093874 0.0133318305 0.0805932 -0.06128286 0.08303633
-0.01627104 0.037971586 0.110834286 0.045901507 0.009636551 -0.07784453 0.12141006 0.0057703257
0.10410984 0.1152643 -0.027553648 0.10271758 -0.03906791 -0.0043471307 0.08496706 0.0508866
-0.01210326 0.031601503 0.08552402 -0.1118518 -0.07070044 0.08808507 0.07191864 0.11181401
-0.108646095 0.08263096 -0.11855629 0.03763266 -0.0979756 -0.0097154975 -0.059029624 -0.094828025
0.060860068 0.020005107 -0.006384015 -0.040513277 -0.016102597 0.079161614 -0.11943917 0.07963678
0.09062101 0.010113701 0.06515561 0.106422395 0.0123541355 -0.036548257 0.10127556 0.0826762
0.004033491 -0.024733856 0.06353316 0.047580495 -0.11999969 0.042642444 0.119518444 0.061362192
00000000: 881f a0bd a261 f2bd 767f 993d 3c2f 4d3d
00000010: c06d 5a3c 0c0e a53d bc03 7bbd f40e aa3d
00000020: d84a 85bc 1888 1b3d 16fd e23d 3803 3c3d
00000030: a0e2 1d3c f46c 9fbd d6a5 f83d 0015 bd3b
00000040: 8a37 d53d b00f ec3d 30b8 e1bc 985d d23d
00000050: ac05 20bd 6072 8ebb 3603 ae3d 786e 503d
00000060: c04c 46bc 9470 013d 3827 af3d 8e12 e5bd
00000070: 64cb 90bd f265 b43d 144a 933d befe e43d
00000080: d881 debd 6c3a a93d a4cd f2bd b424 1a3d
00000090: 6ea7 c8bd c02d 1fbc 0cc9 71bd 3235 c2bd
000000a0: 6848 793d c0e1 a33c 0031 d1bb 40f1 25bd
000000b0: 98e9 83bc 7c1f a23d 869c f4bd 9c18 a33d
000000c0: 8297 b93d f0b3 253c 4e70 853d fcf3 d93d
000000d0: 0069 4a3c a0b3 15bd 9069 cf3d 2452 a93d
000000e0: 602b 843b a89e cabc ac1d 823d c4e3 423d
000000f0: 66c2 f5bd d8a9 2e3d 16c6 f43d ec56 7b3d

linears.2.weight f4 [5, 64]
-0.10527511 -0.052355424 0.10319869 -0.06997454 -0.019891784 -0.12044881 -0.10382961 0.0041155666
-0.11798896 -0.097118706 0.0011541992 -0.09411816 -0.08309603 -0.085185215 -0.012167737 0.051513493
0.02133961 0.10423905 -0.036399946 0.07236844 0.10034701 -0.079726666 0.05396861 0.055729866
0.017194673 0.00028197467 0.00028696656 0.0838711 0.015434116 -0.023641318 -0.070972815 -0.07485059
-0.050479934 0.020861208 -0.113702744 0.110631496 -0.034835726 -0.032805488 0.090040684 -0.09807031
0.07031292 -0.04546471 0.06618385 -0.007005632 -0.009962812 0.070191115 0.049576893 -0.058141932
-0.12171635 -0.06691074 0.007093698 0.05096543 -0.08084482 -0.08377658 -0.116037995 0.012412652
-0.0067106634 -0.05263111 -0.07111682 -0.11278999 -0.10482545 -0.015888795 0.026225999 -0.09554492
-0.061830208 0.073344916 -0.11284518 -0.016830489 -0.010399401 0.10893814 0.100680605 0.085409105
-0.07739657 0.053926528 -0.0563536 0.109432355 -0.08501655 0.03210047 0.122510955 -0.059250683
0.004512608 -0.10976218 0.03698674 0.011922076 0.049022004 -0.008928955 -0.0044629276 0.07784097
-0.06973767 0.11656244 -0.04517187 -0.030402318 -0.07888806 -0.05145517 -0.036963448 0.043647274
0.033590093 -0.055899695 0.056925848 0.095727175 -0.0127334 0.004450485 -0.00041675568 -0.09987806
0.006946072 -0.059767455 0.10944867 0.10830386 -0.007894456 0.11806965 0.11839749 -0.055862173
-0.10201955 0.034059525 -0.055261225 -0.014070645 -0.029724136 0.008772984 -0.07550882 0.019129932
-0.0013550073 0.029625148 -0.011350766 -0.005193457 -0.1086158 -0.02447997 0.02297382 0.032675996
-0.092023805 -0.0038304925 -0.057373643 0.06609541 -0.10665271 0.11911656 -0.09116259 0.055945814
0.028978214 0.044288784 0.100821465 0.015215501 -0.099592716 -0.04982756 0.046693683 -0.025029808
0.041064158 0.11288096 -0.018431187 0.0058573782 -0.08193442 -0.00089628994 0.011145309 0.019402578
-0.017928123 0.102606356 -0.12494871 0.008338124 -0.027775526 0.09697354 0.025954112 0.11264394
-0.02076897 -0.10770285 0.04017265 0.023368359 0.07683495 -0.014776856 0.07998021 -0.051095575
0.05413592 -0.11135186 0.07515238 -0.12448375 -0.12127416 -0.032246426 0.06507142 0.011123031
0.10267457 -0.050102904 -0.02336222 0.0491077 0.07046786 0.054101095 -0.106298104 -0.12316118
-0.032105014 0.013420388 -0.07767144 -0.08580433 -0.044635713 -0.06591424 0.07894257 -0.076435
-0.025986388 -0.0071108043 -0.11986472 0.06111987 -0.11524071 -0.018279687 0.049370557 -0.08833212
0.012210801 0.081055894 0.0952705 -0.105198026 0.0148690045 -0.03192398 -0.0027098358 -0.019415021
0.064943165 -0.11036526 -0.014748752 0.10189766 -0.0052157342 0.018505692 -0.071189076 0.01578416
-0.042505756 -0.014445573 0.06700499 -0.05944954 0.09415889 0.10064353 -0.03248726 -0.026386231
0.10085851 -0.03950031 0.11259095 -0.09424117 0.117321804 -0.038988084 -0.060916215 0.018373132
0.082847476 0.06252608 0.013576359 -0.0541822 -0.114983335 0.11496851 -0.016028345 -0.0144241005
0.026902929 0.059557647 -0.01911144 -0.06745049 0.04879275 0.058159217 -0.092046276 -0.05507818
0.011003524 0.08263479 0.0935975 0.006867513 0.12184486 -0.040792793 0.032638848 0.09474638
00000000: 7a9a d7bd a472 56bd d659 d33d d04e 8fbd
00000010: 18f4 a2bc dead f6bd 9ea4 d4bd e0db 863b
00000020: 32a4 f1bd 2ce6 c6bd 8048 973a 06c1 c0bd
00000030: 402e aabd 9675 aebd 305b 47bc d0ff 523d
00000040: 68d0 ae3c 487b d53d 1c18 15bd e835 943d
00000050: bc82 cd3d bc47 a3bd 300e 5d3d 0045 643d
00000060: d8db 8c3c 00d6 9339 0074 9639 9cc4 ab3d
00000070: 60df 7c3c 70ab c1bc 325a 91bd 444b 99bd
00000080: 0cc4 4ebd 20e5 aa3c fcdc e8bd c492 e23d
00000090: e8af 0ebd 0c5f 06bd 4067 b83d 16d9 c8bd
000000a0: 3800 903d 3439 3abd 668b 873d 808f e5bb
000000b0: 103b 23bc 5cc0 8f3d 2411 4b3d 3c26 6ebd
000000c0: 6c46 f9bd 8008 89bd 4072 e83b 20c1 503d
000000d0: f891 a5bd 0e93 abbd 54a5 edbd 705e 4b3c
000000e0: 20e5 dbbb b893 57bd b2a5 91bd 70fe e6bd
000000f0: baae d6bd 3829 82bc e8d7 d63c 0ead c3bd
00000100: ac41 7dbd dc35 963d 601b e7bd 18e0 89bc
00000110: 4062 2abc f61a df3d a231 ce3d f8ea ae3d
00000120: 1882 9ebd 10e2 5c3d 08d3 66bd 121e e03d
00000130: 281d aebd c87b 033d 06e7 fa3d d8b0 72bd
00000140: 80de 933b feca e0bd 687f 173d d054 433c
00000150: 4ccb 483d c04a 12bc c03d 92bb 166b 9f3d
00000160: a0d2 8ebd 4ab8 ee3d 2406 39bd 480e f9bc
00000170: 1090 a1bd a8c2 52bd fc66 17bd 7cc7 323d
00000180: c495 093d 14f7 64bd 142b 693d 9c0c c43d
00000190: c09f 50bc 60d5 913b 0080 dab9 de8c ccbd
000001a0: e09b e33b b8ce 74bd a026 e03d 6ace dd3d
000001b0: c057 01bc 80ce f13d 627a f23d bccf 64bd
000001c0: a0ef d0bd 0082 0b3d 9859 62bd 9088 66bc
000001d0: 0880 f3bc 90bc 0f3c 5ea4 9abd 60b6 9c3c
000001e0: 809a b1ba 70b0 f23c 90f8 39bc e02d aabb
000001f0: f671 debd 388a c8bc 9833 bc3c 44d7 053d
00000200: fa76 bcbd 0009 7bbb a000 6bbd 085d 873d
00000210: bc6c dabd 62f3 f33d 74b3 babd 7027 653d
00000220: b863 ed3c 2868 353d 7c7b ce3d 704a 793c
00000230: 44f7 cbbd fc17 4cbd e041 3f3d 500b cdbc
00000240: e432 283d 222e e73d 00fd 96bc 40ef bf3b
00000250: 3ccd a7bd 00f5 6aba d09a 363c 28f2 9e3c
00000260: 00de 92bc 4823 d23d 1ce5 ffbd a09c 083c
00000270: 8089 e3bc 109a c63d b89d d43c deb1 e63d
00000280: b023 aabc 5093 dcbd 148c 243d 006f bf3c
00000290: a45b 9d3d a01a 72bc aacc a33d 9849 51bd
000002a0: a0bd 5d3d 720c e4bd 7ee9 993d 56f1 febd
000002b0: 965e f8bd d414 04bd 2a44 853d 603d 363c
000002c0: 0c47 d23d b438 4dbd 2062 bfbc 2825 493d
000002d0: 7451 903d 1c99 5d3d d2b2 d9bd ee3b fcbd
000002e0: 8c80 03bd 30e1 5b3c 3412 9fbd 2eba afbd
000002f0: f0d3 36bd 0cfe 86bd a4ac a13d f489 9cbd
00000300: 68e1 d4bc c001 e9bb a27b f5bd d458 7a3d
00000310: 5203 ecbd 48bf 95bc c838 4a3d 78e7 b4bd
00000320: d00f 483c a200 a63d 2e1d c33d 1072 d7bd
00000330: 209d 733c b8c2 02bd 8097 31bb 400c 9fbc
00000340: ec00 853d 2e07 e2bd c0a4 71bc b8af d03d
00000350: c0e8 aabb 4099 973c 94cb 91bd c84d 813c
00000360: 841a 2ebd 20ad 6cbc ea39 893d 5c81 73bd
00000370: 60d6 c03d 321e ce3d 5c11 05bd f027 d8bc
00000380: e88e ce3d 14cb 21bd 1696 e63d 8401 c1bd
00000390: 6a46 f03d f8b1 1fbd 4883 79bd 4083 963c
000003a0: f0ab a93d ac0d 803d 606f 5e3c 28ee 5dbd
000003b0: 627c ebbd 9c74 eb3d e04d 83bc 1053 6cbc
000003c0: 8863 dc3c b8f2 733d 988f 9cbc 7c23 8abd
000003d0: e8da 473d 5c38 6e3d c282 bcbd a899 61bd
000003e0: 2048 343c 6e3c a93d 0cb0 bf3d e008 e13b
000003f0: cc89 f93d 5816 27bd 50b0 053d 640a c23d

linears.2.bias f4 [5]
-0.057087258 0.11564165 0.013556391 0.085342735 0.07347256
00000000: 54d4 69bd 88d5 ec3d a01b 5e3c 2cc8 ae3d
00000010: c878 963d
