dqn-exp/savedir/newstudent/checkpoint1000--model.pth (torch_old, 20763 bytes, 6 tensors)

linears.0.weight f4 [64, 6]
00000000: 8f0f e2bd de06 983b 59a5 fbb8 eb4d cd3d
00000010: 3a11 b1bd c05f a73b 9b20 b03d 0102 8a3e
00000020: 269f 0c3e fed5 1abe de68 fa3c daa7 a9be
00000030: 2736 29bd b75d 323d 7efe 1b3c 2137 15be
00000040: 5ec2 c23e a20f 2ebe b09c b73d 3737 853c
00000050: 3a80 e4bc 2068 9f3d ff2a ecbe d230 16bc
00000060: 974d ffbb fc65 dbbb e46f de3e 8697 203e
00000070: 2718 043f f85c 1c3e 9d19 4a3d fe99 4bbd
00000080: c9fe d8bd bf46 333e 202a 56bc ebe7 a2be
00000090: d492 293e 924c 8d3e a06d fabc 717b 6f3d
000000a0: 9733 16be 6225 79be 0f4d 25bd 3f48 debd
000000b0: b5da 0abc 18b9 f8bb 9326 1c3d 8397 253f
000000c0: 26ea cabd b7d3 e83d 4131 55bd f051 a4bd
000000d0: 9f86 883b 7ce6 20be 1db7 17bd 6399 09be
000000e0: a343 343b b7fa dc3d b8b2 d03d 5af1 c83e
000000f0: c4ef e33d a019 713d 6838 9b3e e278 6f3d
00000100: f94e fcbd 3fa2 883c 9623 5b3e df7e 1a3e
00000110: 68a1 10be 552d 223d 8539 4cbe 433c bdbe
00000120: c623 4bbd 55a3 653d 8788 e93e 2e2e 71be
00000130: 3122 c73e 004b 4fbe 18b7 23bd 1e5d 79ba
00000140: 43d9 3a3e 1e7a f53d f4fd 933e f297 dc3d
00000150: 2340 40be a50e 923e 7bfb c3bd a5a5 2abe
00000160: 5235 003e 513b c1be 7e5b 45bd 9d83 1fbd
00000170: 24cb 303e 1cf6 183d 31f2 953d d661 5b3d
00000180: 1054 9a3d 238f f73d 0689 ce3d 758a feba
00000190: 092b e0bd 3b6f c6be 9ed8 0dbe e74c 933d
000001a0: cbb6 4cbe 7e4b fabc ffaf e23e d6a7 c0bd
000001b0: da75 4cba c53c adbb 65e8 7a3e 53f3 8e3d
000001c0: 2cc6 983e 3425 8a3d ccc7 8a3e 3320 823c
000001d0: 2890 39bd e254 02be 1252 cabe 2839 5d3e
000001e0: 0332 9b3d 883b 883e b0aa 993c 260c 08bd
000001f0: f285 07bd fc77 04bf c3f6 6cbd 5c2a a1bb
00000200: 9b1d 8d3e 3db4 033d d96c ca3e 5768 d23d
00000210: 3889 723b 4e3b b53d 0744 f43d 1f62 e83d
00000220: ec8d 7a3d ea5c d2be e966 66bd d8f7 68bd
00000230: 9c4e 323d 8d61 b3bb fd9e 5bbe 8536 043f
00000240: 5a03 833d 325a 6fbe ff97 d3bd e853 20bc
00000250: 00a8 69be fec7 c33e fd40 98bd 288b c1b9
00000260: 4ed0 c33d 5fd2 49bd 5241 ce3d d1da 923e
00000270: 518f 3ebb c6c6 9b3d 6248 123c e238 dd3b
00000280: 9346 a4bd b231 35bf 91b9 9c3d 152a d0bd
00000290: 9a0f 1cbd b3c5 093e 22f6 53be ea43 453e
000002a0: 0e6e 16bd 2f91 1dbe d661 a73c 03b4 0dbd
000002b0: 6e6f b13d f281 e93e 18d8 1c3e c5a0 943d
000002c0: d347 1dbe f048 7dbc 0952 143f d377 bbbe
000002d0: e0dd 4b3d baf8 32be 6d2f 243d a559 f3bc
000002e0: 7ea3 a4bd 8c5f 2b3f 2aec 32be e975 1d3d
000002f0: 448d 373b 84e1 1a3d dfd0 6a3e 7085 53be
00000300: 5fda 97bd 2a37 4bbe ddf3 9cbd d4c5 4dbc
00000310: 2014 133e ae91 dd3e b4c2 fb3c fa50 d83e
00000320: 8f9d 27be 93dd 77bd 1eb0 213e 898a d9bd
00000330: 727d 57bc 5194 d23b 8e8c 933d 1eea 13be
00000340: d4a1 7a3e d3cd edbe 7151 143c 3f2b c8bd
00000350: 2d1c 043c e5d4 1ebd 7c71 b73c 0c40 7a3e
00000360: 7dcc 31bd 7593 1a3e 96b3 8b3d cb42 d73c
00000370: e613 bdbd 1862 1dbf 146f 21bd b555 26bc
00000380: b130 db3d 06b4 0dbe c782 323d f747 19be
00000390: 7294 77bd e77b 21be 61f1 2d38 81ae 84bd
000003a0: 2c61 953d 5cfa f43e f9e6 903d de5a a8bc
000003b0: fa66 313e e326 fb3c f300 7fbe 4307 113d
000003c0: 9369 5bbe e8e9 263e bd49 b33d 704e 903b
000003d0: e8df be3e 45a4 debe 6909 65be ccfd e5bd
000003e0: aff0 b4bc 69ab 803d 6df1 013e fde9 60bd
000003f0: e05d 25bd 2e60 51bd b141 503e 14ee a03d
-0.11038124 0.0046394905 -0.00011999411 0.10024627 -0.08645864 0.00510785 0.08599969 0.26954654
0.13732585 -0.15120694 0.030567583 -0.33135873 -0.04131141 0.043546405 0.009521125 -0.14571811
0.38038915 -0.16998151 0.08965433 0.01626168 -0.027893174 0.07783532 -0.46126553 -0.009166913
-0.007791232 -0.006695507 0.4344474 0.15682802 0.51599354 0.1526984 0.049340833 -0.049707405
-0.105954714 0.17507456 -0.013071567 -0.31817564 0.16559917 0.2759748 -0.030569851 0.058467332
-0.14668117 -0.24330667 -0.040356692 -0.108536236 -0.008474995 -0.0075904243 0.038122725 0.64684314
-0.099079415 0.113685064 -0.052048925 -0.08023441 0.0041664387 -0.15712923 -0.037039865 -0.13437419
0.0027506135 0.107900076 0.10190338 0.39246637 0.11129716 0.05886233 0.30316472 0.058464892
-0.1231975 0.016678927 0.21400294 0.1508746 -0.14124072 0.039594013 -0.19943817 -0.3696004
-0.049594663 0.05606397 0.45611975 -0.23552772 0.38893273 -0.20243454 -0.039969534 -0.0009512472
0.18246941 0.11986183 0.28904688 0.10771169 -0.18774466 0.28526798 -0.095694505 -0.16664751
0.1252034 -0.37740567 -0.048182957 -0.038943876 0.17264992 0.037344083 0.07321585 0.0535601
0.07535565 0.12087848 0.10084729 -0.0019419926 -0.10945708 -0.38756737 -0.13852164 0.07192402
-0.19991605 -0.030553576 0.442749 -0.09407012 -0.00077995437 -0.0052867853 0.24502714 0.06980004
0.29838693 0.06745377 0.27105558 0.015884494 -0.045303494 -0.12727693 -0.3951574 0.21603835
0.07577898 0.2660792 0.018758148 -0.03321471 -0.033086725 -0.5174558 -0.057852518 -0.0049183797
0.2756165 0.03215431 0.3953617 0.102738075 0.0037008058 0.08849202 0.11927038 0.1134684
0.061170503 -0.41086513 -0.056250487 -0.056876987 0.043532 -0.0054742754 -0.21447368 0.5164569
0.06397124 -0.2337425 -0.10331725 -0.00978563 -0.22817993 0.3823852 -0.074342705 -0.00036915508
0.09561215 -0.04927289 0.100710526 0.2868257 -0.0029077122 0.076062724 0.00892839 0.0067511657
-0.080212735 -0.70778954 0.076525815 -0.101642765 -0.038100816 0.13454323 -0.20699361 0.19264188
-0.03672605 -0.15387414 0.020432394 -0.0345955 0.08663832 0.45606953 0.15316808 0.07257227
-0.1535943 -0.015459284 0.57937676 -0.36614856 0.049772143 -0.17477694 0.04008429 -0.029705832
-0.08038996 0.6694267 -0.17472902 0.038442526 0.0028007785 0.037812725 0.2293124 -0.20656371
-0.07414698 -0.19845262 -0.07663701 -0.012559373 0.14363146 0.43275207 0.03073249 0.4224928
-0.16368698 -0.060514044 0.1578984 -0.106221266 -0.013152467 0.006426372 0.07204543 -0.14444777
0.24475795 -0.46446094 0.00905262 -0.097738735 0.008063358 -0.03877725 0.02239298 0.24438494
-0.043407906 0.15095313 0.06821363 0.026276967 -0.09232311 -0.61477804 -0.039412573 -0.01015227
0.107026465 -0.13838205 0.04358175 -0.14968859 -0.060444303 -0.15769921 4.1471216e-05 -0.064785965
0.07293925 0.4784726 0.070753045 -0.020551141 0.17324439 0.030658191 -0.24902706 0.035407316
-0.21426992 0.16300166 0.08754299 0.0044038817 0.37280202 -0.43484703 -0.22366871 -0.112300485
-0.022087423 0.06282694 0.12689753 -0.05491065 -0.04037273 -0.051117115 0.2033756 0.0785791

linears.0.bias f4 [64]
00000000: 7407 58be 72c8 15bf 4c06 7bbe b32c 103e
00000010: 367c 983d d5a8 07bf 5f03 1ebf f5db c0bd
00000020: 20f4 b2be 9363 14bf 0246 ea3d 7ba0 fabe
00000030: 4073 b4be e08b 0dbd 97a0 2cbf a47a 03be
00000040: 55fd 06bf db00 9f3e 123f ae3d 4fbb dfbe
00000050: f5b2 3ebe 1864 fabc cd7a 04bf de67 95bd
00000060: c764 0fbf bcb8 a2be 427f 87bd 99f1 02bf
00000070: c8d4 fbbe 379e b53e dee8 5bbe 74ed 5c3e
00000080: dd8f f2be 8d4d c1be 55ed 003c a9af 733e
00000090: 7e5a b3be b3a1 bdbe e392 bbbe 870a d43e
000000a0: e19f a1be 3e64 f4be 832f c13d 73c7 b0be
000000b0: fd2b 41be 0346 26bd b24a 6cbe 9bfc 2fbf
000000c0: a55a 09be 7c07 0ebe 4986 b4bc cca0 e6be
000000d0: c5ef e6be 6a0d 35be 57e7 01bf 6d08 a4be
000000e0: dac3 3b3e f1ca ecbe 3c70 10bf 1c63 caba
000000f0: 649a fdbe 2573 1cbe f5c3 013e 3e09 17bf
-0.21096593 -0.5850898 -0.24514121 0.14079551 0.07445566 -0.5299199 -0.61723894 -0.094169535
-0.34951878 -0.5796444 0.11439134 -0.48950562 -0.3524418 -0.034557223 -0.6743254 -0.12839752
-0.52730304 0.3105534 0.085081235 -0.43697593 -0.18622954 -0.030565307 -0.5174988 -0.07295202
-0.5601315 -0.31781566 -0.066160694 -0.511499 -0.49185777 0.3547227 -0.2147555 0.21574956
-0.47375384 -0.3775448 0.007869084 0.23797478 -0.35029978 -0.3703743 -0.36635503 0.41414282
-0.3156729 -0.4773273 0.0943289 -0.34527168 -0.18864436 -0.040594112 -0.23075369 -0.6874482
-0.13413484 -0.13870043 -0.022036688 -0.45044553 -0.45104805 -0.17680898 -0.5074362 -0.32037678
0.1833643 -0.46248582 -0.56421256 -0.0015440914 -0.49531853 -0.15278299 0.12672408 -0.5899848

linears.1.weight f4 [64, 64]
00000000: 8e90 383e 070d 473e ef47 57be 37b2 60be
00000010: a139 583d 58c6 02bd ab41 46be d0df 853d
00000020: bf3f 9c3c 73a0 b2bd 4d89 bf3d 5c82 743e
00000030: 65ed ccbc 9296 85bd 443f 6b3e eb15 adbd
00000040: c6c1 ad3d 0c15 d73d 9084 e93c 3f3b 9ebd
00000050: da34 7e3e ecdb 2cbe 38db 803d a61d f53d
00000060: 069a aebd 08c2 22be cbde 303e ceac 20bd
00000070: 31f2 643b 16c7 de3a 359e 473b 6993 b53c
00000080: ff73 543d 8fe5 173a 0ebb 59bd c14a 8dbc
00000090: b643 533e 3f3d b0be f65a 233e c752 49bd
000000a0: d4ad eb3c a6f8 543e 11f7 01be 23fd a0be
000000b0: 6fa8 76bd f36c d9bc 5821 7dbd 2bfb 82be
000000c0: 481c 1abe 8d06 39bd 5fad 2fbe d36d 50be
000000d0: fc8d aebd 272f c63c bd93 a93c 76bd 433d
000000e0: 6dd3 aa3d 7ced 753c 4499 16bc 5393 89bd
000000f0: bc63 91bb de87 95be acf3 ff3c 755a 33be
00000100: 4d67 d3bd 4691 15be 15f1 5e3d 428b c93c
00000110: 8444 e63d dae4 0fbe bcfe 25be 7920 443c
00000120: 6004 883d 95ba 03bd 8b36 923e ea11 d0be
00000130: 0fbb 33be ba0c 083e 24ae 0d3e 772c d7bd
00000140: 5663 00be 6d7c b03d 7da1 abbc 9664 0cbb
00000150: 665e e03c c726 a33d 79c2 15be b081 f7bd
00000160: 0662 14be 533f b83a 15ec 4fbc 35ee 05be
00000170: 11a3 e4bd 5151 88bd 84bf febc 0701 d13b
00000180: 903e 21be 1272 7a3d 709d 48bb dfc4 14bd
00000190: f901 14be 042c 09be 9470 cbbd 791a 28bd
000001a0: ff22 22be a797 6b3d 1069 8b3d 3bb5 81be
000001b0: 9725 363e 7dc9 1ebd 903d d4bd 0574 fdbc
000001c0: 899c e33d 296d 27be f7e9 633d 1d4a 9abd
000001d0: 1287 8dbd 88f8 3cbc 7165 c3bd 0071 85bb
000001e0: 8313 f8bd 32fb 52be ede6 1b3e de66 a83e
000001f0: 8ad7 77bd f088 f2be c3c4 a13c ae11 80bd
00000200: 9f6a 97bd 6a3a a63d 30b5 e4bc cfde 0a3e
00000210: fc0c afbe 5a03 98be 68e8 cfbe 2507 dabc
00000220: d47e 1b3c c6ff ebbd b7c4 7f3e 62c4 c3bc
00000230: 834c 853d 002d 5f3d 3016 b13d d844 d9bd
00000240: c445 efbd c75a b03c ca7b 96bd 96bb 75be
00000250: cb58 58bd a136 153e ad65 08be a80d 1fbe
00000260: eccc cfbc 6501 97be 9895 8237 98ab 163d
00000270: d4e7 ee3b 3a83 11bd 04d6 fcbc c84f 94bd
00000280: 6003 7bbd a606 7ebe 479d d9bd e354 c5bd
00000290: d1f1 fb3d 3f72 093e 7c6e 473d 2597 443e
000002a0: 7183 60bd e907 a6bd b92c 3bbe d963 8c3d
000002b0: d9bb 86be da17 1e3e 8084 963c 439c 90be
000002c0: 3a57 5c3d 7cda 2ebe ffe3 90bd 55de c4be
000002d0: ea87 3dbe 3371 b63d 2169 fa3d 6aa3 33bd
000002e0: a497 09be a0c5 fcbe a017 e7bc a70a eb3e
000002f0: aa62 763d 4b88 f53d a9a5 61be 9fae 3abe
00000300: d7a2 d9bd 6c30 1abe 26b1 a63d 2582 32be
00000310: bfdd 97be 855f 7a3e 8056 73bd fdce 403e
00000320: 915a 2a3e 6c0c 9bbd 54d9 a2bc 8d91 953e
00000330: 0ac4 ea3b cfa0 d33b f633 323e b398 a23d
00000340: 25c7 dcbd 825b a63b 8f00 8ebd 7185 1ebe
00000350: e84a 013c 604f c3be 2555 ad3d 42ea de3d
00000360: 103b 4fbe 9b59 22be 251c 43be a9bb 22bd
00000370: 8f28 d1bd e20f 1b3e 182a afbd 6d81 bfbd
00000380: 3f0c 86bc 253e 85bd 9eb3 e4bd 882f 10be
00000390: 41e3 773e af84 1ebd e9e7 ef3d 7428 2cbe
000003a0: 2f47 393d 6181 0ebd 18c0 2cbd e6f5 2b3e
000003b0: 6c87 ebbd bb27 503e 0d1d d43d a8ca 02be
000003c0: 5d20 f33c 1e58 d63c 9722 53be 189e 63be
000003d0: 0eca 3dbe d2df a1bd d418 cc3d f412 21bd
000003e0: d647 00be cd19 813e abad 08be a9fa 35bd
000003f0: 52d6 cfbc 0fd5 abbe 5fa0 2bbe b6c1 78bd
0.18023893 0.19438563 -0.21023534 -0.21942984 0.052789334 -0.031927437 -0.19360988 0.065368295
0.019073365 -0.087220095 0.0935236 0.23877853 -0.025015542 -0.0652286 0.22973353 -0.08451446
0.08484225 0.10502061 0.028505594 -0.07726144 0.24824849 -0.16880769 0.06291813 0.119685456
-0.085254714 -0.1589433 0.17272489 -0.0392273 0.0034934396 0.0016996588 0.003045929 0.022165017
0.051868435 0.00057944 -0.053156905 -0.01724756 0.20631298 -0.34421727 0.15952668 -0.04915121
0.028769411 0.20797977 -0.12691905 -0.31443128 -0.060219225 -0.026541209 -0.061799377 -0.2558225
-0.15049851 -0.045172263 -0.1715598 -0.20354395 -0.08523175 0.024192406 0.02070033 0.047788106
0.083411075 0.015010234 -0.009191815 -0.06717553 -0.004436938 -0.2920522 0.031244121 -0.17514975
-0.103224374 -0.14606199 0.054429132 0.024602536 0.11243537 -0.14052144 -0.16210455 0.011970633
0.066414595 -0.03216036 0.28557238 -0.40638667 -0.17551826 0.13286105 0.1383596 -0.10506528
-0.12537894 0.08617482 -0.020951027 -0.0021422259 0.027388763 0.079663806 -0.14624967 -0.12085283
-0.14490518 0.0014056958 -0.012690564 -0.1307915 -0.11163915 -0.06656135 -0.031097181 0.0063782963
-0.15746522 0.061143942 -0.0030611418 -0.036320563 -0.14453878 -0.13395697 -0.09933582 -0.04104087
-0.15833662 0.057517674 0.068071485 -0.2533358 0.17787777 -0.038766373 -0.103633046 -0.030939111
0.11113841 -0.16350235 0.05564305 -0.07533667 -0.06910528 -0.011533864 -0.09540833 -0.0040723085
-0.121130966 -0.20603636 0.1522481 0.3289098 -0.06050829 -0.473701 0.019747144 -0.06253372
-0.07393383 0.0811661 -0.027918428 0.13561557 -0.34189594 -0.29690057 -0.40607 -0.026614735
0.009490687 -0.11523394 0.24977385 -0.023897354 0.06508734 0.054486275 0.0864681 -0.10608834
-0.116832286 0.021527661 -0.0734783 -0.2399734 -0.052819055 0.1457162 -0.13320036 -0.15532553
-0.025366269 -0.2949325 1.5566868e-05 0.03678474 0.0072908197 -0.035525538 -0.03086377 -0.072417796
-0.061282516 -0.24807224 -0.106257014 -0.096353315 0.12301982 0.13422488 0.04868935 0.19198282
-0.054812852 -0.081069775 -0.18278779 0.06854982 -0.2631519 0.15438786 0.018373728 -0.28244218
0.053794123 -0.17075533 -0.07074737 -0.38450876 -0.18508878 0.0890831 0.12227083 -0.043857016
-0.13436753 -0.49369526 -0.028209507 0.45906565 0.060152687 0.119888864 -0.2203585 -0.18230675
-0.10626762 -0.15057534 0.08139257 -0.17432459 -0.29661366 0.244505 -0.059408665 0.1882896
0.16636111 -0.07570729 -0.01987902 0.2921261 0.007164483 0.006458379 0.17402634 0.07939281
-0.10780171 0.0050768266 -0.069337 -0.15480591 0.007891394 -0.38146496 0.08463506 0.10884525
-0.20237374 -0.15854494 -0.19053705 -0.039729748 -0.10212814 0.15142778 -0.085529506 -0.09350858
-0.016363261 -0.06505994 -0.11167072 -0.14080632 0.24207784 -0.038700756 0.11714155 -0.16812307
0.0452339 -0.034791354 -0.042175382 0.16793022 -0.11500439 0.20327656 0.103571035 -0.1277262
0.029678518 0.026165064 -0.20618664 -0.22228277 -0.18534109 -0.079040185 0.09965673 -0.039324716
-0.12527403 0.25214997 -0.13347499 -0.0444285 -0.02537075 -0.33560988 -0.16760395 -0.060731612

linears.1.bias f4 [64]
00000000: dbcb 26bc c8bb 8ebd f715 423c e387 2a3e
00000010: 1c0c 6ebe b790 0fbc 21f4 6b3d d777 223e
00000020: f6e8 953e 3c60 1e3f 3762 97be a726 1a3e
00000030: ce38 72bd d985 45be de1a f0be fcb1 933e
00000040: f4a9 313b 3de3 083f 00fb 88be 1f06 963e
00000050: 0f46 d93e 57aa 033e 22ee 733e 564f 6c3e
00000060: a72a 37be cf5c b43e b40f 443d 23b0 d33d
00000070: 2ae4 dfbc 9c54 dfbe 96eb 90be 0037 6a3e
00000080: 9c6b 2f3d d3d9 723b 0226 4e3f 9d0a 3abd
00000090: 962b ffbd bde3 333f 7312 62be b7df ee3d
000000a0: ffda 1f3e 257e 93bd b672 e03e a2d3 91bd
000000b0: 03f4 c13e e7b8 723e 93e5 04be 1af0 0f3f
000000c0: 944d 3abd 1aec 9bbe b881 c63e d438 683e
000000d0: f8b5 d43e 070a 183e 4f70 8cbe de34 3dbe
000000e0: bded 053e 173f e23e 1296 6fbd 16f4 c6be
000000f0: 1b77 7f3e e637 363f ba83 433a 4adf 293d
-0.010180439 -0.0696941 0.011846057 0.16653399 -0.23246807 -0.00876253 0.057605866 0.15866028
0.29279298 0.6186559 -0.2956712 0.15053807 -0.059136204 -0.1928934 -0.46895498 0.2884673
0.0027109357 0.5347174 -0.26753998 0.29301545 0.42436263 0.12857948 0.23821309 0.2307714
-0.17887364 0.35227057 0.04786654 0.1033633 -0.027330477 -0.4361924 -0.28304738 0.22872543
0.042827234 0.0037056103 0.80526745 -0.045420278 -0.12459485 0.70269376 -0.2207735 0.11663764
0.15610884 -0.072017945 0.43837517 -0.07120444 0.3788148 0.23703347 -0.129782 0.5622574
-0.04548414 -0.3045357 0.38770843 0.22677928 0.4154508 0.14847575 -0.27429435 -0.18477198
0.13078971 0.4418876 -0.058492728 -0.38858098 0.24947779 0.71179044 0.00074582885 0.04147271

linears.2.weight f4 [5, 64]
00000000: 13ca 96bd ee27 c6bc 3094 37bd 4727 d03d
00000010: 3e73 9d3c b504 9fbc 418a 4e3c c30f 12be
00000020: d382 c0bc 9a50 b6be 1177 a9bb c17b ecbd
00000030: 550e 3b3d ed68 ba3d 6683 e43d b19d 063c
00000040: 52d4 b7bd 3f1b d5bd 8e7e f13c 9a12 633d
00000050: 61ad 93bd 6697 9dbe 4c0a fcbd 8131 2cbe
00000060: de4d 4cbe 84b8 8ebd c923 143d e73e 87bd
00000070: 0649 153e c879 57bd 3d69 8e3d 5986 62be
00000080: a760 80bd 3e32 a03c 76c7 0bbe 01f6 81bc
00000090: eeef 75bc 56af 27be cc25 53bc a19d 2bbe
000000a0: a83a e43d e4ff d23d 0b02 91be 147a e0bb
000000b0: e580 fbbd 3086 53bd a6c0 ecbd fdfc 8abe
000000c0: e008 b3bd 50e7 983d 3ee7 5dbe 9b53 96be
000000d0: ac8f 4bbe 314e 04bd c3b4 103c c65b 1a3e
000000e0: affe 12bd 578e 21be ea52 fe3c 3665 633c
000000f0: b357 a1be c879 97be 0db0 833e b568 8ebd
00000100: 5ef0 033d e72b 0a3d c522 fbbc 9543 c33a
00000110: ae9b 57bc 0f41 61bc 0b01 c9bc f16f 44be
00000120: 65ed 8cbc 974e bebe 03c9 ebbb ec4f 9bbc
00000130: f44a 79bc 088e a33d 445f 94bc b417 84bd
00000140: fd29 abbb 70d3 4bbe 8ef7 643c a88f ff3b
00000150: 3361 80bd c3c7 60be c19e 2cbd 6dc6 1bbe
00000160: da9d 92bc 834c 22be 0f48 d23c a03e 0dbe
00000170: 8d44 85bd 3953 6e3c dd70 cb3b 74fc 90be
00000180: cfa5 81bc a27c e0bd f63d 0bbe d096 c4bc
00000190: 078e 5abd 9621 53be c21e 6d3d 711b 44be
000001a0: a17b b6bc f2e4 543d 5337 79be 0288 51bd
000001b0: 38bd 30be 0932 33be 0a7d c0bd 1671 acbe
000001c0: 7d8e cf3d e098 5d3e 0811 3dbe 32fd fbbd
000001d0: 7c19 02be 2e60 6d3b 87b7 163c bea3 7f3d
000001e0: aa9f 913c 3a9f 0ebe 1708 81bd b630 83bd
000001f0: 6268 03be b5ae 97be 279c 583e 2361 7abd
00000200: 480b 03be b397 6ebd 0eae 2dbc d010 833d
00000210: a177 8fbc 10fa f83c 7084 253c 2164 dfbd
00000220: 7f82 94bc 1598 dcbe 218c d4bd 8244 28be
00000230: c38b 6e3b 6078 1b3e 202c 4e3d 89b6 debd
00000240: d9b0 5abe 09cb 56bd 9af5 f93b 6efc 2e3d
00000250: 147a dcbd 6527 9bbe f1c4 c93c 263b 78bd
00000260: a683 8dbd ae28 7ebd 3b7a 90bb b00f 17be
00000270: 2128 1abe 32c5 2cbe 904b df3d 9536 a5be
00000280: 221d 02bc a759 ccbd 680b 21be f971 553d
00000290: 7b0d 84bb 60fd 81be a80a 47bd ae7e dfbd
000002a0: be69 b83d 72d6 e9bc 73b6 8cbe 7002 063d
000002b0: 2c5e 3abe 7be3 2fbd 8af0 173d b391 afbe
000002c0: d517 b2bd 4a2d c03e a018 49be ffed 1ebe
000002d0: cc4e 1dbe bb0a 1d3c 2e7d a439 cae1 2e3e
000002e0: ace7 2a3c 8d95 40be 3d95 1b3d 9f3a 09bd
000002f0: 50fa 19bd a1b3 83be 8e4a a23e 7891 c9bd
00000300: b2e2 99bd 1ce6 23bd b52c bebd 6ead 46bc
00000310: 11c6 01bc ec4d 02be e853 1ebc 27c2 d3bd
00000320: 857a 3bbb 8464 05bf 61e0 aebd a11e 14be
00000330: ba0e d7bc 698e 183c 06d6 be3c 5637 2f3c
00000340: e8a2 9f3c 7c76 e5bd a4b0 e33d 084e 97bd
00000350: 573d 03be 11bf eabd 4099 29be 65d4 98bd
00000360: d86e d53d c205 04be 777e ffbd 4fd6 a13c
00000370: f917 d93d 14cc 49be d754 643d 4fb7 babd
00000380: 0d07 823a a8ff 133b b9a4 0ebe 6128 093c
00000390: 713e e63b de1e 2abe 1ea9 e6bd acd5 d0bd
000003a0: 74b2 cdbd 1539 e4bd ca37 7cbe 6e8b 893d
000003b0: 3eba 12be 8137 52be 287c e3bd 3726 a4be
000003c0: c54d f63c eb91 803d 0085 3bbe a5f7 60be
000003d0: aef4 fcbd be72 86bd fd6a 48bc f795 02bd
000003e0: 2d1f 6f3c 1ee6 4cbe c223 76be d1c7 2bbd
000003f0: 9a3a fdbd b12f 30be bcaa 803e c6fe 9bbd
-0.07362761 -0.024188962 -0.044819057 0.101637416 0.01921999 -0.019411424 0.0126062045 -0.14263825
-0.023499882 -0.3560837 -0.0051716645 -0.11547042 0.045667965 0.09102044 0.11157875 0.0082163075
-0.08976044 -0.104055874 0.029479291 0.05543766 -0.07210804 -0.3077957 -0.123066515 -0.16815759
-0.19951579 -0.06968787 0.03616694 -0.066037945 0.14578637 -0.052606374 0.06953666 -0.22121562
-0.06268435 0.019555207 -0.13650307 -0.015864374 -0.015010817 -0.16375479 -0.012887429 -0.1675935
0.11144 0.103027135 -0.2832187 -0.0068504903 -0.12280444 -0.051641643 -0.11560182 -0.2714614
-0.08741927 0.07465994 -0.21670243 -0.2936066 -0.19879025 -0.03230113 0.008832159 0.15074071
-0.035887416 -0.15776955 0.031045396 0.013879111 -0.31512222 -0.295851 0.25720254 -0.06953565
0.032211654 0.033733275 -0.030656228 0.001489746 -0.0131596755 -0.013748421 -0.02453663 -0.19183327
-0.017203042 -0.37169334 -0.0071955933 -0.018959008 -0.015215624 0.07986075 -0.018111832 -0.064498335
-0.0052235113 -0.19904876 0.013975037 0.0077991076 -0.06268539 -0.21951203 -0.042143587 -0.15212412
-0.017897535 -0.158495 0.025669126 -0.13793421 -0.06507216 0.014546209 0.0062085227 -0.28317606
-0.015826134 -0.10961272 -0.13597855 -0.023997694 -0.053358104 -0.20618281 0.05789066 -0.19151093
-0.022275748 0.05197615 -0.24337511 -0.051155098 -0.17259681 -0.17499556 -0.09398849 -0.33680028
0.10134599 0.21640348 -0.18463528 -0.123041525 -0.12705034 0.0036220658 0.00919903 0.062412016
0.01777633 -0.13927928 -0.06300371 -0.06405775 -0.12832788 -0.29625478 0.21153317 -0.061127793
-0.12797272 -0.05825014 -0.01060058 0.06399691 -0.017513098 0.030392677 0.010102376 -0.1090777
-0.018128632 -0.4308478 -0.1037829 -0.16432384 0.0036399222 0.15182638 0.05033505 -0.108746596
-0.21356525 -0.052439723 0.007628155 0.042721204 -0.10765472 -0.30303493 0.024630042 -0.060603283
-0.069098756 -0.062050514 -0.0044091023 -0.14752078 -0.1505437 -0.16872099 0.10903084 -0.32268205
-0.007941516 -0.09978037 -0.15727007 0.052110646 -0.0040299273 -0.25388622 -0.048594147 -0.10912834
0.09004544 -0.028544638 -0.27482948 0.03271717 -0.18199986 -0.04294155 0.03709463 -0.34290847
-0.08695952 0.37534553 -0.196383 -0.15520476 -0.1536209 0.009585078 0.00031373784 0.17078319
0.010431211 -0.18807049 0.03798412 -0.03350317 -0.037592232 -0.25722983 0.31697506 -0.09842199
-0.07513942 -0.04001437 -0.09285871 -0.01212631 -0.007920758 -0.12725037 -0.0096635595 -0.10339766
-0.0028606963 -0.521065 -0.08538891 -0.14464809 -0.02625214 0.009311297 0.023295414 0.010694345
0.01948686 -0.1120424 0.11117676 -0.0738793 -0.12816368 -0.11462224 -0.16562366 -0.07462386
0.104215324 -0.12892821 -0.12475293 0.01975551 0.106002755 -0.19706756 0.055744972 -0.091169946
0.0009920314 0.0022582803 -0.13930024 0.0083714435 0.0070264866 -0.16613337 -0.11262725 -0.10197005
-0.10043803 -0.111437 -0.24630657 0.06716047 -0.14328858 -0.20528986 -0.11107665 -0.32060406
0.03006638 0.06277832 -0.18312454 -0.21969469 -0.123513564 -0.06564854 -0.012232539 -0.0318813
0.014594835 -0.20009658 -0.24037078 -0.041938607 -0.12364693 -0.17205693 0.2513026 -0.076169536

linears.2.bias f4 [5]
00000000: d3da 41bf 73f0 41bf 6ca6 05bf 01b9 65bf
00000010: e330 82bf
-0.75724524 -0.7575752 -0.52207065 -0.8973542 -1.0171169
