dqn-exp/savedir/newstudent/checkpoint2000--model.pth (torch_old, 20763 bytes, 6 tensors)

linears.0.weight f4 [64, 6]
0	0x3cbaf211	0.022820504
1	0xbe26b35b	-0.16279356
2	0xbcbcd131	-0.023048969
3	0xbac7c40d	-0.0015240923
4	0xbd282e91	-0.041060034
5	0xbe5952ed	-0.2122304
6	0x3db0209b	0.08599969
7	0x3e8a0201	0.26954654
8	0x3e0c9f26	0.13732585
9	0xbe1ad5fe	-0.15120694
10	0x3cfa68de	0.030567583
11	0xbea9a7da	-0.33135873
12	0xbe2d1382	-0.16901973
13	0x3d2b2ba0	0.04178965
14	0x3d31046b	0.043217104
15	0xbd169266	-0.03676071
16	0x3ecb17b8	0.39666533
17	0xbd6e097b	-0.05811451
18	0x3e19136c	0.14948815
19	0x399a0118	0.00029373984
20	0x3b433d08	0.0029791016
21	0xbbae65b2	-0.0053221816
22	0xbf254cdb	-0.645704
23	0x3c2e4caf	0.0106384
24	0xbcf0d069	-0.029396253
25	0xbd7fa17e	-0.06240987
26	0x3e5efdfc	0.21776575
27	0x3dd56536	0.10419695
28	0x3e28627b	0.16443817
29	0x3de0d160	0.10977435
30	0xbd183307	-0.03715804
31	0x3d91c0d1	0.07116855
32	0x3cd2c01b	0.025726369
33	0x3da24480	0.079232216
34	0x3d0cd714	0.034384802
35	0xbedbebf2	-0.4295345
36	0x3e2992d4	0.16559917
37	0x3e8d4c92	0.2759748
38	0xbd7f2bfb	-0.062297802
39	0x3cdaf5c7	0.026728524
40	0xbdeb604f	-0.11492979
41	0xbe58a15c	-0.21155304
42	0xbc0c253e	-0.008553801
43	0xbde95124	-0.113924295
44	0xbc18b9da	-0.009321654
45	0x3bbab03a	0.0056972774
46	0xbc46bda0	-0.012130171
47	0x3f3786d5	0.7169011
48	0xbdcaea26	-0.099079415
49	0x3de8d3b7	0.113685064
50	0xbd553141	-0.052048925
51	0xbda451f0	-0.08023441
52	0x3b88869f	0.0041664387
53	0xbe20e67c	-0.15712923
54	0xbd1ff550	-0.039052308
55	0xbe23aa6e	-0.15982983
56	0x3b116940	0.0022187978
57	0x3e0f7b4c	0.14011878
58	0x3da44481	0.080208786
59	0x3eb2e2e3	0.34938726
60	0x3e0f3670	0.1398561
61	0x3c2c5eac	0.010520618
62	0x3dada0f3	0.08477964
63	0x3cf3a44d	0.02974143
64	0xbda5d5e3	-0.08097436
65	0x3d47d054	0.04878266
66	0x3e529f2e	0.20568535
67	0x3e836519	0.2566307
68	0xbe54d89a	-0.20785752
69	0xbdcc7494	-0.09983173
70	0xbe0c4c6a	-0.13701025
71	0xbe97b764	-0.29632103
72	0xbd24f9dd	-0.04027735
73	0x3e1caecd	0.15301056
74	0x3e81e50c	0.2537006
75	0xbd5a53d1	-0.05330259
76	0x3e78b42d	0.24287482
77	0xbea7cf71	-0.32775453
78	0xbdac8fab	-0.0842584
79	0x3d6039c0	0.054742575
80	0x3e256922	0.16153386
81	0xbce9115f	-0.028450666
82	0x3dba0717	0.090833835
83	0xbc1137aa	-0.008863369
84	0xbe404023	-0.18774466
85	0x3e920ea5	0.28526798
86	0xbd80ea39	-0.062946744
87	0xbe4e8d3c	-0.20171064
88	0x3db9b58f	0.09067833
89	0xbeafa273	-0.34303626
90	0xbcc83c22	-0.024442736
91	0x3ca2e72d	0.019885624
92	0x3e7dbcf2	0.24779108
93	0x3dbd3640	0.09238863
94	0x3e14f0f7	0.14545046
95	0x3d665e6a	0.056242384
96	0x3dbf8679	0.093518205
97	0x3dcc330b	0.09970673
98	0xbd0eadf8	-0.03483388
99	0xbbe23a67	-0.0069039348
100	0xbe9c5cab	-0.3053945
101	0xbea16995	-0.31525865
102	0xbe2bd3d5	-0.16780026
103	0x3c943983	0.01809383
104	0xbd6b227c	-0.057405934
105	0xbc222897	-0.009897373
106	0x3f0cdd60	0.5502529
107	0xbbb8d7b8	-0.00564095
108	0xbc86f74e	-0.016475346
109	0x3ca2320d	0.019799257
110	0x3e32b18c	0.17450541
111	0xbbefbc4a	-0.007316147
112	0x3e048229	0.12940277
113	0xbcaae007	-0.020858778
114	0xbd1c91df	-0.03822505
115	0xbd8b17d6	-0.06791656
116	0xbca34009	-0.019927995
117	0x3da0962d	0.07841144
118	0xbed13ff7	-0.40869114
119	0x3dc9822f	0.09839284
120	0x3dd8844f	0.10572111
121	0x3e13a9b6	0.14420208
122	0xbdd8123d	-0.10550354
123	0xbdaebf3a	-0.08532567
124	0xbde27f28	-0.110594094
125	0xbec43044	-0.38318074
126	0xbd2011a9	-0.039079342
127	0xbcb56ce7	-0.022146655
128	0x3e30167c	0.17196077
129	0x3c74d342	0.014942946
130	0x3e2c61de	0.16834208
131	0x3c80786e	0.015682425
132	0xbc135586	-0.008992558
133	0x3de4c052	0.11169495
134	0xbd3b3ea4	-0.045714036
135	0x3d96bc22	0.07360102
136	0x3d680eb7	0.05665466
137	0xbeb73f3f	-0.3579044
138	0x3dde5385	0.10855774
139	0xbdeb0d0e	-0.11477099
140	0x3da91ad9	0.08257074
141	0xbcafcc4f	-0.021459727
142	0xbe87240a	-0.26394683
143	0x3e5101a7	0.20410787
144	0x3d9811ff	0.074253075
145	0xbe48be6b	-0.19603889
146	0xbdbf9ac7	-0.09355693
147	0x3ddc3705	0.10752682
148	0xbe89000f	-0.26757857
149	0x3e8151dc	0.25257766
150	0xbce014ff	-0.027353762
151	0xbd25a6a0	-0.04044211
152	0x3c43ac70	0.011942968
153	0x3d7f5652	0.06233818
154	0xbbafdbe4	-0.005366789
155	0x3e2a63e4	0.16639668
156	0xbb18dc4f	-0.0023324674
157	0x3e15154a	0.14558902
158	0x3bde9181	0.0067922478
159	0x3ba4d2be	0.0050300052
160	0xbce0869b	-0.027407935
161	0xbf3c1eee	-0.73484695
162	0x3d9cb991	0.076525815
163	0xbdd02a15	-0.101642765
164	0xbd1c0f9a	-0.038100816
165	0x3e09c5b3	0.13454323
166	0xbe53f622	-0.20699361
167	0x3e4543ea	0.19264188
168	0x3cb02b31	0.02150497
169	0xbe0cfb6f	-0.1376779
170	0x3c4835e0	0.012219876
171	0x3c484f1d	0.012225893
172	0x3ce8abbf	0.028402207
173	0x3f023901	0.5086823
174	0xbd373a54	-0.04473336
175	0x3ce241ed	0.027619326
176	0xbd38ecc3	-0.04514767
177	0xbb8e0a5b	-0.0043347306
178	0x3f3817bd	0.7191122
179	0xbe50db9d	-0.20396276
180	0x3a864972	0.0010245277
181	0xbe249bbd	-0.16075034
182	0xbab97406	-0.0014148958
183	0x3b494a8e	0.0030714604
184	0xbc16bda6	-0.009200489
185	0x3f3e719b	0.743921
186	0xbe082459	-0.13295116
187	0x3d90e320	0.07074571
188	0x3d12ef8a	0.035872974
189	0x3bc2d22f	0.005945466
190	0x3e6ea783	0.23306088
191	0xbde1ebcb	-0.11031302
192	0xbe1f47c9	-0.15554728
193	0xbeb424ea	-0.35184413
194	0x3cc0ba6f	0.023526398
195	0x3d7c41ca	0.06158618
196	0x3e34eb8a	0.17667976
197	0x3ea10ff7	0.31457493
198	0x3cb1d11e	0.02170616
199	0x3e37d974	0.17954046
200	0x3d854bbd	0.065085866
201	0xbd71fbf8	-0.059078187
202	0xbc812047	-0.015762461
203	0x3e9fb6c1	0.31194118
204	0xbcc90bbb	-0.024541726
205	0x3d27f96c	0.04100935
206	0xbb6e28dd	-0.0036340274
207	0x3b0dc0b7	0.002162976
208	0xbd3d45ef	-0.046209272
209	0xbf0ccb58	-0.5499778
210	0xbc13f880	-0.009031415
211	0xbd72eb6f	-0.05930656
212	0x3c43b0ac	0.011943977
213	0xbbbd6092	-0.0057793343
214	0x3d8b2b82	0.06795408
215	0x3e302ceb	0.17204635
216	0x3c6e7e27	0.014556444
217	0x3e26544d	0.16243096
218	0x3bce1578	0.0062891804
219	0x3cdebbdd	0.02718919
220	0xbcf35d6d	-0.029707635
221	0xbf220e8b	-0.6330344
222	0xbd216f14	-0.039412573
223	0xbc2655b5	-0.01015227
224	0x3ddb30b1	0.107026465
225	0xbe0db406	-0.13838205
226	0x3d3282c7	0.04358175
227	0xbe1947f7	-0.14968859
228	0x3c6ecccd	0.0145751955
229	0xbe059018	-0.13043249
230	0xbb0d95b3	-0.002160412
231	0x3b8d1bb7	0.0043062824
232	0x3c91c681	0.01779485
233	0x3f0ae4f8	0.5425563
234	0x3d3b40d6	0.04571613
235	0x3ca23760	0.019801795
236	0x3d8d9e5e	0.06914972
237	0xbc5deb14	-0.0135448165
238	0xbe99529c	-0.29945838
239	0xbc8aaa6f	-0.016926972
240	0xbe4a7180	-0.1976986
241	0x3e71a660	0.23598623
242	0x3d8cf1f0	0.068820834
243	0xbd989ba5	-0.07451562
244	0x3e884eb6	0.26622552
245	0xbe805ac3	-0.25069246
246	0xbe650969	-0.22366871
247	0xbde5fdcc	-0.112300485
248	0xbcb4f0af	-0.022087423
249	0x3d80ab69	0.06282694
250	0x3e01f16d	0.12689753
251	0xbd60e9fd	-0.05491065
252	0xbde127b3	-0.109939
253	0xbda1b1fa	-0.078952745
254	0x3d9c7615	0.0763971
255	0xbbd48891	-0.0064860065

linears.0.bias f4 [64]
0	0xbe1d6059	-0.15368785
1	0xbf15c872	-0.5850898
2	0xbedc7d70	-0.4306445
3	0x3e1d2777	0.15347086
4	0xbe475618	-0.19466436
5	0xbf1a1370	-0.6018591
6	0xbf2623ba	-0.64898264
7	0xbd8b71d0	-0.068088174
8	0xbeb2f420	-0.34951878
9	0xbf1e2d1b	-0.61787575
10	0x3d9fcf2c	0.07803187
11	0xbf14b6c3	-0.5809137
12	0xbf06d767	-0.5267243
13	0xbe6bc6ce	-0.23025057
14	0xbf354f4c	-0.7082412
15	0xbe521dc5	-0.20519169
16	0xbf1f1979	-0.62148243
17	0x3e882e02	0.265976
18	0xbd8c9e2e	-0.06866108
19	0xbf1f21fd	-0.62161237
20	0xbeed19a4	-0.46308625
21	0xbe5a5c7c	-0.21324342
22	0xbf23ddae	-0.6401013
23	0xbee1fbb3	-0.44137344
24	0xbf2a2f22	-0.6647817
25	0xbeea332b	-0.45742163
26	0xbe1f4603	-0.15554051
27	0xbf02f199	-0.511499
28	0xbf109ce4	-0.56489396
29	0x3e948fe3	0.29016027
30	0xbe3f76e6	-0.186977
31	0x3d4293ff	0.04750442
32	0xbf0e17ee	-0.55505264
33	0xbe8ddf0e	-0.2770924
34	0xbd47cb45	-0.048777837
35	0x3e01bf05	0.12670524
36	0xbef21cbe	-0.47287554
37	0xbebda1b3	-0.3703743
38	0xbeda99f5	-0.42695585
39	0x3ed59b97	0.41720268
40	0xbf14942e	-0.58038604
41	0xbef4643e	-0.4773273
42	0xbe49157b	-0.196371
43	0xbf0a2cd4	-0.5397465
44	0xbebaef7c	-0.36510837
45	0xba09614b	-0.0005240633
46	0xbeac9f1f	-0.3371515
47	0xbf3b27f4	-0.7310784
48	0xbe86597c	-0.26240146
49	0xbeb42772	-0.35186344
50	0x3c0a4b71	0.008440838
51	0xbee91b5c	-0.45528686
52	0xbef730fa	-0.48279554
53	0xbe9b25ee	-0.30302376
54	0xbf0fc4e1	-0.5615979
55	0xbeb4a74c	-0.35283887
56	0x3cc02808	0.023456588
57	0xbeeccaf1	-0.46248582
58	0xbf21e3e7	-0.63238376
59	0x3cd4108e	0.0258868
60	0xbf14741c	-0.5798967
61	0xbebf5be5	-0.37374797
62	0xbcd96df9	-0.026541697
63	0xbf11a341	-0.5688973

linears.1.weight f4 [64, 64]
0	0xbe555aab	-0.20835368
1	0x3eac8855	0.33697763
2	0xbe1cf0ce	-0.15326235
3	0xbe8986fb	-0.26860794
4	0xbdaf56fc	-0.08561513
5	0xbd6717e9	-0.056419287
6	0xbeb38cbc	-0.3506831
7	0x3e9545e6	0.2915489
8	0xbe3cb26e	-0.1842744
9	0x3d939618	0.072063625
10	0x3e524d77	0.20537363
11	0x3e3db0fc	0.18524545
12	0xbec9252d	-0.39286175
13	0xbe102d62	-0.14079812
14	0x3e45b0a8	0.1930567
15	0xbd053cb6	-0.0325286
16	0x3d377cf0	0.044796884
17	0x3d8b4a04	0.06801227
18	0xbd5f9c87	-0.054592635
19	0xbe2958b4	-0.16537744
20	0x3e86f3de	0.2635793
21	0xbe28a8cd	-0.16470642
22	0x3e19ae95	0.15008004
23	0x3de30d73	0.110865496
24	0x3ea1bb8a	0.31588393
25	0xbebbf1da	-0.36707956
26	0x3e7e8ed2	0.24859169
27	0xbde66270	-0.11249244
28	0xbe324c72	-0.17411974
29	0xba9554c3	-0.0011393059
30	0x3d80380f	0.06260692
31	0x3c597538	0.013272576
32	0xbe0eb5e4	-0.13936573
33	0x3d8bffcf	0.06835901
34	0xbe1810b5	-0.14850123
35	0x3cc53dd2	0.02407733
36	0xbddabbe1	-0.10680366
37	0xbea61b85	-0.3244287
38	0x3d79a4a5	0.060948033
39	0x3cbbe69d	0.022937113
40	0xbd2bc8fa	-0.041939713
41	0x3eaa5f49	0.33275822
42	0xbda90d0e	-0.08254443
43	0xbdcec36f	-0.1009587
44	0xbe1ec618	-0.15505254
45	0xbe91d09f	-0.28479478
46	0xbe8ef652	-0.27922302
47	0xbdf5a743	-0.11994793
48	0x3d9045b7	0.07044547
49	0x3e17ce2d	0.14824744
50	0xbe88690c	-0.26642644
51	0xbd135dbc	-0.035978064
52	0x3c198a7f	0.009371399
53	0xbd70f47c	-0.05882691
54	0x3e890eee	0.26769203
55	0xbd555ab9	-0.052088473
56	0xbcf559d7	-0.029950066
57	0xbbf87b42	-0.007583053
58	0xbc92baea	-0.017911393
59	0xbd0525dd	-0.032506812
60	0x3e3847cf	0.17996143
61	0xbee0535f	-0.43813607
62	0x3d888918	0.066667736
63	0xbedd26fe	-0.4319381
64	0xbe5f8704	-0.21828848
65	0xbe159146	-0.14606199
66	0x3dec2185	0.11529831
67	0xbd3f6e3e	-0.046735995
68	0x3e2361fb	0.15955345
69	0xbc3e766b	-0.011624913
70	0xbe074e91	-0.13213564
71	0x3d0077b0	0.031364143
72	0x3d880460	0.066414595
73	0xbddb4a8a	-0.107075766
74	0x3ea19687	0.31560156
75	0xbeab16d9	-0.3341587
76	0xbe21ee44	-0.15813547
77	0x3e4f9c64	0.20274502
78	0x3e0e4aca	0.13895717
79	0x3e7557e8	0.23959315
80	0xbe1f20df	-0.15539883
81	0x3e3ac399	0.18238677
82	0x3c8ffaab	0.017575582
83	0xbd479ea4	-0.048735276
84	0xbda97cc9	-0.08275754
85	0x3e13f2ad	0.14448042
86	0xbd6f0bee	-0.058360986
87	0xbd9d7e27	-0.07690077
88	0xbdf71721	-0.12064958
89	0xbc36f81a	-0.01116755
90	0x3e075726	0.13216838
91	0xbe05ee35	-0.1307915
92	0xbeff766f	-0.49895045
93	0x3d11af3e	0.035567515
94	0x3dfb41c5	0.12268404
95	0xbcdaf2be	-0.026727077
96	0xbe51bbe4	-0.20481831
97	0xbd69c611	-0.057073656
98	0x3dce3665	0.10068969
99	0xbd6c8f55	-0.05775388
100	0xbe8c5af3	-0.2741314
101	0xbe092c04	-0.13395697
102	0xbe200886	-0.15628251
103	0xbd0786a4	-0.033087388
104	0xbe2c667f	-0.16835974
105	0x3d6b97a7	0.057517674
106	0x3df3b31b	0.11899396
107	0xbd97e1be	-0.07416104
108	0x3dcaf34e	0.09909688
109	0xbd9af4ab	-0.07566198
110	0xbd2541d8	-0.040345997
111	0xbd880a4c	-0.06642589
112	0xbe295c74	-0.16539174
113	0xbd720609	-0.059087787
114	0x3d93e515	0.07221428
115	0xbd9bb7aa	-0.076033905
116	0xbd8e2c17	-0.06942003
117	0xbd7c9db6	-0.061673842
118	0xbd8ad7c0	-0.06779432
119	0x3df43c6c	0.11925587
120	0xbda2bd6c	-0.079462856
121	0xbe52fb32	-0.20603636
122	0x3e30d1b0	0.1726749
123	0x3e290e58	0.16509378
124	0xbd6ea599	-0.058263395
125	0xbf0e4664	-0.5557616
126	0xbe445a4f	-0.19175075
127	0xbdb90f43	-0.09036114
128	0xbe541016	-0.20709261
129	0x3da63a6a	0.0811661
130	0xbe11ff0c	-0.14257449
131	0x3c7e7f81	0.015533329
132	0xbdf813d9	-0.12113161
133	0xbe3f7de7	-0.18700372
134	0xbec2e747	-0.38067076
135	0xbd42786d	-0.04747813
136	0x3c1b7ed4	0.009490687
137	0xbe0b1086	-0.13580522
138	0x3d380085	0.04492237
139	0xbdae2d3c	-0.085047215
140	0x3e233361	0.15937568
141	0x3e1c62d4	0.15272075
142	0x3daf188c	0.08549604
143	0xbd573d35	-0.052548606
144	0x3ad10e1f	0.0015949643
145	0xbcde30ea	-0.027122933
146	0x3dea9581	0.11454297
147	0xbe4a9eae	-0.19787094
148	0xbd978d69	-0.07400019
149	0x3e618e93	0.22027044
150	0x3ac8e537	0.00153271
151	0xbe438e66	-0.1909729
152	0x3e385597	0.180014
153	0xbe54c98e	-0.20780012
154	0x3d9fd00a	0.07803352
155	0x3d16ab98	0.03678474
156	0xbd0b9675	-0.034079034
157	0xbcb335ac	-0.021876179
158	0x3dab4b37	0.083639555
159	0x3b0f84ac	0.0021899147
160	0x3df95cfa	0.12175937
161	0xbe1b569a	-0.15169755
162	0xbe3b0689	-0.18264212
163	0xbe5ed215	-0.21759827
164	0x3da462ef	0.080266826
165	0x3e09723f	0.13422488
166	0x3def9b1e	0.11699508
167	0x3de8fdb2	0.113765135
168	0xbd619a8d	-0.05507903
169	0xbda607e9	-0.081069775
170	0xbe1eed47	-0.15520202
171	0xbd8df2c1	-0.06931067
172	0xbe798b53	-0.24369554
173	0x3eb1e15c	0.34742248
174	0xbd4bd482	-0.04976321
175	0xbe97563d	-0.29557982
176	0x3e705d57	0.23473106
177	0xbce6a55c	-0.028155021
178	0xbd9e9361	-0.07742954
179	0xbec54ab9	-0.3853357
180	0xbe3db196	-0.18524775
181	0x3d86991f	0.06572174
182	0x3e1c5db0	0.15270114
183	0x3d9b8a7e	0.07594775
184	0xbd3f6701	-0.04672909
185	0xbefcc5a0	-0.49369526
186	0x3b8aaded	0.0042321594
187	0x3eb9c86a	0.36285716
188	0x3d959c5e	0.07305215
189	0x3d89eb61	0.06734348
190	0xbee38ac5	-0.4444181
191	0xbe80da75	-0.2516667
192	0xbe493402	-0.19648746
193	0xbe48e320	-0.19617891
194	0x3d078aac	0.033091232
195	0xbed8d9a0	-0.42353535
196	0xbe1898f8	-0.14902103
197	0x3ea04980	0.31306076
198	0xbc99d645	-0.01877893
199	0x3eabbec0	0.33543968
200	0x3e704ff4	0.23468
201	0xbdb9f063	-0.09079053
202	0xbd8f2a37	-0.06990474
203	0x3ed5f8cf	0.41791388
204	0x3c9c7ce5	0.019102523
205	0xbd755de3	-0.05990399
206	0x3e34cc55	0.17656071
207	0x3e2b39f9	0.16721334
208	0x3cf4c49e	0.02987891
209	0xbddea3ee	-0.10871111
210	0x3d34285e	0.04398381
211	0xbbbec07e	-0.0058212867
212	0x3ce18e8a	0.027533788
213	0xbeb5afec	-0.3548578
214	0x3e7eae9d	0.24871297
215	0x3e519a43	0.20469002
216	0xbd7cb1c1	-0.061692957
217	0xbe17c80e	-0.14822409
218	0xbe336362	-0.1751838
219	0xbd5db8c1	-0.054131273
220	0x3d7ddcba	0.06197808
221	0x3d9a484e	0.07533322
222	0xbd7526f0	-0.059851587
223	0xbe48341b	-0.19551127
224	0x3df3e30d	0.11908541
225	0xbda9720e	-0.08273707
226	0xbda38999	-0.07985229
227	0xbe919e8b	-0.2844127
228	0x3e3885b2	0.1801975
229	0xbd659672	-0.05605168
230	0x3e5d3109	0.21600737
231	0xbe9b6af6	-0.30355042
232	0x3dc6ba56	0.097035095
233	0xbd91ddca	-0.07122381
234	0xbe1f71de	-0.1557078
235	0x3a0d55f2	0.000539153
236	0x3ce6a7be	0.028156158
237	0x3e9662d6	0.2937228
238	0xbe234aea	-0.15946546
239	0xbe26cda8	-0.16289389
240	0x3f051ffa	0.5200192
241	0x3e59b06b	0.21258704
242	0xbeaa2ef0	-0.33238935
243	0xbe90902f	-0.28235003
244	0xbe6d13bd	-0.23152061
245	0xbe1dd8b6	-0.154147
246	0x3d9ba42f	0.07599675
247	0xbcba5a22	-0.022748057
248	0xbd9c02de	-0.076177344
249	0x3e93291f	0.2874231
250	0xbdb42d04	-0.087976485
251	0x3e2d921e	0.1695027
252	0xbd99ac2b	-0.075035416
253	0xbea60581	-0.32426074
254	0xbe4064e7	-0.18788491
255	0x3ea5b9e0	0.32368374

linears.1.bias f4 [64]
0	0x3c63a767	0.013894892
1	0xbd7d4831	-0.061836425
2	0xbd7a117f	-0.06105184
3	0x3d83fc95	0.064446606
4	0xbe583475	-0.21113761
5	0xbd45a28c	-0.04825072
6	0x3ceafa31	0.028683754
7	0x3e609fd0	0.21935964
8	0x3e6d3781	0.23165704
9	0x3f3c5d54	0.7357991
10	0xbeb9354f	-0.36173484
11	0x3e354922	0.17703679
12	0xbd86ac47	-0.06575828
13	0xbe19c529	-0.15016617
14	0xbf052bc3	-0.520199
15	0x3e7d4da9	0.24736656
16	0x3c14a177	0.009071699
17	0x3f099f39	0.5375858
18	0xbe778f6d	-0.24175806
19	0x3e7e5ef1	0.24840905
20	0x3ed810f1	0.42200425
21	0x3df840ff	0.12121772
22	0x3e4d59b3	0.20053749
23	0x3e157bd1	0.14598013
24	0xbdbdd3a0	-0.0926888
25	0x3ec0c8cb	0.37653193
26	0x3ccdb4c3	0.025110608
27	0x3e426c57	0.18986641
28	0xbd337541	-0.043812994
29	0xbf0974c1	-0.5369378
30	0xbe255e20	-0.16149187
31	0x3e65716a	0.22406545
32	0xbc6d7757	-0.014493785
33	0x3cf3a680	0.02974248
34	0x3f627d15	0.8847211
35	0xbe2221e7	-0.15833245
36	0xbde6856b	-0.11255916
37	0x3f4e27a8	0.8052926
38	0xbe334c42	-0.17509559
39	0xbe0a3032	-0.13494948
40	0x3e0b1f4d	0.13586159
41	0xbde97323	-0.11398914
42	0x3f07154b	0.52766865
43	0xbdc0d488	-0.09415537
44	0x3ed061e0	0.40699673
45	0x3e33c7a6	0.17556629
46	0xbe25b475	-0.1618212
47	0x3f2caaf5	0.6744836
48	0xbd0f0392	-0.034915514
49	0xbe5b72cd	-0.21430512
50	0x3ed9e1ac	0.42554986
51	0x3e8dba0b	0.27681002
52	0x3f046024	0.517092
53	0x3e040860	0.1289382
54	0xbea4582c	-0.3209852
55	0xbe186680	-0.1488285
56	0x3dd6b562	0.10483815
57	0x3efba326	0.4914791
58	0xbddfbf8e	-0.10925208
59	0xbf024590	-0.50887394
60	0x3e44d226	0.1922079
61	0x3f491a34	0.7855561
62	0xbca17af8	-0.019711956
63	0x3cfbb255	0.030724684

linears.2.weight f4 [5, 64]
0	0xbe10cc25	-0.14140375
1	0xbcc627ee	-0.024188962
2	0xbd379430	-0.044819057
3	0x3dbdd38c	0.09268865
4	0xbdb8c165	-0.09021262
5	0x3c43241d	0.011910466
6	0xbc5d4d6a	-0.0135072265
7	0xbe2c65e5	-0.16835745
8	0x3b3aa824	0.0028481567
9	0xbedd70a0	-0.4324999
10	0xbda0a2c5	-0.07843546
11	0xbdcebd48	-0.10094696
12	0x3d3b0e55	0.045667965
13	0x3db28ac9	0.087178774
14	0x3cfdab58	0.030965492
15	0x3cda2a91	0.026631625
16	0xbdb7d452	-0.08976044
17	0xbe375ced	-0.17906542
18	0x3cf17e8e	0.029479291
19	0x3d389bac	0.045070335
20	0xbd06e6ae	-0.032934837
21	0xbe0efeed	-0.13964434
22	0x3ddd3987	0.10801988
23	0xbe1def9d	-0.15423436
24	0xbdec1ae3	-0.11528566
25	0xbd96c19b	-0.07361146
26	0xbc66ca1b	-0.014086272
27	0xbcaca52f	-0.02107486
28	0x3e154906	0.14578637
29	0xbd775526	-0.06038394
30	0xbe051df9	-0.12999715
31	0xbe7e0293	-0.2480567
32	0xbd28b413	-0.041187357
33	0xbd13089f	-0.035896894
34	0xbe2d6f8e	-0.16937086
35	0xbd045751	-0.032309834
36	0xbc75efee	-0.015010817
37	0xbe4d290f	-0.20035194
38	0xbc5325cc	-0.012887429
39	0xbe24bc9b	-0.16087572
40	0x3dffcd57	0.12490337
41	0x3dd2ffe4	0.103027135
42	0xbe92cb1a	-0.2867058
43	0xbd8271ab	-0.06369337
44	0xbd9ebda6	-0.07751016
45	0xbd29b7fe	-0.041435234
46	0xbdecc0a6	-0.11560182
47	0xbeb65fbb	-0.35619912
48	0xbdad9d0a	-0.084772184
49	0x3d9dab72	0.07698716
50	0xbe6bc1bb	-0.23023121
51	0xbea2e64e	-0.31816334
52	0xbdde6c7c	-0.108605355
53	0x3c1e2b57	0.009653888
54	0xbdae08a2	-0.0849774
55	0x3e1a5bc6	0.15074071
56	0xbc26537e	-0.010151742
57	0xbe2aec1c	-0.16691631
58	0xbde15859	-0.11003179
59	0xbce25c07	-0.027631773
60	0xbe956326	-0.29177207
61	0xbeb5477d	-0.35406104
62	0x3e982a1e	0.29719633
63	0xbd947a39	-0.072498746
64	0xbda0b8d4	-0.07847753
65	0x3d0a2be7	0.033733275
66	0xbcfb22c5	-0.030656228
67	0x3ba232f6	0.0049499227
68	0xbd909576	-0.070597574
69	0xbcfd0fd8	-0.030891344
70	0xbda9a7f2	-0.08283986
71	0xbe52f9c3	-0.20603089
72	0xbd9f738b	-0.0778571
73	0xbedfe309	-0.43727902
74	0x3cb44872	0.0220072
75	0xbda8e93f	-0.08247613
76	0x3c838693	0.01605538
77	0x3da69e78	0.08135694
78	0xbd303987	-0.043023612
79	0xbd38fe5f	-0.045164462
80	0xbbab29fd	-0.0052235113
81	0xbe47772a	-0.19479051
82	0x3c64f78e	0.013975037
83	0x3d1f21a9	0.03885046
84	0xbdbe5b36	-0.09294741
85	0xbe20cab9	-0.15702333
86	0xbce6c20a	-0.028168697
87	0xbdfedbe9	-0.12444288
88	0x3c8a3a69	0.016873555
89	0xbe170d38	-0.14751136
90	0xbd77ee90	-0.060530245
91	0xbe96f5fa	-0.2948454
92	0xbd85448d	-0.06507216
93	0x3cfa20bc	0.030533187
94	0xbe2d1d51	-0.16905715
95	0xbe9ba3f2	-0.30398518
96	0xbc81a5cf	-0.015826134
97	0xbddc94c2	-0.10770561
98	0xbe1f4805	-0.15554817
99	0x3d1fab10	0.038981497
100	0xbd5a8e07	-0.053358104
101	0xbe708389	-0.23487677
102	0x3d6d1ec2	0.05789066
103	0xbe5f3108	-0.21796048
104	0xbc22652c	-0.009911817
105	0x3d54e4f2	0.05197615
106	0xbe8af1e5	-0.27137676
107	0x3d94f4de	0.07273267
108	0xbe22f055	-0.15911992
109	0xbd89c32b	-0.067266785
110	0xbdc07d0a	-0.09398849
111	0xbec83260	-0.39100933
112	0x3b83315d	0.0040036873
113	0x3e450320	0.19239473
114	0xbe46529c	-0.1936745
115	0xbe2c0e28	-0.16802275
116	0xbd9fede1	-0.07809044
117	0xba769b5f	-0.00094073074
118	0xbe1032b8	-0.14081848
119	0x3d7fa3be	0.062412016
120	0x3cdb76c3	0.026790028
121	0xbe172103	-0.14758687
122	0xbe33531d	-0.17512174
123	0xbd3b15b7	-0.045675006
124	0xbde3f6f7	-0.11131089
125	0xbeaed7ba	-0.3414896
126	0x3e589c27	0.21153317
127	0xbcd671ec	-0.026177369
128	0xbd137521	-0.036000375
129	0xbd6e97b3	-0.05825014
130	0xbc2dae0e	-0.01060058
131	0x3cc27f4b	0.023742339
132	0xbdf74fc4	-0.12075761
133	0x3c4758b4	0.012167145
134	0x3b6353d8	0.0034687426
135	0xbe2b1d7b	-0.16710465
136	0x3c113997	0.008863828
137	0xbef6bc1b	-0.48190388
138	0xbd7db0c4	-0.061936155
139	0xbd1e8461	-0.038700465
140	0x3b6e8bc3	0.0036399222
141	0x3e14d040	0.14532566
142	0xbdf30772	-0.118666545
143	0xbd2c56a9	-0.042074833
144	0xbe5ab0d9	-0.21356525
145	0xbd17dac3	-0.03707386
146	0x3bf9f59a	0.007628155
147	0x3d0f25c9	0.034948144
148	0xbd7a30ef	-0.061081823
149	0xbe1183ae	-0.14210388
150	0x3dae48a5	0.085099496
151	0xbd8095c3	-0.06278565
152	0x3db01694	0.085980564
153	0xbdb5c880	-0.08876133
154	0x3ca5650a	0.02018978
155	0xbcbd101b	-0.023078969
156	0xbe1a2821	-0.1505437
157	0xbdb581c1	-0.08862639
158	0xbb16e3bd	-0.0023023926
159	0xbeae7765	-0.34075466
160	0xbbe1d6da	-0.0068920674
161	0xbddcbd59	-0.10778303
162	0xbe0266ec	-0.12734574
163	0xbd4878ee	-0.048943453
164	0xbb840d7b	-0.0040299273
165	0xbe95c9de	-0.29255575
166	0xbd470aa8	-0.048594147
167	0xbe2cab6a	-0.16862264
168	0x3da3fde5	0.08007411
169	0xbce9d672	-0.028544638
170	0xbe99f1ac	-0.30067194
171	0x3d5136d0	0.051077664
172	0xbdc31ec9	-0.09527356
173	0xbd497683	-0.049185287
174	0x3d17f08a	0.03709463
175	0xbecea46e	-0.40359825
176	0xba84060b	-0.0010072602
177	0x3ec02d4a	0.37534553
178	0xbe51540c	-0.20442218
179	0xbe355470	-0.17707992
180	0xbe6f7338	-0.23383796
181	0x3c368ec8	0.01114244
182	0xbbb21aad	-0.005435309
183	0x3e2ee1ca	0.17078319
184	0xbc88e586	-0.016711008
185	0xbe348d61	-0.17632057
186	0xbd83021f	-0.06396889
187	0xbe2527a2	-0.161284
188	0xbe2ebb85	-0.1706372
189	0xbe97e585	-0.29667297
190	0x3eab833a	0.33498555
191	0xbe7bf2f5	-0.246044
192	0xbddfb8c3	-0.109239124
193	0xbd23e61c	-0.04001437
194	0xbdbe2cb5	-0.09285871
195	0x3c1f18de	0.009710519
196	0xbd1e4bfe	-0.03864669
197	0xbe03bc4e	-0.12864801
198	0x3c36ecd7	0.011164865
199	0xbddfc13d	-0.10925529
200	0x3c721291	0.014774934
201	0xbf1412df	-0.57841295
202	0xbd8d998d	-0.06914053
203	0xbdd68ae9	-0.10475714
204	0xbc6907cf	-0.014223053
205	0x3bf5e593	0.007504174
206	0xbbbe003f	-0.005798369
207	0x3c2e3b09	0.010634192
208	0x3c9fa2e8	0.01948686
209	0xbdf60944	-0.12013486
210	0x3de3b0a4	0.11117676
211	0xbd154443	-0.036442053
212	0xbdc97a5c	-0.09837791
213	0xbe03febc	-0.12890142
214	0x3d965792	0.073409215
215	0xbd28b15a	-0.04118476
216	0x3cfe2513	0.031023538
217	0xbe067d51	-0.13133742
218	0xbdddfff2	-0.10839833
219	0x3d0bc26e	0.03412097
220	0x3dd917f9	0.106002755
221	0xbddbb30f	-0.10727512
222	0xbdf251c6	-0.11832003
223	0xbdce5172	-0.10074128
224	0x3a82070d	0.0009920314
225	0xbd85ae1a	-0.06527348
226	0xbe5fab10	-0.21842599
227	0xbd12735e	-0.035754554
228	0x3c2b8323	0.010468277
229	0xbe6ffc81	-0.23436166
230	0xbde6a91e	-0.11262725
231	0xbe5ff12e	-0.21869346
232	0xbd746fa5	-0.059676785
233	0xbde43915	-0.111437
234	0xbe81b5a5	-0.25333896
235	0x3dcbaf37	0.09945529
236	0xbdebdb92	-0.11516489
237	0xbe4c00e7	-0.19922219
238	0xbda275c4	-0.07932618
239	0xbec30c2c	-0.38095224
240	0x3c96113d	0.018318767
241	0x3d8091eb	0.06277832
242	0xbe4b8db8	-0.1987828
243	0xbe721277	-0.23639856
244	0xbe361103	-0.17779927
245	0xbc18cd1f	-0.009326248
246	0xbd3cd661	-0.046102885
247	0xbd0295f7	-0.0318813
248	0x3d358b2f	0.04432219
249	0xbe5a349f	-0.21309136
250	0xbe2658b8	-0.16244781
251	0xbdfa27ed	-0.122146465
252	0xbe089a63	-0.13340144
253	0xbe69bc2d	-0.2282569
254	0x3e8f6ea1	0.2801409
255	0xbd88f9ac	-0.06688246

linears.2.bias f4 [5]
0	0xbf64ca60	-0.893713
1	0xbf6b0523	-0.91804713
2	0xbf2caede	-0.67454326
3	0xbf8b2748	-1.0871363
4	0xbf9bf216	-1.2183254
